results/t9/Fork1/Fork1-118919.onnx (onnx, 331083 bytes, 6 tensors)

network_body.linear_encoder.seq_layers.0.weight f4 [256, 58]
0	0xbd93ecfa	-0.07222934
1	0xbaf70931	-0.0018847344
2	0x3d04ce34	0.032423213
3	0xbd116fea	-0.03550712
4	0xbe371637	-0.17879568
5	0xbde4141f	-0.1113665
6	0xbe2078eb	-0.15671127
7	0xbdfcbf16	-0.12341134
8	0x3dae13e3	0.08499887
9	0xbe08272f	-0.13296197
10	0xbe820e34	-0.2540146
11	0xbb8fc94d	-0.0043880106
12	0xbb615b26	-0.0034386604
13	0xbce727c2	-0.0282172
14	0xbe0a6ecc	-0.13518828
15	0x3d128f82	0.03578139
16	0x3e1ec3a5	0.1550432
17	0x3b2f2dfe	0.0026730294
18	0x3dd67948	0.10472351
19	0x3e8c5b9d	0.27413645
20	0x3df5b993	0.11998286
21	0xbc8d5ac2	-0.01725519
22	0x3dbd321b	0.092380725
23	0x3ea155ff	0.31510922
24	0xbdbbe4f2	-0.09174527
25	0xbe102852	-0.14077881
26	0x3dd79533	0.10526504
27	0xbd011415	-0.031513292
28	0x3d6a0d26	0.057141446
29	0xbe2a319d	-0.16620488
30	0xbd77b825	-0.06047835
31	0x3cdb6bdf	0.026784835
32	0x3e6b724c	0.2299282
33	0x3d897009	0.06710822
34	0x3dcf5d2e	0.101251945
35	0xbda80a98	-0.082051456
36	0xbe8619ab	-0.26191458
37	0x3d85e7f9	0.06538386
38	0xbe2b91dd	-0.16754861
39	0xbea3cfd1	-0.3199449
40	0x3da3efc3	0.08004715
41	0x3c8955d8	0.016764566
42	0xbe8b22ab	-0.27174887
43	0xbd1723d8	-0.036899418
44	0x3ec77a15	0.3896033
45	0x3e410f7c	0.18853563
46	0xbd9f6a16	-0.07783906
47	0x3d9ed94e	0.07756291
48	0xbd9b996a	-0.07597621
49	0x3d363482	0.04448367
50	0xbbd15fd8	-0.0063895993
51	0x3e0c776c	0.13717431
52	0xbd52eee3	-0.05149735
53	0xbd5d2fb8	-0.054000586
54	0xbe15b385	-0.14619263
55	0xbd1b24ce	-0.037876897
56	0xbe3f2644	-0.18666941
57	0xbd9d9af2	-0.07695569
58	0x3c8d9b7e	0.017286059
59	0xbde4d585	-0.11173538
60	0xbe618a32	-0.22025374
61	0x3dc93dc1	0.09826232
62	0xbb92b97a	-0.004477677
63	0xbdf97539	-0.121805616
64	0xbd1a688b	-0.037697356
65	0xbdce5989	-0.10075671
66	0x3d382cc2	0.04496456
67	0x3e59bc80	0.21263313
68	0xbe0b30f4	-0.13592893
69	0x3ca6f3a5	0.02037985
70	0x3b45509c	0.0030107861
71	0xbdd6637c	-0.10468194
72	0xbd644d17	-0.05573758
73	0xbc42d64d	-0.011891914
74	0x3e0f0b70	0.13969207
75	0x3da21534	0.079142004
76	0xbdf5f56b	-0.120097004
77	0x3dedb8f4	0.11607543
78	0x3ddb3dfe	0.107051834
79	0x3df148f2	0.11781491
80	0xbdda39e0	-0.1065557
81	0x3e49ec69	0.1971909
82	0x3c537eca	0.012908647
83	0x3cf96f57	0.030448599
84	0x3d8b1bf0	0.06792438
85	0x3d491dfc	0.04910086
86	0x3e10e94b	0.14151494
87	0xbe2b8f6d	-0.16753931
88	0x3dcfd41a	0.10147877
89	0xbd9bdffe	-0.076110825
90	0x3dbaf0cb	0.09127959
91	0xbcb1f100	-0.021721363
92	0xbe3099a1	-0.17246105
93	0xbd01ac09	-0.031658206
94	0x3b9bc45c	0.0047536325
95	0xbd7c9239	-0.061662886
96	0x3e9f5f41	0.3112736
97	0x3de1ff82	0.110350624
98	0x3d1d9425	0.03847136
99	0x3dc7d2bf	0.097569935
100	0xbe475163	-0.1946464
101	0xbd88a06b	-0.06671222
102	0x3d5158af	0.051109966
103	0xbdcf6aa0	-0.10127759
104	0xbdb88802	-0.090103164
105	0xbe0507ae	-0.12991211
106	0xbc52e86f	-0.012872799
107	0xbd75c3fd	-0.060001362
108	0xbeb2def2	-0.3493572
109	0xbce33c7a	-0.027738798
110	0x3c4715a4	0.012151156
111	0x3c8bf4af	0.017084448
112	0x3dae4b99	0.08510513
113	0xbe6d6c7f	-0.23185919
114	0x3d3934e2	0.04521645
115	0xbe75f051	-0.24017455
116	0x3d5b7aeb	0.05358402
117	0x3e1db3bb	0.15400593
118	0x3bf0d192	0.0073492015
119	0x3e1fc5c7	0.1560279
120	0xbea2b2bd	-0.3177699
121	0xbdde029a	-0.1084034
122	0x3d3150d2	0.043289967
123	0x3e3a1080	0.18170357
124	0xbe572ecd	-0.21013947
125	0x3d88ec25	0.06685666
126	0x3bc346dc	0.005959375
127	0x3e0ad8c7	0.13559256
128	0x3ea3cb9e	0.31991285
129	0xbe31362f	-0.17305826
130	0xbc8fb3ad	-0.01754173
131	0xbac9a8fb	-0.0015385443
132	0x3e2fb912	0.17160442
133	0xbdcd32f2	-0.10019483
134	0xbecdb540	-0.40177345
135	0xbd0e8e48	-0.03480366
136	0xbe266fb2	-0.16253546
137	0x3d30e972	0.04319138
138	0xbe6adeb5	-0.22936518
139	0x3c9012b7	0.017587049
140	0x3d9951e0	0.074863195
141	0x3e6199ff	0.22031401
142	0xbe87994b	-0.2648414
143	0x3d810488	0.062996924
144	0x3ddedbd8	0.108817756
145	0x3e29688c	0.16543788
146	0xbd378a3a	-0.044809557
147	0x3eb4404b	0.35205302
148	0xbc09905a	-0.0083962325
149	0xbe4cae15	-0.19988282
150	0x3c9c14f5	0.019052962
151	0xbe242f06	-0.16033563
152	0xbe7308d5	-0.23733838
153	0xbdd937d2	-0.1060635
154	0x3e04740f	0.12934898
155	0x3c8bc834	0.017063238
156	0xbcc3344a	-0.023828644
157	0x3db022ea	0.08600409
158	0x3e487f0f	0.19579719
159	0x3d9a21b2	0.07525958
160	0xbe4901d0	-0.19629598
161	0xbe98ec4e	-0.29867786
162	0xbe1800e7	-0.14844094
163	0x3ddea2b7	0.10870879
164	0x3ea0cda7	0.314069
165	0x3e0aaf40	0.13543415
166	0x3e29c55a	0.1657919
167	0xbe122bbd	-0.14274497
168	0x3e23d400	0.1599884
169	0xbd44635b	-0.047946315
170	0xbdbff4ae	-0.09372841
171	0xbe5fc190	-0.21851182
172	0x3e5fa683	0.21840863
173	0xbe2b182a	-0.16708437
174	0xbdd8fdac	-0.10595259
175	0x3e82d161	0.25550368
176	0xbcf77f04	-0.030211933
177	0xbdab7d0b	-0.083734594
178	0x3e020b0b	0.12699525
179	0x3d095144	0.033524767
180	0x3dd50e63	0.10403135
181	0xba3dd75c	-0.0007241869
182	0xbd97516b	-0.07388576
183	0x3e825bf4	0.2546078
184	0xbbcd5490	-0.006266184
185	0x3d981520	0.07425904
186	0xbdd9748b	-0.10617932
187	0x3d872070	0.06597984
188	0xbde72c32	-0.112877265
189	0xbd4c84b6	-0.04993125
190	0x3e130722	0.1435819
191	0xbc6295b1	-0.0138296345
192	0x3cb9df3d	0.022689456
193	0x3d192bbc	0.037395224
194	0xbdfb0bda	-0.1225812
195	0xbd06fec2	-0.0329578
196	0xbc5b651c	-0.013390806
197	0x3dcc3e2b	0.09972795
198	0xbdee95fb	-0.116497
199	0x3e742b78	0.23844707
200	0xbe554982	-0.20828822
201	0xbca2f844	-0.019893773
202	0xbe5f40a1	-0.21801998
203	0x3e3b9c6b	0.18321387
204	0xbe26d3e4	-0.16291767
205	0x3de99df8	0.11407083
206	0xbe00f0da	-0.12591878
207	0x3d87ecf5	0.06636993
208	0x3dac1670	0.08402717
209	0x3dc9c51e	0.0985205
210	0xbdd264ea	-0.10273154
211	0xbe273ebb	-0.16332524
212	0x3d3ab5a9	0.0455834
213	0xbe37dbfd	-0.17955013
214	0xbbf772d4	-0.0075515304
215	0xbe35e54d	-0.17763253
216	0xbdcd9848	-0.10038811
217	0x3d8df0ec	0.06930718
218	0xbe3f9881	-0.1871052
219	0x3e42b1f6	0.19013199
220	0xbc8490fc	-0.016182415
221	0xb997a42d	-0.00028923285
222	0x3e2ef8cc	0.17087096
223	0x3e06c110	0.13159585
224	0xbdf3b044	-0.118988544
225	0xbc324b09	-0.010882148
226	0x3dd8d7b8	0.1058802
227	0xbc2c5543	-0.010518375
228	0xbe44a1c3	-0.19202332
229	0xbe1e5bea	-0.1546475
230	0xbd815b23	-0.06316211
231	0xbe303685	-0.17208298
232	0x3e2ea8e5	0.17056616
233	0x3e5cf103	0.21576314
234	0x3db5997a	0.08867164
235	0x3a21a979	0.0006166916
236	0x3dce58b3	0.10075512
237	0xbea20cb6	-0.31650323
238	0xbda61b04	-0.081106216
239	0x3e05b30d	0.13056584
240	0x3d93bf9f	0.07214283
241	0x3dae1ccb	0.085015856
242	0x3da1ef74	0.07907
243	0xbe13b16a	-0.14423147
244	0x3beb3763	0.0071782335
245	0x3a88598e	0.0010402666
246	0x3dff6953	0.12471261
247	0x3e16ed5a	0.1473898
248	0x3e35d72c	0.17757863
249	0x3e39dadc	0.18149894
250	0xbdd7de48	-0.10540444
251	0x3cc935ed	0.024561847
252	0x3da845d9	0.082164474
253	0xbcd416d0	-0.025889784
254	0xbe5a463c	-0.21315855
255	0xbe000bf9	-0.12504567

network_body.linear_encoder.seq_layers.0.bias f4 [256]
0	0xbbfd34ef	-0.0077272574
1	0x3c122f92	0.008922474
2	0x3d026130	0.031830966
3	0x3d0be15d	0.03415047
4	0x399c7c67	0.00029847326
5	0x3cbf9bbc	0.02338969
6	0x3c971080	0.018440485
7	0x3c6e428e	0.014542235
8	0x3c85ec8c	0.016348146
9	0xbcb1157b	-0.021616688
10	0x3afd86a3	0.0019342493
11	0x3cd0b486	0.025476705
12	0x3cb14a6a	0.021641929
13	0x3cc94b88	0.024572149
14	0x3c85873a	0.016299833
15	0x3c52cf99	0.012866878
16	0x3cc11b62	0.023572627
17	0xbbd1f159	-0.0064069447
18	0xbc56ce82	-0.013110759
19	0xbb2c8002	-0.0026321416
20	0xb9d44fb4	-0.00040495174
21	0xbc67fd69	-0.014159539
22	0x3ca0ca50	0.01962772
23	0x3bb14e16	0.00541092
24	0xbca5fb0a	-0.020261306
25	0xbbb5559c	-0.005533887
26	0xbc660e6e	-0.014041526
27	0xbc8947f8	-0.01675795
28	0xbbd7cde4	-0.0065858234
29	0x3cc8079e	0.024417695
30	0xbc09f049	-0.008419105
31	0xbce88b7c	-0.028386824
32	0x3b647cdd	0.0034864463
33	0x3ce35790	0.027751714
34	0x3bcc8d47	0.0062424275
35	0x3bb0ef84	0.0053996462
36	0xbd2be48b	-0.041966002
37	0x3c2804ba	0.010255033
38	0xbc0f123e	-0.008732377
39	0x3aa682da	0.0012703792
40	0xbc86d7ae	-0.016460266
41	0xbb004635	-0.0019573097
42	0xbc22bc1b	-0.009932543
43	0xbccafa31	-0.024777504
44	0xbc649623	-0.013951811
45	0xbb147918	-0.0022655185
46	0x3c5f3477	0.013623348
47	0x3c01897f	0.007906317
48	0x3cd85915	0.026409665
49	0x3d087b30	0.033320606
50	0x3cdaa558	0.02669017
51	0xbbea06ed	-0.007141939
52	0x3c8705d4	0.016482271
53	0xbaf9e98f	-0.0019066798
54	0x3c3f5238	0.011677317
55	0x3c938f0b	0.018012544
56	0x3c3a30f2	0.011364209
57	0x3caa5d70	0.020796508
58	0x3b32b3e9	0.002726788
59	0x3cf9ec95	0.030508319
60	0x3cbcae81	0.023032429
61	0xbaa185a7	-0.0012323157
62	0x3d11b6c0	0.035574675
63	0x3c83378f	0.016017703
64	0x3b02df6e	0.00199696
65	0x3c4bff61	0.012451024
66	0x3c1acb8b	0.0094479425
67	0x3854e244	5.0755465e-05
68	0x3c5fd6b9	0.013662034
69	0x3c906a68	0.017628863
70	0xbbf93659	-0.0076053557
71	0x3cc2f057	0.023796244
72	0x3c01a5c8	0.0079130605
73	0x3c6e8374	0.014557708
74	0x3cc20d18	0.023687884
75	0x3ba7136c	0.005098751
76	0x3cbf4b72	0.023351405
77	0x3c428d2c	0.011874478
78	0x3cb2894d	0.021793986
79	0x3ab2db8d	0.0013645753
80	0x3c8e93b4	0.017404415
81	0x3cab2d5c	0.020895652
82	0xb8566c71	-5.112257e-05
83	0xbc32e659	-0.010919177
84	0x3bcb9bdf	0.0062136496
85	0x3bbf278b	0.0058335713
86	0x3c0ccefc	0.008594271
87	0xbc11183d	-0.0088558765
88	0x3c4d9c08	0.012549408
89	0x3c34f65a	0.011045063
90	0xbb1e0d1b	-0.0024116698
91	0x3c40e231	0.011772678
92	0xbb2cd826	-0.0026373952
93	0x3b88a7c7	0.0041703912
94	0x3c906a9d	0.017628962
95	0x3c3f9ade	0.011694638
96	0x3b532681	0.0032218995
97	0x3c2ae741	0.010431112
98	0x3bdacecb	0.0066774837
99	0x3c7bb960	0.015364021
100	0xbd1a2b2a	-0.03763882
101	0x3c7c1dfd	0.015388009
102	0xbc539461	-0.012913794
103	0xbbe696be	-0.007037013
104	0x3ca0cc04	0.019628532
105	0xb940a3f9	-0.00018371631
106	0x3c2f6431	0.01070504
107	0xbc85317e	-0.016258951
108	0x3b029542	0.001992539
109	0x3cd7b4f5	0.026331404
110	0x3cd9ddb0	0.026594967
111	0x3a9106ea	0.0011064683
112	0x3cc667ea	0.024219472
113	0x3ba9133a	0.0051597627
114	0xbc98f9df	-0.018673835
115	0x3c3cda0a	0.011526594
116	0xbb8f8d18	-0.0043808334
117	0x3d011a52	0.03151924
118	0xbabba470	-0.0014315974
119	0x3c39d2a1	0.011341722
120	0xbbebb3a8	-0.0071930476
121	0x3c796738	0.015222363
122	0x3bf237d6	0.00739191
123	0x3b4bb61a	0.0031083883
124	0x3d0362cc	0.032076642
125	0x3c690a8c	0.014223706
126	0x3baa9737	0.0052060145
127	0xbcf07568	-0.029352859
128	0xbc5b1b04	-0.01337314
129	0x3c3204a0	0.0108653605
130	0x3ca8b7c7	0.020595444
131	0x3c88a110	0.016678363
132	0x3ba0abfb	0.004903314
133	0x3b32bb08	0.0027272124
134	0xbb0d6b06	-0.0021578684
135	0xbc396bfc	-0.011317249
136	0xbb18b473	-0.0023300915
137	0x3bc83071	0.0061092903
138	0x3bb09b86	0.0053896336
139	0x3b00d310	0.0019657053
140	0x3bed5436	0.0072427047
141	0x3c66bb50	0.014082745
142	0x3bcf078c	0.0063180383
143	0xba47e372	-0.00076251396
144	0xbb2d73dd	-0.0026466765
145	0x3c01a494	0.007912774
146	0xbb230f91	-0.0024881104
147	0x39f6a927	0.00047046805
148	0x3b94ef3d	0.004545121
149	0x3bf56ffa	0.0074901553
150	0x3c1d483c	0.009599742
151	0x3b0841ad	0.00207911
152	0xbccd958e	-0.025095727
153	0xbbef8eca	-0.007310723
154	0x3a5c0521	0.0008393098
155	0xbc9b7770	-0.01897785
156	0xbaae9b56	-0.001332144
157	0xbbdca038	-0.0067329668
158	0xbc806628	-0.015673712
159	0x3bff257d	0.0077864514
160	0xbb5cb14f	-0.003367502
161	0xbbb20968	-0.00543325
162	0x3bf9736b	0.007612636
163	0x3c288456	0.010285458
164	0xbad19d8d	-0.0015992388
165	0x39caee8b	0.0003870617
166	0x3d52d712	0.05147464
167	0x3d0b9e85	0.034086723
168	0x3b602f5a	0.0034207911
169	0x3d0c0b20	0.034190297
170	0x3d1a42e4	0.037661448
171	0xbc3752be	-0.011189161
172	0xbb49aab8	-0.0030771922
173	0xbc654c79	-0.013995283
174	0x3c7ce6f4	0.015435923
175	0x3c98a957	0.018635435
176	0xbb61b35c	-0.0034439182
177	0x3d107c63	0.035274874
178	0x3a906aa6	0.0011018112
179	0x3d21eab5	0.039530475
180	0xbc0f98f2	-0.008764492
181	0x3be57a6c	0.007003119
182	0xbb980db3	-0.004640305
183	0x3c95964d	0.018260146
184	0xbbcaa752	-0.006184497
185	0xbccceaea	-0.02501436
186	0xbb0c7521	-0.002143212
187	0x3c835331	0.01603088
188	0x3b063523	0.002047845
189	0xbb1f09b6	-0.0024267263
190	0x3cbf4d24	0.023352213
191	0x3bb1e6ed	0.00542914
192	0xbc67cfb1	-0.014148639
193	0x3cdf9a53	0.027295267
194	0xbca45516	-0.020060103
195	0x3c61f1d2	0.013790565
196	0x3b986c74	0.0046516005
197	0xbc8af6c8	-0.016963378
198	0x3c4bf16d	0.012447697
199	0x3c133e8e	0.008987082
200	0x3ccd85e9	0.025088267
201	0x3bfc119e	0.00769253
202	0x3cbbabdc	0.022909097
203	0x3c0b9608	0.008519657
204	0xbb512de3	-0.003191822
205	0xbccdfec7	-0.025145901
206	0x3d0e2f59	0.034713123
207	0x3c0b3e89	0.008498796
208	0xbb5d60c1	-0.0033779594
209	0xbcf657da	-0.030071188
210	0x3c9b0ade	0.01892608
211	0xbccbe62b	-0.024890026
212	0x3c02baaf	0.007979079
213	0xbba92ea5	-0.005163031
214	0x3c4b8868	0.0124226585
215	0x3c2c7d6a	0.010527948
216	0x3c6bb6d2	0.0143868495
217	0x3c46c60a	0.012132177
218	0x3cd95fc0	0.026534915
219	0xbc00365b	-0.007825459
220	0x3d08987f	0.033348557
221	0x3a927cdb	0.0011176126
222	0x3ae235ea	0.0017258499
223	0xbcbc5385	-0.022989044
224	0xbb043276	-0.0020171679
225	0x3b1d6cf0	0.002402123
226	0x3cab6499	0.020921992
227	0x3c0a28b2	0.008432554
228	0x39e31a90	0.00043316605
229	0x3c748fbe	0.014926849
230	0x3c7bebd5	0.015376051
231	0x3c5bdea8	0.013419785
232	0x3c6cfc9f	0.014464526
233	0xbc4be9f2	-0.012445914
234	0x3b54da51	0.003247876
235	0xba2e4fef	-0.0006649484
236	0xbbb27e78	-0.005447205
237	0x3c824511	0.015902074
238	0x3c33a10f	0.010963692
239	0x3b4618c4	0.0030227164
240	0x3c16a515	0.009194632
241	0x3c68609d	0.014183191
242	0xbca916d7	-0.020640774
243	0xbc2ef349	-0.010678121
244	0x3c7f659d	0.015588191
245	0xbb12af07	-0.0022382156
246	0x3cab917f	0.020943401
247	0x3c3c2dc4	0.011485521
248	0xbc8e0203	-0.017334944
249	0xbc88b761	-0.016689004
250	0x3c012d71	0.007884369
251	0x3b9ff3ed	0.004881373
252	0xbbfa5971	-0.007640057
253	0x3c181477	0.009282223
254	0xbbfe64fc	-0.007763503
255	0x39e7e79f	0.00044232325

network_body.linear_encoder.seq_layers.2.weight f4 [256, 256]
0	0xbd987f77	-0.07446187
1	0xbd812c11	-0.06307233
2	0xbd206f18	-0.039168447
3	0x3d85f0b9	0.06540055
4	0x3dabcd9c	0.08388826
5	0x3d0ef539	0.03490183
6	0x3d432e83	0.04765178
7	0xbd073c3f	-0.03301644
8	0x3e0e81e8	0.13916743
9	0xbc0b36f6	-0.00849699
10	0xbc026de1	-0.0079607675
11	0xbccf8395	-0.025331298
12	0x3df0b43a	0.117531255
13	0xbcd774c5	-0.026300797
14	0x3c57f962	0.013182016
15	0x3dcd4518	0.10022944
16	0xbd565a10	-0.052331984
17	0x3d3d960c	0.046285674
18	0xbca6e18a	-0.020371217
19	0xbd152c26	-0.036419056
20	0xbd4853d6	-0.048908077
21	0x3dad4ded	0.08462129
22	0x3c0ffd6d	0.008788449
23	0x3c9f1a76	0.019421797
24	0x3d5ffc45	0.054683942
25	0xbd1d5f4c	-0.03842096
26	0x3da7a074	0.08184901
27	0x3d59ff5b	0.05322204
28	0xb96984fc	-0.00022270152
29	0xbd92bf4d	-0.07165394
30	0xbd4f13f5	-0.050556142
31	0xbae782e1	-0.0017662906
32	0x3d580cbc	0.05274652
33	0xbdbbe4f9	-0.091745324
34	0xbd6e2f41	-0.058150534
35	0xbc021872	-0.0079403985
36	0x3c2921fa	0.010323042
37	0xbce29441	-0.027658584
38	0x3d1667f2	0.036720224
39	0x3d31452a	0.04327885
40	0x3b9a5c20	0.004710689
41	0xbc3700f3	-0.01116966
42	0x3ce13ae7	0.027493907
43	0x3e0ce9e5	0.13761099
44	0xbd87fce6	-0.066400334
45	0xbbe783dd	-0.00706528
46	0x3d664091	0.05621392
47	0x3c8d928a	0.01728179
48	0x3d9aa006	0.07550053
49	0x3dc8902d	0.09793124
50	0xbd9a5103	-0.07534983
51	0x3d909f69	0.07061655
52	0xbd53780a	-0.05162815
53	0xbd828d9d	-0.06374667
54	0x3cb592ce	0.022164728
55	0x3afaa6ab	0.0019123157
56	0x3dd8e2ee	0.105901584
57	0x3dfaa1c6	0.12237887
58	0xbdb5dee3	-0.08880403
59	0x3d053084	0.03251697
60	0xbc5d1388	-0.013493426
61	0x3dc917ea	0.09819014
62	0xbd40df03	-0.04708768
63	0x3d12fb9a	0.035884477
64	0xbcbea797	-0.023273272
65	0x3d292ba5	0.04130139
66	0xbb923e22	-0.004462973
67	0xbb133eb2	-0.002246779
68	0xbca0a17c	-0.019608252
69	0x3dfc1932	0.12309493
70	0xbd22b809	-0.03972629
71	0x3dc6ffd2	0.097167626
72	0x3dfa48cf	0.122209184
73	0xbbea68b3	-0.0071535944
74	0x3da35a18	0.079761684
75	0x3d08eade	0.03342711
76	0xbdbbc635	-0.09168664
77	0x3dfe78b4	0.12425366
78	0xbd874e45	-0.066067256
79	0x3cbb604e	0.02287307
80	0x3c76cfcd	0.015064192
81	0x3d84501e	0.06460594
82	0xbdb0080f	-0.08595287
83	0xbd83a858	-0.064285934
84	0xbb917cdf	-0.0044399346
85	0x3ba864ae	0.005138955
86	0xbd8da970	-0.06917083
87	0x3c848f5f	0.016181646
88	0x3c5b473e	0.013383685
89	0x3bb62fc0	0.0055598915
90	0x3c6cfe3a	0.014464909
91	0xbc547476	-0.01296722
92	0xbcdd9eed	-0.02705332
93	0x3d39a829	0.045326386
94	0xbdc4b829	-0.09605438
95	0xbd072cdf	-0.033001777
96	0xba4ae9aa	-0.0007740507
97	0xbd0ffd8c	-0.03515391
98	0xbc3a810c	-0.011383306
99	0x3d5dbbcc	0.054134175
100	0x3c855778	0.01627706
101	0x3d78e77f	0.060767647
102	0xbccf7323	-0.025323456
103	0x3c102249	0.008797237
104	0x3c94943d	0.018137092
105	0xbaaa38ac	-0.001298686
106	0x3d65a760	0.056067824
107	0xbda0714a	-0.07834108
108	0xbda2b32d	-0.07944331
109	0xbdef039c	-0.1167061
110	0x3d860c5c	0.06545326
111	0x3b7916f9	0.0038008078
112	0xbd0b9c3a	-0.034084536
113	0xbbf5eee2	-0.0075052837
114	0x3e20d787	0.15707217
115	0xbd81b2a3	-0.063329004
116	0xbd40ceae	-0.047072105
117	0x3d4eef8f	0.05052143
118	0x3d3ff537	0.046864714
119	0x3d080339	0.0332062
120	0x3d8e4be6	0.0694807
121	0x3d8c9f53	0.06866326
122	0x3c33a4e8	0.01096461
123	0x3cbd9122	0.023140494
124	0x3ce89940	0.028393388
125	0xbd26ee97	-0.04075488
126	0xbe14d873	-0.14535694
127	0xbcfc5b37	-0.030805213
128	0xbdb2685c	-0.08711311
129	0xbbc80fae	-0.006105385
130	0x3d2d3d32	0.04229469
131	0x3c44a3a5	0.0120019065
132	0x3d72ec90	0.059307635
133	0xbc9d49dc	-0.019200258
134	0x3d07a398	0.033115
135	0x3dd7d6ba	0.10539003
136	0x3d99d91c	0.075121135
137	0x3cdde78e	0.027087953
138	0x3cefd0af	0.029274313
139	0x3d78f8df	0.060784217
140	0x3dc3fe98	0.09570044
141	0x3c559111	0.013035075
142	0xbd9f0c0d	-0.077659704
143	0x3da539db	0.08067676
144	0x3d7f53eb	0.06233589
145	0xbd34be1f	-0.044126626
146	0x3d010197	0.031495657
147	0x3d159ca2	0.03652633
148	0xbd183296	-0.037157618
149	0x3dabb484	0.0838404
150	0xbd245983	-0.040124428
151	0x3d05d981	0.03267813
152	0xbc1afde8	-0.00945995
153	0x3d8582e5	0.06519107
154	0xbce885ff	-0.028384207
155	0x3d1c2263	0.03811873
156	0x3cdc09dc	0.02686017
157	0x3cfbdbe1	0.030744495
158	0xbcb6d69a	-0.022319127
159	0xbdade1ed	-0.084903575
160	0x3df5cefa	0.12002368
161	0x3be9a62e	0.007130406
162	0xbc3d543b	-0.011555727
163	0x3d3a6326	0.04550471
164	0x3e0b04a0	0.13575983
165	0x3d4cf209	0.05003551
166	0xbe023a08	-0.1271745
167	0xbdab5645	-0.08366064
168	0x3d8f1ef0	0.06988323
169	0x3d62be94	0.05535753
170	0x3d668285	0.056276817
171	0x3e11b8ad	0.14230604
172	0xbd89550e	-0.06705676
173	0xbc7f0fb8	-0.0155677125
174	0xbd92a6ec	-0.07160744
175	0x3d0645af	0.0327813
176	0xbd142941	-0.036172155
177	0xbd7940c7	-0.060852792
178	0x3d8a32d1	0.06747974
179	0xbd73bde3	-0.059507262
180	0x3b937658	0.0045001917
181	0x3cb2f6f2	0.021846268
182	0x3d83fe09	0.06444938
183	0xbdc6e134	-0.09710923
184	0x3d020543	0.0317433
185	0x3db04835	0.086075224
186	0xbdad36d4	-0.08457723
187	0x3d2fa03e	0.04287743
188	0xbd57fadf	-0.052729484
189	0xbda5e2a1	-0.08099867
190	0x3ce00c08	0.027349487
191	0xbc866702	-0.01640654
192	0xbda12584	-0.07868484
193	0xbd46b03f	-0.048507925
194	0x3d683e1c	0.056699857
195	0x3d9a0473	0.0752038
196	0x3d05aa41	0.03263307
197	0x3daf54be	0.08561085
198	0x3cbeb586	0.023279916
199	0x3b915771	0.0044354727
200	0x3df212c9	0.11819989
201	0xbd0c162f	-0.034200843
202	0x3d1931aa	0.03740088
203	0xbd4f705f	-0.050644275
204	0x3d46bd80	0.048520565
205	0x3c204be0	0.009783715
206	0x3d447f0f	0.047972735
207	0xbe0cbef8	-0.13744724
208	0xbc59bb71	-0.013289318
209	0xbd2af10a	-0.04173378
210	0xbc4a785e	-0.012357799
211	0x3a36c75c	0.0006972456
212	0xbd614a3a	-0.05500243
213	0xbc5ff369	-0.013668873
214	0xbdc488ef	-0.095964305
215	0x3c1f9bb3	0.009741711
216	0xbe03af13	-0.12859754
217	0x3d4bf90a	0.04979805
218	0xbca83632	-0.020533655
219	0xbda37c4a	-0.07982691
220	0x3c569308	0.013096578
221	0x3c7b25f5	0.015328874
222	0xbc7105bb	-0.014710839
223	0x3e1a6510	0.15077615
224	0xbd8c4298	-0.06848639
225	0x3d862c83	0.06551459
226	0x3ba1aaae	0.0049336767
227	0x3d8b0593	0.067881726
228	0x3c3490bc	0.0110208355
229	0x3c2b3244	0.010448996
230	0xbdecdd0a	-0.11565597
231	0xbdfd70a8	-0.12375003
232	0xbd9ef0be	-0.07760762
233	0xbd2f2991	-0.04276425
234	0x3bcc12e6	0.006227839
235	0x3e26da14	0.16294128
236	0x3daacce5	0.08339862
237	0x3d33359c	0.043752298
238	0x3c01a250	0.0079122335
239	0x3d8286be	0.06373356
240	0xbcc32429	-0.023820953
241	0x3d8da537	0.06916278
242	0xbcbb6d2e	-0.02287921
243	0xbdc897c4	-0.09794572
244	0xbda94efd	-0.08267019
245	0xbc42abb1	-0.011881755
246	0xbcf82a3e	-0.03029358
247	0x3c7444a5	0.014908944
248	0x3cc52194	0.024063863
249	0xbbc7a7e5	-0.0060930126
250	0xbdf22047	-0.11822563
251	0xbdb91b08	-0.09038359
252	0xbcb620de	-0.02223247
253	0x3da50730	0.080580115
254	0x3d8789fb	0.066181146
255	0xbd746522	-0.05966676

network_body.linear_encoder.seq_layers.2.bias f4 [256]
0	0xbc0274bd	-0.007962403
1	0xbbfab04e	-0.0076504117
2	0x3a7cb6f6	0.00096403004
3	0xbc55591f	-0.013021736
4	0xba7429e5	-0.0009314104
5	0x39886f5c	0.0002602291
6	0xbc0eb1ef	-0.008709415
7	0x3c9fb41a	0.019495059
8	0x3b275ed8	0.002553871
9	0xbc60d3a4	-0.013722334
10	0xbc8aeef5	-0.016959647
11	0x3c303e44	0.010757033
12	0x3c5af068	0.013362981
13	0xbb05641d	-0.0020353862
14	0xbb336e0b	-0.0027378823
15	0xbc1102f8	-0.008850805
16	0x3cc173d1	0.023614796
17	0x3bcf475b	0.006325645
18	0xbc106aec	-0.008814555
19	0x3b7c6124	0.0038510049
20	0x3cd30768	0.025760368
21	0x3a205176	0.0006115654
22	0xbca736a2	-0.020411793
23	0x3c8da886	0.017292272
24	0x3c77361c	0.015088584
25	0xbb95eade	-0.0045751175
26	0x3c1da169	0.009621003
27	0x3b8de625	0.004330414
28	0x3b929b91	0.0044741114
29	0x3c9125a2	0.01771814
30	0x3acd362f	0.0015656407
31	0x3bd1d252	0.006403246
32	0x3c006dab	0.007838647
33	0x3c23c7b6	0.009996345
34	0xbbc0bdd6	-0.005882005
35	0x3cd9ef84	0.026603468
36	0x3c0f462f	0.00874476
37	0x3c3d1d87	0.011542684
38	0xbc8eda72	-0.017438147
39	0x3cb8feae	0.022582378
40	0x3c449107	0.011997468
41	0x3c8c3317	0.017114205
42	0x3cbe03e2	0.02319521
43	0xbc067b80	-0.008208156
44	0x3cc9e344	0.024644502
45	0x3c182000	0.009284973
46	0x3c6bf217	0.01440098
47	0x3aa96847	0.0012924754
48	0x3b9e9e98	0.004840683
49	0x39d2e827	0.00040227288
50	0x3bffc398	0.007805299
51	0x3b6eaf96	0.0036420575
52	0xbb8de4ae	-0.0043302393
53	0x3d133db4	0.035947517
54	0x3b34976a	0.002755607
55	0x3c87d530	0.016581148
56	0xbc7664d1	-0.015038685
57	0x3bc890df	0.0061207856
58	0x3c15ddda	0.009147132
59	0x3b837af4	0.00401246
60	0xbc7e4460	-0.015519232
61	0x3c4045fe	0.011735437
62	0x3cea5fad	0.028610075
63	0xbb1323d4	-0.0022451775
64	0xbc2d1bc8	-0.010565706
65	0xbb8023ff	-0.003910541
66	0xbc1e5897	-0.009664676
67	0x3b82e499	0.003994536
68	0x3acaf08e	0.0015483068
69	0x3b4df97c	0.0031429222
70	0x3c48c5dd	0.0122542055
71	0x3d02cbb9	0.031932566
72	0xbc66dd21	-0.014090807
73	0xbca84552	-0.020540867
74	0x3d230db4	0.03980799
75	0x3cc32968	0.023823455
76	0x3be67de1	0.007034049
77	0x3b6d1f88	0.0036182124
78	0x3cbd435c	0.023103409
79	0xbc0ad7bd	-0.008474288
80	0x3bd2d9d5	0.006434659
81	0x3c81dd4f	0.015852598
82	0x3a9a8ce6	0.0011791259
83	0xbc145072	-0.009052383
84	0x3c3839e5	0.011244272
85	0x3c0f13cf	0.00873275
86	0x3c984362	0.018586818
87	0x3c035d89	0.008017906
88	0xbc43df0f	-0.011955037
89	0x3ba478ba	0.0050192745
90	0x3c963854	0.018337406
91	0x3ae8a80d	0.0017750278
92	0x3c2cdfcc	0.010551404
93	0x3c87c2e5	0.016572425
94	0x3c29e012	0.010368364
95	0xbbb26755	-0.005444447
96	0xbb3153ae	-0.0027057934
97	0x3b8c3fb3	0.0042800545
98	0x3c18a0a7	0.009315646
99	0x3c5732ce	0.013134671
100	0xbc398787	-0.011323816
101	0x3c8ccc06	0.01718713
102	0x3aa84c0c	0.0012840047
103	0x3bcc416a	0.006233384
104	0xbbf6d481	-0.0075326567
105	0x3bba4a30	0.0056851134
106	0x3bef9efa	0.0073126527
107	0x3c491e85	0.012275343
108	0xbc54c4b3	-0.01298635
109	0x3c330b09	0.010927924
110	0x3cafa4c3	0.02144087
111	0x3b34063f	0.0027469543
112	0xbc0fb34c	-0.008770775
113	0xbc2224cc	-0.009896468
114	0x3ca00999	0.019535827
115	0x3c0c2ce2	0.008555623
116	0xbb765f76	-0.003759352
117	0x3c6826f6	0.014169445
118	0xbb3fede7	-0.0029286088
119	0x3a64ef83	0.00087332
120	0xbb277406	-0.0025551333
121	0x3c6ad1c0	0.014332235
122	0x3aae39db	0.0013292389
123	0x3c078261	0.008270831
124	0x3b0a0a64	0.0021063322
125	0xb9cb5540	-0.00038782693
126	0x3c92efc4	0.017936595
127	0x3c0d94da	0.008641446
128	0x3c5708de	0.013124673
129	0xbb94ea5f	-0.004544541
130	0xbc177be8	-0.00924585
131	0x3ba1f878	0.00494295
132	0x3aa9f4b4	0.0012966604
133	0x3b26cf41	0.0025453123
134	0xbc03b9bf	-0.008039891
135	0x3c60d880	0.013723493
136	0x3c9e1a16	0.019299548
137	0x3949556a	0.00019200673
138	0xbaa65788	-0.0012690881
139	0xbc81f8e3	-0.015865749
140	0x3cc16781	0.023608925
141	0x3c35b13f	0.011089622
142	0xbbca3015	-0.0061702826
143	0xba3d3e68	-0.0007219077
144	0xbbd6bfdb	-0.0065536327
145	0x3bd8ddc2	0.0066182325
146	0x3b93b9bb	0.004508225
147	0x3c6234bf	0.013806521
148	0x3b61ec61	0.0034473168
149	0x3c8e86e7	0.01739831
150	0x3c2b22f9	0.01044535
151	0x3c5534e1	0.013013096
152	0x3c74ea07	0.014948375
153	0x3ccd96f9	0.025096403
154	0xba5919a5	-0.00082817144
155	0x3d21a594	0.03946455
156	0x3c32f470	0.010922536
157	0x3bd2fa09	0.006438498
158	0x3cfa305d	0.03054064
159	0x3c4594ec	0.0120594315
160	0x3c64503f	0.013935148
161	0x3c87f041	0.016594054
162	0x3cb70cbe	0.022344943
163	0xbbd78dd6	-0.0065781875
164	0xbbebd8d5	-0.0071974793
165	0x3c5059bc	0.012716707
166	0xbc123455	-0.00892361
167	0x3bada40c	0.005299097
168	0x3c68cafc	0.0142085515
169	0x3ac06ac0	0.0014680251
170	0x3bcb09cd	0.0061962367
171	0xbc307c46	-0.010771817
172	0x3c8e52bc	0.017373435
173	0x3a4cce69	0.000781274
174	0xbc4663b8	-0.012108736
175	0xbc5842f5	-0.013199558
176	0xbc75ab90	-0.014994517
177	0x3ae56a42	0.0017502981
178	0x3c8995b8	0.016795024
179	0x3cd022c9	0.025407212
180	0xbc6e1bc5	-0.014532988
181	0xbc4cb830	-0.012495086
182	0x38ee14a1	0.00011352567
183	0x3c1850d7	0.0092966175
184	0x3ac47248	0.0014987672
185	0x3b506bba	0.0031802491
186	0x3b50eca3	0.0031879328
187	0x3c529555	0.012852986
188	0xbb8026f8	-0.0039108954
189	0xbc7466fb	-0.014917131
190	0x3a47acc4	0.00076169916
191	0x3b68a4f9	0.0035498722
192	0xbb641e75	-0.0034808193
193	0x3b60e721	0.003431745
194	0xbb065930	-0.0020499937
195	0x3c33371c	0.010938432
196	0xbc18fd2b	-0.009337704
197	0x3c7fc6d9	0.015611374
198	0x3c41e58f	0.011834516
199	0x3c844ef5	0.01615093
200	0x3a88653d	0.0010406148
201	0x3c189b79	0.009314411
202	0x3cb09491	0.021555217
203	0x3cf54919	0.029942082
204	0x3c28f421	0.010312111
205	0x3b04ab06	0.002024354
206	0x3cc8df3e	0.024520513
207	0x3a057975	0.0005091646
208	0x3bb214d7	0.005434613
209	0x3b75126e	0.0037395018
210	0x3c4569a2	0.012049111
211	0x3b1fc850	0.002438087
212	0x3c1a3fa5	0.009414588
213	0x3c146b55	0.009058793
214	0x3b8eee1e	0.004361882
215	0xbc68f81c	-0.01421931
216	0x3b41d737	0.002957774
217	0x3c82578d	0.015910888
218	0x3c1808c2	0.009279432
219	0x3c2c0497	0.010499141
220	0x3c616a25	0.013758217
221	0x3cb58ffd	0.022163386
222	0x3ca71599	0.02039604
223	0x3bd265ab	0.006420811
224	0xbc6e3766	-0.014539575
225	0x3b98d95e	0.004664584
226	0x3c78ecdd	0.015193191
227	0xbb8f4f7e	-0.00437349
228	0xbc8aaaf8	-0.016927227
229	0x3c6a333c	0.014294442
230	0x3bc8a98b	0.0061237267
231	0xbb2cc8fd	-0.0026364916
232	0xbc6ec25f	-0.014572709
233	0x3cd65492	0.026163373
234	0x3ba9cb35	0.005181695
235	0x3c948e5d	0.01813429
236	0x3c8331b5	0.016014913
237	0x3ba451dd	0.0050146417
238	0x3b7cc4dc	0.0038569486
239	0x3c08c4ac	0.0083476715
240	0x3c64aee3	0.013957712
241	0x3b93d11b	0.0045110113
242	0x3b9d9eb4	0.0048101787
243	0x3c0fca5f	0.008776276
244	0xbc99451f	-0.018709717
245	0x3be93e3b	0.007118014
246	0x3bbc6f0b	0.005750542
247	0x3c853ea1	0.016265215
248	0xbc8b02be	-0.016969081
249	0x3c2c03de	0.010498969
250	0x3c965e55	0.018355528
251	0x3c5112cf	0.012760832
252	0x3ca766ce	0.020434763
253	0x3c8de788	0.017322317
254	0x3d0edea6	0.034880303
255	0x3cb61c68	0.022230342

action_model._discrete_distribution.branches.0.weight f4 [5, 256]
0	0x3c997a58	0.018735096
1	0xbc97d07f	-0.018532036
2	0x3cf3b617	0.029749913
3	0x3caa668c	0.020800851
4	0xbbe4f373	-0.006987029
5	0x3c5b5d42	0.013388934
6	0x3cb59316	0.022164863
7	0xbcb87c72	-0.022520278
8	0xbcba88da	-0.022770334
9	0x3b62e6fd	0.0034622543
10	0xbc3b1d05	-0.011420493
11	0x3ce5b3d3	0.028039848
12	0x3d05d71e	0.032675855
13	0xba493725	-0.00076757587
14	0x3acd9a6f	0.0015686284
15	0xbbf913a8	-0.00760122
16	0xbbd15739	-0.0063885716
17	0x3cd9ad28	0.026571825
18	0x3c1cad7c	0.009562846
19	0x3ce7c21f	0.028290806
20	0xbc61e482	-0.013787391
21	0x3cdb93f4	0.026803948
22	0xbc8c6f06	-0.017142784
23	0xbd3231d2	-0.043504544
24	0x3cf56880	0.029957056
25	0xbc783ecf	-0.0151516935
26	0xbc7d83cd	-0.015473318
27	0x3d20421a	0.03912554
28	0x3ca92ba6	0.020650696
29	0xbb5883e4	-0.0033037597
30	0x3a96329d	0.0011459176
31	0x3d2470c8	0.04014662
32	0x3d1e17dd	0.038596977
33	0xbb376177	-0.0027981678
34	0xbd154bb7	-0.03644916
35	0x38f1600f	0.00011509668
36	0x3d092911	0.03348643
37	0x3d1bde89	0.038054023
38	0xbc6bfc01	-0.014403344
39	0xbd8f2cc9	-0.06990964
40	0x3d190d0d	0.03736596
41	0xbd128a57	-0.035776462
42	0xbb9bec64	-0.0047584046
43	0x3c7b19d7	0.015325985
44	0xbd679595	-0.056539137
45	0x3c363cf7	0.011122934
46	0xbd68c8d7	-0.05683216
47	0x3d04e70f	0.032446917
48	0x3cea4231	0.028596016
49	0xbccf79dc	-0.025326662
50	0xbd48e65d	-0.049047817
51	0x3d2165e5	0.039403815
52	0xbb2268ec	-0.0024781777
53	0xbb653634	-0.0034974935
54	0x3c77e3e9	0.015130022
55	0x3c8dbcae	0.017301884
56	0x3c4bc989	0.012438186
57	0x3d204550	0.0391286
58	0xbd379c08	-0.044826537
59	0x3c9ea3c4	0.019365199
60	0xbb84973a	-0.004046348
61	0xbd00914b	-0.031388562
62	0x3d17a99c	0.037026986
63	0xbcb6c320	-0.02230984
64	0xbd08d12e	-0.033402614
65	0x3c0b1b75	0.008490433
66	0x3c1a1449	0.00940425
67	0xbd0975ac	-0.033559486
68	0x3cc8c75b	0.024509123
69	0x3d1ac0fe	0.037781708
70	0x3cd71448	0.026254788
71	0xbc4a7c05	-0.01235867
72	0xbc08325d	-0.008312789
73	0xbc1eee31	-0.009700344
74	0xbc74d460	-0.014943212
75	0xbd527ca2	-0.05138839
76	0xbcca2653	-0.024676478
77	0xbd7282a7	-0.05920663
78	0xbd42ce27	-0.047559883
79	0xbc0f60c4	-0.008751098
80	0x3d1b81a4	0.03796543
81	0xbd30db1d	-0.043177713
82	0x3c3e83d0	0.011628106
83	0xbc4d6cdb	-0.01253816
84	0x3c6ee7c6	0.014581626
85	0x3cf00406	0.029298794
86	0xbd251d4e	-0.04031115
87	0xbd5ced40	-0.053937197
88	0xbb617282	-0.0034400527
89	0xbc2b86cd	-0.010469151
90	0xbd2d153e	-0.042256586
91	0xbc45f457	-0.012082181
92	0x3ca199ff	0.019726751
93	0x3cdeef78	0.027213797
94	0xbcafae48	-0.021445408
95	0xbca84eb4	-0.020545341
96	0xbccc7ce2	-0.024961893
97	0xbcb9852b	-0.022646507
98	0x3cd85757	0.026408834
99	0xbc8cb293	-0.017174995
100	0xbc8e3d43	-0.017363196
101	0xbd217c98	-0.039425462
102	0xbd1be472	-0.03805966
103	0x3cf2072d	0.029544437
104	0xbcd421ee	-0.025895085
105	0x3b1d497e	0.0024000104
106	0x3ca96179	0.020676361
107	0xbd1c08a8	-0.038094193
108	0xbcb21fb4	-0.021743633
109	0xbd25bfb4	-0.040466025
110	0xbc7987f7	-0.01523017
111	0x3cd05231	0.025429817
112	0x3acacade	0.0015471836
113	0xbcafa756	-0.021442097
114	0x3d28413b	0.041077834
115	0xbd4f3a4a	-0.0505927
116	0x3bb90168	0.0056459196
117	0xbca3a298	-0.019974992
118	0x3b816619	0.0039489386
119	0x3d2c816c	0.042115614
120	0x3c8277b2	0.015926216
121	0xbd273929	-0.040825997
122	0x3c92dda0	0.017927945
123	0xbd452b0f	-0.048136767
124	0xbc9ae736	-0.018909078
125	0xbc8e57ee	-0.017375913
126	0xbd72080c	-0.059089705
127	0x3d24349d	0.04008924
128	0x3d330fd4	0.043716267
129	0x3c82e504	0.015978344
130	0x3d05f4a0	0.032703996
131	0xbc671037	-0.014102987
132	0x3d1eb692	0.03874833
133	0x3cab2b82	0.02089477
134	0xbb3e6f5a	-0.002905807
135	0xbd4f7961	-0.050652865
136	0xbb58c556	-0.0033076606
137	0xbd416671	-0.047216836
138	0xbd1e7062	-0.038681395
139	0xbc4bf3a5	-0.012448226
140	0x3d21f195	0.03953703
141	0x3ce60fc6	0.028083693
142	0xbcb099f8	-0.021557793
143	0xbcb3401e	-0.02188116
144	0x3cd2b5f3	0.025721526
145	0x3d061867	0.032738116
146	0x3ca51973	0.020153737
147	0xbbea1f62	-0.0071448544
148	0xbd1853b9	-0.03718922
149	0x3d0e36ef	0.034720358
150	0xbd80f4b6	-0.06296675
151	0x3cfa4d99	0.03055458
152	0x3d108e4e	0.035291962
153	0x3cad81db	0.021180084
154	0xbd05bb2f	-0.032649215
155	0xbc123a48	-0.008925028
156	0x3cca2cb8	0.024679527
157	0x3cf22b99	0.029561805
158	0x3c107810	0.008817688
159	0x3d09c22f	0.033632454
160	0x3caf854f	0.021425871
161	0x3d0fc07f	0.035095688
162	0x3d2b5506	0.04182913
163	0xbc53f2a9	-0.012936273
164	0xbcd05932	-0.025433157
165	0xbca87bf7	-0.020566924
166	0xbb00c960	-0.001965128
167	0xbcc26fa8	-0.023734882
168	0xbac3ffec	-0.001495359
169	0x3bc09631	0.005877279
170	0xbd1c5669	-0.038168345
171	0x3cc97a61	0.024594488
172	0x3d277fe1	0.04089344
173	0xbce927a2	-0.028461281
174	0xbd067c0f	-0.032833155
175	0xbb7e365c	-0.0038789725
176	0x3c025656	0.007955154
177	0xbc34dff6	-0.011039725
178	0x3d3e80b0	0.046509445
179	0xbcad07da	-0.021121908
180	0xbbf16f05	-0.007367971
181	0xbc9f2d11	-0.019430669
182	0x3d067d11	0.032834116
183	0xbd3d6ebe	-0.04624819
184	0x3cfa2493	0.030535018
185	0x3cf1309d	0.029442126
186	0x3cff27d1	0.031146916
187	0x3c9bb5a6	0.019007515
188	0xbcd66416	-0.026170772
189	0xbc027cfd	-0.00796437
190	0x3b895d6a	0.004192044
191	0xbd48db55	-0.049037296
192	0x3c3c6249	0.011498042
193	0xbcd0ccb0	-0.025488228
194	0x3c0b405c	0.008499231
195	0x3d070916	0.03296765
196	0xbc3f3b3f	-0.01167184
197	0x3cee73be	0.029107925
198	0xbcb7ffd4	-0.022460856
199	0xbc45d250	-0.012074068
200	0xbc86e627	-0.016467167
201	0x3ccc29bd	0.024922246
202	0xbca56e0a	-0.020194072
203	0xbc165f1f	-0.009177952
204	0x3d46d803	0.04854585
205	0x3c12a1a8	0.008949675
206	0x3ccc970b	0.024974367
207	0x3b82f99c	0.003997041
208	0x3d3cd7df	0.04610431
209	0xbd0fa4bb	-0.03506921
210	0xbd384312	-0.04498584
211	0x3c06fcfd	0.008239028
212	0xbcd7f91d	-0.026363904
213	0xbd239b1d	-0.03994285
214	0xbd2ee66f	-0.042700227
215	0x3c3171b0	0.010830328
216	0xbcfa5d77	-0.030562146
217	0x3cafdaa8	0.021466568
218	0xbc0f6154	-0.008751232
219	0x3d2ce45c	0.042209968
220	0xbd19ec50	-0.03757888
221	0x3d46317a	0.04838703
222	0xbd1c3153	-0.038132977
223	0xbc033f2f	-0.00801067
224	0x3c92f5e9	0.017939525
225	0xbb44afe6	-0.003001207
226	0x3d106957	0.03525671
227	0x3cf0dc83	0.029402023
228	0x3aa6887a	0.0012705468
229	0xbd1db343	-0.038501035
230	0xbd4a7413	-0.049427103
231	0xbd3f4d13	-0.046704363
232	0x3c11bcd4	0.008895118
233	0xbcc9bf82	-0.02462745
234	0x3cdba806	0.026813518
235	0xbc6110b1	-0.01373689
236	0x3d200483	0.039066803
237	0x3c9fdd3d	0.019514674
238	0x3cdcae84	0.026938684
239	0x3d0942fe	0.033511154
240	0xbcae4067	-0.021270944
241	0xbd290e71	-0.041273538
242	0x3d1dbbbf	0.038509127
243	0xbd273882	-0.040825374
244	0xbbaeeedf	-0.0053385342
245	0x3cda5ef0	0.026656598
246	0x3c34da6a	0.011038402
247	0x3cd71c96	0.026258748
248	0xba0032c2	-0.0004890376
249	0x3d00d429	0.03145233
250	0x3d4fa4c0	0.050694227
251	0xbccaba95	-0.024747172
252	0x3d15006d	0.03637736
253	0x3d1ce69b	0.03830586
254	0xbc5a2c12	-0.013316171
255	0x3c8d7e2e	0.017272081

action_model._discrete_distribution.branches.0.bias f4 [5]
0	0x3acc26a1	0.0015575477
1	0xbc8ad370	-0.016946524
2	0x3c850eb5	0.016242364
3	0xbb4cf543	-0.0031274117
4	0x3af67fb7	0.0018806373
