results/tb2/Fork1/Fork1-49955.onnx (onnx, 326987 bytes, 6 tensors)

network_body.linear_encoder.seq_layers.0.weight f4 [256, 54]
0	0x3dd68ed5	0.10476462
1	0x3e1a9e04	0.1509934
2	0x3e60e848	0.21963608
3	0x3dd5d754	0.10441461
4	0x3dd660d1	0.10467685
5	0xbdfc01b5	-0.12305013
6	0xbd880080	-0.0664072
7	0xbda2db2f	-0.07951962
8	0xbd6537ae	-0.055961303
9	0xbd06c27f	-0.03290033
10	0x3ebf9885	0.3742105
11	0xbcf5a009	-0.029983537
12	0xbd08c0c3	-0.033386957
13	0x3cb2da46	0.021832597
14	0xbd0485b9	-0.03235409
15	0xbe9dba0a	-0.30806
16	0xbcbbdb21	-0.022931637
17	0xbcea597a	-0.028607119
18	0x3d7c7f41	0.061644796
19	0x3cf41321	0.029794278
20	0x3db508af	0.08839547
21	0xbcbcca74	-0.023045756
22	0xbd59ba24	-0.053156033
23	0x3d8c0b58	0.06838101
24	0x3e48dfdf	0.1961665
25	0xbdc38e7f	-0.09548663
26	0xbd756a50	-0.05991584
27	0xbc62fe6d	-0.013854605
28	0x3e85c32f	0.26125476
29	0xbe116d07	-0.14201747
30	0x3e390639	0.1806878
31	0x3c8d94df	0.017282901
32	0x3e0c7823	0.13717704
33	0xbdbf4f98	-0.09341353
34	0x3a8e2967	0.0010846079
35	0x3e062138	0.1309861
36	0xbdf1bdc1	-0.11803771
37	0xbbe50d28	-0.0069900937
38	0xbde8dde6	-0.11370449
39	0x3beea58d	0.007282919
40	0x3e389e8f	0.18029235
41	0x3e037c30	0.12840343
42	0xbdfe6d03	-0.12423136
43	0x3c2bd63b	0.010488088
44	0x3e2ac392	0.16676167
45	0x3e162776	0.1466349
46	0x3e97a4d2	0.29617935
47	0xbdaa0cb5	-0.08303205
48	0x3e86d93b	0.2633761
49	0x3eb762d2	0.3581758
50	0x3e309237	0.17243277
51	0xbe9ce709	-0.30645016
52	0x3d8069f6	0.062702104
53	0xbcac3d5a	-0.021025348
54	0x3e377eeb	0.17919509
55	0x3e73fe37	0.23827444
56	0x3d7b31ba	0.06132672
57	0x3ddce04d	0.107849695
58	0x3ddd641e	0.108101115
59	0xbdb51df0	-0.08843601
60	0xbddd0430	-0.10791814
61	0x3e8ee29d	0.27907267
62	0x3e5ad886	0.2137166
63	0xbc44c218	-0.012009166
64	0xbe2d9f52	-0.16955307
65	0xbdc02ccf	-0.093835466
66	0x3daeb5cc	0.08530769
67	0xbe815449	-0.25259617
68	0x3e2cd49f	0.16877984
69	0xbdf9ec28	-0.12203246
70	0xbd176ea2	-0.036970742
71	0x3e0b8e79	0.13628568
72	0x3e05b501	0.13057329
73	0x3ce18d07	0.027533067
74	0xbe5d1220	-0.21588945
75	0x3d67f831	0.05663318
76	0x3aec943e	0.0018049551
77	0xbd1e8a7a	-0.03870628
78	0x3ca04d1f	0.019568024
79	0x3e66cf5d	0.2254004
80	0x3dd90078	0.105957925
81	0xbe679b85	-0.2261792
82	0xbe38032b	-0.17969958
83	0xbdec29e7	-0.1153143
84	0x3c824ddd	0.015906269
85	0xba350756	-0.0006905695
86	0xbe2076ab	-0.15670268
87	0xbd0f2009	-0.03494266
88	0x3dddbdea	0.10827239
89	0xbd585032	-0.052810855
90	0x3bcb5517	0.006205212
91	0xbe202377	-0.15638529
92	0x3e1c982c	0.15292424
93	0x3e609be6	0.2193447
94	0x3e1d8ebb	0.15386479
95	0x3c68f1b7	0.014217786
96	0x3e31761f	0.17330216
97	0x3d851c90	0.064995885
98	0x3dfdeea9	0.123990364
99	0xbce28013	-0.027648961
100	0xbe3a3532	-0.18184355
101	0x3e30662d	0.17226477
102	0xbe4601b6	-0.1933659
103	0xbe362631	-0.17788006
104	0xbd9eb519	-0.077493854
105	0x3ce7d5f0	0.028300256
106	0xbd9750c6	-0.07388453
107	0x3e226916	0.158604
108	0x3db2733e	0.08713387
109	0x3e54c0f2	0.20776728
110	0xbd4a193e	-0.04934048
111	0xbe592377	-0.21204935
112	0xbd358cf5	-0.04432388
113	0x3de552a5	0.11197404
114	0x3e271fe2	0.16320756
115	0xbd1a6a90	-0.037699282
116	0xbe1637ed	-0.14669771
117	0x3d590afe	0.052989
118	0xbe6757f9	-0.22592153
119	0xbe84ff9f	-0.25976273
120	0xbe0c22e7	-0.13685189
121	0x3cac9767	0.021068288
122	0x3e008948	0.12552369
123	0xbe2c665a	-0.16835919
124	0xbd9b89e9	-0.07594664
125	0x3e58adc5	0.21160038
126	0x3eaa0d23	0.33213148
127	0x3e03035e	0.12794253
128	0x3dc6fef9	0.09716601
129	0xbe069cf1	-0.13145806
130	0x3da623b9	0.08112282
131	0x3e91714e	0.28406757
132	0x3e0ce3e8	0.13758814
133	0xba3fa81a	-0.0007311121
134	0xbd01628d	-0.031588126
135	0xbe217e5b	-0.15770857
136	0x3dcab8e8	0.09898549
137	0x3e3aa1aa	0.18225732
138	0x3e691a0c	0.22763842
139	0xbde651b2	-0.11246051
140	0x3e42009d	0.18945546
141	0x3e750f13	0.23931532
142	0xbec10b2c	-0.37703836
143	0x3e1bdb6e	0.15220425
144	0xbe8e743c	-0.27823055
145	0x3d2f840a	0.04285053
146	0xbe5f27e8	-0.21792567
147	0x3d83bd17	0.064325504
148	0x3e0b9b5d	0.13633485
149	0x3e1ebc39	0.15501489
150	0xbd12376c	-0.035697386
151	0x3d592669	0.053015146
152	0xbda1b5df	-0.07896017
153	0xbe25da3b	-0.1619653
154	0xbec4a2ee	-0.38405555
155	0x3e017ed7	0.12646042
156	0x3d3189eb	0.04334442
157	0x3e389202	0.18024448
158	0xbc543abf	-0.012953459
159	0x3d2737c3	0.040824663
160	0xbd8122a7	-0.063054375
161	0x3e1986af	0.14992784
162	0xbdf0d82f	-0.11759984
163	0xbd301b50	-0.042994797
164	0xbe02553c	-0.12727827
165	0xbcbd4c45	-0.023107657
166	0x3dd0b25a	0.10190268
167	0x3e3e4237	0.18579946
168	0xbe27c9df	-0.16385601
169	0x3e67a7a4	0.22622544
170	0xbe4e0adf	-0.20121334
171	0xbd426322	-0.04745782
172	0xbc59f420	-0.013302833
173	0x3e390bcd	0.18070908
174	0x3c48a5de	0.012246577
175	0xbe328a75	-0.1743563
176	0x3e69a4c7	0.22816764
177	0x3d2249d8	0.039621204
178	0x3e34da8d	0.17661496
179	0xbdb60947	-0.08888488
180	0xbd907673	-0.070538424
181	0xbde341a1	-0.11096502
182	0xbdfdd6b7	-0.12394469
183	0xbd8fdf32	-0.07024993
184	0x3da097b4	0.07841435
185	0xbddec81d	-0.10878012
186	0xbcf83115	-0.030296842
187	0xbcc4c082	-0.024017576
188	0xbd198adc	-0.037485942
189	0x3be9b16d	0.0071317465
190	0x3e65e387	0.22450076
191	0x3e031822	0.12802175
192	0xbd76c6d7	-0.060248222
193	0x3db228ac	0.08699164
194	0x3e3d02f7	0.18458162
195	0xbcbf4057	-0.02334611
196	0x3e0e1292	0.13874272
197	0xbe3479b1	-0.17624547
198	0x3d807204	0.06271747
199	0x3e6df021	0.23236133
200	0x3c86f529	0.016474323
201	0x3dab5272	0.083653346
202	0xbe560e0b	-0.20903794
203	0x3d3dfee6	0.04638567
204	0x3dcec7ea	0.10096724
205	0x3ee7e0d8	0.4528873
206	0x3de37603	0.11106493
207	0xbd8a2e04	-0.06747058
208	0x3e2b2135	0.16711886
209	0x3db1fa13	0.08690276
210	0xbdffdf94	-0.12493816
211	0xbc7678af	-0.015043422
212	0x3de74f5f	0.11294436
213	0xbd8e1033	-0.069366835
214	0x3e1efb26	0.15525493
215	0x3e8f41f2	0.2798
216	0xbe53b5fc	-0.2067489
217	0xbc717863	-0.014738175
218	0x3e451dd1	0.19249655
219	0x3dd6a6e8	0.104810536
220	0x3d348212	0.044069357
221	0xbe725b8a	-0.23667732
222	0x3e599f52	0.21252182
223	0xbe85ef9a	-0.26159364
224	0x3d092894	0.033485964
225	0xbdb500fe	-0.0883808
226	0x3ec5769b	0.3856705
227	0x3c365b60	0.011130184
228	0x3d8a4cc8	0.06752926
229	0x3d36d7d5	0.044639427
230	0xbdf549bd	-0.11976955
231	0xbd89312e	-0.066988334
232	0xbdef5d7c	-0.116877526
233	0x3e53828e	0.20655271
234	0xbd1d9cc9	-0.0384796
235	0xbc41867f	-0.0118118515
236	0xbe8d14bc	-0.27554882
237	0x3db8a1ff	0.09015273
238	0xbd4eb2ce	-0.05046349
239	0x3de2b7f7	0.11070245
240	0xbe18ebbd	-0.14933677
241	0xb948bc63	-0.00019143666
242	0x3d351dba	0.044217803
243	0x3ddd7ea5	0.10815171
244	0xbd30fafb	-0.043208104
245	0x3e0d1889	0.1377889
246	0xbce6e160	-0.028183639
247	0xbd852e4a	-0.065029696
248	0x3cb4bfac	0.022064053
249	0x3e184ad4	0.14872295
250	0xbe375700	-0.17904282
251	0x3d7abc20	0.061214566
252	0xbe1e13f3	-0.15437298
253	0x3db1ab5d	0.08675263
254	0x3d3b7c2f	0.045772728
255	0x3cc4d93d	0.024029369

network_body.linear_encoder.seq_layers.0.bias f4 [256]
0	0x3d141d1c	0.036160573
1	0xbc338279	-0.0109564
2	0x3c2febdf	0.010737388
3	0x3ca28ce0	0.019842565
4	0x3cbfa13f	0.023392318
5	0x3bcf2492	0.006321498
6	0x3cc04418	0.02346997
7	0x3bdae511	0.006680139
8	0x3c372e62	0.011180492
9	0x3d1652c8	0.03670004
10	0x3c00c386	0.007859116
11	0x3c9eb024	0.0193711
12	0xbd6ccb97	-0.057811346
13	0x3c9681a3	0.018372362
14	0x3c8b2131	0.0169836
15	0xba33786d	-0.0006846253
16	0x3c8ed98e	0.017437723
17	0x3b01eb3e	0.0019824053
18	0x3c782ba5	0.015147124
19	0x3c895e94	0.016768731
20	0xbbbaa862	-0.0056963423
21	0x3cb0e947	0.02159561
22	0x3c3a679c	0.011377241
23	0xbca20c78	-0.019781336
24	0xbc0d339a	-0.00861826
25	0x3cead155	0.02866427
26	0xbc96517b	-0.0183494
27	0x3c1ef7ca	0.009702632
28	0x3c564e09	0.0130801285
29	0x3bf2ff7f	0.0074157114
30	0x3a04b82a	0.0005062843
31	0xbca2d657	-0.019877596
32	0x3cd14bcb	0.025548836
33	0x3cf96efc	0.03044843
34	0xbbcd62c4	-0.0062678773
35	0x3bcaaf9e	0.006185486
36	0xbb42df57	-0.0029735172
37	0xbb67d901	-0.0035377147
38	0xbd22229d	-0.03958379
39	0x3c9adb7d	0.018903488
40	0x3a5c1347	0.00083952065
41	0x3c598885	0.013277178
42	0xbbb0d532	-0.0053965086
43	0x3ced19e2	0.028943006
44	0x3c5cbada	0.013472283
45	0x385edfee	5.3137475e-05
46	0xbcc59b2f	-0.024121849
47	0xbca9beab	-0.0207208
48	0x3cf65e4d	0.030074263
49	0x3c2790a9	0.010227361
50	0xba790c3d	-0.000950042
51	0xbc575272	-0.013142215
52	0x3c510532	0.012757586
53	0xbc23b548	-0.009991951
54	0xbbc20fb6	-0.005922283
55	0x3c6c7223	0.014431509
56	0x3d1966c1	0.03745151
57	0xbbc48088	-0.0059967674
58	0x3c503acb	0.01270933
59	0x3b8e5f44	0.0043448526
60	0x3d180085	0.03710987
61	0x3cf4c8c9	0.029880898
62	0x3c784701	0.015153647
63	0xbc9dc80f	-0.019260434
64	0xbc3acc31	-0.011401222
65	0x38b0d60b	8.4322026e-05
66	0x3cc359bb	0.023846498
67	0x3b34d15d	0.002759061
68	0x3b790833	0.0037999272
69	0xbc75fb58	-0.015013538
70	0xbba8c603	-0.005150558
71	0x3cb65f86	0.022262346
72	0x3c8435c7	0.016138924
73	0xbc8e942f	-0.017404644
74	0x3c8a5181	0.016884567
75	0x3b97d30d	0.0046333135
76	0xbc4ef691	-0.012632028
77	0x3c0e92cc	0.008701991
78	0x38f28c95	0.00011565645
79	0x3c8aa23c	0.016923063
80	0xbd5b43f2	-0.053531595
81	0xbc835132	-0.016029928
82	0x3bc7d2be	0.0060981205
83	0xbb8c693a	-0.004285005
84	0xbba93e39	-0.005164888
85	0x3c4f9415	0.012669583
86	0x3cb071d0	0.021538645
87	0x3abc1d11	0.0014351924
88	0xbc58c84a	-0.013231346
89	0xbc807138	-0.015678987
90	0x3bdb0e39	0.006685045
91	0x3d02ab45	0.031901617
92	0x3d220ab8	0.039561003
93	0x3cd03e1b	0.02542024
94	0x3b63164f	0.0034650748
95	0x3d0e5c87	0.03475621
96	0xbc3dad02	-0.011576893
97	0x3c66a8ab	0.0140782995
98	0x3c471530	0.012151048
99	0x3b9bffc2	0.0047607133
100	0x3c921771	0.017833443
101	0x3c2ab4a9	0.010419049
102	0x3b4a411b	0.003086156
103	0x3d08011b	0.03320418
104	0xbc4f5f7e	-0.012657044
105	0x3b44d7c2	0.0030035828
106	0x3c297dd7	0.010344944
107	0xbd3c8044	-0.04602076
108	0x3cacf895	0.021114627
109	0x3c0595db	0.008153404
110	0xbc1481b7	-0.00906413
111	0x3c183573	0.009290087
112	0x3be1eec7	0.0068949196
113	0x3b485184	0.0030566165
114	0x3c9e0217	0.019288106
115	0x3bc002c1	0.0058597033
116	0xbb991fa0	-0.0046729594
117	0x3bd5b3b5	0.006521667
118	0x3c13e223	0.009026083
119	0xbc5e1ccc	-0.01355667
120	0xbcdd3d0f	-0.027006654
121	0xbbf894ed	-0.0075861127
122	0x3c1d87d7	0.009614906
123	0x3b98b46f	0.0046601812
124	0x3ba101d0	0.004913546
125	0x3b9d5cbe	0.0048023155
126	0x3c24719b	0.010036851
127	0x3c7e8fdb	0.0155372275
128	0x3ac449e4	0.0014975634
129	0xbc396f22	-0.011318
130	0x3c5a6e85	0.013332014
131	0xbcbbc777	-0.02292226
132	0x3c1bb7f3	0.009504306
133	0x3aa6b42b	0.0012718489
134	0x3c8836a6	0.01662762
135	0x3baae959	0.0052158055
136	0x3ceb6cea	0.028738458
137	0xba89aa93	-0.0010503106
138	0x3bb8d9a3	0.0056411787
139	0xbce2be29	-0.027678566
140	0x3c803217	0.015648885
141	0x3cbab81b	0.022792866
142	0x3cd308dd	0.025761062
143	0xbcabb103	-0.02095843
144	0xb9381ec7	-0.00017559073
145	0x3c709d78	0.014685981
146	0x3cf7c66e	0.030245986
147	0x3c92c743	0.017917281
148	0x3ba1e840	0.0049410164
149	0x3c21d87c	0.009878274
150	0xbc5df43d	-0.0135470005
151	0x3c9d56a7	0.019206358
152	0x3b867c79	0.0041041938
153	0xbd0e1cf9	-0.0346956
154	0x3bc9dd0b	0.0061603836
155	0x3c2a7fab	0.010406415
156	0x3b727bd3	0.0037000075
157	0x3c2e637d	0.010643837
158	0xbbb6b884	-0.005576195
159	0x3a675f36	0.0008826138
160	0xba990385	-0.0011674023
161	0xbc07c32e	-0.008286281
162	0x3ccaa5b6	0.02473722
163	0x3c338366	0.010956621
164	0x3c55b3f8	0.013043396
165	0x3b98a7b1	0.0046586622
166	0x3ca76f0f	0.020438699
167	0xbb634290	-0.0034677126
168	0xbbfc9db8	-0.007709231
169	0x3c464c7e	0.012103198
170	0x3c1e35b5	0.009656359
171	0x3d694e05	0.05695917
172	0xbb3d3f17	-0.0028876716
173	0x3c30c3ac	0.010788839
174	0x3b92cd65	0.0044800513
175	0xbc2db9c4	-0.010603372
176	0xba2f7ac3	-0.0006694013
177	0x3ca0483c	0.019565694
178	0x3c832156	0.016007107
179	0x3c9c04c2	0.019045237
180	0x3cf60972	0.0300338
181	0x3befbd43	0.007316263
182	0xbb03a73b	-0.002008869
183	0x3bf3236d	0.0074199946
184	0x3c2920b8	0.010322742
185	0x3bc643fd	0.0060505853
186	0xbb2e0c64	-0.0026557678
187	0x3cadcfe1	0.021217288
188	0xbc87782f	-0.0165368
189	0x3c5cdb58	0.01348003
190	0x3c7e2093	0.015510696
191	0xbba0b781	-0.004904688
192	0xbab0de7f	-0.0013494043
193	0x3c51fb1d	0.012816218
194	0xbabf8ac9	-0.0014613505
195	0xbb6d0902	-0.00361687
196	0x3cb48f09	0.02204086
197	0xbcc045bc	-0.023470752
198	0x39b25e56	0.0003402109
199	0x3bb4a70e	0.0055130785
200	0x3d1a83aa	0.03772322
201	0xbca1a48a	-0.019731779
202	0x3c0c3303	0.008557084
203	0x3c885461	0.016641797
204	0xbababa6e	-0.0014246234
205	0xbba0fe38	-0.0049131177
206	0x3cae0961	0.021244707
207	0xbce1d058	-0.027565166
208	0xbb090e06	-0.00209129
209	0xbb83d165	-0.0040227645
210	0x3cd4a382	0.025956873
211	0x3ccfbeda	0.02535956
212	0x3c1f2021	0.00971225
213	0x3bb9c8ed	0.005669704
214	0xbcb590c7	-0.022163762
215	0x3c2de155	0.010612805
216	0x3ac1726d	0.0014758833
217	0xbc318171	-0.010834084
218	0x3ccd14a7	0.025034262
219	0x3bdb3dae	0.0066907024
220	0x3c8bcec3	0.017066365
221	0xbc1689be	-0.009188114
222	0xbd401b05	-0.046900768
223	0x3aae509b	0.0013299169
224	0xbbed73e3	-0.007246481
225	0x3c1ae6fa	0.009454483
226	0x3cba9748	0.022777215
227	0x3a899863	0.0010497685
228	0x3cc43f85	0.02395607
229	0xb9afe9df	-0.0003355285
230	0x3d694d68	0.056958586
231	0x3a073e4a	0.0005159123
232	0x3ccea858	0.025226757
233	0x3c71395a	0.014723146
234	0x3c4bea99	0.012446069
235	0x3cbe4a1c	0.023228697
236	0xbaeaf27b	-0.0017925048
237	0x3beef28a	0.0072920965
238	0xbc900a58	-0.017583057
239	0xbc823a28	-0.015896872
240	0x3c31171a	0.0108087305
241	0x3bf55abf	0.0074876244
242	0x3c696fd4	0.014247853
243	0xbba588a6	-0.00505169
244	0x3d2b79d2	0.041864224
245	0x3c13238b	0.008980642
246	0xbd0b4bb9	-0.03400776
247	0x3a1c6ec9	0.0005967436
248	0xbcb1928f	-0.02167633
249	0x3c3162d7	0.010826788
250	0x3c75b7cb	0.014997433
251	0x3c899b8c	0.016797803
252	0x3c5d382f	0.013502165
253	0x3c2b30b9	0.010448628
254	0x3c52ed78	0.012874
255	0x3cbcdca3	0.023054427

network_body.linear_encoder.seq_layers.2.weight f4 [256, 256]
0	0xbc3e8b44	-0.011629883
1	0xbdda677c	-0.10664269
2	0x3d8d3454	0.068947464
3	0x3e416c17	0.18888889
4	0x3b3221d7	0.0027180815
5	0xbb8ea2a6	-0.0043528853
6	0x3dcf46d0	0.10120928
7	0x3d5c1308	0.053729087
8	0x3c06e366	0.008232927
9	0xbbc14d3e	-0.0058991006
10	0xbd525309	-0.05134872
11	0x3d433e0b	0.04766659
12	0xbce73209	-0.0282221
13	0xbdb00049	-0.085938044
14	0x3d154af4	0.036448434
15	0xbdb0bb4f	-0.08629476
16	0x3ca94f27	0.020667626
17	0xbca1dc26	-0.019758295
18	0x3c6ec590	0.01457347
19	0x3c6bf175	0.01440083
20	0x3cc1c33d	0.023652667
21	0xbd39c251	-0.04535133
22	0xbd0fa551	-0.035069767
23	0x3d07887b	0.033089142
24	0x3b444068	0.0029945616
25	0xbc913e3a	-0.017729867
26	0xbc40db9a	-0.011771107
27	0xbdcf6f00	-0.101285934
28	0x3e05ed2e	0.13078758
29	0x3c9d08d3	0.019169247
30	0xbdc7fc31	-0.097648986
31	0x3e00d8d4	0.12582713
32	0xbcf3029f	-0.029664336
33	0x3d9d16fa	0.07670398
34	0x3d5aa133	0.053376388
35	0x3b9518cc	0.004550075
36	0xbd9d4ddc	-0.07680866
37	0x3d13ac78	0.03605315
38	0x3ccd4a24	0.025059767
39	0xbcd34b57	-0.02579276
40	0xbc9462e9	-0.01811357
41	0xbd6ea17e	-0.05825948
42	0xbd9396ec	-0.072065204
43	0xbc693b2f	-0.014235302
44	0xbe025bdc	-0.12730354
45	0x3d3d3e6a	0.0462021
46	0xbd43273b	-0.047644835
47	0x3c5fec42	0.013667168
48	0xbe1174a1	-0.14204647
49	0x3d89dfb6	0.067321226
50	0x3970bb88	0.00022958044
51	0xbd293764	-0.04131259
52	0x3b3e7a1a	0.0029064477
53	0x3dabc3be	0.08386944
54	0x3cf75075	0.030189732
55	0x3cf23121	0.029564442
56	0x3df2346a	0.118264034
57	0xbe134417	-0.14381443
58	0xbdcab580	-0.098979
59	0x3ca509f5	0.02014635
60	0xbe0706d5	-0.131862
61	0xbc486390	-0.012230769
62	0x3e6662a0	0.2249856
63	0x3c5a853a	0.013337428
64	0x3d8717a6	0.065963075
65	0x3dc6414e	0.09680425
66	0x3ce29841	0.027660491
67	0x3de21ba3	0.110404275
68	0xbd223832	-0.039604373
69	0xbcc32235	-0.023820022
70	0xbd012a33	-0.031534385
71	0x3c7b4b9d	0.015337852
72	0xbd961cdc	-0.07329723
73	0x3d83f230	0.06442678
74	0xbc902f59	-0.017600702
75	0x3d4da982	0.050210483
76	0xbcf8f85f	-0.03039187
77	0x3d6a271f	0.057166215
78	0x3e394a94	0.18094856
79	0x3dee73db	0.116431914
80	0x3d9c8aed	0.076436855
81	0x3b5d926e	0.0033809203
82	0xbc9129c1	-0.017720105
83	0xbbf9576a	-0.0076092975
84	0x3db558d9	0.08854837
85	0x3c3909c9	0.011293837
86	0xbd1a1774	-0.037620023
87	0x3ceb90e6	0.028755616
88	0x3e096b58	0.13419855
89	0xbca022ef	-0.019547908
90	0x3db6b425	0.089210786
91	0xbcac4135	-0.021027187
92	0x3e086928	0.13321364
93	0xbc2da870	-0.010599241
94	0x3db80c64	0.08986738
95	0xbd94f3f3	-0.07273092
96	0xbd244935	-0.04010888
97	0xbd25240d	-0.040317584
98	0xbd405a0f	-0.046960887
99	0x3d749125	0.059708733
100	0x3e47bfce	0.19506761
101	0xbded9828	-0.11601287
102	0x3cf8babc	0.03036248
103	0xbca40327	-0.020021034
104	0xbdf73723	-0.12071063
105	0x3c343bd9	0.011000597
106	0xbd0f949a	-0.035053827
107	0x3d572cc9	0.052532945
108	0x3c0a447d	0.00843918
109	0xbd0a1469	-0.03371087
110	0xbc93d94d	-0.018047953
111	0x3dcddd86	0.10052018
112	0xbc83b9e2	-0.016079847
113	0xbc13f9f4	-0.009031761
114	0xbd13f8e9	-0.03612605
115	0x3d75b9c7	0.059991624
116	0x3ccdb2e5	0.025109718
117	0x3d7be942	0.06150175
118	0xbda9d57b	-0.08292671
119	0x3c5b9c24	0.013403926
120	0x3d6a61a3	0.05722202
121	0x3d86cffe	0.0658264
122	0xbce1d9fd	-0.027569765
123	0xbd13ae62	-0.036054976
124	0xbd24687b	-0.040138703
125	0xbc86e7be	-0.016467925
126	0x3deb71ba	0.11496301
127	0x3d2baa4b	0.04191045
128	0xbd8ae64f	-0.06782209
129	0xbc24d24d	-0.010059905
130	0xbab8c762	-0.0014097507
131	0xbce3d5eb	-0.027811965
132	0xbd98834e	-0.074469194
133	0xbc6a1412	-0.014287012
134	0xbd01622d	-0.03158777
135	0xbd505e4a	-0.05087117
136	0x3d56c1b4	0.052430823
137	0xbd0dd9f6	-0.034631692
138	0xbdfaf05e	-0.12252878
139	0xbd462825	-0.04837813
140	0x3dd37bbc	0.10326335
141	0xbd06ac71	-0.032879297
142	0x3dee43a5	0.11633996
143	0x3d51eeda	0.051253177
144	0x3daceff6	0.084442064
145	0x3d9537c6	0.072860286
146	0x3da96052	0.08270325
147	0x3cb91ab4	0.02259574
148	0x3e05426a	0.13013616
149	0x3dbf0aeb	0.09328254
150	0x3cc187c1	0.023624303
151	0xbd14e5b5	-0.03635188
152	0xbdd80dfe	-0.10549544
153	0x3c455e5b	0.012046422
154	0xbbd23698	-0.0064151995
155	0x3dd85c24	0.105644494
156	0x3c8d8608	0.017275825
157	0x3de1a54f	0.11017858
158	0xbd23cb11	-0.03998858
159	0x3d662488	0.056187183
160	0x3d550dcd	0.052015115
161	0xbc921244	-0.017830975
162	0xbcd58d2b	-0.02606829
163	0x3d9da5fa	0.07697673
164	0x3cad7dae	0.021178093
165	0xbc28dc37	-0.01030641
166	0x3dcfc48f	0.101449125
167	0x3d1d62c2	0.03842426
168	0xbd139e2f	-0.036039528
169	0xbd7fa103	-0.062409412
170	0x3c6fe4fc	0.0146419965
171	0x3c20839c	0.009797003
172	0x3d4ef2c3	0.050524484
173	0x3cd4f764	0.025996871
174	0x390292f5	0.00012452512
175	0x3db602f1	0.0888728
176	0x3dd8e188	0.10589892
177	0x3db1e2c8	0.08685833
178	0xbcf879b8	-0.030331478
179	0xbc61f96d	-0.013792378
180	0x3c3ebdb9	0.011641913
181	0xbcc57de1	-0.024107875
182	0x3cf9abe2	0.030477468
183	0xbd19b533	-0.03752632
184	0x3df8d9cf	0.12150919
185	0x3e099859	0.13437022
186	0xbc561750	-0.013067082
187	0x3b0889e4	0.0020834142
188	0x3cffb8e3	0.03121609
189	0xbdac1c45	-0.084038295
190	0x3b1b811c	0.0023728078
191	0x3d82cca7	0.063866906
192	0xbcbe8712	-0.023257766
193	0x3db2fae5	0.087392606
194	0x3d1654df	0.036702033
195	0x3c4d7d48	0.012542076
196	0xbce58985	-0.028019676
197	0xbcf80ab4	-0.030278541
198	0xbca3886b	-0.01996251
199	0x3d9450f5	0.07242004
200	0x3dbec430	0.093147635
201	0xbc8454bf	-0.016153691
202	0xbcc9632e	-0.024583425
203	0x3d30fb03	0.043208133
204	0x3cf49336	0.029855352
205	0xbdd63d1d	-0.10460875
206	0xbdb010c3	-0.08596947
207	0xbcac50ed	-0.021034682
208	0x3ce749b7	0.028233392
209	0x3cb34a5e	0.021886047
210	0xbdad7063	-0.08468702
211	0xbdb1b00a	-0.08676155
212	0x3d621ae1	0.055201415
213	0xbc993514	-0.018702067
214	0x3ca3497e	0.019932505
215	0x3d7c6ae9	0.061625395
216	0x3d9469c5	0.072467364
217	0xbcc88e4a	-0.024481911
218	0xbcabf452	-0.020990524
219	0x3d90050b	0.07032212
220	0xbce6c222	-0.028168742
221	0x3d13c885	0.036079902
222	0x3db9e47a	0.090767816
223	0x3c1b439a	0.009476567
224	0x3e0c19d8	0.13681734
225	0xbd8b43bc	-0.06800029
226	0xbd95a394	-0.07306591
227	0x3d1ddf64	0.03854312
228	0xbd92b486	-0.07163338
229	0x3d084bad	0.033275295
230	0xbd217030	-0.03941363
231	0xbd5a5796	-0.053306185
232	0x3d8a68ea	0.06758292
233	0x3e22f9a7	0.15915547
234	0x3de21d28	0.11040717
235	0xbd543696	-0.05180987
236	0x3d52ff5a	0.051513053
237	0xbbea0d92	-0.007142731
238	0xbd056058	-0.032562584
239	0xbc9b5130	-0.018959612
240	0x3cd972e0	0.026544034
241	0x3ceffa03	0.02929402
242	0x3c72423f	0.014786302
243	0x3cf84d07	0.030310167
244	0x3d158c0f	0.036510523
245	0xbd5e87a5	-0.05432858
246	0x3d1c0c8f	0.038097914
247	0xbdca30c3	-0.09872582
248	0xbd244648	-0.040106088
249	0xbc56c942	-0.013109507
250	0xbd408c72	-0.04700894
251	0xbd0b9eff	-0.034087177
252	0x3d0b64d9	0.034031723
253	0x3d203352	0.039111443
254	0x3c4261e7	0.011864162
255	0xbdb33db5	-0.08752004

network_body.linear_encoder.seq_layers.2.bias f4 [256]
0	0xbc1955af	-0.0093588075
1	0x3c725503	0.014790776
2	0x3c8a4f7b	0.016883602
3	0x3ca4729e	0.020074185
4	0x3b51d423	0.0032017312
5	0x3ce658f8	0.028118595
6	0xbb8b10ec	-0.0042439606
7	0x3c115073	0.008869278
8	0xbcc681ae	-0.024231758
9	0xbb7d796e	-0.0038677114
10	0x3c86f455	0.016473928
11	0x3c709e71	0.014686213
12	0xbc5f68c1	-0.013635815
13	0x3cbc1b59	0.02296226
14	0x3c9bdf14	0.01902727
15	0x3b312f89	0.002703639
16	0x3bf253bb	0.0073952354
17	0x3ca346bc	0.01993119
18	0x3c745710	0.014913335
19	0x3a30dd2d	0.0006746825
20	0x3b58d85f	0.0033087952
21	0x3c212882	0.009836318
22	0x3cc24d6d	0.02371856
23	0x3cec492e	0.028843489
24	0xbb0405ea	-0.0020145127
25	0xbbdb0e35	-0.006685043
26	0x3cc51cc9	0.024061577
27	0x3c81b986	0.015835535
28	0x3ca4062d	0.020022476
29	0x3c865d29	0.016401844
30	0x3b4b2f52	0.0031003547
31	0xbc947226	-0.018120836
32	0xbc013e37	-0.007888368
33	0x3c623d3a	0.013808543
34	0xb83c3ec1	-4.4881137e-05
35	0x3cef5b4b	0.029218337
36	0xbb86fe89	-0.0041196984
37	0x3c97ad95	0.018515388
38	0x3c80b2ba	0.015710223
39	0x3cf06d2b	0.02934893
40	0x3bff49a4	0.007790761
41	0x3c80d6c7	0.015727414
42	0xbb9e2bed	-0.0048270137
43	0x3cb564fd	0.022142882
44	0x3cad3401	0.021142961
45	0x3c00e5f3	0.007867324
46	0xbc23cba1	-0.009997279
47	0x3cbaf705	0.022822866
48	0x3c5ca26e	0.013466461
49	0x3bcc93f6	0.0062432243
50	0xbb98c7e5	-0.004662501
51	0xbbbb31ae	-0.0057127094
52	0x3cdd34e6	0.027002763
53	0x3986ad0d	0.00025687405
54	0xbb071c8e	-0.0020616385
55	0x3d13d8d7	0.036095466
56	0xbcffbcf7	-0.031218035
57	0x3c867393	0.016412532
58	0x3c1201b6	0.008911541
59	0x3b62e94d	0.0034623921
60	0x3cdccb4b	0.026952406
61	0x369116e7	4.324003e-06
62	0x3cc1ccb6	0.023657184
63	0x3b9a2420	0.0047040135
64	0x3ad7426f	0.0016422997
65	0x3c40d9c5	0.01177067
66	0x3c5732ed	0.0131347
67	0xbbabd50d	-0.0052439035
68	0x3b2c1793	0.0026259169
69	0x3b6ed2d8	0.003644159
70	0x3c280a42	0.010256352
71	0xbc4679dc	-0.0121140145
72	0x3c54754e	0.012967421
73	0x3bfa9b2f	0.007647894
74	0xbb1935fb	-0.0023378122
75	0x3cd8a045	0.02644361
76	0x3ca45760	0.020061195
77	0x3cd1d043	0.025612002
78	0x3b0608c9	0.0020452014
79	0x3cce625a	0.025193382
80	0x3c1b2d01	0.009471179
81	0xbae4a072	-0.0017442836
82	0x3c882a47	0.016621722
83	0xbce0f191	-0.027458938
84	0x3c5e0805	0.013551717
85	0x3cc8d9db	0.024517944
86	0x3c9c003b	0.019043079
87	0x3cfa30d9	0.03054087
88	0x3c1088fd	0.008821723
89	0xbbd89491	-0.0066095074
90	0x3ccef2ef	0.025262324
91	0xbc3a33f4	-0.011364926
92	0x3cd32d03	0.0257783
93	0x3bd35319	0.006449115
94	0x3c831f89	0.016006248
95	0x3c393122	0.011303218
96	0x3c8560df	0.016281543
97	0x3bc033f0	0.0058655664
98	0xbab85c68	-0.0014065625
99	0xba5b92f2	-0.00083760836
100	0x3ad82a78	0.0016492149
101	0x3c84927c	0.01618313
102	0x3bc84575	0.0061117955
103	0xbac1f3b8	-0.0014797365
104	0x3ca74844	0.020420201
105	0x3a0cc392	0.00053697184
106	0x38da2dcc	0.000104035804
107	0x3c3fe3ec	0.011712056
108	0x3bef8ad2	0.00731025
109	0xbc919a18	-0.017773673
110	0x3c1139f0	0.008863911
111	0x3bd0158e	0.006350226
112	0xbbcabc3d	-0.0061869905
113	0x3c1d534f	0.009602382
114	0x3caf94b3	0.02143321
115	0x3c1cd042	0.009571137
116	0x3cbeb16f	0.023277966
117	0x3c9feaf3	0.019521212
118	0xbaa57315	-0.0012622798
119	0x391b07ff	0.0001478493
120	0x3b9b3e3b	0.004737643
121	0x3bdf7602	0.0068194875
122	0xbbec65b9	-0.0072142747
123	0x3c5ce870	0.013483152
124	0x3cb4ffc0	0.022094607
125	0x3b6fc7be	0.0036587561
126	0xbc1466d5	-0.00905772
127	0x3c43e71f	0.011956959
128	0x3c9ef204	0.019402511
129	0x3cde425c	0.027131252
130	0x3c23b18c	0.009991061
131	0x3cfb26de	0.030658182
132	0x3ce946f7	0.028476221
133	0xbc37ac45	-0.011210506
134	0x3c2b3d39	0.010451608
135	0x3b93ccc5	0.0045104944
136	0x3c05af19	0.008159422
137	0x3be02452	0.006840267
138	0x3bb7c26f	0.005607895
139	0x3b3f6540	0.0029204637
140	0x3c31c974	0.010851253
141	0x3caa8bb7	0.020818574
142	0x3bc3c5fe	0.0059745302
143	0x3c158d7f	0.009127974
144	0xbb02743d	-0.001990571
145	0xbbc3b40e	-0.005972392
146	0x3ccc6c6e	0.024954047
147	0xbc087c65	-0.008330439
148	0x3c975f68	0.01847811
149	0x3cc45e9a	0.02397089
150	0x3ce0405f	0.027374445
151	0x3c86cffd	0.016456598
152	0x3d1b6f26	0.037947796
153	0x3cc97e91	0.024596484
154	0x3803570b	3.13139e-05
155	0xbb12a569	-0.0022376424
156	0x3c906feb	0.017631492
157	0x3cca23ee	0.024675336
158	0x3cab1281	0.020882847
159	0x3c3761ec	0.01119278
160	0x3c209b16	0.0098026
161	0x3c398efb	0.011325593
162	0x3c92c797	0.017917437
163	0x3b551969	0.0032516366
164	0x3cbc37e3	0.022975868
165	0x3b83be1b	0.004020465
166	0x3bf0574a	0.0073346244
167	0x3cb898e9	0.02253385
168	0x3c433e91	0.011916772
169	0x3c915c34	0.017744161
170	0xbd218640	-0.03943467
171	0x3ca7098f	0.0203903
172	0x3c36ca32	0.011156606
173	0xbbcfe965	-0.0063449615
174	0xbc63eef3	-0.01391195
175	0x3be41de7	0.0069615724
176	0x3ba0ad93	0.004903504
177	0x3d504ea6	0.050856255
178	0x3bbfe715	0.0058564045
179	0x3c01e10e	0.007927192
180	0x3b93857a	0.0045019956
181	0x3c497844	0.01229674
182	0xbc27de38	-0.010245852
183	0x3cb5a800	0.022174835
184	0x3c394891	0.011308805
185	0x3caf24c5	0.021379838
186	0x3b8936cc	0.0041874405
187	0x3bb9dfbb	0.0056724227
188	0x3c24299c	0.010019686
189	0xbc656533	-0.014001179
190	0xbb0adeb3	-0.0021189868
191	0x3c0f1d77	0.008735052
192	0x3c8c9e0d	0.017165208
193	0x3c158c31	0.0091276625
194	0xbb09cd20	-0.0021026805
195	0x3c416ab0	0.011805221
196	0xbbb766ce	-0.005596972
197	0x3ceb0ec5	0.028693566
198	0x3c5c4c37	0.013445905
199	0x3cafcf69	0.021461206
200	0x3c659842	0.014013352
201	0xbc63088f	-0.013857021
202	0x3ca71c69	0.02039929
203	0x3ca23b75	0.019803742
204	0x3c68bfb3	0.014205861
205	0xbb06627e	-0.0020505483
206	0xbbbc341c	-0.0057435166
207	0x3c5fb9f5	0.013655175
208	0xb891aa12	-6.945817e-05
209	0x3ca6b0a3	0.020347899
210	0x3bbea1c1	0.0058176224
211	0x3c2db411	0.010602013
212	0xbb84a61f	-0.0040481235
213	0x3c924bff	0.017858503
214	0xbbfbe19c	-0.007686807
215	0x3c88f0be	0.016716357
216	0x3cd1c3c9	0.025606053
217	0xbbb47575	-0.005507166
218	0x3c4fd4d6	0.012685021
219	0x3b528150	0.0032120533
220	0xbb3c8db4	-0.0028770985
221	0xbbb1eec8	-0.0054300763
222	0xb8917d3b	-6.937465e-05
223	0x3b45324d	0.0030089796
224	0x3bf6a0a4	0.007526474
225	0x385dc2a0	5.2871765e-05
226	0x3c7c9348	0.015415974
227	0x3c54f45b	0.012997712
228	0xbb62f0da	-0.0034628422
229	0x3c74e2a8	0.014946617
230	0xba29b827	-0.0006474279
231	0x3bae43d0	0.0053181425
232	0x3cb4dfc0	0.022079349
233	0x3ccf0f8a	0.025275964
234	0x3c6a00e7	0.014282442
235	0x3b9eae92	0.0048425877
236	0xbc82e8ff	-0.015980242
237	0x3b927d93	0.004470536
238	0x3c99a67d	0.018756146
239	0x3c80cdaa	0.015723068
240	0xbc66abac	-0.014079016
241	0x3c9c5aca	0.01908626
242	0x3bdba209	0.0067026657
243	0x3bca3270	0.0061705634
244	0xbbcd1892	-0.0062590325
245	0x3c18d256	0.009327492
246	0x3aa43f04	0.0012530987
247	0xbbafb51d	-0.0053621666
248	0x3c82bab1	0.015958162
249	0x3c394830	0.011308715
250	0x3c2569fb	0.0100960685
251	0xbba91f8e	-0.0051612323
252	0x3c90de17	0.017684026
253	0x3b34b6ff	0.0027574894
254	0x3c11afb6	0.00889199
255	0x3bc18de1	0.005906806

action_model._discrete_distribution.branches.0.weight f4 [5, 256]
0	0x3c2c1622	0.010503324
1	0xbc71748e	-0.014737261
2	0x3c01de47	0.00792653
3	0x3d0da9ad	0.034585644
4	0x3c32e2af	0.010918303
5	0xbccf8e0b	-0.025336286
6	0xb73595bc	-1.08233035e-05
7	0xbc2819e8	-0.010260083
8	0xbc2ff973	-0.010740626
9	0x3c1f6dad	0.009730739
10	0xbd2b3294	-0.041796282
11	0x3d2702d2	0.040774174
12	0x3d0508f4	0.03247924
13	0xbc71b609	-0.014752873
14	0x3c86da49	0.016461508
15	0x3ccf2949	0.025288241
16	0x3c5aa459	0.013344848
17	0x3c4be0a0	0.0124436915
18	0x3ca2f9d7	0.019894524
19	0xbcaabfd7	-0.02084343
20	0x3d1fe4b1	0.039036456
21	0xbcc3a603	-0.023882871
22	0xbcd1f781	-0.025630714
23	0xbc602674	-0.013681043
24	0xbc877a21	-0.016537728
25	0x3c9e55ae	0.019327965
26	0xbd0bec2e	-0.034160785
27	0xbc81b6b7	-0.015834196
28	0xbc899c58	-0.016798183
29	0xbd1babb0	-0.03800553
30	0xbc8b4db2	-0.017004821
31	0x3c0076b1	0.007840798
32	0x3cad15c2	0.021128539
33	0xba38f95d	-0.0007056201
34	0xbbabd1e3	-0.0052435263
35	0xbcadaaf3	-0.021199679
36	0x3ca73ad7	0.0204138
37	0xbc9ab62c	-0.018885694
38	0x3b548c53	0.0032432273
39	0xbd0e4a84	-0.034739032
40	0xbcc9227e	-0.02455258
41	0x3d18910b	0.0372477
42	0x3c52684c	0.012842249
43	0xbb9ea5b7	-0.004841532
44	0xbc4db80a	-0.012556085
45	0xbcf00989	-0.029301422
46	0x3c56b72d	0.013105196
47	0xbcbfbd1d	-0.023405606
48	0x3ccfa0ad	0.02534517
49	0x3c7c4a73	0.015398609
50	0x3be7195c	0.0070525836
51	0x3c8895b8	0.016672954
52	0xbc95e605	-0.018298158
53	0x3cfcd3b6	0.03086267
54	0x3c24266e	0.010018928
55	0xba48022b	-0.00076297176
56	0x3ae8cdc3	0.0017761517
57	0x3d1d7be5	0.038448233
58	0x3c9efe9c	0.019408517
59	0x3c8508ac	0.016239487
60	0x3bfd7b2c	0.0077356305
61	0x3ca28639	0.019839393
62	0xbc721f1c	-0.014777925
63	0x3cc5b819	0.024135636
64	0xbc53f541	-0.012936891
65	0xbd08a02e	-0.033355884
66	0xbc482a6c	-0.012217145
67	0xbcb70060	-0.022339046
68	0x3c2372ec	0.00997613
69	0xbc03f2b3	-0.0080534695
70	0x3afdb50a	0.0019356322
71	0x3b84c91b	0.004052294
72	0xbcd853ee	-0.026407208
73	0xbc908d12	-0.017645393
74	0xbc80e02b	-0.015731892
75	0xbb82ef78	-0.003995832
76	0x3c155537	0.009114555
77	0xbcbe355b	-0.023218801
78	0xbc9aacb4	-0.01888118
79	0x3cc50c0a	0.024053592
80	0xbc97c2e8	-0.018525556
81	0x3c972f21	0.01845509
82	0xbcebeefa	-0.028800476
83	0xbb6eb7b7	-0.003642542
84	0x3cfe5c17	0.031049771
85	0x3c1e7a7a	0.009672755
86	0xbc8ca3ae	-0.017167892
87	0xbcceca52	-0.025242958
88	0xbaac0d99	-0.0013126611
89	0x3d158222	0.036501057
90	0xbd070981	-0.032968048
91	0x3c4055d4	0.011739213
92	0xbcaf6571	-0.021410676
93	0x3d24c0a6	0.040222786
94	0x3d0339c2	0.032037504
95	0xbcccfcd1	-0.025022896
96	0x3d417407	0.047229793
97	0xbcfac453	-0.030611193
98	0x3ce53816	0.027980845
99	0x3cacc53a	0.021090139
100	0x3c4b711a	0.012417102
101	0x3d38fd6d	0.04516356
102	0xbb1e98d3	-0.0024199977
103	0xba167668	-0.000573969
104	0xbcb574c7	-0.02215041
105	0x3ca9e804	0.020740516
106	0x3cbce895	0.023060123
107	0xbb24aecb	-0.0025128599
108	0xbc666c7d	-0.014063952
109	0xbc339a9f	-0.0109621575
110	0x3d0f3326	0.03496089
111	0x3d0779f8	0.033075303
112	0xbc0beccb	-0.008540343
113	0xbc9f1680	-0.019419909
114	0xbccca68e	-0.024981763
115	0xbcc54285	-0.02407957
116	0xbc9b5001	-0.018959047
117	0xbcaa2491	-0.02076939
118	0x3b0896ea	0.0020841905
119	0xbc6d7b38	-0.01449471
120	0x3c775d2c	0.0150978975
121	0x3cba967f	0.02277684
122	0x3c82e609	0.01597883
123	0xbcc9d428	-0.024637297
124	0x3d223b4a	0.039607324
125	0xbca7297e	-0.020405527
126	0xbc00f3a9	-0.007870593
127	0xbcaa9fcd	-0.020828152
128	0xbcd5c1b0	-0.026093334
129	0xbd0d9e5a	-0.034574844
130	0x3cc549b3	0.024082994
131	0xbc9cb4f6	-0.019129258
132	0x3c0b3514	0.0084965415
133	0xbca0a7cf	-0.019611267
134	0xbcae1332	-0.021249387
135	0x3d1cd455	0.038288433
136	0x3c4c5835	0.012472202
137	0x3b3be528	0.0028670523
138	0x3b8beb49	0.0042699915
139	0x3cfd2929	0.030903416
140	0x3bf6cbd3	0.007531622
141	0xbcb5b7b1	-0.022182317
142	0x3d1f2b2c	0.03885953
143	0xbb8db86b	-0.004324963
144	0x3d0caa52	0.034342118
145	0x3c64dc3b	0.013968523
146	0xbd1108c0	-0.035408735
147	0xbc15c53e	-0.0091412645
148	0xbb0f4921	-0.0021863657
149	0x3bd68e9f	0.0065477635
150	0xbcc71267	-0.024300767
151	0x3d1727dd	0.03690325
152	0xbcbd549a	-0.02311163
153	0xbc482ba7	-0.012217439
154	0xbc64461c	-0.013932731
155	0xbceed556	-0.02915446
156	0xbc10006f	-0.008789166
157	0xbc5f96e4	-0.013646815
158	0xbd83f4d2	-0.0644318
159	0x3c097ade	0.00839111
160	0xbb6d79c6	-0.0036235913
161	0xbcfce8dd	-0.030872757
162	0x3cec8786	0.028873216
163	0x3bb1d12b	0.005426546
164	0xbd2df866	-0.04247322
165	0x3cf65422	0.030069415
166	0x3c6e3fa6	0.014541542
167	0xbcd67b3f	-0.026181815
168	0xbcfbb75f	-0.030727087
169	0x3cf688a2	0.030094448
170	0xb911cbcb	-0.00013904196
171	0x3b000911	0.0019536654
172	0x3d102cf9	0.03519914
173	0xb9d0eeb5	-0.00039850702
174	0x3aabdba8	0.0013111727
175	0xbd12f61e	-0.035879247
176	0x3cf7f2d2	0.030267153
177	0xbd1c4d03	-0.03815938
178	0xbd08f104	-0.033432975
179	0x3cfd085a	0.030887771
180	0x3cf8a676	0.030352812
181	0xbca560c5	-0.020187745
182	0x3bbb726a	0.0057204263
183	0xbc67e1db	-0.014152969
184	0xbcaaa2af	-0.020829527
185	0xbd2fb6a7	-0.0428988
186	0xbb9f8a27	-0.004868764
187	0x384473f2	4.6838024e-05
188	0xbcbac3fd	-0.022798533
189	0x3c4ad872	0.012380706
190	0x3cea0b62	0.02856988
191	0x3caad23c	0.0208522
192	0xbca5de3d	-0.020247573
193	0x3c98385f	0.018581567
194	0x3cf98920	0.030460894
195	0x3d3356a7	0.04378381
196	0x3d286f71	0.041121904
197	0xbc5e0077	-0.0135499155
198	0xbce3f262	-0.027825538
199	0xbd155b22	-0.036463864
200	0xbcb031b6	-0.021508079
201	0x3c22600e	0.009910597
202	0x3b99d0c4	0.0046940763
203	0xbcb9e306	-0.022691261
204	0xbd012d48	-0.031537324
205	0xbcc8fee5	-0.024535606
206	0x3cec1304	0.028817661
207	0xbd0a236b	-0.033725183
208	0xbc58a239	-0.013222271
209	0xbd23bc2b	-0.039974373
210	0x3d29ec03	0.041484844
211	0xbc4cf0b4	-0.01250856
212	0x3af280b4	0.0018501491
213	0x3c7c7433	0.015408563
214	0xbc925db8	-0.017866954
215	0xbc573add	-0.013136593
216	0x39e56188	0.0004375095
217	0xba7a73d9	-0.0009554006
218	0xbcd97a8b	-0.02654769
219	0x3d108dab	0.035291355
220	0x3cafba31	0.021451088
221	0xbc8fb108	-0.01754047
222	0x3d05a785	0.032630462
223	0x3d0c0705	0.03418638
224	0x3c3f25f0	0.01166676
225	0x3cc11a90	0.023572236
226	0xbcfe185d	-0.031017477
227	0x3c4c8821	0.012483628
228	0xbc5e1724	-0.013555322
229	0xbc8f832e	-0.017518606
230	0x3cdbb7ad	0.026820982
231	0x3cd35074	0.025795199
232	0xbb3ef022	-0.002913483
233	0xbcb1fa72	-0.021725867
234	0x3ce4ca89	0.027928608
235	0xbc56bbd0	-0.013106301
236	0x3c2b7332	0.010464476
237	0x3c361915	0.011114378
238	0xbb24aff2	-0.0025129286
239	0x3c18e0c2	0.00933093
240	0x3c388e02	0.011264326
241	0xbabb50fa	-0.0014291101
242	0x3ce7e26e	0.028306212
243	0x3bc805da	0.006104213
244	0x3ceabe96	0.028655332
245	0x3a846d1b	0.0010103317
246	0x3cd071f8	0.02544497
247	0x3a1d5009	0.0006001001
248	0xbba092bf	-0.004900306
249	0x3d114f02	0.03547574
250	0xbc3a975f	-0.011388629
251	0x3bda0989	0.0066539687
252	0x3d06b8d3	0.032891106
253	0xbc2f8c2b	-0.010714571
254	0xbce7cdbc	-0.028296344
255	0x3cf3c272	0.029755805

action_model._discrete_distribution.branches.0.bias f4 [5]
0	0x3b0c206e	0.0021381634
1	0xbc2e3528	-0.010632791
2	0x3c46e947	0.012140579
3	0x3bb03e27	0.005378503
4	0xbbdf5192	-0.006815144
