results/tb2/Fork1/Fork1-99977.onnx (onnx, 326987 bytes, 6 tensors)

network_body.linear_encoder.seq_layers.0.weight f4 [256, 54]
00000000: df27 ce3d effb 123e 45e4 583e 30e2 c13d
00000010: 28b7 bf3d b9bd 09be 098e 9fbd f62a afbd
00000020: f6a1 7fbd 6756 12bd db0c bc3e a92c 0ebd
00000030: 184e 17bd e482 c73c b09b 1fbd 3729 a1be
00000040: 0e56 04bd db0c 13bd 8a5e 543d e44a b53c
00000050: 8f09 ab3d 7792 cebc a427 67bd 08cf 8d3d
00000060: c77f 483e c3d2 c3bd 22a9 76bd a68b 07bc
00000070: f2e3 823e f576 18be a841 343e f435 243c
00000080: a4b2 073e 52a9 ccbd 5c6d a73b c98d 063e
00000090: 4deb 01be f73b 43bc 21d3 e9bd c296 0e3c
000000a0: fac1 363e 5e83 073e 7f24 c1bd 18eb dc3b
000000b0: 7ac7 453e 86af 2a3e 9132 873e 81c9 c3bd
000000c0: 09c3 913e 0991 b43e 3c49 3e3e efee 9abe
000000d0: b68f 883d 37e3 e8bc 46e9 323e 6616 743e
000000e0: 1aab 713d 3924 e13d 5804 e43d 40a4 adbd
000000f0: e9b5 ccbd f92f 8f3e ad90 503e 6db6 aebc
00000100: fb5f 27be a979 c0bd d9ce 9d3d c975 87be
00000110: db07 2d3e f9e4 f8bd f3c8 1abd 1953 0a3e
00000120: 2add 053e 9895 df3c 9ac8 62be 1244 4f3d
00000130: 393c 09bc 4394 4dbd 7373 8b3c 8a9b 5e3e
00000140: a4db c83d 1e49 75be d0d4 39be 49bf e8bd
00000150: 2129 b73b be69 14bb 0540 1fbe 8431 02bd
00000160: ad8b c73d dff0 72bd 7f2b ff38 13a5 25be
00000170: da1c 163e 8477 573e b4ff 153e 7aee 143b
00000180: e97b 123e 084f 7a3d 8e1c c63d d20a 3bbd
00000190: c909 2bbe d2e3 323e 5ee4 55be 3b99 35be
000001a0: 7da1 bfbd 7841 9c3c d6ef a1bd cff5 373e
000001b0: f9e4 9e3d d968 4f3e 4a1c 52bd a590 58be
000001c0: fcb4 35bd ea3e e63d 4f97 2d3e bf0c 20bd
000001d0: 8117 1ebe bca8 393d 5281 64be 5104 85be
000001e0: aad5 0fbe 40ce 323c 280c f73d e1df 30be
000001f0: b8ea a0bd 2a4f 553e c3fb a73e bed6 fb3d
00000200: 51d6 b43d 72e8 0fbe 99e9 933d fc48 8b3e
00000210: 5938 053e 1b6c 14bc e6f6 1bbd eafa 2ebe
00000220: 4c03 c23d 5a76 383e ffdb 5d3e d89d edbd
00000230: 4900 3f3e ae3c 743e d823 c8be 856d 133e
00000240: a4e3 90be 0814 1a3d 5cb2 69be bc31 653d
00000250: 3349 033e 1b9d 133e 4520 62bd 2a61 453d
00000260: 209d e0bd 4e8e 34be 1636 c2be 4047 fc3d
00000270: 2cf0 1a3d 5c49 343e 3492 9fbc 2ebd 3b3d
00000280: 1e00 96bd c425 343e 6ac5 f4bd b12f 29bd
00000290: 3a1c 08be 2100 a1bc 1360 d43d 9317 413e
000002a0: 9b53 25be e18d 6a3e c39d 57be e3a3 58bd
000002b0: 8609 cbbb 5296 3d3e d4f5 cf3b cf7f 38be
000002c0: 04c2 6d3e eaf4 3a3d f402 373e bef2 acbd
000002d0: d089 8abd d06d dbbd 736c 01be 6d3b 8fbd
000002e0: 8801 9c3d 5635 e6bd d1c8 07bd 19fa cbbc
000002f0: 87b0 2abd 9798 293b 0a10 6a3e fad1 0a3e
00000300: b64f 86bd 4a24 ba3d 690a 3d3e f2ea 98bc
00000310: 15ec 043e 16d6 34be 25d3 6a3d 1f73 6c3e
00000320: b809 7a3c d1a2 a73d f746 5dbe fa85 293d
00000330: ff0a bb3d 0b6c de3e d17f b33d b0b2 99bd
00000340: 3d94 3a3e b235 ac3d 3486 13be 0e92 d9bc
00000350: ae01 c73d fbd0 a9bd e3c1 2d3e ac50 a63e
00000360: 0ec0 53be ff46 80bc 3914 363e b361 cd3d
00000370: 2a93 263d 6188 74be 65ac 563e 3038 86be
00000380: 824a a53c e20a c4bd 156f c53e 8d96 243c
00000390: 7604 723d 0436 263d b323 f6bd d9f5 82bd
000003a0: 2240 ffbd 76ee 523e 0021 23bd 4307 34bc
000003b0: 2a55 8ebe 6db3 b83d afa9 69bd e305 dd3d
000003c0: aef5 1ebe feaf 43bb 7af6 2c3d 1930 df3d
000003d0: e21d 2bbd 0324 113e e1ca 1fbd 08b5 88bd
000003e0: 1af0 aa3c 5b21 1a3e da3f 3dbe 05d8 773d
000003f0: 1acd 2bbe 354c a83d 0592 243d b38e a43c
0.100661986 0.14353918 0.21180828 0.0946697 0.09361106 -0.1345128 -0.07790763 -0.08553116
-0.062410317 -0.03572693 0.36728558 -0.03471056 -0.03693971 0.024354406 -0.038966835 -0.31476757
-0.03230863 -0.03590093 0.051847972 0.022130437 0.083514325 -0.025216324 -0.05643429 0.06924254
0.19579993 -0.09561684 -0.06021989 -0.008273041 0.25564533 -0.14889129 0.17603171 0.010022629
0.1325174 -0.09993233 0.005109472 0.13140024 -0.12687416 -0.011916152 -0.11417223 0.008702936
0.17847434 0.13233706 -0.09430789 0.0067418925 0.19314376 0.1666852 0.26405767 -0.09559918
0.28469113 0.35266903 0.18582624 -0.30260417 0.06668036 -0.028428657 0.17471799 0.2383667
0.059001066 0.10993237 0.11133641 -0.08478594 -0.09995634 0.27966288 0.2036769 -0.021327222
-0.16345207 -0.09398205 0.07705469 -0.2645705 0.16897528 -0.12153048 -0.037789296 0.13508262
0.13072649 0.027293012 -0.22146836 0.050602026 -0.008376175 -0.05019022 0.017022824 0.21739021
0.09807518 -0.23953673 -0.18147588 -0.1136461 0.0055896197 -0.0022646035 -0.15551765 -0.031785503
0.09743438 -0.059311744 0.00012167449 -0.16176252 0.14659443 0.21041685 0.14648324 0.002272515
0.1430508 0.061110526 0.09673415 -0.045664616 -0.16702951 0.17469719 -0.20887896 -0.17734234
-0.09356973 0.019074187 -0.07907073 0.17964862 0.07758517 0.2025484 -0.05129651 -0.21148928
-0.044362053 0.11242469 0.16952251 -0.039074656 -0.15438654 0.045326933 -0.22314957 -0.25979856
-0.1404635 0.010913432 0.120628655 -0.17272903 -0.07857269 0.2083098 0.32809266 0.12296818
0.0882994 -0.14053515 0.072222896 0.2720412 0.13009776 -0.0090589775 -0.038077258 -0.17087904
0.09473285 0.18013898 0.21665953 -0.11602372 0.18652453 0.23851272 -0.39089847 0.14397247
-0.28298676 0.03761676 -0.22821945 0.055955634 0.12820892 0.144154 -0.055206556 0.048188366
-0.10967469 -0.1763241 -0.3793189 0.12318277 0.037826702 0.1760611 -0.019478895 0.045834713
-0.07324241 0.17592531 -0.11951716 -0.041305248 -0.13292018 -0.019653382 0.10369887 0.18856649
-0.16145174 0.22905685 -0.21056275 -0.05289067 -0.0061962036 0.18514374 0.0063464437 -0.18017505
0.23218542 0.045643725 0.1787222 -0.08444737 -0.06764567 -0.107143044 -0.12639026 -0.069937564
0.076174796 -0.11240642 -0.033150498 -0.02489953 -0.041672256 0.0025878304 0.22857681 0.13556662
-0.065581724 0.09088953 0.18461002 -0.018666718 0.12980683 -0.17659792 0.05733027 0.2309079
0.015261106 0.08185352 -0.21609102 0.041387536 0.09132957 0.43441805 0.087646134 -0.07504785
0.18220611 0.08408679 -0.14406663 -0.026558902 0.09717117 -0.08291813 0.16968493 0.32483423
-0.20678732 -0.015658854 0.17781152 0.100284 0.04066769 -0.2388015 0.20964201 -0.26214743
0.02017713 -0.09572388 0.3856131 0.01004566 0.059086286 0.040578857 -0.12018528 -0.06394548
-0.12463404 0.20598778 -0.039826393 -0.010988059 -0.2779935 0.09018598 -0.05704659 0.107921384
-0.15523407 -0.0029859538 0.042227246 0.10897846 -0.041776545 0.14173894 -0.03901184 -0.06675154
0.020866442 0.15051787 -0.18481389 0.060508747 -0.16777459 0.0821766 0.040178318 0.020087576

network_body.linear_encoder.seq_layers.0.bias f4 [256]
00000000: 29f6 1a3d de01 8fbc b6e3 883b 880c c43c
00000010: 5eba e13c 0f41 e43c 2b01 c63c 12fe bdba
00000020: 7bfd 453c bd8b 203d 52ec 53ba 8a3e b13c
00000030: 891a a7bd 7b5a d83c cfda ad3c dfa3 be3a
00000040: ae4d 0b3d f131 9d3c 7b6f 703c 8baa 363c
00000050: 2a69 1dbb 8321 da3c 4b1e 0a3c cf7d cfbc
00000060: ba47 a3bc 40df 2f3d 2fe8 ebbb 8a5b 453c
00000070: b82f 523c eb20 6d3c 3eb6 80bb c35c debc
00000080: 5eba ae3c d6ee f03c 2479 66bc 03ca 753b
00000090: be2b f8bb 6f59 02bc f7f2 8cbd a29e 693c
000000a0: 9f4f 4b3b 7cf0 4d3c 7436 61bc 3293 e53c
000000b0: 8d80 353c 7a3b 2bbc 822a a2bc 849f d83c
000000c0: c354 363d d320 723c fc61 483b 5d92 a8bc
000000d0: e617 1b3c bb78 3fbc e9b1 12bc d8fe ed3b
000000e0: 8a88 843d 15f8 34bd dccb 523c 6d7b 0e3c
000000f0: fd8a 263d 78c8 123d 754e 393c bbfb 12bd
00000100: fed1 99bc 0cbf 4638 e439 d63c 3379 493b
00000110: 1d99 d43b 1486 b7bc d69f dfbb 6cb8 d53c
00000120: 8a19 aa3c 9737 e0bc b9dc c13c 2f41 423c
00000130: 9466 1ebc bfdf be3c d781 31bc d37a aa3c
00000140: 15be 9dbd 3935 74bc 9ae3 c33b be32 63ba
00000150: 481e 91bb bf9b 883c cba6 333c ce37 1bba
00000160: e171 c2bc 6a6f d1bb 402b e23b 1723 043d
00000170: afb1 3c3d 8812 5b3c 050a 343c 22a0 283d
00000180: c68b 19bd ece0 623c 23aa f23b 0c65 1ebb
00000190: 5874 f13c 8d00 1e3c 3e6a 2bbb 619f 1e3d
000001a0: 5801 eebc dafe d43a 2670 613c 2d3b afbd
000001b0: 57aa be3c 02d5 a0bb c368 8cbc 2996 5c3c
000001c0: f0ef a63b 6b98 633b 3ab5 d73c 26b9 953b
000001d0: dff9 87bb 4104 1c3c ae47 0e3c 01e3 f6bb
000001e0: 5245 11bd 969a 05bc 8901 3d3c 7dd5 803c
000001f0: 2a9d a33b 1b1f 8338 7348 6a3a 52d2 a43c
00000200: 1556 b33b 3548 83bc 0d22 463c 4f73 893b
00000210: a282 4e3c 9981 f83b ed30 cd3c 75fd 473b
00000220: ef3e 223d 28f0 11ba 085e 003c 7289 3dbd
00000230: e706 bd3c e9d6 fa3c f5a5 db3c 80ff 6bbc
00000240: 4d69 ab3c 304a 733c 0f06 6f3d e9b8 7b3c
00000250: c04e 043c 5bc6 ba3a f216 dbbb 03ba 9b3c
00000260: 2fb2 c33b 3337 0ebd 1cc1 d93b 3bac 753c
00000270: fea3 ba3b 952c 403c c7d6 88bc 071a 7bbb
00000280: 3f6e e7bb fc32 15bc 7638 0d3d 3819 063c
00000290: 4760 2a3c e660 0b3c 7196 a53c 5b91 4c3a
000002a0: 2b1d f4bb a606 6d3c 2bb5 5e3c 0871 6f3d
000002b0: 5442 15bb 716c 643c f505 9e3c b43e 6fbb
000002c0: 789c 473a 557b cf3c 70bf 783c 2c04 a93c
000002d0: 0dc5 2e3d 30a0 f83b 968c 11bc 3358 7eb9
000002e0: 5400 1b3d 393f 063c 510e 493c 4fb8 d33c
000002f0: cab3 aebc acc3 523c b2b2 9a3c 9096 57bc
00000300: 83f9 ad3b 120b e23b 1e92 fcbb cba9 13bc
00000310: f507 973c 63e3 36bd fdd0 2bbb 6581 0c3b
00000320: fa17 1e3d 99be ddbc 6345 1c3c 81b0 7e3c
00000330: 2626 90bb e8a5 c1bb f282 153d e5a4 4abd
00000340: 72d2 8b3b f438 933b a04e d33c 92d3 2c3d
00000350: 126f 673c d9f9 e13b f40f 07bd e93b cb3c
00000360: 80b9 c83a 508d a4bc dc97 fe3c d504 143b
00000370: bbbe bd3c 84ec f5bb b9b1 89bd 3f5c 473c
00000380: 8f6a 30bc 6bf4 0e3c 56ea 983c f2dc 023b
00000390: 958a 613d 1232 06bc 9387 943d 707b 073a
000003a0: 2ca8 d23c 1067 a03c 61a0 31bb 5029 a93c
000003b0: 3c5f f6bb f0cc 513b b848 20bd 1cd3 1cbc
000003c0: 3fb2 323c 1125 c93c 9d0f ce3b ac52 0fbc
000003d0: ea25 723d c44d 463c d1f7 d2ba ec12 21bb
000003e0: e2c2 dbbc 388d 473c bd9a 553c 876c 973c
000003f0: c06d af3b 2efd ec3b 8c69 933c 6e2a ee3c
0.037832413 -0.017456945 0.004177536 0.023931757 0.027554687 0.027863054 0.024170479 -0.0014495275
0.01208436 0.039195765 -0.00080842257 0.021636266 -0.08159358 0.026410332 0.0212225 0.0014544687
0.034009628 0.019188853 0.0146750165 0.011149059 -0.0024018981 0.026627308 0.008430074 -0.025328545
-0.019931663 0.042937517 -0.0071993093 0.01204575 0.01282876 0.01447318 -0.003927975 -0.027143842
0.021329101 0.02941076 -0.014066968 0.0037504442 -0.007573574 -0.007955893 -0.06882279 0.014259012
0.00310228 0.012569543 -0.013745893 0.02802429 0.011078012 -0.010451192 -0.01979566 0.02644325
0.04451443 0.014778334 0.0030575981 -0.020577604 0.009466147 -0.011686499 -0.00895355 0.0072630458
0.06471355 -0.044181902 0.012865987 0.008696419 0.040659893 0.035835713 0.0113102095 -0.0358846
-0.01877689 4.7384805e-05 0.026150651 0.0030742406 0.006487979 -0.0224028 -0.006824474 0.026088916
0.020764131 -0.027370257 0.02366482 0.011856361 -0.009668011 0.02330005 -0.010834179 0.02081052
-0.07702271 -0.014905267 0.00597806 -0.0008666924 -0.0044286586 0.016675828 0.0109650595 -0.00059210963
-0.023735942 -0.0063914554 0.0069021285 0.032260027 0.04606789 0.013371117 0.010988717 0.04116834
-0.037486814 0.013847571 0.007405536 -0.0024169115 0.029474422 0.009643686 -0.0026155855 0.038726214
-0.029053375 0.0016250268 0.013759648 -0.08556209 0.023274584 -0.004908205 -0.017139798 0.013463535
0.0050945207 0.00347283 0.026331533 0.0045691906 -0.00414966 0.009522499 0.008684082 -0.007534385
-0.0354665 -0.008154532 0.011536011 0.0157268 0.0049931007 6.2523606e-05 0.00089371874 0.02011982
0.0054729083 -0.016025642 0.012093079 0.004194654 0.0126043875 0.0075838086 0.025047744 0.0030516062
0.0396108 -0.0005567097 0.007834919 -0.046273656 0.02307458 0.030620055 0.026812533 -0.014404178
0.020924235 0.014849231 0.058355387 0.01536391 0.008075416 0.0014249788 -0.006686085 0.019009596
0.005972169 -0.03472061 0.006645335 0.014994676 0.005695819 0.011729379 -0.016703976 -0.0038315074
-0.007062703 -0.009106394 0.034477673 0.008184724 0.010398931 0.008506989 0.020213338 0.0007803642
-0.007449766 0.014466917 0.0135929985 0.058457404 -0.002277513 0.01394187 0.01928995 -0.003650588
0.0007614563 0.025327364 0.015182361 0.020631872 0.04266839 0.007587455 -0.008883616 -0.00024256184
0.03784211 0.008193784 0.01227148 0.025844721 -0.021325964 0.012864035 0.018884037 -0.0131584555
0.005309285 0.0068982923 -0.007707848 -0.00901265 0.018436411 -0.044650447 -0.0026217096 0.002143943
0.038597085 -0.027068423 0.009538027 0.0155450115 -0.004399079 -0.00590967 0.036501832 -0.049473662
0.0042670304 0.0044928733 0.025794327 0.042193957 0.014125602 0.0068962392 -0.0329742 0.02480884
0.0015314072 -0.020086914 0.031078272 0.0022585888 0.023162236 -0.0075050015 -0.06723351 0.012167989
-0.010767593 0.008725266 0.018666428 0.001996812 0.055063803 -0.008190649 0.07252421 0.0005168235
0.025714956 0.019580394 -0.002710365 0.020649582 -0.007518677 0.0032013021 -0.03913185 -0.009571817
0.010906755 0.024553807 0.0062884823 -0.008747738 0.05911819 0.012103502 -0.0016095584 -0.0024577929
-0.026826326 0.012179665 0.013037381 0.018484367 0.0053536594 0.00723233 0.017994665 0.029072966

network_body.linear_encoder.seq_layers.2.weight f4 [256, 256]
00000000: 4a38 62bc 1d92 debd 7760 8e3d a6c8 563e
00000010: f46f 823a 8245 e73a 4fe6 bb3d 3175 6a3d
00000020: 4b87 8e3c 85b5 653b bbf8 3fbd 6dc4 4a3d
00000030: 91a3 03bd 7d54 94bd 34cd 283d bab3 abbd
00000040: 35ac fc3c b777 53bc 5d0f afbb e18f a7bb
00000050: 2231 ce3c 7206 97bd f469 31bd 2c1a 5f3c
00000060: 83d6 35ba c284 babc e83b 81b9 41b5 d0bd
00000070: 4d5c 133e f349 903c 3242 c4bd df00 013e
00000080: 5ed3 15bd f103 8c3d 7e2c 373d 24b7 243b
00000090: fe59 8ebd fa9d 303d f4d0 d63c a26a eebc
000000a0: b42e 7dbc 619a 5bbd 3d86 91bd c88f a4bc
000000b0: 7593 03be faa9 223d 8a8d 2cbd ed04 043d
000000c0: fc6c 23be ce1d 9e3d cbd7 693b d0e9 3cbd
000000d0: a8fb d5ba 1176 b63d 6737 873c c8da f23c
000000e0: e356 0e3e 4b18 0fbe 1f39 b7bd a22e 5a3c
000000f0: a2d7 13be 2869 1d3b fd04 653e f38a 8e3c
00000100: 03c0 813d 5c11 bb3d 7c4b fb3c d134 de3d
00000110: 7875 37bd bd20 b9bc 9c4d 37bd f435 c33c
00000120: 2d1d bcbd 243e 593d 16bf 1fbd 866b 6f3d
00000130: 9030 55bd 6475 503d d80d 313e b838 033e
00000140: 434e 9d3d dafe 143c 7735 71bc 6016 24bc
00000150: bb2d c63d a269 8aba 957f 3fbd f4f9 003d
00000160: 9b85 023e 59d3 1abc 1093 c43d d9a5 e9bc
00000170: e891 053e 1b0e 30bb 12c0 bd3d 6825 b7bd
00000180: e917 0bbd 9005 32bd a1f3 5cbd ca95 803d
00000190: d275 463e 0d8f ddbd e8c0 f33c 14fd 06bd
000001a0: 8d30 f8bd 200a 693c a2bf 4ebd 397b 4f3d
000001b0: b9db d43a 63a7 9fbc 933d b6bc f611 d43d
000001c0: 4a92 90bc 481c 3abc b041 22bd a522 6b3d
000001d0: 6984 e23c 1665 873d 1c61 aebd 0e33 d13c
000001e0: 01da 703d d8f8 8a3d 0bc1 bdbc 6f8a 29bd
000001f0: 166d 36bd d6b2 7abc 8d87 db3d ab20 883c
00000200: ee95 78bd ba56 93bc 98a7 94bb adb2 fdbc
00000210: e150 b3bd 9fe3 09bd 6f7f 2ebd fb1e 81bd
00000220: 9f3e a03c da39 06bd 05c0 0fbe 2c6e 25bd
00000230: 6c6a b73d 12db afbc c2fe d83d 23f1 a63d
00000240: 70a5 d23d 19f3 a73d fc49 a03d fc1a 723c
00000250: 4746 0f3e 288c c03d 5e16 283d bbe3 22bd
00000260: 1355 febd cdf4 853c 13cf 49bc c391 fb3d
00000270: 0d6a b73c b34b e93d 61b4 44bd fc10 453d
00000280: f07a 413d 2043 ce3a 1d5c 15bd a245 a23d
00000290: 761f 643c 01de 7bbc 905d c23d d879 183d
000002a0: f91d 07bd 49eb 9cbd f9e8 9c39 0bc0 bf3b
000002b0: beae 763d 8ac9 ff3c bc9f 213b 1c2a df3d
000002c0: d572 d93d d2c3 b43d fbf5 19bd a140 abbc
000002d0: f3b7 003b 7406 bcbc 60f3 cd3c 6e18 dfbc
000002e0: 683c 0e3e 0fe4 1c3e 0c43 f0bc 7ddd 783c
000002f0: 7a69 da3c 5cde b0bd 8065 6cbc 16a3 9d3d
00000300: 327c 85bc 4338 bc3d 223b 283d 8e62 303c
00000310: 680f adbc 50e8 fabc e5dc 92bc 28f2 8f3d
00000320: 8bd7 cb3d 05c6 b0bc 493e d3bc 81ad 2f3d
00000330: 75ed bc3c 2dda e5bd 5b4b c4bd 06c5 b1bc
00000340: daa4 d83c 48bc 303d 5851 ccbd 89da a3bd
00000350: 2cb3 7b3d b44a c7bc 7509 943c ccb8 9d3d
00000360: d54b 9b3d 21f8 b8bc 7530 cebc e74f 9b3d
00000370: a22b 19bd 7c42 6b3c b200 c83d e097 223d
00000380: 6585 0e3e 0831 94bd 58a0 9ebd 2952 913b
00000390: bf53 b0bd 615b e93c f173 a8bd 17ad 1fbd
000003a0: 1b8b 7e3d 1911 193e 3a33 e23d e981 44bd
000003b0: 019e 193d efcf c3bb 635f e3bc 74ee a6bc
000003c0: 3876 083d ccfe 0e3d 5542 283c 2048 983c
000003d0: 6759 3d3d 2f30 3ebd 6c6f 573d 8947 adbd
000003e0: dc95 0fbd d2ac 94bc 8394 13bd 343e 40bd
000003f0: 4d8a f63c 17aa f73c edd1 8f3c c8ee aebd
-0.013807366 -0.10867713 0.06951993 0.20974979 0.0009951578 0.0017644616 0.09174787 0.05724067
0.017398497 0.003505082 -0.046868067 0.049503732 -0.03213841 -0.07242677 0.041211322 -0.083838895
0.030843833 -0.01290696 -0.0053424076 -0.0051135872 0.025169913 -0.07374276 -0.043313935 0.01361708
-0.0006936567 -0.022768382 -0.0002464943 -0.101908214 0.14390679 0.017613387 -0.09582938 0.12597989
-0.03657853 0.06836689 0.044720165 0.0025133574 -0.069507584 0.04311941 0.026222683 -0.02910358
-0.015453029 -0.053614024 -0.07105682 -0.020088091 -0.12849219 0.039712884 -0.04212717 0.03223126
-0.15959543 0.077205285 0.00356816 -0.04612142 -0.001632561 0.08909238 0.01650591 0.029645339
0.13900332 -0.13974111 -0.08946442 0.013316782 -0.14437726 0.0024018977 0.22365184 0.01740024
0.063354515 0.091341704 0.030675642 0.10849918 -0.04478976 -0.022598619 -0.04475175 0.023829438
-0.09185252 0.053037778 -0.039000593 0.05845215 -0.052048266 0.050893202 0.17290437 0.12814605
0.07680943 0.0090939645 -0.01472222 -0.0100151 0.09676691 -0.0010560045 -0.04675253 0.031488374
0.12746279 -0.009449803 0.095983624 -0.028521465 0.1304394 -0.0026863876 0.0926515 -0.089426816
-0.03395835 -0.043462336 -0.05394328 0.0627857 0.19380882 -0.108183004 0.02975507 -0.032956198
-0.12118635 0.014223605 -0.050475724 0.050654624 0.0016239799 -0.019488996 -0.022246158 0.10354988
-0.017647881 -0.011359282 -0.039613426 0.057406086 0.027651029 0.066110775 -0.08514616 0.02553704
0.058801655 0.067857444 -0.02316334 -0.041391786 -0.044537626 -0.015301427 0.10719214 0.01661714
-0.06068986 -0.01798569 -0.0045365803 -0.030968988 -0.08755661 -0.033664342 -0.042602 -0.06304737
0.01956111 -0.032770015 -0.14038093 -0.04038827 0.08955845 -0.021466766 0.10595466 0.08151462
0.10285461 0.08200664 0.078266114 0.014776941 0.13991652 0.09401733 0.041036956 -0.039767962
-0.1241857 0.016352082 -0.012317437 0.12283661 0.022389436 0.113913916 -0.048023585 0.0481119
0.047236383 0.0015736558 -0.0364648 0.07923438 0.0139235165 -0.015372754 0.09490502 0.037225574
-0.03298757 -0.076620646 0.00029928217 0.0058517507 0.06022524 0.031224031 0.002466186 0.108967036
0.106176056 0.08826412 -0.0375881 -0.02090484 0.0019640892 -0.022952296 0.025140464 -0.027233329
0.1389023 0.15321372 -0.029328845 0.015189526 0.026661623 -0.08636162 -0.014428496 0.07697122
-0.016294573 0.091904186 0.04107202 0.010765685 -0.02112551 -0.030628353 -0.017927596 0.070286095
0.09953221 -0.021578798 -0.025786536 0.042890076 0.023062447 -0.11223254 -0.095846854 -0.021700393
0.026445795 0.04314831 -0.099764526 -0.08000667 0.06145017 -0.024327613 0.018070916 0.07701263
0.07582823 -0.022579255 -0.02516959 0.075835995 -0.037395127 0.014359113 0.097657576 0.03969562
0.13918073 -0.072359145 -0.07745427 0.004434843 -0.08609723 0.028485956 -0.08225239 -0.03898343
0.06214438 0.14947928 0.11044927 -0.047975454 0.0375042 -0.0059757154 -0.027755445 -0.020377375
0.033315867 0.034910962 0.010269721 0.01858908 0.04622784 -0.04643267 0.052596495 -0.0846091
-0.035055026 -0.018148813 -0.036030304 -0.04693432 0.030095244 0.030232472 0.017556155 -0.08541638

network_body.linear_encoder.seq_layers.2.bias f4 [256]
00000000: 3697 37bc 8933 3a3c 83a8 d03c 304a d03c
00000010: 7374 563c e17f 233d 876f 49bc 7cb8 da3b
00000020: d506 edbc 3561 6ebb 87ab 803c 6ef4 703c
00000030: fb40 3cbc 3e87 273d 9310 df3c 3c00 ffb9
00000040: fc22 633c 8ee2 ba3c f347 a53c f8b1 a4bb
00000050: 31eb 543b ba76 443c 145c 003d bbe9 3e3d
00000060: 3abe 65bc fc54 b1bc 2e19 ef3c 2685 6b3c
00000070: 1566 f13c cb7b 893c b1a6 053b f5dc 04bd
00000080: e78e 02bc 65d6 e03c b63b 69bc 3661 2d3d
00000090: 51b1 63bc dab9 903c 68e9 363d fe8e 093d
000000a0: 2af6 d5ba aba7 a03c d318 f2bb d87c 553c
000000b0: a6a2 f43c 646b 143c 8d6d 78bc b576 1a3d
000000c0: 4a99 903c d9b5 a43c 65d8 09bc 9335 61bc
000000d0: 2a34 173d 4bcf 02bb b456 afbb 67c9 2b3d
000000e0: 03e6 44bd 35c7 7f3c f059 243c 2aca 313c
000000f0: facb 0d3d 039b 8939 54c4 033d 66cb 1d3c
00000100: 0caa 28bc a865 5f3c 5578 a83c 8dbe 6abc
00000110: 2b98 c9bb 89a6 af3c 6e74 2a3c 9125 95bc
00000120: 32a1 d73b aab5 103c c80b 51ba 9093 c53c
00000130: 8a2d b33c 97e0 013d 9c7c c13b 27f3 f43c
00000140: c9d0 e53b 6a01 ffbb 73f0 403c eae0 eabc
00000150: f3ba 633c d09c 0a3d 9e37 003d ce4d 793d
00000160: 83e4 fd3b f89b 26bc 87b9 033d d376 7abc
00000170: b7e0 ca3c ff57 523b 68b3 9f3c 3084 293c
00000180: 705d 903c 1c55 b93a 3731 bebb d767 1c3a
00000190: dcb5 86ba 7594 903c 884f 083d 31fb 0bbc
000001a0: 7fd8 e33c 7721 e73a 5e4f 1d3b 2211 3e3c
000001b0: 78dc 8e3b 18d8 dcbc ab53 143c 9eb3 733b
000001c0: c710 d83c 5d1f 323b 3c7b ee3c 78b5 273a
000001d0: 9eea 2e3d 0b91 c33c 4fce ca3a 5e1b e6bb
000001e0: 95bd 56bb 963b 843c 6a86 4bbc 1f17 913c
000001f0: dd82 d13c 194c 1cbc d77c a7bc b749 313c
00000200: aa45 dd3c b1d7 063d 7ff7 413c b642 293d
00000210: 65c5 0c3d 0f82 9bbc 11e4 a23c d2c1 fe39
00000220: dda9 3b3c 7557 293c f4ef e03b ff5f 663b
00000230: b27b a03c ad07 b13c a393 d53b 5826 bb3b
00000240: f645 e3ba 8187 abbc bac9 0b3d 0852 40bc
00000250: e708 a63c 32b5 f53c 62a0 1c3d f950 a03c
00000260: cb56 4d3d d1fd 2d3d 0a65 a7ba 0ec9 70bc
00000270: 4c85 513c dd33 033d 7c46 cf3c 6f69 b83c
00000280: 80fa c43c 3879 bd3c 7ef2 a33c badb d73c
00000290: d043 e13c 8fcc f2ba 92f5 213c 4fed 793c
000002a0: 341e 823c cec0 b13c 4a64 2bbd e68e 063d
000002b0: 67d6 723c 4557 a4bc 7eac a9bc 29f1 ddba
000002c0: e39a a73b 2557 8b3d 7d09 3c3b b0e7 273c
000002d0: 9898 1a3c 41dc 663c cf7c 88bc 0838 f23c
000002e0: 7835 c73c 4146 e93c 711a ca3b 4128 963c
000002f0: 70d4 833b 78dc 9ebc e755 20bc 9703 2d3c
00000300: 8a6b c53c d934 933c eb95 dfbb 907b 5a3c
00000310: d612 ffbb 6b26 003d 7875 413c 488d b93c
00000320: 1a64 dc3c 9169 8bbc 73d2 153d 57bd d93c
00000330: 660c 843c 5a07 05bc 347d 4ebc f552 403c
00000340: 457f a3bb 3d5b cd3c 7321 c03b c715 4d3c
00000350: a174 1e3b 1642 e43c c7cd 73bc b331 c83c
00000360: 8ee4 4b3d 146a 113b 5d78 753c 6e20 703b
00000370: 70fe 1d3b cdcc 28bc 3dd3 c8ba a71f d33a
00000380: 4c1d 373c c4d8 a6ba 20ad 793c 3de8 cc3c
00000390: de77 86bc 90c3 d43b b7bf 46bb 9142 0d3c
000003a0: a6cb ea3c bd6e e83c 1b87 9b3c 4263 2d3a
000003b0: 0cdd d4bc 6764 383c 7eb6 813c 784c c43c
000003c0: 9cb4 cfbc a9ea 1c3d a971 c53b dbb9 8a3b
000003d0: 9521 8ebb 9945 6d3b 6188 ea39 e276 1bbc
000003e0: c44d 8e3c a1f3 603c 5c03 ed3b 5431 83bc
000003f0: be24 9e3c ddef d7b9 0df7 6d3b 7569 f63a
-0.011205485 0.011364826 0.025470978 0.025426 0.013089287 0.039916877 -0.012294657 0.0066748243
-0.028933922 -0.0036373858 0.01570679 0.014706714 -0.011490102 0.04090046 0.027229583 -0.00048637565
0.013863321 0.022813108 0.02017591 -0.0050260983 0.0032488818 0.011991197 0.031337813 0.04660962
-0.014022404 -0.021646969 0.029186811 0.014375007 0.029467622 0.016782662 0.0020393545 -0.032437284
-0.007968641 0.027445981 -0.014235428 0.042329036 -0.013897256 0.017666746 0.044656187 0.033583634
-0.0016323973 0.0196112 -0.007388213 0.013030253 0.029862713 0.009058807 -0.015162838 0.037710864
0.017651219 0.020106243 -0.008413409 -0.013745683 0.036914982 -0.0019959982 -0.005350912 0.04194012
-0.04807092 0.0156114595 0.010031208 0.010851422 0.034618355 0.0002624617 0.032169655 0.0096310135
-0.010294449 0.013635077 0.020565191 -0.014327657 -0.006152173 0.021441715 0.010403736 -0.01820639
0.0065804953 0.008832375 -0.0007974473 0.024118215 0.0218723 0.031708326 0.005904747 0.0299011
0.0070134145 -0.007782151 0.011776078 -0.0286717 0.013899553 0.033840954 0.03130304 0.060865216
0.007748188 -0.010169022 0.032159355 -0.015287119 0.024765356 0.0032095907 0.019494727 0.010346457
0.01762268 0.0014139744 -0.0058042067 0.0005966401 -0.0010277587 0.017648915 0.033278972 -0.008543775
0.027813194 0.0017633875 0.0024003605 0.0116007645 0.004359778 -0.02695851 0.009053151 0.0037185918
0.026375188 0.0027179339 0.029111497 0.00063975854 0.042704217 0.023872873 0.0015472862 -0.0070223054
-0.0032766808 0.016141694 -0.0124221835 0.01771122 0.025575096 -0.0095396275 -0.02044527 0.010820798
0.027010757 0.032920543 0.011838793 0.041323386 0.034367938 -0.018982915 0.019884141 0.00048591063
0.011454073 0.010335793 0.006864542 0.0035152433 0.019590233 0.021610105 0.006517844 0.005711358
-0.0017339576 -0.020938637 0.03412793 -0.011738308 0.020267917 0.029993627 0.03823889 0.01956986
0.0501316 0.042478386 -0.0012771201 -0.014696373 0.012788128 0.032031883 0.025302164 0.022511212
0.024045229 0.02312909 0.02001309 0.026349891 0.027498156 -0.0018524098 0.009885209 0.015254333
0.015883543 0.021698382 -0.04184369 0.032851122 0.014821625 -0.020061145 -0.020712133 -0.0016932833
0.0051148995 0.06803731 0.002869218 0.01024811 0.009435795 0.014090599 -0.016661076 0.029567733
0.024317488 0.028475882 0.006167703 0.018329741 0.0040231273 -0.019392237 -0.009786106 0.010559938
0.02409913 0.017969536 -0.0068232915 0.013335124 -0.007784228 0.03128664 0.011807792 0.022650376
0.0269032 -0.017018111 0.036577653 0.026579542 0.016119193 -0.0081194285 -0.012603093 0.0117385285
-0.004989537 0.02506792 0.0058633625 0.012517399 0.0024178403 0.027863543 -0.014880604 0.024437761
0.049778514 0.0022188472 0.01498231 0.0036640423 0.0024107955 -0.010302735 -0.0015321743 0.0016107456
0.0111764185 -0.0012729396 0.01523903 0.025013084 -0.016414579 0.0064930394 -0.0030326673 0.008621828
0.02866156 0.028373117 0.018985322 0.0006614217 -0.02598431 0.0112544065 0.01583409 0.023962244
-0.025354676 0.038309727 0.0060255122 0.0042335815 -0.0043374994 0.0036204814 0.00044733568 -0.009488793
0.017371066 0.013729961 0.0072330665 -0.016014732 0.01930463 -0.00041186708 0.0036310584 0.0018799739

action_model._discrete_distribution.branches.0.weight f4 [5, 256]
00000000: 4c41 8f3c 3888 eebc 28b9 8b3c b0f5 273d
00000010: 0629 823c 99bf 35bc 9cc7 6ebc f9c5 dbbc
00000020: 3770 64bc e0e8 8f3c a2a3 4fbd abce 363d
00000030: 25a7 363d d594 dabc 4344 df3c 69df ea3c
00000040: a4cb 0d3c 0b3b 6a3c 07ee ae3c 1508 cdbc
00000050: 1e83 3b3d fc5b 63bd a3a6 25bd 0a1b c5bc
00000060: 60ed b5bc 1d38 863c 7fff 64bd 245f fcbc
00000070: a5c7 b7bc 0d08 47bd 2835 02bd ba52 563b
00000080: 6201 ed3c 8fe2 023c aa79 f3bb 53fb 0fbd
00000090: ce74 913c 4bb2 f1bc 87db f4ba 1385 4dbd
000000a0: 9d43 fcbc 1112 3a3d 880e ec3b eed5 67bc
000000b0: 37e3 c9bc 0dfd 4ebd 2c6c ae3c f50c dfbc
000000c0: 580d d03c ec2a c73c 85e8 3a3c c9a8 7b3c
000000d0: 0da7 cabc 25a5 243d b9a7 a53c 5187 b338
000000e0: 2a6d 4139 edd6 403d 0d5d 003d 3e3f 833c
000000f0: 42f6 aa3b b321 a33c f7ca 90bc f838 013d
00000100: 615b 14bc 1710 51bd 4195 9ebc dd5d b9bc
00000110: 941c 803c fb4e 39bc 39c9 cf3b e019 8b3c
00000120: b161 d8bc c517 f6bc 0688 a6bc c2a1 ffbb
00000130: 75d0 cb3b 340c 0ebd 3b76 f1bc f986 fa3c
00000140: 660e 96bc b103 ea3c 7c95 29bd e510 9bbb
00000150: 7f00 183d 5876 a13c 835d 85bc 986e 9dbc
00000160: bc7d 00ba 6c2b 263d 63a9 57bd cbc2 7b3c
00000170: c09e 1fbd f16a 383d b8e4 193d f4b1 2ebd
00000180: 2635 523d 5356 14bd 4017 e13c 1ee2 e93c
00000190: 4d78 7a3c b785 4c3d 3a16 32bc c615 373c
000001a0: bb38 92bc fc66 b63c 8b66 f33c 5726 ddbb
000001b0: 67c8 b4bc b3e3 3dbc bef2 213d 45b3 133d
000001c0: 3692 8fba 1cde 03bd fe88 fbbc a273 03bd
000001d0: aa81 f0bc 2793 febc 5ee3 a0bb af91 86bc
000001e0: 0740 ed3c 7aab d63c c13a 663c d569 bcbc
000001f0: 9028 3a3d faf5 9fbc 1945 1bbc c9ff 84bc
00000200: d8c0 43bd d876 79bd 1fc9 033d 9009 afbc
00000210: f3b7 ce3b 7e0a 80bc ce05 c4bc 20c3 2d3d
00000220: ec1e a1ba da41 84ba d44a 94b8 a378 213d
00000230: cb64 933c 44ef 27bd 8a9a 353d 9c70 a1bc
00000240: ec8f 243d b112 fa3b e4e8 40bd 91b0 63bc
00000250: 919b 23bb c00a 2a3c 9b93 11bd f5bf 2e3d
00000260: 60e0 fcbc 5fb4 31bc e946 fdbc 1004 c2bc
00000270: bcf5 d9b8 0d2d dabc a328 a7bd 2624 5d3c
00000280: a822 623c e9f8 27bd 8675 063d 6ac1 4abb
00000290: 49ff 69bd 8031 113d 3ad8 763c 02de 04bd
000002a0: 8b04 1ebd 31a2 0d3d 98f9 81bb 32c6 843b
000002b0: 7a93 203d 379d eaba 0b00 dbba 282d 0ebd
000002c0: 3089 0f3d 333a 10bd 1c15 33bd 6e91 1a3d
000002d0: 0b39 0a3d 43a3 11bd a05c 373c 6415 89bc
000002e0: f5f3 c6bc 1410 68bd 8632 04bc 339a 8f3a
000002f0: 2584 f0bc 12d2 553c 94e4 f03c 9198 c33c
00000300: 493e febc f414 8f3c f9f2 063d 067e 643d
00000310: 2bbe 3d3d ff7f 5dbc ddde 27bd 5380 61bd
00000320: 1bed 07bd 6e85 ef3c 0328 ff3b df9d 28bd
00000330: aafe 52bd 2b68 0cbd 2e33 0c3d 202f 52bd
00000340: 4b00 a5bc 8b03 7abd 05d2 3d3d 70e5 7ebc
00000350: bc02 4bbc 0ac3 393c a2e0 0cbd c3f5 acbc
00000360: 20b0 e53a 0fe5 333c c67b 0fbd 2a75 1c3d
00000370: a625 0b3d 62f4 e2bc 7c06 1e3d 859f 193d
00000380: 8cf5 cc3c d9a7 c53c 622f 43bd 2bf7 123c
00000390: 3508 a0bc fe3a b0bc b5b4 fa3c 2436 0d3d
000003a0: 0ab3 0abc eca3 c7bc d6f2 0b3d b2ea f7bc
000003b0: 9cd0 863c 4e4f d03c c86f 97bc 91d0 893c
000003c0: b0cd e83b b044 f9bb bc67 f63c c617 2a3c
000003d0: 096c 1a3d b7c7 27bb 4f94 ff3c 32f5 6a3c
000003e0: 1551 d8bc f60c 373d a492 b0bc 37de 85bb
000003f0: c990 1d3d 3001 14bc 0446 a2bc 206d 153d
0.01748719 -0.029117689 0.017056063 0.04100579 0.015888702 -0.011093044 -0.014573958 -0.0268278
-0.01394277 0.017567098 -0.05069316 0.044630688 0.044592995 -0.026682297 0.02725423 0.028670983
0.008654509 0.0142963035 0.021353735 -0.025028268 0.04577934 -0.055507645 -0.04044212 -0.024060745
-0.022207916 0.016384179 -0.055907723 -0.030807085 -0.022434065 -0.048591662 -0.031788975 0.0032703117
0.028931323 0.007988586 -0.007430275 -0.03515179 0.017755892 -0.029503962 -0.0018681147 -0.050175738
-0.03079396 0.045427386 0.0072038807 -0.014150126 -0.024644477 -0.050534297 0.021291815 -0.027227858
0.025396988 0.024312459 0.011407976 0.015360066 -0.02473786 0.040196557 0.020221578 8.56059e-05
0.00018446581 0.04707997 0.03133874 0.016021367 0.0052173445 0.01991353 -0.017674906 0.03154847
-0.00905499 -0.051040735 -0.01935828 -0.022627765 0.015638627 -0.011310334 0.0063411263 0.016980112
-0.02641377 -0.030040631 -0.020328533 -0.0078012655 0.0062199184 -0.034679607 -0.029475322 0.030581938
-0.018317413 0.028566213 -0.041402325 -0.0047322386 0.037109848 0.019709751 -0.016279941 -0.019217774
-0.00049015484 0.040568754 -0.052651774 0.0153662665 -0.038969755 0.045023862 0.03757164 -0.042650178
0.051320218 -0.036215138 0.027476907 0.028550204 0.015287471 0.049932208 -0.010869557 0.011174625
-0.017849317 0.022265904 0.029711982 -0.006748955 -0.022068216 -0.011589932 0.039538138 0.036059637
-0.0010953608 -0.032194242 -0.030704971 -0.032092698 -0.029358704 -0.031076027 -0.004909917 -0.01642689
0.028961195 0.026204813 0.014052094 -0.022999683 0.04544884 -0.01952647 -0.009476923 -0.01623525
-0.047791332 -0.060904354 0.032174226 -0.021366864 0.0063085495 -0.015630003 -0.02392855 0.042422414
-0.0012292541 -0.0010090426 -7.071128e-05 0.03942169 0.017992398 -0.040999666 0.044336833 -0.019707017
0.040176317 0.0076316227 -0.0470971 -0.013897077 -0.002496455 0.01037854 -0.03554116 0.042663533
-0.03086871 -0.0108462265 -0.030917602 -0.023683578 -0.00010393138 -0.02663281 -0.08162048 0.013497388
0.013802208 -0.041008864 0.032826923 -0.0030938038 -0.057128225 0.035447598 0.015066201 -0.032438286
-0.03857855 0.034578506 -0.0039665215 0.004051947 0.039203145 -0.0017899637 -0.0016708387 -0.034711033
0.03504294 -0.035211753 -0.043721303 0.03773635 0.033745807 -0.03555609 0.011191517 -0.016733833
-0.02428625 -0.05665596 -0.008068686 0.0010955989 -0.029359886 0.013050573 0.02940587 0.02387646
-0.03103556 0.017466046 0.03294656 0.055784248 0.046323936 -0.013519286 -0.040984023 -0.05505402
-0.033185106 0.029238429 0.007786752 -0.041166183 -0.051512398 -0.03427903 0.034228496 -0.051314473
-0.020141741 -0.061038535 0.04634287 -0.015557632 -0.012390789 0.011338005 -0.034393914 -0.021113282
0.0017523803 0.010979905 -0.03503015 0.038197674 0.03397145 -0.027704421 0.038580403 0.037505645
0.02501943 0.024127888 -0.04765261 0.008970062 -0.019535163 -0.021512505 0.030603746 0.03447546
-0.008465538 -0.024370156 0.034167133 -0.030263279 0.016456895 0.02542844 -0.018485919 0.016823085
0.007104598 -0.007607065 0.030078761 0.010381645 0.037700687 -0.0025601217 0.031198649 0.014340686
-0.02640585 0.044690095 -0.021554299 -0.004085328 0.038468156 -0.009033486 -0.019808777 0.036481023

action_model._discrete_distribution.branches.0.bias f4 [5]
00000000: 1369 64b9 8263 b2bc 27f5 c33c 6b53 133c
00000010: af19 f5bb
-0.00021782918 -0.021775965 0.023920609 0.008992056 -0.0074798684
