results/t6/Fork1/Fork1-13194.onnx (onnx, 333139 bytes, 6 tensors)

network_body.linear_encoder.seq_layers.0.weight f4 [256, 58]
0	0x3ce62543	0.02809394
1	0xbe556813	-0.20840482
2	0xbdf3e8be	-0.119096264
3	0xbd66804c	-0.056274697
4	0x3b87a0f8	0.004139062
5	0x3d986c97	0.07442587
6	0x3dfab1ea	0.12240966
7	0x3d2bb06a	0.04191629
8	0x3d1030ce	0.035202794
9	0x3e82c6e2	0.2554236
10	0x3ce6c202	0.028168682
11	0x3dfa54e7	0.12223225
12	0xbd83a723	-0.06428363
13	0x3e174732	0.14773253
14	0xbd86d2a7	-0.065831475
15	0xbdfde1e3	-0.123966
16	0x3d119f20	0.035552144
17	0x3c929531	0.017893406
18	0xbe0c4614	-0.13698608
19	0xbe41178f	-0.18856643
20	0x3d47e9ab	0.048806828
21	0x3da2dd4e	0.07952367
22	0x3d87f24c	0.06638011
23	0x3d7f7785	0.062369842
24	0x3c66f43c	0.014096316
25	0xbd5e5308	-0.054278404
26	0x3e1cecc6	0.15324697
27	0xbe2247c5	-0.1584769
28	0xbd522930	-0.05130881
29	0x3e0ed19f	0.13947152
30	0xbd9188d0	-0.07106173
31	0xbe22d5c7	-0.15901862
32	0xbd5cda82	-0.053919323
33	0xbd46b0ff	-0.04850864
34	0xbc9594d0	-0.018259436
35	0xbce1e2b5	-0.027573923
36	0x3df43f4e	0.11926137
37	0xbd028091	-0.03186089
38	0xbcf48f24	-0.029853411
39	0xbd1d3ef5	-0.03839012
40	0x3b1d7aec	0.0024029566
41	0x3c2b0b88	0.010439761
42	0xbe4bfef3	-0.19921474
43	0xbe643aa0	-0.22287989
44	0x3e0c1c2d	0.13682623
45	0x3b94c980	0.0045406222
46	0x3e3ab2bf	0.18232249
47	0x3e32e163	0.1746879
48	0xbdf2b62d	-0.118511535
49	0xbceb01c3	-0.028687363
50	0xbe134d8b	-0.14385049
51	0xbd83d5dd	-0.064372756
52	0xbddad7a8	-0.106856644
53	0x3d218114	0.03942974
54	0x3cfd5b21	0.030927243
55	0x3e3c8ba4	0.18412644
56	0xbd2c33f1	-0.042041723
57	0x3dc4fc99	0.09618492
58	0xbe2de6b1	-0.16982533
59	0x3e9ea4ac	0.3098501
60	0xbcb732f5	-0.022363165
61	0xbda1fe2c	-0.079098076
62	0xbd161651	-0.036642376
63	0x3d632345	0.055453558
64	0x3e6bf654	0.23043185
65	0xbe55981e	-0.2085881
66	0xbd92d1e9	-0.071689434
67	0xbdf68564	-0.12037161
68	0xbbb15730	-0.005412005
69	0x3e0ef6fc	0.13961405
70	0x3d8ea80a	0.06965645
71	0xbd869278	-0.065709054
72	0x3d0ac88a	0.033882655
73	0x3df57981	0.11986066
74	0xbcbfa48a	-0.023393888
75	0x3d15a2ee	0.036532335
76	0x3d820130	0.06347883
77	0x3df95550	0.12174475
78	0x3d860070	0.06543052
79	0x3e0ba433	0.13636856
80	0x3db783c8	0.08960682
81	0x3daedc5f	0.08538126
82	0xbce3dbf6	-0.027814846
83	0x3d6c0feb	0.057632368
84	0xbdb65a41	-0.08903933
85	0xbc2fa23f	-0.010719835
86	0xbde6becd	-0.11266861
87	0x3b5dce3f	0.0033844856
88	0xbce0ec17	-0.027456326
89	0x3dd3fea1	0.10351301
90	0x3dbf8bee	0.09352861
91	0xbc7d969e	-0.0154778045
92	0x3e1ae3f6	0.15126023
93	0x3da7f1fb	0.08200451
94	0xbdaa1cf8	-0.083063066
95	0x3e30fdda	0.17284337
96	0x3e76d691	0.24105288
97	0x3e2ef7c2	0.170867
98	0xbddc9430	-0.10770452
99	0x3e564042	0.2092295
100	0x3e2c87af	0.16848634
101	0xbd1f93f6	-0.038959466
102	0xbe60128e	-0.21882078
103	0x3cbfa846	0.023395669
104	0x3bfeb7ee	0.007773391
105	0xbe4bb927	-0.19894849
106	0x3cbab2d8	0.022790357
107	0x3e72a870	0.23697066
108	0xbdefddc7	-0.117122225
109	0xbd23b0b2	-0.03996343
110	0x3e0d3a1d	0.137917
111	0xbdea6a3b	-0.11446043
112	0x3e321a14	0.1739276
113	0xbd1e0fa6	-0.038589142
114	0xbe2abd4f	-0.16673778
115	0x3dbdb907	0.09263807
116	0x3dffd668	0.124920666
117	0x3ea27719	0.3173149
118	0xbb3c8a7e	-0.0028769071
119	0xbc49ee4c	-0.012324881
120	0xbe71e974	-0.23624212
121	0xbe058515	-0.13039048
122	0xbe879459	-0.26480368
123	0xbb2ea22c	-0.0026646955
124	0x3df55a0e	0.11980067
125	0x3e053876	0.1300982
126	0xbd161075	-0.03663679
127	0x3c864241	0.016389014
128	0x3ea102fa	0.31447583
129	0xbdb52921	-0.08845735
130	0xbdaaa4c7	-0.0833221
131	0x3e079210	0.13239312
132	0xbeb89a29	-0.36055115
133	0x3ec21b34	0.3791138
134	0xbda81f4b	-0.08209094
135	0xbdb289db	-0.087177
136	0xbd9be349	-0.076117106
137	0x3c53cd7f	0.012927412
138	0x3e3dbd5e	0.18529269
139	0xbbac26fd	-0.005253671
140	0xbe2b255a	-0.16713467
141	0xbd7cb487	-0.0616956
142	0xbd421f92	-0.04739339
143	0xbd94e484	-0.072701484
144	0x3dad0a7e	0.08449267
145	0xbdde8768	-0.108656704
146	0xbe5a31f8	-0.21308124
147	0x3d857508	0.065164626
148	0x3ce8982a	0.02839287
149	0x3e08df8f	0.13366531
150	0xbdd76bee	-0.10518633
151	0x3d85b755	0.065291084
152	0x3c9c5124	0.01908166
153	0xbe86734c	-0.2625984
154	0x3c545511	0.012959735
155	0xbe71ebe2	-0.23625138
156	0x3dc2a14d	0.09503422
157	0xbdd8ab11	-0.10579503
158	0xbde6ad3f	-0.11263513
159	0x3d6a97b1	0.05727357
160	0x3de7dfa9	0.11321957
161	0xbdfc7c46	-0.12328391
162	0xbddcd420	-0.10782647
163	0x3d187547	0.03722122
164	0xbe8146b3	-0.25249252
165	0x3d1bd264	0.03804244
166	0xbdea7844	-0.1144872
167	0xbb8ce23d	-0.0042994306
168	0x3e8aacf4	0.27085078
169	0x3e0aa345	0.13538845
170	0xbef51afc	-0.4787215
171	0x3d728b30	0.05921477
172	0xbde832c7	-0.1133781
173	0x3e5f1908	0.21786892
174	0x3d29427c	0.04132317
175	0x3e0ae5a8	0.1356417
176	0xbe37446d	-0.17897196
177	0x3d82c35f	0.0638492
178	0x3da95a51	0.082691796
179	0xbc26fa93	-0.0101915775
180	0xbe57be4a	-0.21068683
181	0xbd350d55	-0.044202168
182	0x3ec3dfa8	0.38256574
183	0xbd73c3c9	-0.059512887
184	0xbd96c3db	-0.07361575
185	0xbce04bde	-0.027379926
186	0xbcd81c91	-0.026380809
187	0x3e0adcaf	0.13560747
188	0xbe20302e	-0.15643379
189	0x3dfa2cd4	0.122155815
190	0x3d8bd39c	0.06827471
191	0xbda2cda1	-0.07949377
192	0xbd0aecfa	-0.033917405
193	0xbdbb5e25	-0.09148816
194	0x3e162863	0.14663844
195	0x3e0d098b	0.13773172
196	0xbde80617	-0.113292865
197	0x3cb60ae4	0.02222199
198	0x3e48e63b	0.19619076
199	0x3d5669b1	0.05234689
200	0xbe8e6a9d	-0.27815714
201	0xbdd345d3	-0.10316052
202	0xbc41edce	-0.011836482
203	0xbe0466f9	-0.12929906
204	0x3c120815	0.00891306
205	0x3ab40765	0.0013735114
206	0x3e3629a2	0.17789319
207	0x3d5d1229	0.053972397
208	0x3d128453	0.035770725
209	0xbbaaddea	-0.0052144425
210	0x3e395130	0.18097377
211	0x3e19a28c	0.15003413
212	0x3e0db031	0.13836743
213	0x3c9e3406	0.019311916
214	0x3ec8429c	0.3911332
215	0x3d8abb24	0.067739755
216	0xbcae182e	-0.021251764
217	0xbe524f3b	-0.20538037
218	0x3cffc8b5	0.031223634
219	0x3d90adf7	0.07064431
220	0x3de7b1a5	0.1131318
221	0x3cfac909	0.03061344
222	0x3cdc4387	0.026887668
223	0xbdcd9dbc	-0.10039851
224	0x3db118da	0.08647318
225	0xbe0a42fe	-0.13502118
226	0x3db4ad24	0.088220865
227	0x3e410c33	0.1885231
228	0xbe602a07	-0.21891032
229	0xbe8da5a4	-0.27665436
230	0x3dd4d3b6	0.10391943
231	0x3e4f5dc8	0.20250618
232	0x3e0912ff	0.13386153
233	0xbd7ff3a8	-0.062488228
234	0xbdaa95ed	-0.08329377
235	0xbee0aae6	-0.43880385
236	0xbe1fade0	-0.15593672
237	0xbabc8dfc	-0.0014385576
238	0x3d8c9928	0.0686515
239	0x3c69031a	0.014221931
240	0x3d0160a3	0.0315863
241	0x3e088cff	0.13335036
242	0x3e070e1e	0.13188979
243	0xbc93c4e7	-0.018038226
244	0x3d8174af	0.06321084
245	0xbcb578b4	-0.022152282
246	0x3d7cdabd	0.061732043
247	0xbd1e0745	-0.03858115
248	0xbe5a7f9f	-0.21337746
249	0xbddbbd37	-0.10729449
250	0xbdc6ffc0	-0.09716749
251	0xbd336f27	-0.043807175
252	0x3e15f57c	0.14644426
253	0xbcd8ee6e	-0.02648088
254	0x3e237404	0.15962225
255	0x3c9934af	0.01870188

network_body.linear_encoder.seq_layers.0.bias f4 [256]
0	0xbbe11038	-0.0068683885
1	0xbb9540c6	-0.0045548407
2	0x3b6b7892	0.003593002
3	0x3a8b59ba	0.0010631599
4	0xbb49d6ab	-0.0030798118
5	0x3b26ea1a	0.0025469125
6	0x3c922c07	0.01784326
7	0xbad96f67	-0.0016588987
8	0xbbe3ed0d	-0.006955749
9	0x3b288fdf	0.002572052
10	0x3b186e5d	0.002325914
11	0x3b8d5417	0.004313003
12	0x399d57ee	0.00030010886
13	0xba29864d	-0.0006466851
14	0x3c02d42f	0.007985159
15	0xbbd800e1	-0.0065919016
16	0xba9ad741	-0.0011813418
17	0xb921f356	-0.00015444806
18	0xbb9213ae	-0.0044579124
19	0xba84b54d	-0.0010124833
20	0x3a84f885	0.0010144865
21	0x3c6550eb	0.013996343
22	0x3b568c3d	0.0032737397
23	0x3a7eabc9	0.0009714929
24	0x3c47f424	0.012204204
25	0xbb95ac07	-0.0045676264
26	0xba5a0a60	-0.0008317586
27	0x3b84f477	0.004057463
28	0xbb28cc77	-0.0025756636
29	0x3aa20b7e	0.0012363044
30	0x3b4c1c62	0.0031144847
31	0x3b9410ea	0.004518618
32	0x3a7bd4b3	0.0009606585
33	0x3bb166b4	0.0054138545
34	0xba7f0d3c	-0.000972945
35	0xbc125e7f	-0.008933662
36	0x3b53e9e4	0.0032335455
37	0xbb5b6e8e	-0.0033482644
38	0xbb961bc2	-0.0045809457
39	0xbb0d8bff	-0.0021598337
40	0x3aa757bc	0.0012767236
41	0x3bc4a936	0.006001617
42	0x3a42bb13	0.0007428389
43	0xbbe4b555	-0.0069796243
44	0xbb0381ac	-0.0020066304
45	0xbb2a6cb6	-0.0026004738
46	0x3afb1907	0.0019157239
47	0xbbd89036	-0.006608988
48	0xbc27292f	-0.01020269
49	0x3abd3515	0.0014435375
50	0xbb03ae02	-0.002009273
51	0xbbaddceb	-0.0053058765
52	0x3c1c192d	0.009527487
53	0xbb01660f	-0.001974467
54	0xba9e712b	-0.001208817
55	0xbb726ed6	-0.0036992333
56	0x3bbd934f	0.005785383
57	0x3b15a014	0.002283101
58	0x3c05fa3a	0.008177334
59	0xbb2013fc	-0.0024425974
60	0x3c7961ef	0.015221103
61	0xbaafff8a	-0.0013427597
62	0x3ac97732	0.0015370606
63	0x3be7284a	0.0070543634
64	0x3a9a2255	0.0011759499
65	0x3ba249c3	0.0049526407
66	0xbc3847fb	-0.01124763
67	0x3bc4b4f4	0.0060030166
68	0x3c18caa2	0.009325655
69	0xbc015deb	-0.007895927
70	0x3a2952df	0.0006459187
71	0xba9190da	-0.0011105791
72	0xbb4176c1	-0.0029520246
73	0xb87754f9	-5.8968526e-05
74	0xba84bae4	-0.0010126499
75	0xbb51dbfa	-0.0032021985
76	0x3c0c3ce7	0.008559442
77	0xbc006474	-0.00783645
78	0x3b4e9a87	0.003152521
79	0x3ca0e799	0.019641684
80	0xbb649fc3	-0.0034885264
81	0xbac785a4	-0.0015222323
82	0x3c0dee45	0.008662765
83	0xbb628a31	-0.0034567232
84	0xb9950fa7	-0.00028431157
85	0xbb6d41e2	-0.00362026
86	0x3c797292	0.01522507
87	0xbab42329	-0.0013743389
88	0xbb06218e	-0.0020466777
89	0xbb8bde8f	-0.0042684744
90	0x3ad6aff5	0.0016379344
91	0x3bc3bf27	0.005973715
92	0x3b5500f5	0.003250179
93	0x3b862ef5	0.004094953
94	0xb9b8eac8	-0.0003527014
95	0x3b79a7c1	0.0038094374
96	0x3afbf4b0	0.0019222703
97	0x3bcc1248	0.006227765
98	0x3a38acc3	0.00070447865
99	0x3b13e8bc	0.002256914
100	0xbb6778c4	-0.0035319785
101	0xbb872680	-0.0041244626
102	0xba95fa8d	-0.0011442468
103	0x3b2c339a	0.0026275874
104	0xbb1ec694	-0.0024227249
105	0xbad45a39	-0.0016201205
106	0x3b98a9a0	0.0046588928
107	0xbab00c57	-0.0013431412
108	0x3baea78a	0.005330031
109	0x3a2d43e2	0.00066095416
110	0x3c083b3f	0.008314907
111	0x3a71feaa	0.00092313683
112	0xba9c4308	-0.0011921832
113	0x3bd3dc41	0.0064654653
114	0x3b6380ec	0.0034714295
115	0xbb30a0fa	-0.0026951418
116	0xbbad443a	-0.0052876743
117	0xbab2262d	-0.00135917
118	0x3b03492e	0.0020032632
119	0xba8720a2	-0.0010309408
120	0x3ba07097	0.0048962343
121	0xba7404cd	-0.00093085767
122	0x390b4283	0.0001328085
123	0xbc1a32ce	-0.009411527
124	0xbad9a5da	-0.0016605214
125	0xbb7ac40f	-0.0038263833
126	0x3c15f5c5	0.009152834
127	0x3b089f8a	0.0020847046
128	0xbb877818	-0.0041341893
129	0xb933a1e1	-0.00017131075
130	0xbbe46f10	-0.0069712475
131	0x3beffcd2	0.0073238397
132	0xbbd1dde8	-0.006404627
133	0x3b437c08	0.0029828567
134	0x3b4bb165	0.0031081077
135	0xbb76f712	-0.0037683886
136	0x3b0af7e5	0.0021204886
137	0x3a871078	0.0010304591
138	0xbb8bd214	-0.0042669866
139	0x3b62552c	0.003453563
140	0x3a00c495	0.00049121055
141	0xbbdc8b86	-0.0067304997
142	0xbb018aa8	-0.0019766483
143	0xbb2afccd	-0.0026090622
144	0x39e6ce6c	0.00044022815
145	0x398b95e3	0.0002662382
146	0xbb6644bf	-0.003513619
147	0xbb42bed4	-0.0029715793
148	0xbbb9780e	-0.0056600636
149	0x3bd978a1	0.0066366945
150	0xba5b6ac4	-0.00083700963
151	0xba93b435	-0.0011268916
152	0x3bc8d287	0.0061286124
153	0xbc16e58a	-0.00921
154	0x3c57a08e	0.013160838
155	0xbbb22679	-0.005436715
156	0xba65ddde	-0.00087687175
157	0x3b0cbb47	0.002147393
158	0xbb382e24	-0.0028103674
159	0xbb039a64	-0.0020081038
160	0xba5d55d7	-0.0008443272
161	0x3aac21b5	0.0013132604
162	0x378b5725	1.6610671e-05
163	0x3ab6f9d4	0.0013959953
164	0x3af370c3	0.0018573034
165	0xbb9a73ba	-0.0047135027
166	0xbbda6064	-0.0066643227
167	0x3aed3286	0.0018096722
168	0xba9d619e	-0.0012007242
169	0x3baa545d	0.005198045
170	0x3c015274	0.0078931935
171	0xba8e5944	-0.0010860343
172	0x3b19fae9	0.0023495501
173	0x3c4f0528	0.012635507
174	0xba89ea17	-0.0010522035
175	0xb8d722ce	-0.00010258482
176	0x3c0b29ad	0.008493823
177	0xba87e7ce	-0.0010368766
178	0xba476e8f	-0.0007607722
179	0x3a75b5a3	0.0009373074
180	0x3b144612	0.0022624773
181	0xbb91ac7f	-0.004445612
182	0x3bd4cd85	0.0064942264
183	0x3a2900f5	0.0006446981
184	0x3b4bddda	0.0031107576
185	0xbb7ae169	-0.0038281328
186	0xbbada849	-0.005299602
187	0xba772576	-0.00094278844
188	0xbc03b2c1	-0.008038224
189	0x3ba3c95f	0.0049983705
190	0xb93c3bf1	-0.00017951407
191	0x3ba645d5	0.0050742426
192	0xbb6eb780	-0.0036425292
193	0xbb07b7ee	-0.0020708996
194	0xb9481954	-0.00019082922
195	0xba1de931	-0.0006023823
196	0x3b226d50	0.0024784394
197	0xbb158a79	-0.0022818132
198	0x3ad67ce2	0.0016364122
199	0x3b810229	0.003937025
200	0x3b4c305d	0.0031156756
201	0xbb85b2cb	-0.0040801517
202	0x3c773897	0.015089176
203	0x3b250fb3	0.002518636
204	0x3bb3000c	0.005462652
205	0x3bd22cc0	0.006414026
206	0x3aece197	0.0018072602
207	0x3bcc8479	0.006241378
208	0xbba50829	-0.005036373
209	0x3a669e09	0.0008797353
210	0xbc20fe84	-0.009826306
211	0xbb9d922a	-0.004808684
212	0x3c17e9d8	0.009272061
213	0x3b08b4c5	0.00208597
214	0x3c351e21	0.011054547
215	0xbb7e243d	-0.0038778924
216	0xba19a417	-0.0005860938
217	0xbb9f8429	-0.0048680496
218	0x3c0fbeab	0.008773486
219	0xbb5db7e3	-0.003383153
220	0x3b9bf75c	0.004759712
221	0x3b0c2f80	0.0021390617
222	0xbb409f64	-0.002939188
223	0x3c358680	0.011079431
224	0x3c27a2b4	0.010231663
225	0x3b6e4b31	0.0036360736
226	0x3b56be53	0.003276725
227	0xb9637298	-0.00021691096
228	0xbb4e0583	-0.003143639
229	0x3a6a92fe	0.0008948295
230	0xbbed9d7c	-0.0072514396
231	0x384e23ff	4.914775e-05
232	0x3b0642e6	0.0020486652
233	0x3bab2015	0.0052223303
234	0xbb153215	-0.0022765447
235	0xbb9ce4a3	-0.004787998
236	0x3c1b0648	0.009461947
237	0x3bb251e1	0.0054418896
238	0x3c13100b	0.008975993
239	0x3bd2df77	0.0064353305
240	0x3a6d966c	0.0009063247
241	0xbb986690	-0.0046508983
242	0x3b895829	0.0041914177
243	0x3ac5459f	0.0015050656
244	0xbb815f72	-0.0039481455
245	0x3b1a681e	0.0023560594
246	0xbb6e9b6d	-0.003640856
247	0x398dee08	0.00027070963
248	0x3b9ba414	0.0047497842
249	0x3b191cee	0.002336319
250	0xbb8a48d4	-0.0042201076
251	0x3a89f108	0.0010524103
252	0xb8d4c5a9	-0.00010145765
253	0xbb405c99	-0.0029352068
254	0x3b8ecde0	0.0043580383
255	0x3aa4e347	0.0012579941

network_body.linear_encoder.seq_layers.2.weight f4 [256, 256]
0	0xbb580530	-0.0032962076
1	0xbcce6721	-0.02519566
2	0x3c09411e	0.008377342
3	0x3de39cd5	0.11113898
4	0xbbbe4d22	-0.005807535
5	0x3cf43ffd	0.029815668
6	0x3cf97d51	0.030455263
7	0xbc285843	-0.0102749495
8	0xbd137aa0	-0.036005616
9	0x3d483a80	0.048883915
10	0x3c52e76a	0.012872556
11	0x3d62e9fe	0.055398934
12	0xbd2b93e0	-0.04188907
13	0x3d913bbf	0.07091474
14	0x3d423263	0.047411334
15	0x3d803a71	0.06261147
16	0xbc5c78fb	-0.013456578
17	0x3d647d36	0.055783473
18	0xbe0522f6	-0.13001618
19	0x3d134004	0.035949722
20	0x3d04b1e7	0.032396223
21	0x3d2bdcad	0.0419585
22	0xbddada9b	-0.10686227
23	0x3cac1e1a	0.021010447
24	0xbc3d9cf8	-0.011573069
25	0x3d204c2a	0.039135136
26	0xbc330990	-0.010927573
27	0xbd3ca029	-0.046051178
28	0xbd7ed233	-0.06221218
29	0xbba3af50	-0.004995264
30	0x3ca06822	0.019580904
31	0x3d97203c	0.07379195
32	0xbc6e4e40	-0.014545023
33	0xbe00a0ac	-0.12561291
34	0xbca9fe76	-0.02075122
35	0xbdabc345	-0.08386854
36	0x3d475f6f	0.048674997
37	0x3b89b04b	0.004201924
38	0x3df17482	0.117898
39	0x3dbebb8e	0.09313117
40	0x3d0e009c	0.03466855
41	0xbda5ca5e	-0.08095239
42	0xbd27e28f	-0.040987547
43	0xbae8fed3	-0.0017776139
44	0x3cdf4900	0.027256489
45	0xbe0c19db	-0.13681738
46	0xbe14d998	-0.1453613
47	0xbc67e95d	-0.014154759
48	0xbacbdd06	-0.0015553541
49	0x3e19db15	0.1502498
50	0x3de1e5bb	0.11030146
51	0x3dbb5dcb	0.09148749
52	0x3ce9154b	0.028452536
53	0x3d0af24d	0.033922482
54	0xbc2e6c01	-0.010645867
55	0xbbc2259f	-0.005924895
56	0x3cd24ca5	0.025671313
57	0x3c3d06ef	0.011537298
58	0xbd88bb99	-0.066764064
59	0xbc9c05d5	-0.01904575
60	0x3cfed984	0.031109579
61	0x3d06c371	0.03290123
62	0x3ccc281a	0.024921466
63	0x3cfc4139	0.03079282
64	0x3ca9cac5	0.02072657
65	0x3d0c598a	0.03426508
66	0x3c099b13	0.008398789
67	0x3df031fc	0.11728284
68	0xbda58ff9	-0.08084101
69	0xbdaa256e	-0.083079204
70	0x3dfd8a42	0.12379886
71	0x3d7e06d4	0.06201823
72	0x3dc9739a	0.098365024
73	0xbe2bb39f	-0.16767739
74	0x3c0dddca	0.008658836
75	0x3cfab6b6	0.030604701
76	0xbd12d5bd	-0.035848368
77	0x3d573731	0.05254287
78	0x3c099daf	0.008399411
79	0x3d82aaff	0.06380271
80	0x3dde38b6	0.108506605
81	0x3b0421c7	0.0020161734
82	0x3ccbf248	0.024895802
83	0xbd947495	-0.07248799
84	0x3d7e2435	0.06204625
85	0x3df0e0b6	0.1176161
86	0xbd1504c1	-0.036381487
87	0x3da8c406	0.082405135
88	0xbdb3a8c4	-0.08772424
89	0x3b034d9e	0.0020035277
90	0x3d7122db	0.05887113
91	0xbd7132e5	-0.058886427
92	0x3d582d36	0.05277749
93	0x3da7ab3b	0.081869565
94	0x3c161a54	0.009161551
95	0xbd25fb7f	-0.04052305
96	0xbda46588	-0.08027178
97	0xbd08e3a8	-0.033420235
98	0xbd64bf72	-0.05584664
99	0x3d5a291e	0.05326187
100	0xbd96a3fa	-0.07355495
101	0x3cb944a2	0.022615734
102	0x3d7ca059	0.061676357
103	0x3d47563f	0.048666235
104	0xbbad7161	-0.005293057
105	0xbd99d30a	-0.07510956
106	0xbc275c72	-0.010214912
107	0xbd8ca65c	-0.06867668
108	0x3c006cad	0.00783841
109	0x3dde9ce3	0.108697675
110	0xbd531b7c	-0.051539883
111	0xbd654728	-0.055976063
112	0x3bf02411	0.007328518
113	0x3e0accf5	0.13554747
114	0xbaa1e367	-0.0012351096
115	0xbd98a58b	-0.0745345
116	0xbd0ca160	-0.034333587
117	0x3d255c7f	0.040371414
118	0xbcebc588	-0.028780714
119	0x3d2b7c94	0.041866854
120	0x3d6c30bc	0.057663664
121	0xbcc939b6	-0.024563652
122	0x3cde80a2	0.027160946
123	0xbd43b18d	-0.047776747
124	0xbcb125e9	-0.021624522
125	0x3e1154fa	0.14192572
126	0xbc60b1fd	-0.013714311
127	0xbc155f28	-0.009116925
128	0x3ccf389c	0.025295548
129	0x3d916e09	0.07101066
130	0x3db2293d	0.08699272
131	0xbd09a3b7	-0.033603396
132	0x3d30287b	0.043007355
133	0xbc8ccbd4	-0.017187037
134	0x3d6c56c0	0.05769992
135	0x3c8aaa27	0.016926838
136	0x3cf060ff	0.029343126
137	0x3d85b7ad	0.06529174
138	0xbd451813	-0.048118662
139	0x3e1dee44	0.15422922
140	0xbda2021b	-0.07910558
141	0x3dcdaccf	0.10042726
142	0x3c597150	0.013271645
143	0x3db53d0e	0.08849536
144	0x3c0e0efd	0.008670566
145	0x3ca9cd5a	0.020727802
146	0x3c592f77	0.013255945
147	0x3d1b5593	0.037923407
148	0x3d52b66a	0.051443495
149	0x3e4f4c5f	0.20243977
150	0x3dcea8f0	0.10090816
151	0x3cb83b5d	0.022489244
152	0xbd277cce	-0.040890507
153	0xbdb2b687	-0.087262206
154	0x3d175409	0.036945377
155	0xbd1228ff	-0.03568363
156	0x3e09d20b	0.13459031
157	0x3c673eb2	0.014114069
158	0x3d392ea4	0.045210496
159	0xbd41a3e9	-0.047275458
160	0x3c6f91eb	0.014622192
161	0xbcba96a5	-0.022776911
162	0xbd09698a	-0.033547916
163	0x3d7edbfb	0.06222151
164	0xbd12c11d	-0.0358287
165	0xbb7373c6	-0.0037147864
166	0xbd86ab7e	-0.06575678
167	0x3dd9494a	0.10609682
168	0xbc838678	-0.01605533
169	0xbcc94f81	-0.024574043
170	0xbdabd43a	-0.083900884
171	0xbb85cf68	-0.0040835626
172	0x3dfbac75	0.12288753
173	0x3c1c3bb7	0.0095357215
174	0x3dad5277	0.084629945
175	0xbd9aaa02	-0.07551958
176	0x3d19f027	0.037582543
177	0xbe07f3ad	-0.13276549
178	0xbd443a37	-0.04790708
179	0x3d154a70	0.036447942
180	0x3dd3f752	0.10349907
181	0xbd1d5521	-0.038411263
182	0x3e2f51b2	0.17121008
183	0x3de7a820	0.11311364
184	0x3d17786e	0.036980085
185	0xbc80e240	-0.015732884
186	0x3ce35c03	0.027753836
187	0x3caf8d81	0.021429779
188	0xbd0c9c7a	-0.034328915
189	0x3d8f6d6d	0.07003293
190	0x3cd3ec65	0.025869558
191	0x3d1162c0	0.035494566
192	0x3d2ddd7e	0.04244756
193	0x3d55be01	0.052183155
194	0xbc64ac60	-0.013957113
195	0xbb53d8af	-0.0032325198
196	0x3d4786a6	0.048712395
197	0xbd0e954b	-0.034810346
198	0xbe20f89b	-0.15719835
199	0xbcafd066	-0.021461677
200	0xbc06a9fd	-0.008219239
201	0xbd36b205	-0.044603366
202	0xbd42dcaf	-0.04757374
203	0x3d5c2705	0.05374815
204	0x3ba830cc	0.00513277
205	0x3e4f1d09	0.2022592
206	0xbd220563	-0.03955592
207	0x3c590290	0.01324524
208	0xbd4a2b13	-0.049357485
209	0xbdf2b404	-0.118507415
210	0xbcaccb26	-0.021092962
211	0x3d721ba6	0.0591084
212	0x3dc632db	0.09677669
213	0xbcfe3d6d	-0.03103515
214	0xbd29924a	-0.041399278
215	0x3ca0cc84	0.01962877
216	0xbdbed58c	-0.093180746
217	0xbd6de688	-0.05808118
218	0xbaae1434	-0.0013281167
219	0x3dc499f8	0.0959968
220	0x3ce72447	0.02821554
221	0xbdd6fd9e	-0.104975924
222	0xbd79383a	-0.060844637
223	0x3ccd555a	0.025065113
224	0x3d4c3e4b	0.049864095
225	0x3dc6d516	0.09708612
226	0xbe0faad9	-0.14030017
227	0xbde32999	-0.110919185
228	0x3df56217	0.119816
229	0x3cdeb663	0.027186578
230	0xbd45d6d1	-0.048300568
231	0xbde78c87	-0.113061
232	0x3dcd8127	0.100343995
233	0x3d66c325	0.056338448
234	0x3b5d8d1a	0.0033806027
235	0x3d8f20c0	0.069886684
236	0x3da7754f	0.08176672
237	0x3bc70608	0.006073717
238	0x3dbee711	0.09321416
239	0x3d85e0d5	0.06537024
240	0x3d45e448	0.04831341
241	0x3d54c72b	0.051947754
242	0xbd5ff9bb	-0.05468152
243	0xbd571ca9	-0.052517567
244	0xbdcd2669	-0.10017092
245	0x3b99cc0d	0.004693514
246	0xbcf705bd	-0.030154103
247	0x3c404907	0.011736161
248	0x3d413bbc	0.047176108
249	0xbdd06639	-0.101757474
250	0x3d6169fe	0.055032723
251	0x3d8c9dad	0.06866012
252	0xbe025200	-0.12726593
253	0x3d82aac4	0.06380227
254	0xbc5e822f	-0.013580843
255	0xbdbc6d3e	-0.09200524

network_body.linear_encoder.seq_layers.2.bias f4 [256]
0	0x3a638012	0.0008678447
1	0xba85ebaa	-0.0010217328
2	0xb8220c02	-3.8634993e-05
3	0xba1b7e94	-0.00059316424
4	0x3a40edb2	0.0007359638
5	0x3b9f62a0	0.004864052
6	0x3a775522	0.0009434988
7	0x3adb7b39	0.0016745097
8	0x3b6ee726	0.0036453693
9	0x3a81f360	0.000991445
10	0xbaff0cdd	-0.001945879
11	0xbabd02a7	-0.0014420346
12	0x3b060406	0.0020449175
13	0x3bc3132b	0.0059532127
14	0x3bf2f28e	0.0074141687
15	0xbb951bc3	-0.0045504286
16	0x3b6aadb5	0.0035809104
17	0xbadf2b3d	-0.0017026436
18	0xbb667b96	-0.0035168878
19	0x3b912601	0.0044295792
20	0x393f4d8a	0.00018244065
21	0x3b7b0b7c	0.0038306406
22	0xbb513b83	-0.003192634
23	0x39c0a8ee	0.00036746956
24	0x3b0c538a	0.0021412098
25	0x3b1f5932	0.002431464
26	0x3b4d4a97	0.0031324977
27	0x3b64935f	0.003487788
28	0xbba10271	-0.004913621
29	0x3b61116b	0.0034342657
30	0x3b8c34a1	0.004278735
31	0x3bbf1691	0.0058315475
32	0x3b891067	0.0041828635
33	0xb98af29e	-0.00026502175
34	0xbb4940d2	-0.0030708802
35	0xbbec4e4a	-0.007211481
36	0x3b514b65	0.0031935808
37	0xb9f41216	-0.00046552782
38	0x3b993532	0.004675531
39	0xb95c18b2	-0.00020990035
40	0x3b49bbaf	0.0030782034
41	0x3a878f56	0.00103424
42	0x3b861a26	0.0040924726
43	0x3badaeab	0.005300363
44	0x3b893c1d	0.0041880743
45	0xbb7d7b65	-0.0038678285
46	0xbb896446	-0.0041928617
47	0x3c038eeb	0.00802968
48	0xbbfcd61e	-0.0077159544
49	0x3bebc6ab	0.007195314
50	0x3b5c8ad0	0.0033652075
51	0xb9c4902d	-0.00037491453
52	0x3ba7488b	0.0051050833
53	0xba567bfa	-0.0008181926
54	0x3b90b035	0.0044155368
55	0xbb33318d	-0.0027342767
56	0xbb56dd34	-0.0032785656
57	0x389aefb9	7.387944e-05
58	0x3b6ad83a	0.0035834447
59	0x3b96d1d6	0.004602651
60	0x3c448f94	0.011997122
61	0xbb83db20	-0.0040239245
62	0xbbb0cdc0	-0.005395621
63	0x3ab35b7e	0.0013683883
64	0x3a90893c	0.0011027227
65	0x3b740143	0.0037232197
66	0x3bff8143	0.0077973916
67	0xbbbbfb42	-0.0057367394
68	0x3befec99	0.007321906
69	0xba89305e	-0.0010466685
70	0x388798a8	6.465736e-05
71	0xbbb3645b	-0.00547461
72	0x3ac060be	0.0014677269
73	0xbb87a686	-0.004139724
74	0x3a90f9e2	0.0011060799
75	0xb99d1de7	-0.00029967653
76	0x3a43329c	0.0007446201
77	0xbb314d7a	-0.0027054236
78	0xbb240e64	-0.0025032992
79	0x3b2b9a41	0.0026184472
80	0x3ba436b7	0.0050114053
81	0x3b803424	0.0039124656
82	0x3b6a2823	0.003572949
83	0x3b138f17	0.0022515708
84	0x3c269891	0.010168211
85	0xbb1c1232	-0.0023814556
86	0xbb530cb8	-0.0032203626
87	0x3aca5516	0.0015436735
88	0x3b5cd67f	0.0033697186
89	0x3b0abf38	0.0021171104
90	0x3abb0d36	0.0014270905
91	0xba37cc7d	-0.0007011367
92	0x3b87622f	0.0041315774
93	0x3b8da856	0.0043230457
94	0x3bb7bff5	0.0056076
95	0xbc3c5e24	-0.011497054
96	0xba9e4d7e	-0.0012077538
97	0xbaf6855c	-0.0018808055
98	0x3b2a8662	0.002602004
99	0x3b17406a	0.0023079165
100	0xbc007ccc	-0.007842254
101	0x3a8598a6	0.0010192588
102	0xba07989f	-0.00051725836
103	0xbb889ea6	-0.004169303
104	0xbbab740f	-0.005232341
105	0x3bf26949	0.007397805
106	0xbb95c500	-0.0045706034
107	0x3ac409d5	0.0014956543
108	0xb935b4d0	-0.00017328863
109	0xbafb7008	-0.0019183168
110	0x3b866209	0.004101042
111	0x3bb01202	0.0053732404
112	0xba890a87	-0.0010455408
113	0x3b15e7b3	0.00228737
114	0xbb651aca	-0.0034958594
115	0xbb8a1927	-0.004214424
116	0xb92a3eda	-0.00016235877
117	0xba473d49	-0.000760038
118	0xbb117ec5	-0.0022200805
119	0x3a99e5eb	0.0011741495
120	0xbaef43d4	-0.0018254467
121	0x3bd42217	0.0064737904
122	0x3b5a9159	0.0033350794
123	0x3a04363f	0.00050434837
124	0x3b87a277	0.0041392404
125	0x3b9c3177	0.004766639
126	0xbb605e76	-0.003423599
127	0xbbca24dc	-0.0061689448
128	0x3c4cd61a	0.012502218
129	0x3abf0201	0.0014572741
130	0xba24f603	-0.0006292762
131	0x3b7a490a	0.0038190507
132	0x3a24c594	0.0006285545
133	0x3c09c6e8	0.008409239
134	0xbab8e43d	-0.0014106106
135	0x3c4e7d98	0.012603186
136	0x3a73922f	0.00092914974
137	0x3ba87183	0.005140485
138	0x3ba8ac54	0.0051474962
139	0x3b97cbbb	0.004632441
140	0xbbc1b380	-0.0059112906
141	0x3bee9db0	0.0072819814
142	0xbad0ca8d	-0.0015929505
143	0xb7cb721a	-2.4252618e-05
144	0x3b820b91	0.003968664
145	0xbb0ee696	-0.002180492
146	0xbb24b6fd	-0.0025133484
147	0xbab93442	-0.0014129954
148	0x3aea7628	0.0017887997
149	0xb95285e8	-0.00020077045
150	0xbc0875c0	-0.008328855
151	0x3b02203c	0.001985564
152	0xba190c1d	-0.0005838292
153	0xbadc12c3	-0.0016790259
154	0x3bf8bb82	0.007590712
155	0xbaa62cac	-0.0012678108
156	0xba7fced0	-0.00097582955
157	0x39ab43e7	0.00032666253
158	0x3a6c7b7e	0.00090210873
159	0x3bb6fd16	0.0055843694
160	0x3b9f2458	0.0048566274
161	0xbbec270b	-0.0072068027
162	0x3b6c58d5	0.003606369
163	0x3b749aed	0.0037323788
164	0x3ade44f7	0.0016957809
165	0x3ae208c9	0.001724505
166	0x3b002ec7	0.0019559131
167	0x3af201b0	0.0018463638
168	0x3a2a782e	0.00065028935
169	0x3bae0c69	0.005311538
170	0xbb9324a8	-0.0044904537
171	0xbc05e8c0	-0.008173168
172	0x3bf00c26	0.007325667
173	0x3b648415	0.0034868766
174	0x3b94ff78	0.004547056
175	0x3af0f43c	0.0018383334
176	0x3a80f06e	0.0009837279
177	0x3b8d12ec	0.004305234
178	0x3b688740	0.0035481006
179	0x3b0a9c7b	0.0021150399
180	0xbaf91ccf	-0.0019005778
181	0x3a31183a	0.0006755624
182	0x3bd1f30c	0.0064071473
183	0x3aa9cf49	0.0012955453
184	0xbb5e126a	-0.0033885487
185	0xba47eb91	-0.00076263497
186	0xbb359347	-0.0027706192
187	0xba69d708	-0.0008920287
188	0x3b946d7f	0.0045296545
189	0xbb8873fa	-0.004164216
190	0x3b830912	0.003998884
191	0x3bc3d660	0.005976483
192	0x3c4784c1	0.012177647
193	0x3a9d71f0	0.0012012105
194	0xbb11bec3	-0.0022238947
195	0xbb7a7f79	-0.0038222952
196	0x38d13e62	9.977516e-05
197	0x3c15f18a	0.009151826
198	0xb880f719	-6.149541e-05
199	0x3c08547b	0.008320923
200	0xbabeb063	-0.0014548417
201	0xbbb4d664	-0.0055187214
202	0x3b4fd641	0.0031713399
203	0xba839e60	-0.0010041706
204	0xbafc17e5	-0.0019233195
205	0x3ba13c46	0.004920515
206	0x3a8f3fe1	0.0010929072
207	0x3ae0104b	0.00170947
208	0x3b1bb93d	0.0023761534
209	0x3a85c24e	0.0010205002
210	0xbb1a5aec	-0.0023552729
211	0xba6c2da5	-0.0009009487
212	0x3b6b76aa	0.0035928884
213	0x393437d5	0.00017186937
214	0x3abb3a80	0.0014284402
215	0xbb810913	-0.0039378493
216	0x3b8df953	0.0043327003
217	0x3a1e38b6	0.0006035672
218	0x3bda1cbc	0.0066562574
219	0x395e8c5b	0.00021223856
220	0xbc00a947	-0.007852859
221	0x3ae2c719	0.0017301767
222	0xbb539909	-0.003228726
223	0xbbd1eeb0	-0.0064066276
224	0x39b7ec25	0.0003508042
225	0x3bde3be5	0.0067820423
226	0x3ab42a9d	0.001374561
227	0x3ba89797	0.005145024
228	0xb8568dab	-5.1153515e-05
229	0xbba5f889	-0.005065028
230	0x3beb55ed	0.007181874
231	0x3c5d1baf	0.01349537
232	0x3b45342c	0.0030090911
233	0xb8e77530	-0.00011036766
234	0x3c5886be	0.013215719
235	0xba03c18b	-0.00050260936
236	0xbb8ce0f4	-0.0042992774
237	0x3acb215e	0.0015497615
238	0xba429e37	-0.00074240885
239	0x384049da	4.5845147e-05
240	0xbb3656dd	-0.002782277
241	0xbae8fef5	-0.0017776178
242	0x3b2cb60c	0.0026353626
243	0x3abe0850	0.0014498327
244	0xbb5b32d0	-0.0033447035
245	0x3c09d5bc	0.008412775
246	0x3b9d63c5	0.004803153
247	0x3b2de498	0.0026533958
248	0xb9c0fa38	-0.0003680752
249	0x3a55cfd0	0.00081562717
250	0x3c239a9f	0.009985595
251	0xbb93aead	-0.004506907
252	0xbaaeee9f	-0.0013346261
253	0x3c1ff46c	0.009762865
254	0xbae4feaf	-0.0017470921
255	0x3bb4952c	0.0055109467

action_model._discrete_distribution.branches.0.weight f4 [7, 256]
0	0xbc5b205e	-0.013374416
1	0xbc8f23a2	-0.017473046
2	0xbc515778	-0.012777202
3	0x3b37d6b2	0.0028051552
4	0xbc8f6d33	-0.017508125
5	0x3c029824	0.007970843
6	0xbb06e9de	-0.0020586173
7	0xbc41427e	-0.011795638
8	0x3c61abd0	0.013773873
9	0xba3783c0	-0.0007000528
10	0xba95a8d6	-0.0011418115
11	0x3c3687a1	0.011140735
12	0xbc0a878e	-0.00845517
13	0x3c74d586	0.014943486
14	0xbb5e92c8	-0.0033962
15	0xbbbd63dc	-0.0057797264
16	0xbb85be4e	-0.004081524
17	0xb9058c6a	-0.00012736177
18	0xbb6d5309	-0.0036212823
19	0x3ac508e0	0.0015032552
20	0xbc3e2885	-0.01160634
21	0x3bfae147	0.0076562497
22	0x3bb91e20	0.005649343
23	0xbc414f7d	-0.011798737
24	0xbbdb273a	-0.006688026
25	0xbbd115a8	-0.0063807555
26	0xbc17cbf1	-0.009264932
27	0xbb32b461	-0.0027268159
28	0xbbde6820	-0.006787315
29	0xbbcb0a03	-0.006196262
30	0x3b42fd5c	0.0029753065
31	0xbc1146a9	-0.008866944
32	0x3b29c4ce	0.0025904658
33	0xba83a675	-0.0010044115
34	0x3c285892	0.010275023
35	0x3c5294c7	0.012852854
36	0x3b1e2dec	0.0024136258
37	0x3ba780ab	0.005111774
38	0x3c116a68	0.008875467
39	0x3c3bb985	0.0114578055
40	0x3ca47bcc	0.020078562
41	0xbb212e3f	-0.0024594215
42	0xbc849dc3	-0.016188508
43	0x3c1ec296	0.009689948
44	0x3be2b501	0.00691855
45	0xbbb182cc	-0.0054172035
46	0x3c1ae419	0.009453797
47	0x3bce734e	0.0063003665
48	0x3b9835ba	0.0046450766
49	0xbbba15cf	-0.0056788693
50	0xbbba31fd	-0.0056822286
51	0x3c3c6696	0.011499068
52	0xbc1e12e7	-0.009648061
53	0xbbe16688	-0.0068786778
54	0xbb8a70c8	-0.0042248704
55	0x3bb3d82a	0.0054884152
56	0x3c180695	0.009278913
57	0x3b9f2165	0.004856276
58	0x3bae09e2	0.0053112367
59	0xbc1e7df9	-0.009673589
60	0xbb8c714c	-0.004285967
61	0xbbeb33ec	-0.0071778204
62	0x3aeb83fc	0.0017968412
63	0x3b29a543	0.0025885857
64	0x3ba357d0	0.0049848333
65	0x3bd31adc	0.006442411
66	0xbcac18fa	-0.021008004
67	0xba94eacb	-0.0011361478
68	0x3b94ba32	0.004538798
69	0xbc4e16a1	-0.012578637
70	0x3b75b388	0.0037491042
71	0x3c3bef33	0.011470604
72	0xbc8f69a2	-0.017506424
73	0xbc13cf21	-0.009021551
74	0xbbf12b18	-0.0073598735
75	0xbc1b9130	-0.009495065
76	0x3c4885ca	0.012238929
77	0x3bd1b3e5	0.006399619
78	0xb9b32313	-0.00034167673
79	0x3b9c053f	0.0047613676
80	0x3b43d047	0.0029878782
81	0xbc1ca99a	-0.009561921
82	0xbb25df80	-0.0025310218
83	0xbc4228bf	-0.011850535
84	0xbb927bbe	-0.0044703176
85	0x3c29141d	0.010319737
86	0x3b758177	0.00374612
87	0xbb956ff9	-0.0045604673
88	0xbb995190	-0.0046789125
89	0xbc603c0a	-0.013686189
90	0xbc3b79ad	-0.011442584
91	0xbbc87525	-0.0061174803
92	0xbafbf3ba	-0.0019222416
93	0x3b495c48	0.003072517
94	0xbbe098cd	-0.006854153
95	0x3b324a4e	0.0027204934
96	0xb9d1e8eb	-0.00040037124
97	0xbc5df2f1	-0.013546691
98	0x3b28bfc5	0.002574907
99	0xbc01c5b8	-0.007920675
100	0xbaa4e97a	-0.0012581788
101	0xbc509a96	-0.012732169
102	0xbc02d38c	-0.007985007
103	0xbbac22a0	-0.005253151
104	0x3bcd19b2	0.0062591666
105	0x3c1fe004	0.009757999
106	0x3a8f2f02	0.0010924044
107	0x3b98e231	0.004665636
108	0x3b40072d	0.0029301152
109	0xbba8cd82	-0.0051514516
110	0xbc80eaaa	-0.015736897
111	0x3c0b098a	0.008486161
112	0xbb95b86f	-0.0045691053
113	0xbbce5f9c	-0.0062980186
114	0xbabc2548	-0.0014354372
115	0x3bd44c77	0.006478842
116	0xbb809b32	-0.0039247507
117	0x3a917092	0.0011096171
118	0x3ba2dac2	0.0049699256
119	0xbc5b5def	-0.013389095
120	0x3b8cd973	0.004298383
121	0xbbe2eefc	-0.006925462
122	0xbab31418	-0.0013662605
123	0xbc1c8e69	-0.009555438
124	0xbc3dcb47	-0.01158411
125	0x3b110883	0.0022130318
126	0x3a0a0d07	0.00052662235
127	0x3bd9eafd	0.0066503272
128	0x3c6ab511	0.014325396
129	0x3b63a55b	0.003473601
130	0x3abd86f8	0.001445978
131	0x3b90a066	0.0044136522
132	0x3a6984ab	0.00089080137
133	0x3c65a7a0	0.014017016
134	0xbb05ae31	-0.0020398016
135	0x3a12ab25	0.00055949605
136	0x3c6d30fe	0.014477013
137	0xbb8b7261	-0.0042555784
138	0xbbdf9c4c	-0.006824052
139	0xbbc1525f	-0.005899712
140	0xbbbcdbd8	-0.005763512
141	0x3afcb5d7	0.0019280267
142	0x3c1c096f	0.0095237335
143	0x3b88b2f3	0.004171723
144	0xbcac21db	-0.021012237
145	0xbb651398	-0.0034954306
146	0xbb24d917	-0.002515381
147	0xbbbbdb48	-0.0057329275
148	0xbc0e6a7f	-0.008692383
149	0xbb915cb4	-0.0044361
150	0xbb099e51	-0.0020998905
151	0xba16aced	-0.0005747814
152	0xbcbedae3	-0.023297733
153	0xbba46a97	-0.0050175893
154	0x3ae316a8	0.0017325478
155	0xbc91d695	-0.017802516
156	0x3bc23cb5	0.005927647
157	0x3c1dafa9	0.0096244
158	0x3bac666f	0.0052612345
159	0x3b092c5e	0.0020930986
160	0x3c05937b	0.008152838
161	0x3b0ca230	0.0021458976
162	0xbb9d5f48	-0.004802618
163	0x3be83f16	0.0070875986
164	0xbc13392e	-0.008985801
165	0xbc24ed00	-0.010066271
166	0x3c964412	0.018343005
167	0xbc77d05b	-0.015125359
168	0x3c3aaf76	0.011394372
169	0x3b8be342	0.0042690346
170	0x3a360e3c	0.000694487
171	0x3a7e5fd1	0.0009703609
172	0xbc3e636e	-0.011620386
173	0xbc3b3cc8	-0.011428066
174	0xbb9589cc	-0.004563546
175	0x3aa1179c	0.0012290361
176	0x3b6366d5	0.0034698744
177	0xbc1000e0	-0.008789271
178	0x3c21bf00	0.009872198
179	0x3a7086cb	0.0009175359
180	0x3b08dd90	0.0020884015
181	0x3c34b790	0.011030093
182	0xbbcec4f7	-0.006310101
183	0xbc3c85cf	-0.011506512
184	0x3bda6237	0.00666454
185	0xbb459d60	-0.0030153617
186	0x3bbc401d	0.0057449476
187	0xbc1a7edd	-0.009429661
188	0x3caa6826	0.020801615
189	0xbbd0bb70	-0.0063700005
190	0x3a57ca77	0.0008231769
191	0xbaa82f8c	-0.0012831553
192	0x3b859ff1	0.0040779044
193	0xbbedb6e1	-0.007254467
194	0x3bda1ef6	0.006656523
195	0xbc0aa709	-0.008462676
196	0xbc4dad64	-0.012553547
197	0xbc0ad487	-0.008473522
198	0xbc86a6ec	-0.016437016
199	0x3c436309	0.011925467
200	0x3bd88269	0.006607343
201	0xbb3039b5	-0.0026889865
202	0x3bacfbe8	0.005279053
203	0xbc8c05ea	-0.017092664
204	0xbbc2970a	-0.0059384154
205	0xbb1f1cf4	-0.0024278732
206	0xbb875228	-0.004129667
207	0x3ac358a9	0.0014903742
208	0xbb9f7c30	-0.004867099
209	0x3c7eb291	0.015545503
210	0xbb010fb1	-0.001969319
211	0x3bb0edee	0.005399457
212	0x3bc6a323	0.006061928
213	0xbc06f5dc	-0.008237328
214	0xbc383ce0	-0.0112449825
215	0x3b40db6b	0.0029427658
216	0x3bc0a98a	0.0058795856
217	0xbbb2af9b	-0.0054530627
218	0x3c0cdbda	0.008597339
219	0xbc34eb0a	-0.011042366
220	0x3c2ceb12	0.010554092
221	0xbc5a062f	-0.013307138
222	0x3c11d320	0.008900434
223	0xbb85621d	-0.004070534
224	0x3ba332d6	0.0049804254
225	0x3b90ef47	0.0044230553
226	0xbc79b080	-0.015239835
227	0xbc8f006e	-0.01745626
228	0xbc230906	-0.009950882
229	0x3a3915fe	0.0007060467
230	0xbaa5f6af	-0.0012662018
231	0x3c36d979	0.011160248
232	0x380580a2	3.182947e-05
233	0xbbae007e	-0.0053101173
234	0x3931798e	0.00016925318
235	0xbc58666a	-0.013208011
236	0x3c87e3a0	0.016588032
237	0xbab064b3	-0.0013457745
238	0x3aade0bd	0.001326583
239	0x3cca8e15	0.024725953
240	0x3c33d8b6	0.010976961
241	0x3c4fdbea	0.012686709
242	0x3b9cdcb9	0.0047870544
243	0xbc001428	-0.007817306
244	0x3c56770e	0.013089908
245	0xbbe1010a	-0.006866579
246	0x3c170ccb	0.009219359
247	0x3b477775	0.0030436192
248	0x3b368df4	0.0027855607
249	0xbc59a21c	-0.013283279
250	0x3c0deabc	0.008661922
251	0x3c1a993d	0.009435949
252	0xba161ba6	-0.0005726166
253	0xbc24f770	-0.010068759
254	0xbbc3de4c	-0.0059774276
255	0xbc025996	-0.007955929

action_model._discrete_distribution.branches.0.bias f4 [7]
0	0xbb79a655	-0.0038093526
1	0x3b5f4df7	0.003407357
2	0x3b6a7837	0.003577722
3	0xbabebecd	-0.0014552713
4	0x3aa1c454	0.0012341836
5	0x39e0d805	0.00042885556
6	0xbba940f2	-0.005165213
