results/t8/Fork1/Fork1-4103.onnx (onnx, 333139 bytes, 6 tensors)

network_body.linear_encoder.seq_layers.0.weight f4 [256, 58]
00000000: e055 1d3e d72e 90bd 9b21 643d c137 643e
00000010: cb41 af3d 3191 743d cb49 02be 5cd5 333e
00000020: b41d 7cbd 926b a83d 7748 583d 4592 843c
00000030: 5bb7 3b3e ae89 2e3e 1288 bb3d c57c b13d
00000040: 4e26 3f3e 0790 4d3e 38c3 6b3e 8539 8fbe
00000050: 71c5 1bbc 2c45 ffbd 3ef2 ca3d 9673 d53c
00000060: 941e e8bd 2f20 d1bd 3b01 d4bd 65fd 47be
00000070: e593 c63c cc9a d3bd 9142 b03d c057 a7bd
00000080: 2b95 33be 38f5 37be 4ce3 cabd 9b5f 533d
00000090: 3efd 453c 5f5d ce3d f0b4 c8bc dc75 1d3d
000000a0: 2278 5d3d 26bc 09bd 5af3 df3d d66a 07be
000000b0: 845d 4bbd e479 91bd d21a eb3e c566 7c3b
000000c0: 69df 0fbd 3c64 27be 38de f0bd f9da b93d
000000d0: cf44 033d db43 1fbd 03a8 b8bd cf17 c73d
000000e0: 1f20 00be ae98 813e 71fd 143e 7d9c e13c
000000f0: cb83 b3be e3e9 e03d 17cd 893d 16d8 2cbe
00000100: 19c2 72bd 8ac8 da3d f3f7 aabc 517f 61bd
00000110: a2a1 6fbd 4cf9 a83b cdc1 5dbe 6e54 c83b
00000120: 50e9 a1bc 0db4 9d3d 2a05 453e 6747 ad3d
00000130: 5dd7 1fbe 0e81 15be 6476 203e 9f26 b8bd
00000140: 729a 0a3d 5359 83bd af31 e13d 43f1 d0bd
00000150: 2473 b9bd 6d0c 29be ad39 163e ffa4 41be
00000160: bb05 51be a9e3 4f3e a18d c33d 9060 23be
00000170: 4594 7fbd cefb 6f3e f225 48bd df9d 69bc
00000180: c222 90bd 0423 5bbe efdf 17be 9e5c 9e3d
00000190: 6fce a43d f9c8 2b3e a934 94bd a6a6 0cbe
000001a0: c26b 1cbc 6bef 12be cbc0 3b3e b942 ccbd
000001b0: 87cf 08be 247f 7bbd 252a 363d 6083 083e
000001c0: 85fd 67bd e254 cabd c03f 6d3d 6e51 8cbd
000001d0: df33 f53d 0a23 0a3d 0f81 8a3d 61aa b1bd
000001e0: 4805 aa3d 4751 9dbd d385 4ebe c950 63bd
000001f0: d60f 99bd 73fc 313b c373 0dbe ff7b 8a3d
00000200: c335 f23c d871 023e 3741 b6bb e615 c23d
00000210: 4f15 363e 01ce 003e d385 b4bc 3633 92bd
00000220: 0599 cabd 7880 acbd 3a47 d0bc 4d4f abbc
00000230: 2666 a6bd b1e5 33be cfab 6abe 7c91 e9bd
00000240: eea2 eabd b1ec 623e 057c 463e 197e 49bc
00000250: 4170 923d 87b3 26be 6673 0bbd c516 ecbd
00000260: 7515 91bc 915a 35bd 3a36 273e d13d 33bd
00000270: f6c9 6a3d 9322 ebbe dbe0 e23c 1672 0abe
00000280: 9c46 87be fecf 703d 4739 a5bd 20b5 84bb
00000290: 1c50 a5bd fe0c 42be 4e75 a2bc 2785 e73d
000002a0: 954a a3bd f817 d93c 4f62 26be 294b 5b3d
000002b0: 1562 bcbe 444c b6bd 5fde ac3c 60d2 c5bd
000002c0: c30d 3b3d d5f2 abbd 0b85 f8bb d978 093e
000002d0: 17f2 153e be92 8c3d 587f 0d3e 67a2 ecbc
000002e0: 5186 543e de8b c93c 4d1b d7bd a9cb f43d
000002f0: 0432 923e a72b 1a3d a5ee 9bbd ab07 933d
00000300: 70be 95bd 0ffd 823e 4de7 403e 4eaf 21be
00000310: c7d8 9c3d e848 8dbc 9631 b03d f0a6 dfbc
00000320: b444 633c 32cf 55be 0f83 b3bd 7af2 a23d
00000330: 963a 013d 1fc6 61be fb7a 17be 67e8 babd
00000340: d42e d1bd 2058 e0bc 5d71 e33d d48d 21bd
00000350: f90d a53d 2af5 17be 6821 53bd c775 123d
00000360: 2ee9 3fbd c7f8 75bd 4a32 58be bdcc 303c
00000370: b745 21be 2856 8fbd 53d0 9fbd 8a71 1b3e
00000380: 8d33 e8bd 1ecf 84bd 2884 313d 5397 453e
00000390: b0b6 a93d a967 84be 9e55 38be c051 763d
000003a0: f1ce dfbd db36 9cbe 676d a93c 6c1d b1be
000003b0: 6c70 023e cab0 013e bd97 ae3d fb0a 35be
000003c0: 5cc1 96be 8fc0 7f3c 5ca6 a9be 72b6 47be
000003d0: 886d b4bd ce4a 483e 51b4 c9bd 4789 e1bd
000003e0: 8b23 54be 5bc4 433e 0845 62bd 6bfa 1bbb
000003f0: cc7f 00bc a9d8 3a3e 55b7 80bc 0428 d33d
0.1536479 -0.07040184 0.05569611 0.22286893 0.08557471 0.059708778 -0.12723462 0.17561859
-0.061551765 0.082236424 0.052803483 0.016183028 0.18331663 0.17044708 0.09156813 0.08666376
0.18666956 0.20074473 0.23023689 -0.2797357 -0.009507523 -0.12464365 0.09909485 0.026056092
-0.11333957 -0.10211217 -0.10351797 -0.19530256 0.024240443 -0.103322595 0.086064465 -0.08171034
-0.17537372 -0.17964637 -0.09906635 0.05160485 0.012084303 0.10076403 -0.02450034 0.038442478
0.054069646 -0.033626698 0.109350875 -0.13224348 -0.04964973 -0.07103327 0.459189 0.0038513404
-0.03512517 -0.1634683 -0.11761135 0.09074969 0.032048043 -0.03888307 -0.09016421 0.09721338
-0.12512253 0.25311798 0.14549805 0.02754044 -0.35061488 0.1098211 0.06728571 -0.16879305
-0.059267137 0.10682781 -0.020870185 -0.05505306 -0.058503754 0.0051566716 -0.2165596 0.0061135804
-0.019764572 0.077003576 0.19240251 0.084608845 -0.15609498 -0.14600012 0.15670162 -0.089917414
0.033838697 -0.064135216 0.109958045 -0.10202267 -0.090551645 -0.16508646 0.14670439 -0.18910597
-0.20412342 0.20301689 0.09548498 -0.15954804 -0.06239726 0.234359 -0.048864312 -0.014258831
-0.070378795 -0.21400076 -0.14831518 0.07732509 0.080471866 0.16775884 -0.07236607 -0.13735446
-0.009547176 -0.14349143 0.18335263 -0.09973664 -0.13360415 -0.061400548 0.044473786 0.13331366
-0.05663826 -0.09879471 0.057922125 -0.06851469 0.11972784 0.033724822 0.06762897 -0.08675075
0.083017886 -0.07681518 -0.20168237 -0.055496965 -0.074737236 0.0027158528 -0.13813691 0.06761932
0.029566651 0.1273874 -0.0055619734 0.09476833 0.17781566 0.12578584 -0.022036469 -0.07138674
-0.098924674 -0.08422941 -0.025424588 -0.020911837 -0.08124952 -0.17568089 -0.22917102 -0.11404702
-0.114568576 0.22160603 0.19383247 -0.01229813 0.07150317 -0.16279422 -0.0340456 -0.115277804
-0.017710427 -0.044275824 0.1632928 -0.043760125 0.05732151 -0.45924816 0.02769511 -0.13520083
-0.26421058 0.058792107 -0.080675654 -0.004049912 -0.0807192 -0.18950269 -0.019831326 0.11304694
-0.0797321 0.026500687 -0.16248439 0.053538475 -0.3679358 -0.08901265 0.021102129 -0.096592665
0.04566742 -0.08395926 -0.0075842193 0.13425006 0.14643131 0.06863926 0.13818109 -0.028886033
0.20754363 0.024602827 -0.10503254 0.119529076 0.28553784 0.037639286 -0.07613877 0.07179197
-0.07311714 0.25583693 0.18838234 -0.1578953 0.076585345 -0.017246678 0.08603208 -0.027301282
0.013871361 -0.2087982 -0.08765232 0.07956405 0.031550013 -0.22048233 -0.14793007 -0.091263585
-0.1021401 -0.027385771 0.11105607 -0.0394419 0.08059306 -0.14839616 -0.05154553 0.035756852
-0.046853237 -0.060051706 -0.21112934 0.010791001 -0.1574925 -0.06998855 -0.078034066 0.1518003
-0.113379575 -0.06484817 0.043338925 0.19296007 0.08286798 -0.25860336 -0.1800141 0.060136557
-0.10928143 -0.305106 0.02068205 -0.3459276 0.12738198 0.12665096 0.085250355 -0.1767997
-0.29444396 0.015609874 -0.33134735 -0.19503191 -0.08809954 0.19559786 -0.09848846 -0.11012512
-0.20716684 0.19117872 -0.055241615 -0.0023800384 -0.007842969 0.18246712 -0.01571242 0.10310367

network_body.linear_encoder.seq_layers.0.bias f4 [256]
00000000: 9bd8 34bb 546d 06bc b9af 9ebb d2db 9e3b
00000010: 215f 9bbb d1ba 09bc 6259 d03b 1851 d73b
00000020: dc20 debb 2ebf e8bb daa6 983a d3d7 9cba
00000030: bd8f 513c 1e10 5e3b 9ffe b5bb 5dda e33b
00000040: b7c7 26bb 0777 403c 356f c03b 0838 d5ba
00000050: 59c7 dfbb 6f34 65bc 8a10 14bc 18e5 83bc
00000060: 2ee7 403c 5e7a ca3b dd39 3abc 2cdd 7d3b
00000070: f619 1abc 5d8c f23b 8dfa f53b 0cc2 123c
00000080: 6e09 de3b 0cf0 43bc 3d90 533c 8530 9a3b
00000090: b505 313b 2d0b f73b 1e34 733b ba30 18bc
000000a0: 0040 7a3c 5d8f 1d3c 0fa1 433a f78f be3b
000000b0: 4e3c babb c5cd a63b 64cf 4b3b 5c22 b23a
000000c0: 9bac 203c d815 de3b 8bd8 023c 0f57 093c
000000d0: b050 26bc a56e 24bb 4342 e93b 3310 c5ba
000000e0: b10a 53bc 6892 a5b9 7a5f 873a ae77 e73b
000000f0: 5ffd 5d3c d241 d1bb f26c bc3b d5df dcbb
00000100: 12fa 5c3b 4221 dcbb 0e7d 9bb7 f7fa 4ebc
00000110: fca2 eebb 36f9 83bb e940 a43b 7d2d 87bb
00000120: 855e 053c 3ce3 96bc 32b8 90bb 5137 6ebc
00000130: 3b2a 10bc 274e f73b 58c8 f0bb 40dc e1bb
00000140: b268 09bc 5dc3 5eb8 3fd5 25bb 3497 1cbc
00000150: d453 f03a ca45 be3b 9bf3 4a3c db0a c7bb
00000160: 7955 e0ba c823 363b ed07 bf3b ce2a 143c
00000170: 7dd9 b7bb 6b74 e23a ef18 08bc 7531 ce3b
00000180: d90b 873b 5ff2 593b deb1 75bb f38a b63b
00000190: fb25 a6bb b543 c43b 52be ec3b 0aea 093c
000001a0: 0591 883b 276d be3b 1119 b93b dc99 ba3a
000001b0: eeaf 8b3b 44ae 4dbb 680b 483b ae4c 373c
000001c0: c8fb 133c 13d4 ea36 e2bc 1e3c c90a 9b3b
000001d0: 3c71 d23b 9504 4f3b ad1d 283c 1595 f43b
000001e0: d345 efbb 1588 803b 980d 47bb 9a93 1abc
000001f0: 195d 18bc dde9 993b fb5b 32bc e9c6 ff3b
00000200: d528 99bb 0185 ac3b e43a 6d3c 302b c43b
00000210: f315 c2bb 06ae dcb9 6c6b 03bb 4550 063c
00000220: 1f9a f13b a5a8 82bc 061c 0fbc 01fc c33b
00000230: 7c04 6438 c457 6d3b 3675 273c e978 de3b
00000240: 3ee2 023c 7ae2 173c bbae fc3b e66a cabb
00000250: c363 4fbb 3590 a23b ac0a 6f3b 1c0b 2cbb
00000260: 16bb f83b 413f 0dbc fb27 043c f58b 8bbb
00000270: 2158 4a3b 264d 073c d74e e13b 68cb 13bc
00000280: a1f7 92bb 9fd5 99bb 4ada 4cbc c718 a13b
00000290: c626 313a 4dbd 043c 8d48 23bb 9727 5dbc
000002a0: 0b08 d73b e523 4f3b a64f 1e3b 4e44 513c
000002b0: c43c c23b df42 d2b8 fe51 23bb 1d1c 4a3c
000002c0: 1ed0 fbba ff78 efbb 3435 203c 31ec 01bb
000002d0: 8a08 ecbb 2047 f03b 6068 e83b 2804 323b
000002e0: 7977 fcba 416f 233b 137c 923b 94ea b13b
000002f0: 963d 183c b4d1 ab39 6766 a3bb 4c91 8abc
00000300: 799b 1d3c 95c0 45bb 3d37 b63b cf5f cc3a
00000310: ed8e 86bb b21b 633c a43c 9e3c 4e71 563b
00000320: 8f2c c238 7138 143c 3b4b 403b 2795 de3b
00000330: 15ec 323c 0bb1 de3a f5a5 c4bb e595 e3bb
00000340: 364b 0f39 d2a6 283c 1e2f 973b 4887 803b
00000350: 8427 cfbb 8049 9d3b 269a 92bb cfcd 093a
00000360: a7ed 993b 4fed a0bb d3f7 c3b9 d03b fd3a
00000370: 468b ce3b a94f 1cbb aff2 db3b d465 113c
00000380: ff7f 893b 9a6e 053c 4fea 1abc c975 91ba
00000390: 9f31 673b 83a3 f0bb e76d b93a 3559 8d3a
000003a0: 057f 383c 198f 56bc 28cf ab3a 5efa 84bc
000003b0: c4ca 09bc 8dbf 453a 794e e83b 8159 1cbc
000003c0: 82eb 303c 056a cdb9 dbd8 4cbb 3c56 6b3b
000003d0: 48f4 ec3b ad12 f1ba 3e23 31bc 2f08 c83b
000003e0: d68c 063b 9752 00bb bbcc cdbb 8931 9d3a
000003f0: fa47 88bb 56b9 eb3b 9952 a9bb e42b 083c
-0.0027594927 -0.008204777 -0.004842725 0.004847982 -0.004741565 -0.008406357 0.0063583115 0.0065709464
-0.0067788195 -0.0071028685 0.0011646405 -0.0011966176 0.0127906175 0.0033884118 -0.005554035 0.006953521
-0.002544863 0.011747128 0.005872632 -0.0016267309 -0.006829184 -0.013989552 -0.009037146 -0.016100451
0.0117738675 0.006179138 -0.011366335 0.0038736565 -0.009405604 0.0074019865 0.0075066746 0.008957397
0.0067760265 -0.011959087 0.012912807 0.004705491 0.0027011458 0.007539174 0.0037109922 -0.009288961
0.015274048 0.0096167 0.0007462659 0.005815502 -0.0056834584 0.0050904476 0.0031098956 0.0013590562
0.009806777 0.0067775063 0.007986198 0.008382573 -0.010151073 -0.0025090363 0.0071184947 -0.0015034735
-0.012880967 -0.00031580334 0.0010328137 0.0070638275 0.013549178 -0.00638602 0.005750292 -0.00674055
0.003371839 -0.006717832 -1.8535673e-05 -0.012633077 -0.007282613 -0.004027511 0.0050126207 -0.0041252957
0.008140211 -0.0184189 -0.004416489 -0.014539556 -0.008799131 0.0075471583 -0.0073481016 -0.006892711
-0.008386778 -5.311087e-05 -0.0025304107 -0.009557534 0.001833553 0.0058066593 0.012387182 -0.006074292
-0.0017115317 0.0027792323 0.0058298022 0.009043409 -0.0056106434 0.0017277127 -0.008306726 0.006292517
0.0041212854 0.0033256037 -0.003749005 0.0055707633 -0.0050704456 0.0059895166 0.0072248364 0.008417616
0.0041676783 0.005811352 0.00564874 0.0014236527 0.004262916 -0.0031384388 0.0030524377 0.011187715
0.009032197 6.998432e-06 0.009688588 0.0047315103 0.00642219 0.0031588424 0.0102609815 0.007464061
-0.007302025 0.0039224722 -0.0030373093 -0.009434605 -0.00929954 0.004697068 -0.010886188 0.0078056944
-0.004674057 0.0052648787 0.014479373 0.0059865937 -0.0059230267 -0.00042091327 -0.0020053042 0.008197849
0.007373109 -0.015949557 -0.008734709 0.005980969 5.4363612e-05 0.0036215642 0.010220816 0.006789316
0.007988511 0.009270305 0.007711259 -0.006177294 -0.0031645156 0.0049610385 0.0036474867 -0.002625174
0.0075906618 -0.008621038 0.008066173 -0.0042586275 0.0030875283 0.00825814 0.0068758535 -0.009020664
-0.004485086 -0.004694655 -0.012503216 0.004916284 0.0006757792 0.008101773 -0.002491507 -0.0134982085
0.006562238 0.0031607088 0.002415636 0.012772633 0.005927654 -0.00010026036 -0.0024920697 0.012335804
-0.0019211804 -0.007308125 0.00977831 -0.001982462 -0.0072031664 0.0073326975 0.0070925206 0.0027163122
-0.001926168 0.0024938139 0.004470357 0.005429575 0.009292027 0.00032771903 -0.0049865725 -0.016914986
0.009619587 -0.0030174602 0.005560784 0.0015592518 -0.0041063935 0.013861584 0.019316025 0.0032721343
9.2589406e-05 0.00904666 0.0029341716 0.0067926827 0.010920544 0.0016990019 -0.006001229 -0.006945359
0.00013665561 0.010293679 0.004613771 0.003922377 -0.0063218493 0.0048000216 -0.0044739423 0.0005256803
0.00469752 -0.004911102 -0.00037377942 0.0019320194 0.006303224 -0.0023851192 0.0067122797 0.008874375
0.0041961665 0.008144045 -0.009455278 -0.0011097725 0.003527738 -0.007343711 0.0014147133 0.0010784032
0.011260753 -0.013095641 0.0013108002 -0.016232666 -0.0084101595 0.0007543497 0.007089433 -0.009542824
0.010798337 -0.00039179638 -0.0031257186 0.0035909554 0.007231269 -0.0018392407 -0.010811625 0.006104491
0.0020530722 -0.0019580477 -0.0062805093 0.0011992912 -0.004158971 0.0071937246 -0.005167317 0.008311246

network_body.linear_encoder.seq_layers.2.weight f4 [256, 256]
00000000: 85d7 2b3d a4f9 a5bd 3e4f e23c 2bb2 903d
00000010: bcdc 9abd 3fea b3bc 68d4 c3bc 2398 c83d
00000020: 3340 463d d3f3 113c ee3e 39bd 1cd2 863d
00000030: bfe2 2a3d e412 5fbd ffc0 393d 5ad7 863a
00000040: ce05 32bd 117a cd3d 9b3c 8c3d 4e42 bc3b
00000050: e5a3 2dbd 4090 993d 0a04 e7bd af4b bcbd
00000060: 2ab4 7d3d 5ac1 09bc f65b b0bb 20cf 3d3d
00000070: 0eda b13d bb09 73bc 70e6 763d 9b60 85bd
00000080: 58b5 643b f3fa b43d 2cd6 55bc 0251 7d3d
00000090: 06d2 40bd 5f11 983c 761f 0bbb 3522 093d
000000a0: e1f4 a43d ece5 5f3d 07f3 6d3d 268c 0cbd
000000b0: 6fa5 c63d 4811 303c c98b ad3c c55b 083b
000000c0: f95d 8abd 328e 143d 0fc7 77bc 1ad9 43bd
000000d0: 5bf0 cb3d 9ef4 61bd 5b6f 17bd bb27 a8bd
000000e0: b806 063d 5e3f da3b 5744 363d 6628 8abc
000000f0: 57af aabd 6ac8 af3d 726b 713c 9398 2dbd
00000100: 1d9f dd3d a7f5 e03d 4ca0 fc3c a8dd 68bc
00000110: f2f7 083d e1b6 c73c d43d f13c 13d8 26bd
00000120: 8c87 fbbc 0e46 ab3c 733d cebd 3935 383d
00000130: df61 a1bd 5d1c cdbd da6c cdba d1a5 1b3c
00000140: 9efc e7bd 484c 24bd 49e2 15bc 4c8d 91bd
00000150: 8037 313a 839c 33bd bd49 b6bd 14d6 c93c
00000160: 46a8 f9ba d2cf f43c 5426 cfbc 46fa 0f3d
00000170: 8bb2 6abd 22e7 0d3c 28aa 9c3a 94e7 afbc
00000180: 6e96 42bc 4889 4c3c 7d17 583d 88be 39bd
00000190: 080c 91bd 0ecf b6bc 6795 fcbd b094 5e3c
000001a0: 0bdc 133d 4804 f63d ad8e 89bc b9a2 b23c
000001b0: 2dce cc3b 2399 1cbd 582a 8bbc 2299 bfbd
000001c0: 92ab 90bd b296 93bd 97fd a8bd 1749 153e
000001d0: fee9 16bb b72f b83c 3c89 b4bd 9639 94bd
000001e0: c7a3 8e3a 8efd 9cbc c367 403d 8abf 27bd
000001f0: b2dd b43d 7098 393d c6ce af3d 4c0a 773c
00000200: 5837 6c3d 93aa ec3c 8c3d bf3c 43c3 df3d
00000210: 0ffe 8fbd 96e2 b03d 1921 a7bd 44ff a6bb
00000220: c8be e53c 6376 a33c eecd 803d cd35 bf3d
00000230: adb5 96bd f2c6 bdb9 5eb6 c2bc 8f21 4e3d
00000240: f335 f8bc d661 72bd bfa5 663d 296d 12bb
00000250: a01d 783d 5445 003e e5c1 aebb 5936 15bd
00000260: d557 e5bc 75cc 11bd 2ab3 e23d f2ec 7cbd
00000270: 6b61 093d a47e d63a 1ce5 bc3c 5437 dc3d
00000280: a453 a13d 565d 2fbd 587e ab3d 67d5 b3bd
00000290: 7ead 103d 2810 d1bc e4ee b1bc c8e2 f4bc
000002a0: 10e4 e23d f438 3f3d 2881 afba 54b0 823c
000002b0: 5503 a33d fa7a 0abe 7340 a73c 0112 90bd
000002c0: 5996 3cbc f4f2 d33d 115d 163d c0f4 963c
000002d0: 575b 663c a7e5 f6bc a7a0 883d f3f0 80bd
000002e0: 58a1 6d3b 7f12 1cbd 81a7 4dbd 305d db3c
000002f0: 5963 273d 8d29 35bb 1377 80bd 5a1e 92bd
00000300: a153 1e3d 21b5 91bd 327d 85bd 78a8 263d
00000310: 8241 b63c 347d b6bd cf76 f1bc 89c8 19bd
00000320: ae63 a5bb e949 3e3d f162 c9bb 58a6 543d
00000330: f97d 083d b936 8fbc d68f f7bb a5e7 64bc
00000340: 1598 3c3d 1b49 b9bc 31bb 3e3d 3d54 7bba
00000350: c227 fdbc 2ee6 b53b 55e7 ddbd b98d 1d3d
00000360: 209c 20bd c92a 81bd da01 973d 40c2 03bc
00000370: b7c3 5abd 604a d1bd b87b 013e 17a0 613d
00000380: f42c 7dbd 6c82 1c3e 7096 b73c fb07 e73d
00000390: 36a1 c93d a85c 603d 6ecc 8abc f84d 4a3c
000003a0: 4972 fd3d 75c5 f0bc cbce 1dbd 2e30 443c
000003b0: f7c5 053c 5fcc 62bd 8dce cf3c ff00 353d
000003c0: acfc c9bd 3ac6 48bd c93d 95bc a229 a1bd
000003d0: af08 db3c 0ec0 bd3c ce6a a93c 28ef 9bbd
000003e0: 0ccd 2b3d 7882 f63d 6c13 673d f1c3 38bc
000003f0: 90d4 163d 9686 17bc 483c 65bd 1659 22bd
0.041953582 -0.08104256 0.027625676 0.07065233 -0.07561633 -0.021962283 -0.023904994 0.09794643
0.04840107 0.00890823 -0.04522603 0.06583044 0.04172015 -0.054461375 0.04535007 0.0010287568
-0.043462567 0.10033048 0.06847497 0.005745209 -0.04239263 0.07498217 -0.11280067 -0.09194123
0.061939396 -0.008407915 -0.0053820563 0.046340108 0.08684169 -0.014833863 0.060278356 -0.06512567
0.0034898128 0.08836927 -0.013051551 0.061844833 -0.047075294 0.01856297 -0.002122847 0.033479888
0.080545194 0.05466263 0.058093097 -0.034313343 0.09699523 0.010746308 0.021184819 0.0020806652
-0.06756205 0.03626842 -0.015123143 -0.047814466 0.099579535 -0.055164926 -0.03697143 -0.08210703
0.03272125 0.006660386 0.044498768 -0.016864967 -0.08334225 0.08583148 0.01473509 -0.042381834
0.10821364 0.109843545 0.030838154 -0.014213003 0.033439584 0.024379196 0.029448427 -0.04073341
-0.030704282 0.020907428 -0.10070314 0.044972632 -0.078799956 -0.100151755 -0.0015672699 0.009499983
-0.1132748 -0.04011181 -0.009148189 -0.07107028 0.00067602843 -0.043850433 -0.08900783 0.024638213
-0.0019047342 0.029884253 -0.025286831 0.03515079 -0.057299178 0.008661063 0.0011952566 -0.02147273
-0.011876686 0.012483902 0.052756775 -0.04534772 -0.07082373 -0.022315528 -0.12333184 0.013585255
0.03609852 0.12012535 -0.016791666 0.021806108 0.006250164 -0.03823198 -0.016987965 -0.0935538
-0.070639744 -0.07206477 -0.082514934 0.14578663 -0.0023027654 0.02248369 -0.08815238 -0.07237546
0.001088255 -0.019163873 0.046973955 -0.04095415 0.088313475 0.04531139 0.08584361 0.015078139
0.057669967 0.02888993 0.023344778 0.10925915 -0.0703088 0.08636968 -0.0816061 -0.005096348
0.028045073 0.019953912 0.06289278 0.093364336 -0.07358871 -0.00036197115 -0.0237686 0.050324973
-0.030299162 -0.059175335 0.05631041 -0.0022342897 0.060575128 0.12526447 -0.0053331726 -0.036428783
-0.027995983 -0.035595376 0.11069329 -0.061749406 0.03354017 0.0016364646 0.023058467 0.107527405
0.07877281 -0.04281362 0.083737075 -0.08780938 0.035321705 -0.0255204 -0.021720357 -0.029893294
0.11078656 0.046685174 -0.0013389932 0.01595322 0.0795962 -0.13523474 0.020416474 -0.07034684
-0.011510455 0.10349074 0.03670985 0.018427253 0.014059863 -0.030138804 0.06671267 -0.062959574
0.0036259498 -0.038103577 -0.050208572 0.026777834 0.04086623 -0.0027643174 -0.062727116 -0.07134695
0.038653973 -0.07114626 -0.0651802 0.040688008 0.022248033 -0.08910599 -0.029475598 -0.03754476
-0.005047283 0.046457205 -0.006145828 0.05191645 0.033323262 -0.017482148 -0.0075549884 -0.013971244
0.046043474 -0.022617867 0.04656524 -0.00095874426 -0.030902747 0.005551121 -0.10835139 0.038465235
-0.039211392 -0.06306989 0.073734 -0.008041918 -0.053409304 -0.10219264 0.12644851 0.055084314
-0.06181045 0.15284127 0.022410601 0.11280819 0.09845202 0.054775864 -0.016943183 0.012347691
0.12375314 -0.02939103 -0.03852729 0.011974378 0.008164874 -0.055370685 0.025367046 0.044190403
-0.098626465 -0.04901717 -0.018217938 -0.07869269 0.02673754 0.023162868 0.020680811 -0.07613975
0.041943595 0.12036604 0.056415007 -0.011277185 0.03682381 -0.009248396 -0.05596569 -0.03963574

network_body.linear_encoder.seq_layers.2.bias f4 [256]
00000000: 213e 9c3a 295a 5f3b da53 e4bb 107e 16bc
00000010: aeba 993b bda5 1ebc 57b7 413b 3bb4 293b
00000020: 0857 49bc acc7 d33b 0e2e 6b3b e3a8 e8bb
00000030: 547f e9bb abaf 48bc 20d5 48bb 4ce0 c5ba
00000040: 8609 4b3b 42b3 ff3b 47d9 cc3a 7d4e 25bc
00000050: f940 e3bb 7b6a fdbb 32df f73b 44f9 ac3b
00000060: d80a 963b 3d12 0c3b cf7e 07bc 9ae5 073c
00000070: 624c 403b e2a9 b93b efaa aaba 1f80 8dbb
00000080: dedf c63b e9ee 753b 37ba e93b dea8 8ebb
00000090: 8a22 2ebc 308b 2fbc 7645 c0ba 84d2 763b
000000a0: d2b2 e3ba d8f1 8dba 813e 20bc 5003 b1b9
000000b0: 8b6d 34bc 40da 013c 72ec 0b3c 9ad4 0fbb
000000c0: 93ec 8c3b 61a8 fdbb 7f2f c83b c994 be3b
000000d0: 7ce3 80bb 6035 093c e42e 39bc ad63 1b3b
000000e0: acd3 e1bb a687 da3b 6480 ebbb e60f 75ba
000000f0: 7a76 a33b 6afd 14bc d06b 17bc d70c 8d3b
00000100: 9dcc 5fbc 4afc 44bc 3972 ef3b 9589 32bc
00000110: f4b5 cc3b 3e28 b13b a551 ee3a 900e f93a
00000120: 75af d33b b3ef 4e3c 1658 3e3a a6db 283c
00000130: a821 31bb 3c5f 1dbc 628b 1dbc d9fe e0bb
00000140: c2df 0abc 63c8 71bb 2394 36bc a0c6 50bc
00000150: f8e6 b2bb 5815 9b3b 815d c33b 8135 76b9
00000160: 51ed f83b df9c 28bc 36f6 e53b da66 d53b
00000170: 2c19 083c f060 ae3b 770b 62bc fe7e 223c
00000180: ceac f7bb 19fa 39bb 36a6 5b3a 22fd 983b
00000190: f120 18bb aa12 e23b 34a9 bc3b b44f 41bc
000001a0: b7f1 eabb 06a9 aabb 2fe6 57ba 4794 0a39
000001b0: 2b14 33bc 18e7 e53b e5fb 113c f3a1 0ebc
000001c0: 01b6 333b 6a65 4fbc 4fae 8abb 06b8 2cbc
000001d0: b446 a43b e4fb 85bb 1262 9d3b e891 963b
000001e0: 5b3b 8fbc 9194 f33b 9b24 23bc 88b6 2fbb
000001f0: 5da6 10bc dd2b 083c f10c 013c 160e 6eba
00000200: 24c9 ef3b abff 26bc 50c0 34bb d610 503b
00000210: b0df 4ebc 834f c53b bcfe 2bbb 48ef 31bc
00000220: d6dd 533b 32ba c8bb 28b4 2f3c 1f2d af3b
00000230: 32a4 233b 57fc d33b 7a9c f83a 4b53 f93b
00000240: 8a08 33bc 3fc3 26bc b6a1 1ab8 7fe0 dcbb
00000250: 5e26 993b feae ee3b 7330 85ba c544 1bbc
00000260: c941 ed3a 6b4c e23b c6ad 903b 8215 063c
00000270: b293 0cbc eaaf 20b9 0a99 833b 15fa da3b
00000280: 9691 0b3c 1da0 aa3b 9800 c73b 7f85 123c
00000290: 3c06 a239 18e4 2b3c 2a42 aabb 078b 5b3c
000002a0: 1498 24bc 320e 35bc e5e6 1bbc 51ab 6d3b
000002b0: 2c35 3e39 514b b9bb baf1 dd3b 9108 bf3b
000002c0: 71d6 deba f70e d23b 4079 023c c315 b33b
000002d0: 13df 40bc 5262 c23b 673f 50bc d87e 7e3a
000002e0: fedf 373b 8aad 1cbb e7c6 fc3b 6904 dbbb
000002f0: f70a 79bc 1744 1d3c 8033 54bc a313 24bc
00000300: 0163 0bbc b5b2 3dbc 6b37 2e3c a456 5abb
00000310: 67e5 ee3b c108 773b 13ad 04bc c175 54bc
00000320: 8c11 26bc a6f9 34bc 086b 003c 456b 31bc
00000330: 0b05 f2ba a22a 96bb 951c 0e3c 3f03 ce3b
00000340: c905 ca3b d94a fe3b 83d7 8eb9 6173 343b
00000350: 105f 17bc b24b 2f3b bf09 e9bb 0714 353b
00000360: cd65 1438 64f1 213c 598e e73b 71af d2bb
00000370: 6990 27bc 3725 2d38 7e80 0f3b 7296 4abb
00000380: e9dd de3b 6d08 623b b32d a03b 6285 a93b
00000390: 913b 443a 39ad 133b 4c74 1a3c 6377 ca3b
000003a0: 0594 6bbc 7b29 cb3b 405a 21bc 75f6 103b
000003b0: e4fd b53b 703e 37b9 f2dd 523c 9e98 823b
000003c0: 7a3d 04b9 c827 e23b 2772 31bc 9ee2 36ba
000003d0: 0a40 4d3c 6f0e e4bb a667 eb3b 8826 8abb
000003e0: 057c 3dbc fc9f 4bbb 8f6a 863b d17d 373c
000003f0: 0c81 a3bb 9e04 d43b a18d 3a3c 3930 05bc
0.0011920371 0.003408084 -0.0069680037 -0.009185329 0.0046914434 -0.00968307 0.0029558742 0.002589478
-0.012288816 0.0064630117 0.0035885605 -0.007100211 -0.0071257744 -0.012248914 -0.003064461 -0.0015096753
0.0030981018 0.0078033516 0.0015628719 -0.010089514 -0.0069352356 -0.0077336407 0.0075644488 0.005278738
0.0045789294 0.0021373176 -0.00826998 0.008294487 0.0029342403 0.0056660036 -0.0013020913 -0.0043182517
0.0060691675 0.0037526435 0.0071327942 -0.0043536266 -0.010628352 -0.010714337 -0.0014669138 0.0037662098
-0.0017372018 -0.0010829521 -0.009780527 -0.0003376254 -0.011012445 0.00792557 0.00854026 -0.0021946789
0.004300663 -0.0077410196 0.0061091776 0.0058160764 -0.0039333683 0.008374542 -0.0113026835 0.0023710534
-0.0068916883 0.0066690026 -0.007186936 -0.00093483774 0.0049884887 -0.009093622 -0.009242013 0.004304509
-0.013659623 -0.012023041 0.0073073176 -0.01089706 0.0062472764 0.0054064086 0.0018182291 0.0019001532
0.006460125 0.012630391 0.00072610506 0.0103062745 -0.0027028117 -0.009605225 -0.009615751 -0.0068663177
-0.0084762 -0.0036893121 -0.011143717 -0.012742668 -0.0054596625 0.004732769 0.0059620743 -0.0002348032
0.0075966497 -0.010291307 0.007017876 0.006512505 0.008306783 0.0053216144 -0.013796679 0.009917973
-0.0075584417 -0.002837783 0.00083789544 0.0046688477 -0.0023212994 0.0068991976 0.0057574753 -0.011798788
-0.007169928 -0.0052081374 -0.0008235899 0.00013215943 -0.010930101 0.007016074 0.008910154 -0.008705604
0.0027421715 -0.012658456 -0.004232205 -0.0105419215 0.0050133113 -0.0040888656 0.0048029507 0.00459503
-0.017484358 0.007433482 -0.009957458 -0.0026811678 -0.008828727 0.008311239 0.007876621 -0.00090810785
0.007317679 -0.010192792 -0.0027580447 0.0031748316 -0.012626573 0.0060214414 -0.0026244363 -0.010860272
0.003232827 -0.006125712 0.010724105 0.005345955 0.0024969694 0.0064692902 0.0018967532 0.0076088062
-0.010927329 -0.010178386 -3.6867066e-05 -0.006740629 0.004673763 0.0072840443 -0.0010161534 -0.009476845
0.001810127 0.0069060824 0.0044152467 0.008183839 -0.008580135 -0.00015324322 0.0040160464 0.006682644
0.008518597 0.0052070753 0.006073069 0.008942961 0.00030903693 0.0104913935 -0.0051958757 0.013399846
-0.010046024 -0.011050748 -0.009515499 0.0036265443 0.0001813962 -0.0056547304 0.006773201 0.0058298786
-0.0017001164 0.0064104754 0.007963479 0.0054652407 -0.011771935 0.005932131 -0.012710429 0.0009708232
0.0028057094 -0.0023907148 0.0077141407 -0.0066838753 -0.015200368 0.009598753 -0.012951732 -0.010014447
-0.008507491 -0.011578252 0.01063333 -0.0033315802 0.0072905305 0.0037694427 -0.008097905 -0.012967528
-0.010136019 -0.011045849 0.007838018 -0.010828798 -0.0018464638 -0.004582719 0.008673807 0.006287008
0.0061652404 0.0077603874 -0.0002724492 0.0027534591 -0.009238973 0.0026747999 -0.0071117575 0.0027630345
3.538076e-05 0.009884212 0.0070665297 -0.0064296057 -0.010227301 4.1281073e-05 0.0021896656 -0.0030912426
0.006801356 0.0034489885 0.0048882603 0.005173371 0.0007485683 0.0022533669 0.009427141 0.006178783
-0.014378552 0.006200013 -0.009848177 0.0022119556 0.0055539478 -0.000174755 0.012870299 0.0039854785
-0.00012611403 0.006901715 -0.010830439 -0.00069765176 0.012527475 -0.0069597284 0.0071839867 -0.004216019
-0.011565213 -0.00310707 0.0041020582 0.011199431 -0.004989749 0.006470277 0.011386306 -0.008129173

action_model._discrete_distribution.branches.0.weight f4 [7, 256]
00000000: fb28 913c 88d2 1ebb c99e c2bb e57f 433c
00000010: 7888 ea3b f972 623b 02b2 4bbb 7d2a 293c
00000020: 2cfa b83b 0b39 e13a 2d25 003c 75b3 dcb9
00000030: a083 563c 931a 9b3c a5cf 13bc 3fb2 8dbb
00000040: 1e78 293c 5186 5bbc da03 803b d643 553c
00000050: 514f 333c 7c69 63bc 0e30 a3bb 9ab5 34bc
00000060: d2a8 1a3b 9366 fdbb fbbc 8e3b eb90 8ebc
00000070: 3eac e23b fb2d be3c 0188 083c 7758 a03b
00000080: bce2 263c f764 0d3c 5dbe ffbb 7fd4 cdba
00000090: 23b8 38ba 022b 413c c6b3 8aba c7b0 4a3c
000000a0: 86e5 8b3b a27e 453b 47af a63b a261 7cbc
000000b0: b528 a5bb c109 14bc 3414 3dbc 7423 213c
000000c0: 3e6e 18bc 0a68 663b 4e98 0d3c 5e95 943a
000000d0: c23c 05bb 6478 f63a 3411 433b 4577 17bc
000000e0: 9964 06bb 14f6 79bc d17f 94ba b7fa d1bb
000000f0: c5d2 0bba 8927 6f3c 22da df3b a3cc 4cbb
00000100: c0a1 863c 831e 903c 06d0 c4bb c82a b23b
00000110: 3277 653c 29a5 363c 70ae 3bbb 7920 e7ba
00000120: a519 cfbb 9c40 7abc 6d48 c63a a0d5 1abc
00000130: c5d7 25bc 5806 ddba 1f4c 133c 4174 dabb
00000140: 3c85 e23b 49a2 0ebc 23ac e93b b786 4f3c
00000150: 8f1e 913b 1ac0 f63b 8377 cc39 ea31 85bc
00000160: 4b85 c9bb e990 ddbb 2f18 4e39 f309 08bb
00000170: 8b4a d0bb a51d 083c 4217 923b 9cff 98ba
00000180: 3757 503c 8568 c13b 7f4b 393b 8b29 b2bc
00000190: 91f1 27bc fe28 22bc cc81 0ebb e950 2e3c
000001a0: 0630 ed3c 2868 633c b3f7 4fbc a809 833c
000001b0: 3651 87bb abd6 09bc 3348 98bc eefb b7ba
000001c0: 86c3 863b 98bc 0f3a b999 143b 996f 2d3b
000001d0: 773e 0abc ac70 913b 037d f63b 68ca c7bc
000001e0: 9dc6 e63b ee63 123c 9643 daba 9c21 533c
000001f0: 4acb 3cba 50ff 99bb 7738 c9bb 8c80 25bb
00000200: d9ca 2cbc 7f0b 923b 7fba 15bb bb01 08ba
00000210: b19f 833c ac78 87bb 3899 943c b8f3 f23a
00000220: 965c 313b 10b1 9dbb 094f d1bb d665 9bbb
00000230: 1d7b 143b 2bd6 b63b b233 fa39 6792 15bc
00000240: d5f8 883b 7afa ff3b 0d94 e43b dcf7 063a
00000250: 59ff df3b c3e2 933c c046 a93b aec8 163c
00000260: b542 44bb 5d26 423c 63ef 03bc 85a6 333b
00000270: 2a6c 87bb 3d81 b73c 16d5 2f3c f28e 8e3b
00000280: b4c4 fdbb 46ff c5bb 93c8 8fba 9b2f dcbb
00000290: 9d91 2b3c a1a2 78ba b819 9fb9 e629 4cbc
000002a0: 6d2f 543b e472 9a3b 5f17 b63b b5c0 acba
000002b0: a597 433b efb3 563b 42ee 543c 31d1 653b
000002c0: 0d14 843c 03d4 d0bb d5b1 093c fa92 29b9
000002d0: 1381 0c3c 6e4c 0dbb b204 2c3c 9b39 00bc
000002e0: 4510 4c3b c873 d9ba 3697 473a 849b 37bb
000002f0: 6159 813c 82b2 443b 6e0e adba b29f c8bb
00000300: f88b fc3b e0a1 18bb 2cd3 c5bb 312a d3bb
00000310: cb94 54bc 864b 953c d81a 18bc 5e71 3cbb
00000320: a59f 4d3a 367d 9b3b 44b5 a9bb e46c 083c
00000330: fcb0 8b3b 6a02 71bb 38a3 65bc d47c c2b9
00000340: 9062 333c d43f f0bb f9bd 0bbc 4cd3 343c
00000350: 3030 393b b5d7 ee3b 082b 6b3c c694 b93b
00000360: dd75 87bb fe04 9bbc 4212 11bc dcab d3bb
00000370: e877 1a3c 7a2f ce3a 6ebf 4fbc 021b 86bc
00000380: 37b1 253c 515b 6bbc 3944 513b ae63 2abc
00000390: b881 603c 41f3 263c 19b9 6cbc 40a7 11ba
000003a0: a96f 1c3c 97e8 753c fee6 0dbc d281 473c
000003b0: 2cf9 c7bb d2ec 893b 3887 fabb 9f9d 14bc
000003c0: 2d6f 8b3c 544b f2bb 901f 46bb bd6f 93bb
000003d0: 4801 aebc 1b5e 03bc 1859 9d3c 4529 a2bc
000003e0: c222 363c 8eaa bb3b d56e 353c 1226 edbb
000003f0: aa5b a33b e11a d739 c1db 15bc 63b4 1eba
0.017719736 -0.0024234373 -0.005939339 0.011932348 0.0071573816 0.0034553392 -0.0031081443 0.010325071
0.005645057 0.0017183138 0.007821363 -0.00042095376 0.013092905 0.01893357 -0.009021674 -0.004324227
0.01034358 -0.013398723 0.003906709 0.013016662 0.0109442035 -0.01388013 -0.004980094 -0.011029625
0.002359916 -0.007733175 0.0043560243 -0.017403087 0.0069175055 0.023215285 0.008333207 0.0048933583
0.010185894 0.008630029 -0.0078046755 -0.0015703588 -0.00070464815 0.011790039 -0.0010582141 0.012371249
0.0042693047 0.0030135293 0.0050868127 -0.015404137 -0.005040253 -0.009035529 -0.011540461 0.009835113
-0.009303628 0.0035157227 0.008642269 0.0011336019 -0.0020330404 0.001880419 0.0029764893 -0.009244745
-0.0020506738 -0.0152564235 -0.0011329596 -0.0064080614 -0.00053338363 0.014596828 0.0068314234 -0.0031249903
0.01643455 0.017592674 -0.0060062436 0.005437229 0.014005469 0.011147776 -0.0028637908 -0.0017633579
-0.0063201957 -0.015274193 0.0015127786 -0.009450346 -0.010122244 -0.0016862852 0.008990317 -0.0066666906
0.0069128554 -0.008705684 0.007131116 0.012666396 0.0044286917 0.0075302245 0.00038998955 -0.016259152
-0.006149923 -0.0067616594 0.000196547 -0.0020757883 -0.0063565425 0.008307849 0.004458339 -0.0011672857
0.012716106 0.0059023523 0.002827376 -0.021748325 -0.010250465 -0.009897469 -0.0021744845 0.010639408
0.028953563 0.013879813 -0.012693333 0.015995815 -0.004129554 -0.008412997 -0.018589115 -0.0014036873
0.0041126637 0.000548312 0.0022674634 0.0026464222 -0.008437744 0.0044384804 0.007522227 -0.024388507
0.0070427195 0.008934958 -0.0016652222 0.012886431 -0.0007201923 -0.004699625 -0.0061407643 -0.0025253622
-0.0105464095 0.004456937 -0.0022846756 -0.0005188246 0.016067358 -0.0041342583 0.018139467 0.0018535769
0.0027063242 -0.0048123673 -0.0063875956 -0.0047423644 0.002265639 0.00557973 0.00047722232 -0.009129143
0.0041800537 0.0078118416 0.006975657 0.0005148628 0.0068358597 0.018052464 0.0051659048 0.009203119
-0.0029946987 0.011849967 -0.00805268 0.0027412486 -0.004132767 0.022400493 0.010731956 0.0043505365
-0.007744396 -0.006042394 -0.001096981 -0.006719542 0.010471729 -0.0009484683 -0.00030346005 -0.012461161
0.00323769 0.004713403 0.0055569853 -0.001317999 0.0029845026 0.0032761057 0.012996258 0.0035067315
0.016122842 -0.00637293 0.008404215 -0.00016171849 0.008575696 -0.0021560448 0.010499166 -0.007826234
0.0031137627 -0.0016590292 0.000761378 -0.0028016279 0.01578969 0.0030013626 -0.0013203153 -0.006122553
0.0077071153 -0.0023289844 -0.0060371365 -0.0064442386 -0.012974928 0.018224489 -0.009283744 -0.0028754096
0.0007843918 0.004745151 -0.0051790792 0.008326743 0.0042630415 -0.003677512 -0.014015965 -0.00037095568
0.010948792 -0.0073318277 -0.00852918 0.011036705 0.0028257482 0.007288898 0.014353521 0.005663487
-0.0041339234 -0.018923279 -0.008854451 -0.006459696 0.009428002 0.0015730702 -0.012679918 -0.0163703
0.010113052 -0.014365033 0.0031931533 -0.010399742 0.013702802 0.010189832 -0.014448428 -0.0005556233
0.009548106 0.015009067 -0.00866103 0.012176948 -0.0061027016 0.0042091394 -0.007645514 -0.009070783
0.017020786 -0.0073942337 -0.0030231215 -0.004499404 -0.021240845 -0.008018042 0.019207522 -0.01979507
0.011116685 0.005727119 0.011073788 -0.0072372044 0.0049852924 0.00041028022 -0.009146632 -0.00060541014

action_model._discrete_distribution.branches.0.bias f4 [7]
00000000: 0be3 8cbb c802 f3bb 5f67 123c b507 fd38
00000010: f1b1 46bb baf7 0e3c d518 19bc
-0.0042995266 -0.007416103 0.008935778 0.00012065416 -0.0030318464 0.008726055 -0.009344299
