results/t8/Fork1/Fork1-36933.onnx (onnx, 331083 bytes, 6 tensors)

network_body.linear_encoder.seq_layers.0.weight f4 [256, 58]
000000 d0 a2 c9 3b 38 7d 3f be 1a ea 83 bd bc 78 7e bd
       0.006153442 -0.18700111 -0.06441136 -0.06212686
000010 7b 00 45 be bf c9 86 be 0b 9a 10 3e 85 87 ca 3c
       -0.19238465 -0.26325795 0.14121263 0.024722824
000020 7f db ae bd 23 2b 8a bd df 8a 26 3e 39 d6 ad 3e
       -0.08537959 -0.06746509 0.16263913 0.339525
000030 c6 5b 63 3e 97 fd 76 bd 01 0e d2 3c 55 37 64 3e
       0.22202978 -0.060300436 0.025641443 0.22286732
000040 80 2e 58 bd 47 73 5f 3d 59 46 ec bc 5f 88 40 3e
       -0.05277872 0.054553296 -0.028842138 0.18802021
000050 cd 42 4d bd 28 43 e8 3d b1 c3 b9 bd 0e 82 13 3e
       -0.050112534 0.11340934 -0.09070528 0.1440508
000060 1e 6b 31 bd 30 2b 16 be 3d a8 ff 3d 5d ee fd bd
       -0.043315046 -0.14664912 0.12483261 -0.1239898
000070 e4 30 7d bd ef 8e 24 3d 71 ee 9a bd 40 03 93 be
       -0.061814204 0.040175375 -0.0756501 -0.28713417
000080 c6 4e 93 3e f5 c3 51 3d f7 fb 10 3e 31 4c 2d 3e
       0.28771037 0.05121227 0.14158617 0.16923596
000090 52 8a 48 be 54 c5 0c be 4f 7c 3e be 5c 06 35 3c
       -0.19584015 -0.1374715 -0.18602107 0.0110488795
0000a0 b6 36 57 3e e0 90 b3 3d 9b 79 b5 bd 76 2d e0 3d
       0.21016964 0.08767867 -0.08861085 0.10946171
0000b0 08 d2 84 be bb 48 53 3e 6f bd fa bd 8e ba 97 be
       -0.2594149 0.20633213 -0.12243163 -0.29634517
0000c0 d8 b9 25 bd 97 98 ce 3b 95 3c 1b 3e a6 86 96 39
       -0.040460438 0.006304811 0.15159829 0.0002871055
0000d0 81 78 2f bd 44 29 ba 3d 6f 0e 34 3e 71 a8 e7 3d
       -0.04283953 0.09089902 0.17583631 0.113114245
0000e0 59 63 d6 3d 21 ce 97 be 7d f1 66 bd f2 2f f6 3c
       0.10468168 -0.2964945 -0.056382645 0.030052159
0000f0 a5 99 da bd 22 4d 20 3e bb 16 e0 bd b6 e1 04 3e
       -0.106738366 0.15654424 -0.109418355 0.12976727
000100 78 62 cc 3d 4c 51 00 3e 5f d5 52 be 4e 6b 40 bc
       0.09979719 0.12531012 -0.20589207 -0.011744333
000110 8d b2 7c 3e 2f 67 7b be 78 55 92 3d af 30 60 3d
       0.24677487 -0.2455108 0.07145208 0.05473393
000120 86 21 2d bd d4 d9 e1 3e 47 a6 93 3e f2 bc 3f be
       -0.0422683 0.44111502 0.28837797 -0.1872442
000130 77 31 9f 3d 6f 1f 65 be 68 9f a1 bd 05 0e 01 bd
       0.077731065 -0.22375272 -0.078917325 -0.03150751
000140 fc 8c 86 bd c7 2a 9b bc 69 0e 38 3e b5 e0 55 bd
       -0.065698594 -0.018941296 0.17974247 -0.05221625
000150 85 af 2d be 71 8c 04 3e de 35 1f be 76 06 1e 3d
       -0.16961487 0.12944199 -0.15547892 0.03858038
000160 74 53 c8 3d 54 67 c3 3a 7e 18 2c be c0 d6 71 bc
       0.097815424 0.0014908114 -0.16806218 -0.014760673
000170 ff 84 37 bd 4e 5b 68 bc b3 29 2a 3e 57 69 f3 3d
       -0.04480457 -0.014181925 0.1661747 0.11885326
000180 6c 6a 2e 3d 61 88 ce 3d 8c 03 1a bd 1d 68 93 3d
       0.04258196 0.10084606 -0.03760104 0.071975924
000190 de 3e 5f bd bd 2c 47 bd aa 95 de bd fb 1a 31 3e
       -0.054503314 -0.04862665 -0.1086839 0.17295448
0001a0 cf 9c 34 3e cf 0c cf 3d b7 d3 88 bd ec 27 3c 3d
       0.17637943 0.10109865 -0.066810064 0.04593651
0001b0 9f 45 08 be fb 9e 13 be e0 a8 95 3e 28 c4 e0 3d
       -0.13307808 -0.14416115 0.29230404 0.10974914
0001c0 7e 39 85 be 8b 4d 5a be 74 5c 6c be f3 5e aa bd
       -0.26020426 -0.21318643 -0.23082143 -0.083188914
0001d0 ff 9a 87 bd 78 32 23 be 35 17 88 3b 3a 1b 32 3e
       -0.0662136 -0.15937221 0.004153157 0.17393199
0001e0 8c 0e d4 3e 32 89 51 3d 45 3f 23 bd 01 f4 ef bc
       0.41417348 0.05115623 -0.03985526 -0.029291155
0001f0 57 8a ab 3d a5 0d 0d be 2d 0d 4a be 39 d5 2a be
       0.083759956 -0.13774736 -0.19731589 -0.166829
000200 4e 7b 26 be 50 24 50 be 08 35 17 bd 9a 46 e8 bd
       -0.16257975 -0.20326352 -0.03691581 -0.11341591
000210 83 26 79 3e 4a 7e f3 3d 49 12 8d bd b5 a3 1d 3c
       0.24331097 0.11889322 -0.06888253 0.00962155
000220 13 0e 83 3c b6 df a1 be 7b 19 03 bd 26 fd 3b be
       0.015997922 -0.3161599 -0.032006722 -0.18358287
000230 4e 65 ee bc df 53 ec bd 06 92 b5 3d b7 59 ac 3d
       -0.02910104 -0.11539435 0.088657424 0.08415549
000240 2a 8f b4 bd b9 0b 13 3e 93 d2 a7 3d bf 44 e7 bc
       -0.08816369 0.1435994 0.08194461 -0.028231023
000250 a1 a3 88 3e e8 e9 9e bd 6f ab 99 be e9 69 9d bc
       0.2668734 -0.07759458 -0.30013606 -0.019215541
000260 21 b4 2d 3d b5 77 97 bd 30 a0 c3 3d a7 40 f8 3d
       0.042408112 -0.07395879 0.09552038 0.121217065
000270 de 5a b4 be 62 cc ae 3d 15 a3 1f 3e 29 cf 8f be
       -0.35225576 0.08535077 0.15589555 -0.28087738
000280 19 0c e1 bd 31 cf 57 be cb 5c 27 be a1 7a de bd
       -0.109886356 -0.21075131 -0.16343991 -0.10863233
000290 57 03 b6 3c fd 1f bb 3d 8b 1f 2c 3c 90 dd f3 3d
       0.02221839 0.09136961 0.010505567 0.11907494
0002a0 e3 c3 47 3d 2c 96 db bd e5 b9 14 3e 76 f9 fa 3d
       0.048770797 -0.107220024 0.14524038 0.12254612
0002b0 31 80 63 3c 3d 3c fc bd 44 89 d8 bd 90 04 9d 3e
       0.013885544 -0.12316177 -0.10573056 0.30667543
0002c0 c0 50 93 3c ff 82 8b bc b7 a0 ac be 4d b1 3a be
       0.01798284 -0.017030237 -0.33716366 -0.18231697
0002d0 64 61 9c be 3a 01 76 be 7a d9 48 3d 40 f1 a7 3d
       -0.30543053 -0.24023905 0.049035527 0.08200312
0002e0 f9 6e cc bc fa 5c 82 bd 18 6e 1c 3c 4b bd 0e 3e
       -0.02495526 -0.0636539 0.009547733 0.13939397
0002f0 2a 4c 36 be 08 1f d7 bd 23 f5 5b 3e e6 97 e2 3d
       -0.17802492 -0.105039656 0.21480231 0.110641286
000300 7c 45 54 bc 94 94 49 3d 18 9b 94 3e 60 a7 e7 3c
       -0.0129560195 0.04921396 0.29024577 0.028278053
000310 7c e3 c9 3d c6 6f 62 bd 61 b3 24 3b 0b 67 9d 3e
       0.09857842 -0.055282377 0.0025131332 0.30742678
000320 5f b7 e1 bd 6f 26 a2 3d b3 6f 46 3d 79 36 db bd
       -0.110213034 0.07917487 0.04844637 -0.10703749
000330 ee 8f c9 3d 2b 37 6d bd d6 e8 87 bd 2e 50 85 3e
       0.098419055 -0.05791394 -0.06636207 0.26037735
000340 e8 fa d6 3d 66 b3 24 bc 56 70 80 3e 84 42 00 3e
       0.10497075 -0.010052538 0.25085706 0.12525374
000350 49 c4 cb bc c7 17 a8 bd 93 b4 27 3d 7a f7 3d be
       -0.02487387 -0.0820766 0.040943693 -0.18551436
000360 63 33 c9 bd 52 4f 95 3e 3d c9 96 3d 8f 2d 3b bc
       -0.09824254 0.2916208 0.07362602 -0.011424436
000370 4b 00 3d be 45 fc af 3c d4 6e 70 bd c0 f1 f4 3d
       -0.18457143 0.021482596 -0.058699444 0.11960173
000380 e8 94 48 3c 63 c9 d5 3d 44 14 ac 3d d7 f3 4e be
       0.012242533 0.10438802 0.08402303 -0.20210205
000390 23 21 97 bd cb 79 bb 3d 31 27 e9 bb fd 2e a2 3d
       -0.07379367 0.091540895 -0.0071152677 0.079191186
0003a0 0e dc 89 bd c5 74 c4 ba f2 f8 34 3d 73 84 0f 3d
       -0.06731425 -0.0014988413 0.044182725 0.035038423
0003b0 ad 0c 2c be ac ba 44 be 17 17 96 3d 8b 35 b5 bd
       -0.1680171 -0.19211835 0.07328623 -0.08848103
0003c0 5a 4b 32 3d 59 b1 83 be a8 c5 5f 3e 98 c1 98 bd
       0.043528892 -0.25721243 0.21852744 -0.074588
0003d0 7e 16 b2 3d 91 f6 93 bd 22 72 af 3d 55 a6 c2 3d
       0.08695696 -0.07224763 0.08566691 0.095043816
0003e0 ef 2a 6f bd c5 96 6b bd d0 3e 02 be 9b d1 9e bd
       -0.058390554 -0.057516832 -0.12719274 -0.07754823
0003f0 79 79 91 bd ed c7 a9 3d 43 17 1a 3d d6 33 b9 3c
       -0.07103247 0.08290086 0.03761984 0.022607725

network_body.linear_encoder.seq_layers.0.bias f4 [256]
000000 b7 b3 96 3c 25 e0 12 bc 85 30 04 ba 89 f2 07 bc
       0.018396242 -0.008964573 -0.00050426304 -0.008297571
000010 34 f8 89 bc e6 64 22 bb 55 97 cc 3b 4a ac a4 3c
       -0.016841985 -0.0024779378 0.006243626 0.020101685
000020 d0 42 c1 3c a4 4c 81 bb 96 67 b7 ba 66 ce ba 3b
       0.023591429 -0.003945904 -0.0013992663 0.005700874
000030 f3 86 2a 3c bc 4f 7d 3c 35 57 a7 3c 0e 7d dc ba
       0.010408151 0.015460905 0.020427326 -0.0016821937
000040 d4 85 8d 3c 3b fa 85 bb eb 63 f0 3b f7 a9 32 bc
       0.017275728 -0.0040886677 0.00733613 -0.010904781
000050 3b 92 0a 3c 96 9c 54 3c 77 85 8d bb b1 05 a8 bc
       0.008457716 0.012976786 -0.0043188888 -0.020510526
000060 a5 77 ef 3c d3 5b 46 bb 7e 81 c0 bc 5e 4e 7b bc
       0.029231856 -0.0030267134 -0.023499247 -0.015338508
000070 b9 3e 89 3c f4 41 a7 3c ea 2f 2e 3c 94 25 79 3c
       0.016753541 0.020417191 0.010631541 0.015206713
000080 e4 06 98 3c 3c 1c 86 3a af dc 87 3c 76 97 97 3c
       0.018557973 0.0010231803 0.016584722 0.01850484
000090 ec 94 7a 3b 94 b1 1d 3b 77 c5 5e 3c 27 67 1b 3b
       0.0038235737 0.0024062144 0.013596884 0.0023712607
0000a0 b9 b3 c3 3c de 85 b5 3c ec 02 08 3c 13 70 98 3c
       0.02388941 0.02215856 0.008301478 0.018608129
0000b0 63 46 48 3c bb 32 04 3c 2c 47 f2 b8 23 0e 53 3c
       0.012223813 0.008068736 -0.00011552716 0.012881788
0000c0 ea c3 06 3c 1a b6 bd 3c 62 91 06 3d 5f f0 e3 3b
       0.0082254205 0.023158122 0.03285349 0.0069561447
0000d0 d2 30 b6 3b eb 33 8f 3c 72 09 01 bd 69 67 1b 3c
       0.005560019 0.017480811 -0.03150315 0.009485104
0000e0 6f 05 87 3c 07 22 ba 3b 5e 21 b8 3b 1c 64 0b 3c
       0.016482083 0.005680326 0.005619212 0.008507755
0000f0 d7 04 c5 ba b3 fe 19 3c fc a4 b4 bb 2c ac 2e ba
       -0.001503135 0.009399104 -0.0055128317 -0.0006663229
000100 61 85 02 3d b6 77 06 3c 79 d8 9d 3c 4f d4 2e 3c
       0.03186548 0.008207252 0.019268261 0.0106707355
000110 45 68 a9 3c d7 a5 12 3d dd e1 de 3a ab 1a 8b bb
       0.020679602 0.03580269 0.0017004568 -0.0042451224
000120 0e 5e ad 3c e9 1f 84 3c 10 db 4c 3c 55 df 15 3c
       0.021163013 0.016128497 0.0125034 0.009147485
000130 2e a9 b3 3b 6a 9f 49 3c 51 f4 15 bb 62 df 9e 3c
       0.0054828143 0.012306074 -0.002288122 0.019393627
000140 f4 b6 38 bb 79 59 8d 3a 12 25 dc bb 4f 8c 5d 3c
       -0.002818522 0.0010784111 -0.0067182863 0.013522222
000150 cd 3a 19 3c 37 fc 34 3c d8 09 1b bc 86 c9 d3 3c
       0.009352398 0.011046461 -0.009462796 0.02585293
000160 5b ed ee 3b 21 6d 05 bc 38 2f ac 3c 60 0a 44 3b
       0.0072914786 -0.008143694 0.02101861 0.002991341
000170 39 ab 1f 3c c0 3e 72 3c d3 13 32 3c a7 e0 35 bb
       0.0097454125 0.014785469 0.010868984 -0.0027752311
000180 58 53 5e 3b ec 15 46 3c e3 ba 29 bb 55 31 1a 3b
       0.0033924188 0.0120901875 -0.0025898747 0.002352794
000190 d5 bd f3 3b 2b 74 77 bb 5d 5a 06 3b 9b bc a1 bb
       0.007438401 -0.003775845 0.0020500638 -0.0049358136
0001a0 0e d6 3c 3c e5 e9 c6 3c 4a ac a2 b8 11 21 ff 3b
       0.011525644 0.024281451 -7.756853e-05 0.0077859242
0001b0 c0 11 b9 3c d7 c5 9f 3c 33 f7 06 3c 1e 75 cc 3c
       0.022591472 0.019503517 0.008237648 0.02495819
0001c0 ce 5e 82 3b e9 95 0e ba ac 3b c4 3c 25 05 51 3c
       0.0039785868 -0.00054392085 0.023954235 0.012757574
0001d0 0f 71 d7 3b 54 ac 75 3c 9c 18 a9 3c 8d 56 48 3b
       0.006574757 0.0149946995 0.020641617 0.0030569166
0001e0 04 21 ed 3b 65 e6 18 3c 75 9e 00 3d 97 9b db 3b
       0.007236602 0.009332274 0.031401116 0.0067018974
0001f0 7a 48 05 3c f9 13 27 3c a7 14 02 3d b2 85 46 bc
       0.008134956 0.010197633 0.031757977 -0.012116836
000200 07 4a 29 bb 7e 95 49 3c 29 fa 21 3c e4 b5 4b 3b
       -0.0025831477 0.012303708 0.009886303 0.0031083757
000210 05 4b 57 3c 4c a5 17 3c 8d 4f 80 3c e7 a9 15 3c
       0.013140445 0.009255718 0.015662933 0.009134746
000220 e2 28 9f bb 80 58 71 3a 38 de 9f 3c 76 39 82 3c
       -0.0048571685 0.0009206608 0.019515142 0.01589654
000230 78 8e a0 3c 36 8b 27 bc 47 b0 8b 3b 80 35 c9 3b
       0.019599184 -0.010226062 0.0042629573 0.006140411
000240 9b d1 30 3b d3 e4 06 3a 0e cc de 3c ea 65 70 3c
       0.0026980403 0.0005145792 0.02719691 0.014672736
000250 41 cf 60 3c 1f 76 04 3c 8a 63 e3 3b 9a ad 58 3b
       0.013721288 0.008084803 0.006939356 0.003306246
000260 10 69 7c 3c c1 36 67 3c ab e0 5f 3c 10 65 86 3c
       0.015405908 0.014112175 0.013664405 0.016405612
000270 7f 81 c6 3c c7 81 93 ba b3 82 ea 3b 68 02 04 3c
       0.02423167 -0.0011253887 0.007156694 0.008057214
000280 1d 6a 08 3d 6c 3e bc 3c e9 04 b8 3c 2e b0 0f 3b
       0.033304323 0.022978984 0.022463279 0.002192508
000290 1b 97 65 bc 7e 4a 8c 3c b6 7b df bb b5 d2 dd 3c
       -0.014013077 0.017125364 -0.0068201674 0.027078012
0002a0 e2 46 cd 3b 9e 8c 08 3c e1 71 e7 3a 62 fa 82 3c
       0.0062645534 0.008334307 0.001765784 0.015988532
0002b0 e0 76 8b bc 66 84 50 3b 67 86 e8 bb ed 7f b1 3c
       -0.017024457 0.0031817197 -0.0070961 0.021667445
0002c0 11 45 b2 3b dc 99 83 3c d5 23 15 bc 90 3f 0e 3d
       0.0054403623 0.016064577 -0.009102781 0.034728587
0002d0 9d cf 70 3c b8 90 39 3c 45 b7 eb 3b 59 6f f8 3c
       0.014697936 0.011326008 0.0071934783 0.030326532
0002e0 84 d9 4f 3d 71 26 76 bc f6 09 ba 3a 25 fd 2d 3c
       0.05074455 -0.015023814 0.0014193642 0.010619436
0002f0 27 0a fa 3b 34 48 8b bb 2b c4 d0 3c bf cc 23 3c
       0.007630605 -0.0042505506 0.025484165 0.009997546
000300 87 1b 99 3c 31 1f de 3c 10 bc 95 3b 36 bd e0 3b
       0.018689884 0.027114483 0.004569538 0.006858493
000310 c6 73 b3 3c 53 a9 62 3c 66 a3 19 3c ca 55 98 3c
       0.021905791 0.013834315 0.009377336 0.018595595
000320 f2 06 ec bb 19 4b 53 3c 8c a3 1c 3d 34 f3 29 3c
       -0.0072029764 0.012896323 0.038241908 0.010372926
000330 ed 1b 88 3c 44 39 2f 3a a5 e6 ae 3c a2 c3 98 bc
       0.016614879 0.00066842535 0.021350214 -0.018647972
000340 dd c1 08 3c 2f 8e 89 3c 1b 9b 37 3c 30 b4 86 3c
       0.008347002 0.016791431 0.011206414 0.016443342
000350 00 a0 c8 3c 70 63 34 ba 3b fb f0 3a 3f 52 c4 3b
       0.024490356 -0.00068812724 0.0018385419 0.00599125
000360 c1 e9 8e 3c 00 bb 4e bb 10 76 b2 3c 3a cc 59 3c
       0.017445447 -0.0031544566 0.021784812 0.01329332
000370 eb 42 be 3c 2c ec b5 3b 98 49 be 3b 3f 86 cd 3c
       0.023225268 0.0055518355 0.005807113 0.025088428
000380 28 3c 00 3d f5 11 80 3c 20 d8 13 3c 8d 3b c3 3b
       0.03130737 0.015633563 0.009023696 0.0059580267
000390 2e e6 3e 3b df 3c 4e 3b 1d 06 c2 3c d8 52 79 3c
       0.0029128897 0.0031469387 0.023684556 0.015217505
0003a0 83 68 a0 3c 14 07 8b 3c a3 38 07 3c 81 3e 29 3b
       0.019581085 0.016971149 0.008253249 0.0025824609
0003b0 1d 57 8d 3b 4b f1 92 bb 05 0e ca 39 8d 24 b0 3c
       0.004313363 -0.004484331 0.00038538888 0.021501804
0003c0 16 10 4c bc 2e c2 5d 3c 7f 3d 86 3b 93 62 5e 3a
       -0.012455007 0.013535066 0.0040966864 0.00084833166
0003d0 40 ef cf 3c 33 06 ac 3b fd 14 e8 3b fb d8 e6 3a
       0.025382638 0.0052497624 0.00708258 0.0017612273
0003e0 92 a3 b2 3b 12 3f 28 3c 21 fe 1d 3d 86 34 00 bc
       0.005451628 0.010268943 0.038572434 -0.007825023
0003f0 58 d1 a6 ba 75 85 02 bc 3c ba 6f 3c 44 33 2d 3c
       -0.0012727184 -0.007966389 0.014631804 0.010571305

network_body.linear_encoder.seq_layers.2.weight f4 [256, 256]
000000 1a 11 79 bc 30 27 05 bd bf 8f d5 bc d4 fd 3b bd
       -0.015201831 -0.032508075 -0.02606952 -0.045896366
000010 f4 81 b2 bc 04 89 bd 3d 2d 0b 26 bd b4 01 a6 bd
       -0.021790482 0.09254649 -0.040538 -0.081057936
000020 48 7c 4b bc fd 29 81 3c ef a1 36 3d 7f 54 c7 bd
       -0.012419768 0.015767092 0.044588026 -0.09732913
000030 dc e1 26 bc 0e 9c 69 bd df e5 2c 3d b6 61 6c bc
       -0.010185685 -0.05703359 0.04221141 -0.014427593
000040 14 4c e0 bd bd 25 62 3c 4d e8 21 3c bf d3 3a bc
       -0.10952011 0.013802943 0.009882045 -0.011403023
000050 33 6b 26 3d b8 71 ea 3d f1 a0 f1 bd 41 e6 45 bc
       0.040629577 0.114474714 -0.11798275 -0.012078823
000060 d3 2f da 3d a9 df 99 bd 3a dd 82 bd 8a bd 50 bc
       0.10653653 -0.07513363 -0.06389852 -0.012740502
000070 3e 93 aa bb 6a 7d e1 bd 75 57 37 3d d2 94 39 3d
       -0.005205541 -0.11010249 0.04476114 0.04530794
000080 5a ed 59 3d 42 37 d2 bd 56 4d 73 3d 59 9f 65 3d
       0.05320487 -0.10264446 0.059399925 0.05606017
000090 97 b0 62 3d 6e dd 3c bd 39 b7 36 3d 03 11 73 bd
       0.05534419 -0.04610961 0.04460833 -0.059342396
0000a0 d9 85 89 3c f7 5a 95 3d 83 41 b7 3d 5c 12 a0 3b
       0.016787456 0.07292741 0.08948042 0.004885001
0000b0 4a 97 81 bb 05 51 2b 3e 98 98 10 3d 76 64 f0 bb
       -0.0039548026 0.16730125 0.035301775 -0.0073361946
0000c0 d0 38 18 be ad 0f be 3b c4 8f a7 3c 74 cc 68 bd
       -0.14865422 0.0058002085 0.020454295 -0.056835607
0000d0 97 8a 9d 3d ff 11 4a 3d 8f e5 07 be 45 13 14 3d
       0.076924495 0.04933357 -0.13271163 0.03615119
0000e0 73 32 46 3d a9 e8 3c 3d 37 fa e1 3d cd ca b4 3c
       0.048387956 0.04612032 0.11034053 0.02206936
0000f0 4b 32 a3 bc 54 10 7c 3d 89 7b 26 3d 73 02 2d bd
       -0.019921442 0.06153901 0.040645156 -0.042238664
000100 57 da ea 3d c2 d7 47 bd 63 68 b4 3d 12 fc ad 39
       0.11467426 -0.048789747 0.08808973 0.00033184938
000110 99 f8 e0 3d 5b 8f 93 3d 1e 88 ae bd 8f b7 e8 bd
       0.10984916 0.07205077 -0.08522056 -0.11363136
000120 22 34 6f 3c 20 15 c2 bc c3 97 ca 3c b4 67 8e bd
       0.014599832 -0.023691714 0.024730569 -0.069533736
000130 26 34 19 3d 08 d4 45 bd cc 4e 6b 3c c1 57 0d 3d
       0.03740325 -0.048297912 0.014362048 0.034507517
000140 15 86 8b bd 23 d5 55 3b 79 f1 12 bc 13 3b 6a bc
       -0.068126835 0.003262826 -0.008968704 -0.014296311
000150 79 ef 74 bd 78 43 a2 bd 27 59 df 3c 54 44 da bd
       -0.05979869 -0.07923025 0.02726419 -0.10657564
000160 aa b2 0e 3c 81 3d c2 3c b7 49 02 3d 0a a0 15 bd
       0.008709589 0.023710968 0.03180858 -0.03652958
000170 f5 69 74 bd 96 4e df bc 66 a8 80 bd 6f cd 07 3e
       -0.05967136 -0.027259152 -0.062821195 0.1326196
000180 8f 68 50 bd 5f 8e 12 bc a1 c3 0b 3d e4 ca b0 3d
       -0.050880965 -0.008945077 0.034122113 0.08632448
000190 ac 93 a4 3a 4f 65 77 3d e2 34 0e bd 19 7f a2 3d
       0.0012556217 0.06039935 -0.0347184 0.07934398
0001a0 14 28 05 bd fd ee 73 3d 11 63 e1 3c 97 8d 8b bd
       -0.032508925 0.05955409 0.027513059 -0.068141155
0001b0 30 cd 87 bd d3 c3 a0 bd 96 f0 90 3b 81 c9 3e ba
       -0.06630933 -0.078498505 0.0044232113 -0.0007277951
0001c0 3b 83 3d bd 99 d8 79 3d b8 de 8f bd aa 3a 99 bc
       -0.04626773 0.06099758 -0.07024902 -0.018704731
0001d0 92 98 3a ba 2e 9e 7f bd 52 6b 21 3d 3a a7 a5 bd
       -0.00071180717 -0.06240671 0.03940899 -0.080885366
0001e0 37 a4 5d bc b9 ec 87 bc ca 1f 40 3d 36 9b 86 3c
       -0.013527921 -0.01659237 0.046905316 0.016431432
0001f0 0a c9 25 bd 26 fc ef 3d da 7e e2 3c f9 45 d9 3d
       -0.04047493 0.117180154 0.027648378 0.10609049
000200 0c 6f 66 bd 26 0d 12 3d b1 81 41 bc 22 49 9e 3c
       -0.056258246 0.03565707 -0.011810706 0.019321982
000210 ee eb c8 bb 31 3a 88 bc d6 e5 d2 bb 08 cc 48 bd
       -0.0061316406 -0.01662931 -0.00643609 -0.049022704
000220 89 03 15 bb 72 a6 f7 3c 26 5d 78 39 a8 f9 6f bc
       -0.0022737703 0.030230734 0.00023685824 -0.014646925
000230 ed 4b 66 3d 59 a2 b4 3d 0f d7 9d bc e3 56 c3 bc
       0.056224752 0.08820028 -0.019267587 -0.023845142
000240 38 91 d2 bc e6 0a 7d bd cd 3a 1a 3d f5 cc 14 3d
       -0.025704011 -0.06177797 0.037653733 0.036328275
000250 2f e2 fa 3d 91 ad 73 bd 13 0c 93 3c 68 a5 cc bd
       0.12250172 -0.059491698 0.017950093 -0.09992486
000260 61 38 2b 3d 46 92 3c bc 1e 0c a8 bd d6 d7 b5 3d
       0.041801814 -0.011509484 -0.08205436 0.08879058
000270 e3 ca 0e 3d 3e 69 a2 bd e1 28 1d 3e c9 62 47 bc
       0.034861457 -0.079302296 0.15347625 -0.012169548
000280 5d e5 0e bb 83 bd cd 3c 97 ac fb bc 81 46 7d bd
       -0.0021804192 0.02511478 -0.030721946 -0.061834816
000290 37 89 92 3d 1b eb bf bd ba 25 22 3e 5c b8 de bc
       0.07155078 -0.09371015 0.15834704 -0.027187519
0002a0 28 1f 27 bd 41 11 9c bd d9 2b 07 3c b7 2a 99 bd
       -0.040801197 -0.076204784 0.0082502 -0.0747885
0002b0 ed 4c 04 3c 33 b2 e7 3d 7f c9 92 bd 07 15 b5 bd
       0.008074981 0.11313286 -0.071673386 -0.08841901
0002c0 aa c9 82 3c 1c 66 84 bd 93 a3 84 bd 60 cf c8 3d
       0.015965302 -0.06464788 -0.06476512 0.09805179
0002d0 c0 c0 ba 3d 4a 83 88 bd 7c 53 ea bd 47 c1 3c 3d
       0.091187954 -0.066656664 -0.11441705 0.04608276
0002e0 f3 57 18 bd 1f 3e 7f 3d 49 a2 af bd 53 24 92 3d
       -0.03719325 0.062315103 -0.08575875 0.071358345
0002f0 0c ab 98 3d a0 ee 2a 3d 0e 29 93 3d 01 d7 8e 3d
       0.074544996 0.041731477 0.07185565 0.069746025
000300 7f 0d 9c 3c bc 5d 0b 3e 89 73 6c bc e1 a1 ba bd
       0.019049404 0.13609976 -0.014431843 -0.09112907
000310 2b 4a 28 bc 1c 58 bb bb f3 3e 5a bc 36 c4 68 3d
       -0.010271589 -0.0057172906 -0.013320672 0.056827746
000320 98 cd 93 3b 14 1b de 3d 72 ff 26 bd 24 ae 42 bd
       0.0045105927 0.108450085 -0.040770955 -0.047529355
000330 71 ea 4c 3d e9 fc 1a bd 04 d6 b2 3b 17 a5 8a 3c
       0.05002827 -0.03783885 0.0054576416 0.016924424
000340 73 a2 3f bd 34 92 99 3d 10 02 1a 3c 23 24 e8 bc
       -0.046785783 0.07498589 0.009399906 -0.028337544
000350 23 59 b4 3c a7 81 8b 3c 6d 02 b2 bc 28 0b e4 bc
       0.02201516 0.017029596 -0.021729672 -0.027837351
000360 bd b3 60 bd 57 e1 39 bd 30 af a2 bc 7b 0a 40 be
       -0.05485891 -0.045380916 -0.019858927 -0.18753998
000370 8f 1a 34 bd 65 0a 2e 3c 6f 62 81 3d 1f ad 89 3d
       -0.04397064 0.010622595 0.06317603 0.06722473
000380 1a 29 eb bd 81 bc c0 bc dc 24 04 be 47 a9 6f 3d
       -0.11482449 -0.023527386 -0.12904686 0.058511045
000390 c3 aa 89 3d 81 7a 71 3d 8b e2 06 bd b6 62 0d 3d
       0.06722023 0.05895472 -0.032930892 0.034517966
0003a0 35 1d 58 3d a8 6d 28 3c 1b 4c 24 bc 21 55 cd 3d
       0.05276223 0.01028005 -0.010027911 0.10026003
0003b0 54 d2 2e bd 11 2c e9 bc 27 67 34 3d 72 e4 f4 bc
       -0.042681053 -0.028463395 0.044043686 -0.029894087
0003c0 83 e2 a4 3d 10 8f 02 3e 07 70 17 bd c0 eb 77 bc
       0.08051016 0.12749887 -0.036972072 -0.015131891
0003d0 ce 85 8d bc 4a 37 67 bd 46 b5 c3 b9 43 aa 8f bd
       -0.017275717 -0.056449212 -0.00037328358 -0.07014897
0003e0 07 9d 44 bd 7e da e7 bc 92 e9 87 3d b8 35 5b ba
       -0.048001315 -0.028302427 0.06636347 -0.0008362192
0003f0 28 58 2c bd b9 f4 a0 3d 66 4c eb 3c c8 d1 54 3d
       -0.04207626 0.07859177 0.028722953 0.051957875

network_body.linear_encoder.seq_layers.2.bias f4 [256]
000000 7a 2e bb 3b 39 a5 db 3b 14 6a 81 3c 45 c1 10 3c
       0.0057123275 0.0067030457 0.015797652 0.008835142
000010 a7 f9 28 bb c5 ef ac 3b ff 98 26 3b aa ac 8d 3b
       -0.002578357 0.005277606 0.0025420783 0.0043235617
000020 fd 5c c0 bc 2d f4 02 ba b4 82 81 3c 19 b3 fb 3b
       -0.02348184 -0.00049954915 0.015809394 0.007681262
000030 80 60 bb 3c e0 9a e3 3b e7 b8 0d 3c c7 ba 45 3c
       0.022873163 0.006945953 0.008650041 0.012068457
000040 5f e6 63 3c 6a 45 9f 3c fd 92 cf 39 1c 71 74 bb
       0.013909905 0.019442279 0.00039591632 -0.0037298864
000050 2e 48 1d 3c bd ea 15 ba da 99 85 bb 6f 57 1a 3c
       0.0095997285 -0.00057188777 -0.0040771784 0.00942026
000060 d2 f6 9c 3c 52 a0 23 3c f6 3e c2 b8 ad 3a c2 39
       0.019160662 0.009986954 -9.262368e-05 0.0003704628
000070 02 e1 8a 3c ce 23 03 3c 92 4b e5 bc ab 61 30 bb
       0.016952995 0.008004142 -0.027990136 -0.0026913683
000080 1d 92 a2 3b ec c9 4f 3c 36 03 98 3c e6 4a 6b 3b
       0.0049612657 0.012682419 0.018556219 0.0035902797
000090 fb 73 0c 3c 9b f1 b0 3c 1e e6 d6 3c 09 2e a8 3b
       0.008572574 0.021599581 0.026232775 0.005132441
0000a0 41 ab 91 39 86 fa 1d 3b d1 ff 8f 3c c7 25 2a 39
       0.0002778415 0.0024105622 0.017578037 0.00016226537
0000b0 30 ab 68 3c 4a a3 ef 3b d8 e5 06 3c a0 76 09 3c
       0.0142009705 0.0073131667 0.00823351 0.008390099
0000c0 06 1f 48 3c cb e9 eb 3b 48 be 9e ba 39 89 2f 3c
       0.012214428 0.007199501 -0.0012111152 0.010713869
0000d0 28 bd 38 3b 61 d5 93 ba 41 2c 6b 3b e6 99 a4 3b
       0.0028188918 -0.0011278802 0.0035884532 0.005023229
0000e0 36 d4 92 3c 94 c9 27 3c b5 aa a9 bb 63 92 21 3c
       0.017923456 0.010240931 -0.0051778206 0.0098615615
0000f0 c3 12 58 3c fb 57 f2 ba 9d e3 75 3c 06 e6 b1 3b
       0.013188067 -0.0018489355 0.0150078805 0.0054290323
000100 0a 5f 09 3c f3 aa f2 3b 5d c0 99 3c 1d fb 67 ba
       0.0083844755 0.0074056326 0.018768484 -0.00088493695
000110 9d 93 74 3b 72 28 99 3b 2a d4 80 3c 02 f6 a0 3c
       0.003731943 0.004674011 0.015726168 0.019648556
000120 1b cb 30 3b 33 2e 13 3c 12 06 32 3c 1c 84 8e 3a
       0.002697653 0.008983183 0.010865705 0.0010873112
000130 ea 5a 3c 3c 01 87 4b 3b 9d 91 50 3c a1 32 21 bb
       0.011496285 0.003105581 0.012730029 -0.0024596828
000140 28 f7 29 3c b3 ec 8d 3c 42 f3 79 3b f3 85 c0 3b
       0.010373868 0.017324781 0.0038139378 0.005875343
000150 57 2d bd 3a 59 3b 13 3b f9 20 2e 3c af f5 4e 3c
       0.0014433068 0.0022465794 0.0106279785 0.012631818
000160 5f 90 51 3b 24 89 bb 3b 6f 08 4b 3c 1b 29 6c 3c
       0.003197692 0.0057231355 0.012392147 0.014414097
000170 b1 19 92 3c 06 bb 14 ba c2 0c 6d 3b 22 da b3 3b
       0.017834516 -0.00056736206 0.0036170934 0.00548865
000180 d0 99 4c 3c 7b 7f 8b 3c 11 35 c4 3b 1d eb 46 3c
       0.012487844 0.01702856 0.0059877713 0.012141016
000190 cd 61 91 3c 79 86 02 3c 6c 15 3e 3c d4 27 0b 3c
       0.01774683 0.007966631 0.011601787 0.0084933825
0001a0 db ff 14 3c 1f d5 8e 3b ea 72 52 3c ca 64 96 3b
       0.009094204 0.004358902 0.01284478 0.0045896517
0001b0 8d ac 35 3b ca 98 3e 3c f3 c4 fc 3b cc 99 60 3b
       0.0027721256 0.011633107 0.007713908 0.0034271358
0001c0 d1 b6 57 3c 71 96 2e 3c 76 9f d5 3a 8f 23 22 3c
       0.013166145 0.010655985 0.0016298133 0.009896173
0001d0 01 9f 0f 3c 50 dd b2 3c 7b 1e 1e 3c 19 06 7f 3a
       0.008765937 0.021834046 0.009650822 0.00097283866
0001e0 2e 2b 3f 3b 79 27 22 3c a6 be 0d 3c 65 c6 94 3c
       0.0029170024 0.009897106 0.008651411 0.018161008
0001f0 d5 d7 6e 3c 9b 7e 71 3c 96 6a 13 3c 4d fd b8 3b
       0.014577826 0.014739658 0.00899758 0.00564543
000200 fb 50 0c 3b 1e fa a0 3b fe 24 b6 3b e8 11 91 3b
       0.0021410573 0.004912629 0.005558609 0.0044271834
000210 e5 95 bd 3a fb d0 45 3c 29 e2 3b 3b b9 c3 55 3a
       0.0014464228 0.012073751 0.0028668738 0.000815447
000220 32 71 ad 3b 61 b4 d3 3a 20 ae 53 3c 7a 8e a6 3b
       0.005293035 0.001615178 0.012919933 0.0050829025
000230 fc d5 a4 3b df ab 9b 3b 48 d4 48 3c ca 50 85 3c
       0.0050303917 0.0047507132 0.012257643 0.016273875
000240 70 68 05 3c 5a a3 88 38 e9 25 43 bb 34 78 cd 3b
       0.008142576 6.515412e-05 -0.0029777235 0.006270433
000250 0d 04 97 3c c2 18 1f 3c 05 57 f8 3c 89 ab 0f bc
       0.018434549 0.009710493 0.030314932 -0.0087689245
000260 bb ce cc 3b 0f b0 ac 3a 3a 02 58 3a c7 24 29 3c
       0.00625023 0.0013175028 0.0008240078 0.01032371
000270 4e 56 42 ba 8e e2 10 3c f0 9f a9 3b 10 18 81 3c
       -0.0007413373 0.008843077 0.0051765367 0.015758544
000280 af 7e 14 3c 08 28 3d bb c3 02 dd 3b 92 e6 0b 3b
       0.009063407 -0.0028862972 0.006744714 0.0021347147
000290 4f d3 92 3b bd 4a 5b 3c be 5d 2a 3c b4 14 bd 39
       0.0044807564 0.013384518 0.010398326 0.00036064314
0002a0 9b 8b ae 3b 6c 8e 65 3b f3 2c e8 3b e7 f9 5b 3c
       0.005326701 0.0035027517 0.0070854365 0.013426281
0002b0 67 7e ab 3b 23 30 db 3a 08 ce 6d 3c 94 a4 39 3c
       0.005233574 0.001672272 0.014514454 0.011330742
0002c0 c3 5b 3e 3c 4a 28 7e 39 00 39 b0 3c 59 d7 f9 3a
       0.011618557 0.00024238336 0.021511555 0.0019061371
0002d0 36 b7 7a 3c 2f 7a e8 3b d5 89 7f 3b 63 ce a3 3a
       0.01530247 0.0070946435 0.0038992066 0.0012497421
0002e0 d9 23 05 3c 82 a4 7a 3c 2d 55 dd 3c 61 45 d1 3b
       0.0081262225 0.015298011 0.027018154 0.0063864444
0002f0 d1 de 87 bb 2f 52 56 3c a8 e4 ac 3b 97 9b a6 3c
       -0.004146435 0.0130811175 0.0052762814 0.020337863
000300 d3 e8 bc 39 c7 ab 23 3c 6a 51 01 3c 23 d2 31 3b
       0.00036031622 0.009989685 0.007892946 0.0027133308
000310 f3 ac be bb 8e 5e 4f 3c 3e 80 fb 3b c0 c5 4a 3c
       -0.005818957 0.012656821 0.0076752 0.012376249
000320 53 12 bd 3b 42 c5 90 3c eb d2 6a 3c 4f 1b 8b 3c
       0.0057700067 0.017672185 0.014332513 0.016980795
000330 86 df 76 bb 5c 2a 37 3c 9a f6 b6 3a c7 4b df bb
       -0.0037669851 0.011179533 0.0013958991 -0.0068144533
000340 79 d7 63 ba ca 81 72 3c 6d 31 80 3a ab 09 ad 3b
       -0.0008691471 0.014801452 0.0009780355 0.0052806935
000350 72 b5 3f ba eb 3f a4 3b 2e 0b 50 bb 39 52 2c 3c
       -0.0007313109 0.0050125024 -0.0031744945 0.01051765
000360 4e c2 ec 3b bd 7d ac ba b6 29 0c 3c 5a a1 0f 3c
       0.0072253114 -0.0013160032 0.008554867 0.008766497
000370 87 63 6c 3b d9 00 af 3b 3a d7 13 3a 53 ec 8d 3b
       0.0036070065 0.005340677 0.0005639676 0.0043311506
000380 8f ed fc 3b 6f e3 e8 bb 7c 4f 6e 3c a5 4a 47 3c
       0.007718749 -0.0071071903 0.014545318 0.012163793
000390 15 ef 11 3c 22 44 fe bb 8a 73 6c 3c e9 e5 f3 3b
       0.008907099 -0.007759587 0.0144318435 0.007443179
0003a0 8e 2b 5c 3b 12 02 e5 3b b9 35 a1 3b 8f f8 2d 3b
       0.0033595297 0.006988772 0.0049197343 0.0026545858
0003b0 3b f4 09 3c d1 2d d8 3a 37 51 87 3c 3b 1a 11 3b
       0.0084200455 0.0016493147 0.016518218 0.0022140879
0003c0 65 44 5c 3b 9d d3 43 3c 2e cb 0d 3b 79 95 22 3b
       0.0033610102 0.011952308 0.0021635997 0.002480833
0003d0 42 10 50 3c 33 0c d8 3b e5 7f 4d 3b d6 b9 7a 3b
       0.012699189 0.006593251 0.0031356749 0.003825774
0003e0 b9 38 0d 38 9c 85 d7 3b 19 79 9c 3b f4 2c 88 3a
       3.3669847e-05 0.006577207 0.004775178 0.0010389374
0003f0 04 5f 27 3c 47 96 48 3b cd 79 c8 3c 59 87 d1 3b
       0.010215525 0.003060715 0.024472142 0.0063943085

action_model._discrete_distribution.branches.0.weight f4 [5, 256]
000000 7e 13 0e bc d5 f0 83 3b 78 8e a0 3c b3 40 22 3a
       -0.0086716395 0.004026512 0.019599184 0.00061894505
000010 cb 34 ac bb 9d 4c a6 bc 94 00 61 3c 35 c0 a0 3b
       -0.005255317 -0.020300204 0.013733048 0.0049057254
000020 9c 21 44 b8 50 f4 ed bb c7 dc ef bb 57 44 bb bc
       -4.6761343e-05 -0.0072617903 -0.00732002 -0.022859735
000030 06 4e 80 bc e8 32 53 3c 55 2d bd ba 39 87 c4 bc
       -0.015662204 0.012890555 -0.0014433066 -0.02399026
000040 d3 9a f0 3c 6a c1 06 bb 4b bb 9b bc 76 51 d5 b9
       0.029370701 -0.002056206 -0.019010207 -0.0004068722
000050 73 18 69 3c 9a 0c 14 3c 0c 50 94 ba 5c aa e7 bc
       0.014227021 0.009036208 -0.001131536 -0.028279476
000060 3d 01 86 3c 94 ff b3 3c fe 1d a0 3b f3 5e 2a bc
       0.016358012 0.021972455 0.004886388 -0.010398614
000070 3e ae d6 3c 65 e2 ba bc 3a e5 b5 ba 73 b4 fd ba
       0.026206132 -0.022813031 -0.0013877519 -0.0019356146
000080 3f 48 13 3c d5 ee 9d bc 81 2f c4 bc c2 ef fd 3b
       0.008989393 -0.019278923 -0.023948433 0.0077495286
000090 95 36 3b 3c 37 d1 ba 3c 54 d3 c8 3b 01 b3 e7 bc
       0.011426588 0.02280484 0.006128708 -0.028283598
0000a0 fe c8 b2 ba 1c 1f 05 3c 0b f5 a1 bc 1a 3b b7 ba
       -0.0013640223 0.008125093 -0.019770166 -0.0013979406
0000b0 32 31 8b bc 37 f7 56 ba 1f a7 e0 b9 e2 54 30 bc
       -0.016991232 -0.000820029 -0.00042849124 -0.010762425
0000c0 2e 43 91 bb 58 ab c8 bc ec ae de bb e4 14 e5 ba
       -0.0044330573 -0.024495766 -0.0067957547 -0.0017477539
0000d0 16 57 95 3b 61 f3 a3 bb 9b 7b a6 bb b6 11 07 3b
       0.0045575006 -0.0050033783 -0.005080653 0.0020609922
0000e0 b1 bd d9 b9 29 db 23 3b 8f c9 8e bb 02 ad a7 bc
       -0.00041530796 0.0025002456 -0.0043575238 -0.020468239
0000f0 b7 ca a7 3a 34 67 a8 3b 26 e0 84 bb 3d 30 da bb
       0.0012801503 0.005139256 -0.004055041 -0.0066585825
000100 2a 29 9d bc 47 99 67 3b ee 95 a7 bc c6 9d 51 bb
       -0.019184668 0.0035339163 -0.020457234 -0.003198491
000110 9f 4c 3e 3c f3 b1 5b bc 3b 56 a7 bc 78 06 6b bc
       0.011614948 -0.013409126 -0.02042686 -0.014344804
000120 83 3d 78 3b a8 df 8e bc e2 ab 9f bc 4a 5a a4 3a
       0.003787846 -0.017440632 -0.01949114 0.0012539115
000130 f1 dd 06 3d f9 40 8e bc 83 80 80 3c 23 c3 48 bc
       0.032926504 -0.017364966 0.01568628 -0.0122535555
000140 35 80 f1 bb 44 b6 f6 3c 8e 17 a9 bb 08 f1 eb 3c
       -0.00737002 0.030116208 -0.0051602786 0.028801456
000150 4c bf 16 3c 38 72 88 3a 46 84 dd 3c 0d 16 44 3c
       0.009200882 0.0010410016 0.027040612 0.011968148
000160 b8 74 4c 3c 6a 16 1c 3c f2 db 04 3b cc 86 c9 3b
       0.012479 0.009526828 0.00202727 0.0061501022
000170 19 89 d2 bc 8d 0d 37 bc 26 3c 18 bc 36 76 00 3c
       -0.025700139 -0.011172664 -0.009291684 0.007840684
000180 65 3f 80 bc 07 86 bb 3c 04 5d b1 3b 69 a6 ae bc
       -0.015655229 0.022891058 0.0054126997 -0.021319585
000190 4c 39 57 3c a0 5a b2 3c d1 70 b4 bb bd 2e 9c bb
       0.013136219 0.021771729 -0.005506613 -0.004766314
0001a0 49 6d 30 bc dd a8 9b bb 90 21 bd 3c 50 07 8e 39
       -0.010768243 -0.0047503547 0.023087293 0.000270898
0001b0 ab 40 a9 3a 49 92 56 bb c4 c6 9a 39 56 fb 11 3c
       0.0012912949 -0.0032741001 0.0002952126 0.008910021
0001c0 af d1 02 3c 54 ec 9a 3c ff de 12 bc aa a9 8b bc
       0.007984563 0.018911518 -0.008964299 -0.017048676
0001d0 65 0e 62 3c bc 9b ea 3c 80 a3 2b 3c 6a 22 66 3c
       0.013797377 0.028638713 0.010475993 0.014046291
0001e0 27 61 81 bc bf 7d 15 3b 93 1e 69 3b e3 22 d8 bc
       -0.015793396 0.0022810546 0.0035571202 -0.026383823
0001f0 36 02 77 3c 6e 3b 1d 3c bc 0c f0 3c 7e d5 4a bc
       0.015076211 0.009596689 0.029302947 -0.012380002
000200 46 b6 87 bb f7 81 c7 bb 1f 3c b5 bc 8c d9 5b 39
       -0.0041416017 -0.006088491 -0.022123395 0.0002096651
000210 21 8a 8b 3a e2 33 e7 3b 95 88 ee bc 85 2e 8e 3b
       0.0010646024 0.0070557455 -0.029117862 0.0043390417
000220 2b b8 52 3c d6 e8 9f bb 08 51 82 bc f4 c3 9b bc
       0.012861292 -0.004880051 -0.01590778 -0.019014336
000230 a1 58 bb bc fd 0e 0b bc a5 43 a7 bb ad 9a bf 3c
       -0.02286941 -0.00848746 -0.0051044994 0.023389185
000240 2b 57 d1 3b 7b 30 4e bb c8 83 4e bc f4 2e de bc
       0.006388565 -0.0031462002 -0.012604661 -0.027121998
000250 5c f8 a0 3c fb 20 04 bd 9c fd 48 3b 47 74 e4 bb
       0.019649677 -0.032258015 0.003066874 -0.006971869
000260 84 a6 0f bc 06 3f 1b bc 39 f7 2d 3c 8b e2 b3 3c
       -0.008767728 -0.009475475 0.0106180245 0.02195861
000270 30 76 be bc 5b b2 7d 3c 75 6a b4 ba c9 8f 01 bc
       -0.023249716 0.015484418 -0.0013764637 -0.007907816
000280 a5 1f 8b 3c 5a 05 7c 3b dd b1 8e 3b ed a6 5f 3c
       0.016982863 0.0038455338 0.004354699 0.013650638
000290 75 ca 1e bc 4e a9 25 3b 4a 71 ec 3b 89 01 8b bb
       -0.009691824 0.0025277915 0.0072156535 -0.0042421264
0002a0 21 31 bf bc a4 bd 1c bc 8d aa 84 3c eb 46 3a 3c
       -0.023338856 -0.009566698 0.016194606 0.011369447
0002b0 f3 98 8f bb e1 83 5f bb 31 43 60 3c 2c 5f b5 3c
       -0.0043822466 -0.0034105706 0.013687895 0.022140108
0002c0 0e 48 45 3c 5e 1d b4 39 19 96 8e bc 37 4a 1c bc
       0.012041105 0.00034354156 -0.017405557 -0.009539179
0002d0 e9 6f b7 3c ce bf 26 3a 54 7b ef 3c a5 2e 23 bc
       0.02239223 0.00063609786 0.029233612 -0.009959851
0002e0 4d 51 57 3c 77 37 2a bc 93 31 ed 3b d0 68 30 3b
       0.013141942 -0.0103892 0.0072385757 0.0026917942
0002f0 f3 4f e8 bb e6 8a b1 3b 50 2f 1b ba 97 4f e0 bb
       -0.007089609 0.0054181693 -0.0005919831 -0.0068454253
000300 ad 71 f4 bb 45 a0 5a 3c f0 f7 00 3d 5f 69 2e 3c
       -0.0074598403 0.013343875 0.03148645 0.01064524
000310 d0 6d 82 3b bd e7 98 bc 0a c5 00 bd 0f 00 66 bc
       0.003980376 -0.018665189 -0.03143791 -0.0140381
000320 96 92 73 3c a0 bc 00 bd 6e d8 0d 3c 97 54 03 3c
       0.014866492 -0.031429887 0.008657558 0.008015773
000330 f6 0e e0 b6 f8 ce 95 bc 92 90 e4 3b 90 d3 97 bb
       -6.677462e-06 -0.018287167 0.006975242 -0.0046333745
000340 6b 90 81 bc 6d 61 d5 3c 94 ce 35 3c c9 e2 91 3c
       -0.015815934 0.026047433 0.011096615 0.017808335
000350 86 f5 f1 b9 b0 0a e6 bc e2 49 e0 bb d3 d0 b1 bc
       -0.0004615003 -0.028081268 -0.006844745 -0.02170602
000360 58 51 7c 3c ea 29 83 3c 64 37 bd bb 5a 1a e5 3c
       0.015400253 0.016011197 -0.0057744253 0.027966667
000370 bd a1 6b 3c 43 55 84 3c 0a 3b 3f 3c 02 5d 06 3d
       0.014381823 0.016153937 0.011671791 0.032803543
000380 79 a7 43 bc cc df 04 3b f1 bb 68 3c 51 09 a9 3c
       -0.011941784 0.0020274995 0.014204965 0.020634325
000390 a0 d8 19 bc 9d c9 d6 bb 30 20 9f 3c 09 aa b5 3b
       -0.009390026 -0.006554796 0.019424528 0.0055439514
0003a0 18 18 55 bc d3 32 cc bb 32 20 dc bc 3f 41 73 3a
       -0.013006233 -0.0062316447 -0.02687082 0.0009279437
0003b0 b9 9f e8 bc b9 0d 40 3c 9c 7e 05 3d 78 b6 f0 3c
       -0.028396474 0.011722022 0.032591447 0.029383883
0003c0 2c 87 ac bb c4 68 ae 3c 90 cb c8 ba 5d f5 18 3c
       -0.005265137 0.02129019 -0.0015319455 0.009335843
0003d0 fa 32 bc 3b 63 f6 bd 3c 79 3e 05 bc 74 8a bc bc
       0.0057433816 0.023188775 -0.00813257 -0.023015238
0003e0 54 a7 06 bb ad f8 17 3b 65 f1 55 3c f5 f7 b6 3b
       -0.0020546513 0.0023188994 0.013058041 0.005583758
0003f0 3b 14 9a 3c 91 c7 97 3a 4a 09 8a 3b ab e7 77 bc
       0.018808475 0.0011579861 0.004212533 -0.015130918

action_model._discrete_distribution.branches.0.bias f4 [5]
000000 fc c7 0c ba 8f 3e bc bb 2a dd 3b 3b ee f2 22 3b
       -0.0005370376 -0.0057447623 0.002866576 0.0024864036
000010 c8 aa c2 3a
       0.0014851922
