results/tb1/Fork1.onnx (onnx, 331083 bytes, 6 tensors)

network_body.linear_encoder.seq_layers.0.weight f4 [256, 58]
000000 36 b6 e8 bd 51 2e c0 bd 3f 7a b0 3c 05 b4 1f 3e
       -0.11362879 -0.09383834 0.021542666 0.15596016
000010 6d ea 39 bd 80 43 ff 3c 9c 12 09 3e 47 81 a8 3d
       -0.04538958 0.031160116 0.13386005 0.08227783
000020 ff f8 81 bd 96 98 57 bc ac 24 32 3d 19 1e c1 bc
       -0.0634632 -0.013158938 0.043492004 -0.023573922
000030 50 27 6f 3c 43 83 a3 be ca bf 3c bd 7a 8f db 3c
       0.014596775 -0.31936082 -0.04608134 0.026801813
000040 4d 1c 22 3c 75 26 0f 3c 6c ac 68 3e e6 b1 13 3c
       0.009894443 0.008737196 0.22722024 0.009014582
000050 7e f0 ae 3b b7 49 8f 3e ee 1d 22 3e 26 de b8 3d
       0.0053387275 0.27985927 0.1583173 0.090267465
000060 d2 1b 5b bc 0c 6d d5 3d 84 73 1c 3d a6 77 bd bd
       -0.013373332 0.1042119 0.0381961 -0.09251337
000070 01 db 4f 3e 78 2a df bd 3a 95 03 3e 5b 87 1c 3c
       0.20298387 -0.10896772 0.12849894 0.009553756
000080 ac 83 ab bd 62 14 58 bb a3 54 97 3d c1 38 95 3c
       -0.08374724 -0.0032971133 0.0738919 0.018215539
000090 69 3e bd 3d 19 4b c0 3d 54 c5 75 3b 9d 5e f2 3c
       0.092404194 0.09389324 0.003750165 0.02958613
0000a0 ef 0c 3e be ea 8e 9e bc aa da e3 bd 63 12 e7 3d
       -0.18559621 -0.019355256 -0.11125691 0.11282804
0000b0 58 81 12 be 08 1c 7a be 44 07 1a 3e d9 b3 ba be
       -0.14307153 -0.24424756 0.15041834 -0.36465338
0000c0 a2 2c a0 be 7b 1b 1c be a8 9e 0c bc a0 97 b3 3d
       -0.31284052 -0.15244858 -0.0085827485 0.087691545
0000d0 40 e7 17 be ab 53 0f be e0 9d ae bd 7f b9 0b bd
       -0.14834309 -0.1399676 -0.08526206 -0.03411245
0000e0 4e 3a 7b 3e 93 2e 9e bd a6 79 92 3e ec 1d 79 bd
       0.2453396 -0.07723727 0.28608435 -0.06081955
0000f0 f8 6b 63 3e 8f eb e1 bc 52 61 8d 3d a0 55 c6 3c
       0.22209156 -0.027578143 0.06903328 0.024210751
000100 81 fc aa 3d fb ad e0 3c ea f1 bb 3c 62 80 3d 3d
       0.083489425 0.02742671 0.022942502 0.046265014
000110 0c 89 a8 3d 58 76 0b be df 20 82 3d 7d ef f3 bd
       0.082292646 -0.13619363 0.06353926 -0.11910913
000120 ab 7f fc bc ab c0 99 3b fb 8e b0 bc 45 88 8b 3d
       -0.030822596 0.0046921573 -0.021552553 0.06813101
000130 d0 d7 9e 3d 3c eb e6 bc b0 13 33 bc 16 c2 00 3e
       0.07756007 -0.02818834 -0.010929987 0.12574038
000140 35 1d 4a bd d4 80 6e be b7 08 5a be 03 d1 20 3e
       -0.04934426 -0.23291332 -0.21292387 0.15704732
000150 b8 56 cc bd b2 06 3a bc bc 5c 89 bd ab af 46 bd
       -0.09977478 -0.011354135 -0.06707141 -0.048507374
000160 b9 a5 84 3d 99 de 21 be 5f 0d 9c bc bc 6d 58 3d
       0.064769216 -0.1580757 -0.019049345 0.052839026
000170 cb ca a9 3e 50 7f 74 3d 66 59 08 be 6e 81 00 3e
       0.3316253 0.059691727 -0.13315353 0.12549374
000180 6a fb 0c 3e 5d ba e5 bd d8 51 80 bd c7 5b 35 be
       0.13767782 -0.112171866 -0.062656105 -0.17710792
000190 6a 2c 7a 3b d0 00 6c 3e f0 9e 84 be 4b b1 be 3c
       0.0038173446 0.23047185 -0.2590251 0.0232779
0001a0 e4 d8 6c 3d 2c eb d7 bd 83 b3 9c bd 3c 5a e4 3d
       0.05782403 -0.10542902 -0.07651427 0.11150023
0001b0 54 58 67 3d d3 fb 8f be d9 6e f8 3d d3 49 e0 bd
       0.05648072 -0.28121814 0.121305175 -0.10951581
0001c0 00 53 68 3d f7 14 ca bb c5 48 d0 bc 28 44 07 be
       0.05671978 -0.00616705 -0.025425324 -0.13209593
0001d0 ac 30 99 bd ff 77 e2 bd ef ae 49 be 2e 6d d8 3c
       -0.074799865 -0.11058044 -0.19695638 0.026419248
0001e0 1d d8 55 be 10 21 dd bc c5 ea 9c 3d 0f 0b 1f be
       -0.20883222 -0.026993304 0.07661966 -0.15531562
0001f0 e1 38 0b 3e b6 51 07 3d ea f9 dc 3d c2 92 62 3e
       0.13595916 0.03303691 0.10789855 0.22126296
000200 7a 79 4d 3e 13 f0 56 be 4b 6e 22 3e 4c 19 d7 bd
       0.20065871 -0.20990019 0.15862386 -0.10502872
000210 ec e5 11 3e 26 9d 88 3d f6 52 af be d1 9d b6 bc
       0.14247864 0.06670599 -0.34242982 -0.02229205
000220 c2 c7 3b be 51 5b 63 3d f5 db 28 bd c6 ba ad 3d
       -0.1833792 0.055507008 -0.041225392 0.0848289
000230 fb 4c 45 bb 99 98 5b 3e b5 95 21 be 12 d1 8b bd
       -0.0030105698 0.2144493 -0.15779765 -0.06826986
000240 18 7f 2a 3e 14 cb 03 bd fb 35 01 3e 9a 11 84 3d
       0.16650045 -0.032176092 0.12618248 0.0644867
000250 5b 2a 7d 3e fc 18 92 bd be 4c 09 be e1 53 f9 3d
       0.24723189 -0.07133672 -0.13408181 0.12174202
000260 79 47 26 be 6c 15 00 bb fd 2e f3 bd c4 46 ae 3d
       -0.16238202 -0.0019544018 -0.11874197 0.08509591
000270 0d d7 58 3e 1c 8d 23 3e b8 42 d6 bb 61 e2 be bd
       0.21175785 0.15971798 -0.006538715 -0.09320522
000280 55 2e 0a be 74 bf b2 ba dc e3 66 be ed a3 9a 3d
       -0.13494237 -0.001363738 -0.22547859 0.075507976
000290 ab ac 50 be 13 4b 8d 3c 96 21 ad bd 82 24 30 be
       -0.20378368 0.017247712 -0.08453672 -0.17201427
0002a0 92 f9 09 be 40 b6 9c 3e 35 45 e1 3d 63 3e 3f bd
       -0.1347411 0.30607796 0.10999528 -0.046690356
0002b0 97 d1 4d 3c 6f 44 13 be 79 f1 0f 3d d8 79 d7 3d
       0.012562177 -0.14381574 0.035142396 0.10521287
0002c0 64 11 f5 3d a4 1d 72 bc de 99 c9 bd 7b ba 05 3e
       0.119662076 -0.014777575 -0.09843801 0.13059418
0002d0 6b 2f 33 3e 15 54 93 3e 13 06 2f be 5b 78 94 be
       0.17498557 0.28775087 -0.17092161 -0.28998074
0002e0 aa 0b 7f bd e2 d2 1d 3e bb 8c 0e bd 0d 31 2f 3d
       -0.062266983 0.15412477 -0.03480218 0.042771388
0002f0 7c bc 97 3d b2 1a 68 3e 60 74 7a 3d 9b ac 9e 3c
       0.074089974 0.22666433 0.06114614 0.019369414
000300 9d 98 44 be e0 26 ab bd b2 78 49 bd 59 c1 46 bd
       -0.19198842 -0.08357024 -0.04918737 -0.048524234
000310 5d 38 f0 bd 38 d1 17 3d 3a d5 d3 3d 9f e9 1f 3e
       -0.117295004 0.03706476 0.10343404 0.15616463
000320 67 63 21 3d cf 89 2d 3e 26 1a fb 3c f8 71 24 be
       0.039401438 0.16947101 0.030652117 -0.160591
000330 f9 43 ae 3d a5 f1 29 bd c7 63 6c 3d a5 b3 05 3e
       0.085090585 -0.041490216 0.057712343 0.1305681
000340 5a 74 c4 bd 9f 1d dd 3d 97 8d ca 3d b5 3d dd bd
       -0.09592505 0.107966654 0.09890287 -0.10802785
000350 a2 7e 44 bd 61 57 76 bd 3e 85 0e 3c f6 76 f7 3d
       -0.04797233 -0.060141925 0.00869876 0.12083237
000360 d3 18 3e 3e b3 ae 73 be 1c 23 9f bd d1 25 55 3e
       0.18564157 -0.23797111 -0.077703685 0.20815207
000370 15 a4 01 3c 6c ca ab 3d 25 d5 3a bd 01 f8 6e bc
       0.007912655 0.08388218 -0.045613427 -0.014585496
000380 0a a0 20 3e fd c6 71 3c e2 52 ce bd 5a 05 58 3e
       0.1568605 0.014756915 -0.100744024 0.21095791
000390 0f 84 db 3d f3 3c 87 3d f1 77 e0 bd 5e 43 d7 3d
       0.107185476 0.06603422 -0.10960377 0.10510896
0003a0 6d e6 08 3d 2a e9 21 3e 47 5c 08 3d 14 fc 19 be
       0.033422876 0.15811601 0.033291128 -0.15037566
0003b0 0b 70 28 bd 82 66 9f bd e9 de 26 3d e9 bf 6f 3e
       -0.041122478 -0.07783224 0.040739927 0.23413052
0003c0 2a f1 da 3d f2 18 14 be ff 6d f5 3c c1 65 24 3e
       0.1069053 -0.14462641 0.029959677 0.16054441
0003d0 69 86 88 3d c1 b8 a1 bc a5 14 74 bd ab 68 de 3d
       0.06666262 -0.019741418 -0.05959 0.108598076
0003e0 44 12 c8 3d 54 68 12 3e 21 63 b2 bb 49 d6 bd 3c
       0.09769109 0.1429761 -0.005443946 0.023173468
0003f0 f5 c0 a1 3d 60 81 88 be 92 7d 78 ba 70 ac 5b 3d
       0.07898132 -0.26661205 -0.00094791607 0.053631246

network_body.linear_encoder.seq_layers.0.bias f4 [256]
000000 7b 56 44 bc e6 58 2a 3c b2 fc f2 3c ae 6d 16 bb
       -0.011983509 0.010397172 0.02966151 -0.0022953558
000010 28 f5 a2 3c 17 e5 10 3c a6 d7 b2 3b a8 77 4b 3c
       0.01989229 0.008843682 0.005457836 0.012418665
000020 40 a4 0e ba 53 97 fd 3b 30 e9 21 ba 2b fb 08 3d
       -0.0005441345 0.0077389865 -0.000617641 0.033442657
000030 a7 76 87 3a a1 c5 fb 3b b3 86 79 3a f3 9d 60 3c
       0.0010335044 0.0076834713 0.0009518668 0.013709533
000040 76 bb aa 3c fe 12 13 3d 6e 9e a7 3b 6a 37 1c 3b
       0.020841341 0.035906784 0.005115322 0.002383674
000050 66 65 d9 3b 9a b7 37 bc 99 af db 38 31 e4 a4 3c
       0.006634402 -0.011213208 0.000104754414 0.020128341
000060 b1 06 92 bc 31 59 af 3c ac a0 38 bb 9a ce 73 3c
       -0.017825456 0.021404834 -0.002817194 0.014880801
000070 d6 94 bc b8 dc 01 aa bc b7 e2 de bb 76 42 a0 3c
       -8.9922614e-05 -0.02075284 -0.006801929 0.019562941
000080 51 59 47 3c b7 57 77 3b 24 8b 20 3b a8 0d 91 3b
       0.012167291 0.003774149 0.0024496997 0.004426677
000090 af dc 59 3b 8f c6 30 ba df 81 83 bb 4c 4e 09 3d
       0.003324311 -0.0006743455 -0.0040132846 0.033521935
0000a0 ec a9 52 3c 47 f9 ee 3b b6 02 35 bc a9 8e e0 ba
       0.012857895 0.0072929 -0.01104801 -0.001713236
0000b0 3c f5 aa 3c f1 90 32 3c f2 d4 c8 3c b2 c2 1e bc
       0.02086889 0.010898815 0.024515603 -0.009689974
0000c0 46 82 84 bc 99 d2 9c 3c 26 45 a3 3b 83 55 13 bc
       -0.0161754 0.01914339 0.0049826084 -0.008992556
0000d0 6a 9a a7 bb 04 37 9c bb 98 21 b7 bb d7 23 72 3c
       -0.005114843 -0.0047673006 -0.0055887215 0.014779053
0000e0 08 bd 5e 3c 35 2a e0 bc f4 8c 6f 3c d1 40 82 3c
       0.013594873 -0.027363876 0.014621008 0.015900047
0000f0 40 98 11 bc c6 68 b7 3c fd a7 d5 3a 6e e6 c7 bb
       -0.008886397 0.022388827 0.0016300675 -0.0061004674
000100 b1 01 00 3c f6 14 2c ba 80 24 7b bb 52 e8 17 bb
       0.007812903 -0.0006564403 -0.0038321316 -0.0023179245
000110 3a ad 19 39 a3 08 ba 3a 85 38 b2 3b 51 36 da bc
       0.00014655749 0.0014193248 0.0054388666 -0.026637228
000120 df 8d 92 3b a7 d6 5f 3b d5 77 b5 bb ae 08 eb 3c
       0.0044724788 0.0034155042 -0.0055379667 0.028690662
000130 72 ef c4 39 00 53 9c 3c 6d 0b 06 3c 23 e0 92 3c
       0.00037562434 0.019082546 0.008181435 0.017929142
000140 68 0d 5b ba 72 3c dd 3c 56 bd 0d 3b bc af ec 3b
       -0.00083561847 0.027006362 0.0021627746 0.0072230976
000150 4b 2e 00 3b 0d 05 0a 3c e9 95 e2 bb 1a 53 bc bb
       0.0019558843 0.008424056 -0.0069148433 -0.005747211
000160 6a 20 a6 bc 31 20 db bc 2c 4d 9c 3c 06 c1 29 3c
       -0.020279128 -0.026748748 0.019079767 0.010360962
000170 8d 09 08 3b bc c3 03 bc 06 7f a4 3b cc 40 08 3d
       0.0020757646 -0.008042272 0.005020025 0.03326492
000180 6e 6a 31 bb cc 58 ad 3b 89 fd 80 bb 11 f4 d9 3c
       -0.0027071494 0.0052901264 -0.0039364737 0.026605638
000190 a6 d6 6a bb f8 0a 47 3b db 55 58 3c 89 3c 29 3c
       -0.0035833507 0.0030371528 0.013204063 0.010329374
0001a0 5e 6a 24 3b 51 80 9b 3c bc bf b8 3a f2 ad 74 39
       0.0025087814 0.018982084 0.0014095227 0.00023334453
0001b0 98 4e 3d bb 3b c6 f1 3b e4 61 e8 3c 63 8d 1c ba
       -0.0028885957 0.0073783672 0.02836699 -0.0005971996
0001c0 47 97 05 3c 04 1d 2c 3b 12 50 2e bb f4 1c ed 3b
       0.008153743 0.0026262412 -0.0026598019 0.0072361175
0001d0 f3 cd ec 3a a1 1e 5d bc 9e ec d1 bb e1 ea b9 39
       0.0018066749 -0.013496072 -0.006406381 0.00035460948
0001e0 f2 fb c0 3a e8 75 3f bb c1 11 4f 3b e0 71 cb 3b
       0.0014723523 -0.0029214565 0.0031596276 0.0062086433
0001f0 08 2b 1b 3b 39 3e b5 3c bb 83 1f 3c df 44 b4 3c
       0.0023676772 0.022124397 0.009735997 0.022005497
000200 22 18 6f 3c 4d a7 1c 3b dd 3e 9e 3c 21 2a f4 39
       0.014593156 0.002390343 0.019317085 0.00046570695
000210 a5 03 25 3c 29 a7 14 bc c9 94 db bb 0c a9 10 bc
       0.01007167 -0.009073057 -0.006701086 -0.008829366
000220 d2 60 0f bd 7b 69 a5 3b 27 cb c7 3c f6 a3 8f bb
       -0.035004444 0.0050479746 0.024388863 -0.0043835593
000230 29 8e 4e bc d4 ac df 3c 78 b7 97 3c 65 aa 57 3b
       -0.012607136 0.02730409 0.018520102 0.003290796
000240 f0 f0 08 3c 1c 00 7a bb e0 95 0b 3b 60 3d e5 bb
       0.008358225 -0.0038147038 0.002129905 -0.006995842
000250 31 c0 7a 3c 6b 77 c7 3b 19 f1 1b 3b 43 6b c7 3c
       0.015304611 0.006087234 0.0023794828 0.024343139
000260 db ac 8f bc 3d 97 ad 3c ae bd 9c 3c c3 21 9d 3b
       -0.017538479 0.02119028 0.019133415 0.0047952845
000270 63 f8 10 3d 09 81 99 bb 35 86 11 3d e3 be 38 3c
       0.03539313 -0.0046845716 0.03552838 0.01127598
000280 5e 33 66 ba 0e 8a 23 bb 92 44 d6 39 8b 0b 46 bc
       -0.0008781458 -0.0024954113 0.0004086835 -0.012087713
000290 7f ef 89 3c 5c ee 51 bc 84 48 2b bb ad c5 8d 3c
       0.016837833 -0.012813177 -0.0026135752 0.017306173
0002a0 ce d1 08 3c 2c 55 21 3c 69 82 12 3d 75 1c e3 bc
       0.008350803 0.009846967 0.0357689 -0.02772353
0002b0 b4 d3 21 3c 8d 4e 36 3c ab dd de 3b d2 b3 a2 3c
       0.009877134 0.011127126 0.006801327 0.019861136
0002c0 11 14 9c 3c 95 23 a2 ba 40 ab 83 3c 41 58 bb ba
       0.019052537 -0.0012370223 0.01607287 -0.001429327
0002d0 f6 18 bd 3c 67 08 ec 3b 7f d9 b3 bb b0 54 08 bb
       0.023083191 0.00720315 -0.005488574 -0.002080243
0002e0 cf 40 a5 3a e8 72 1a bb da 99 fc 3a 31 30 51 3c
       0.0012607815 -0.0023567025 0.0019271926 0.012767837
0002f0 55 d9 42 3c b2 7c d3 3c 9e bf 0d 3c 38 e4 1b 3c
       0.011892636 0.025816295 0.008651642 0.009514861
000300 6f 23 83 bc b1 86 c5 ba 9d 09 0d bc b4 8a dc bb
       -0.016008107 -0.0015070048 -0.008608249 -0.006730402
000310 17 36 a4 3b 81 25 7c 3b dd 52 25 3c 4f 5e b6 3c
       0.005011331 0.0038474503 0.010090557 0.022261767
000320 73 67 3e bb cb b3 99 3c e4 6f f9 3b 68 42 86 3c
       -0.002905336 0.01876249 0.0076122154 0.016389087
000330 b3 bb e5 ba 9a b5 c5 3c 21 73 f9 3b 4b 44 37 3a
       -0.0017527252 0.024134446 0.0076126014 0.00069910724
000340 27 5d a8 3c de ce ce 3b ce 2e 19 3c 1c 38 91 3c
       0.020552231 0.0063112816 0.009349538 0.01772695
000350 00 ff 91 3b ed 56 82 3c c3 9e 5c bb dc 4e 27 3c
       0.004455447 0.01591059 -0.0033663965 0.010211673
000360 b8 c0 66 bc 25 90 8b 3b 4b f4 20 3c 27 5b bb 3c
       -0.014084034 0.0042591267 0.009823869 0.022870613
000370 91 58 6d 3c c5 af 98 3a 9a 09 cb 3b 0a f2 67 bb
       0.014486448 0.0011649063 0.006196213 -0.003539207
000380 d9 9f ac bb b3 b7 04 bc 64 ca a4 3c d8 b4 19 3a
       -0.0052680788 -0.008100438 0.020116039 0.00058634346
000390 fd df 6e 3c 5d e3 ca 3b 7a bb 60 3b ed 8b 59 bb
       0.01457977 0.0061916546 0.0034291432 -0.0033194975
0003a0 0e d5 08 3c 27 9f 84 3c ee cb 98 3b 53 e1 b2 bc
       0.008351577 0.016189171 0.004662982 -0.021835959
0003b0 e7 34 b9 3b 89 bf 4e 3b d4 7b 01 3a 26 5c 06 bc
       0.0056520584 0.003154727 0.00049394113 -0.008200681
0003c0 d5 00 8d 3c 9a 54 8d bb e4 0f 27 3c 1e 60 c4 3c
       0.01721231 -0.004313064 0.01019666 0.023971613
0003d0 68 9c fc 3b 7a e4 c5 bb 2c 9f 80 ba 9a 4c 10 bc
       0.0077090748 -0.0060391994 -0.0009813062 -0.008807326
0003e0 f4 40 e5 3b af 64 1e bb fa f3 04 3c 6c 07 ca 3a
       0.0069962684 -0.0024168899 0.008114809 0.0015413589
0003f0 74 8a 0b bc 7d 3a 2c bc 64 08 3e bb b8 bc a0 3c
       -0.0085168965 -0.010511992 -0.00289967 0.019621238

network_body.linear_encoder.seq_layers.2.weight f4 [256, 256]
000000 31 7b 27 3c f2 90 1b be e3 ff 25 3d cf 13 85 3d
       0.010222242 -0.15192011 0.040527236 0.06497919
000010 6c 1d 92 bd b9 43 77 3d 3f 87 15 3b 28 7f 91 bd
       -0.07134518 0.06036732 0.0022816209 -0.07104331
000020 2f 13 f7 bc c6 2f 42 bc ab d1 06 bd 24 af 85 3d
       -0.030160515 -0.01185221 -0.0329148 0.06527546
000030 7b 39 88 bc f2 41 14 3d a9 c3 34 3d 94 2d fc 3a
       -0.016628971 0.036195703 0.04413191 0.0019239658
000040 a2 6a c4 bd 00 d8 1c 3d 84 4f d9 bd 96 1a f2 bd
       -0.09590651 0.03829193 -0.106108695 -0.11821477
000050 f6 fb 7b bd 7b 35 98 bc 08 31 e5 bd 69 98 39 b9
       -0.061519586 -0.018580189 -0.111909926 -0.00017699752
000060 3b b5 15 bd 53 88 b2 3d 83 0f 20 be 48 3a 82 bc
       -0.036549788 0.08717408 -0.15630917 -0.015896931
000070 84 54 c7 bd 4a 68 5a bd 77 32 d3 3c 62 cf b2 bc
       -0.09732917 -0.053322114 0.0257809 -0.021827403
000080 07 92 90 3c 12 8b d1 3d ea 9b 17 bd 14 ba 24 3c
       0.017647756 0.10231604 -0.037013926 0.01005413
000090 1c 12 66 3d 8e 1b 42 3d e6 e1 45 3d de 46 9c bb
       0.056169614 0.04738956 0.048311137 -0.00476919
0000a0 d9 9e e1 3c 9d c3 aa 3d 83 8b 89 bd 71 02 48 3d
       0.027541565 0.083380915 -0.06716063 0.048830453
0000b0 85 00 14 3c 55 7e 18 bd d1 5c 01 bd bb ec 14 3e
       0.009033327 -0.037229855 -0.031582657 0.1454343
0000c0 e4 2d 6b 3c c0 a1 cd 3c 8a 79 60 3c 16 0e bb 3c
       0.014354203 0.025101542 0.013700852 0.022833865
0000d0 45 db d2 bd 66 1f fe bc af 58 00 bc 5b 0f 18 be
       -0.102957286 -0.031020831 -0.007833644 -0.14849608
0000e0 85 01 26 3e b4 0b 45 3d a5 33 b3 3d ca c9 29 3d
       0.16211517 0.048106864 0.08750085 0.041452207
0000f0 ec 88 06 bd 64 42 af 3d b1 b0 cb bc 4b 8b 81 3d
       -0.032845423 0.08557585 -0.024864526 0.06325396
000100 4d d5 b0 bc b2 bd d5 3c 9f 15 77 bd 59 d8 ba bc
       -0.021586085 0.02609143 -0.060323354 -0.02280824
000110 50 91 fd bd 6e c4 39 3c a5 71 0d 3e 59 86 34 bd
       -0.12381232 0.011338336 0.13812883 -0.044073436
000120 8a 39 ac bd 3b ed 78 3d 21 ee a6 bd 07 18 0b 3c
       -0.08409412 0.060773116 -0.08150888 0.008489615
000130 89 7a 60 bd 78 e4 bd bd 89 7c 58 3e 4a d0 f6 3c
       -0.05480436 -0.092720926 0.21141256 0.030128617
000140 a8 1f c8 bd 03 ce b4 3d 4f 6e 0a bd 7c 85 c9 bd
       -0.09771663 0.08828356 -0.033796605 -0.09839913
000150 a0 3c b9 3d b0 1f 27 bc 9a 9a ff 3d 3a 2f ac 3d
       0.090447664 -0.010200426 0.1248066 0.08407445
000160 83 ff 23 be 76 9f 4e 3d 9c 11 c9 3b df 80 1c 3e
       -0.16015439 0.050445043 0.0061361324 0.15283535
000170 e9 dc e2 bd bf 76 da 3d 7a 22 99 3d e6 f1 b0 3c
       -0.110772915 0.1066718 0.07477279 0.021599721
000180 8f 16 ae bd db 2a 76 3d f1 78 05 bd 7e c3 ad 3c
       -0.085003965 0.060099464 -0.03258604 0.021211382
000190 ee 3e 2f 3d ba d2 45 bc 6b d8 13 3e 02 75 9f bc
       0.042784624 -0.012074167 0.14438026 -0.019464973
0001a0 26 24 b5 3c f8 23 39 3d fc 74 dd bc 1a 92 6f 3d
       0.022111963 0.045200318 -0.027033322 0.058488943
0001b0 88 d4 b7 bd 35 cf 3d bd 97 86 86 3d 1e d6 89 bd
       -0.08976084 -0.046340186 0.0656864 -0.06730293
0001c0 a1 60 15 3d c4 86 1e 3d 0c 6f 12 3d 4a 28 5a 3c
       0.036469106 0.03870274 0.035750434 0.01331527
0001d0 23 cd ce 3b f6 3d 92 3d b7 56 00 bd 82 b0 6f bb
       0.0063110753 0.07140724 -0.031332698 -0.0036573713
0001e0 86 f9 b2 3d 16 e4 f9 3c 09 3e b5 3d 0a 34 3e bd
       0.08738999 0.030504268 0.08849723 -0.046436347
0001f0 b1 b4 00 3d fa 96 c2 bd 50 63 2b 3e fd 33 c7 3d
       0.03142232 -0.09501453 0.16737103 0.09726713
000200 35 9f 19 bd ca e8 7d 3d a0 01 35 3c b6 64 07 bd
       -0.037505347 0.061989583 0.011047751 -0.03305503
000210 9a 3d b0 3d 60 b7 e2 3d 5c 16 07 3e bd ab 07 3b
       0.086054996 0.11070132 0.13192123 0.002070173
000220 df 1e 17 bd 6a b5 45 bc 67 aa 87 3d 14 96 d2 bb
       -0.036894675 -0.012067178 0.066242985 -0.006426582
000230 f3 3b 47 3d bb 6b 90 3d cb c8 b3 3d 91 15 a2 3d
       0.048641156 0.07051798 0.087785326 0.0791427
000240 3a 58 9e 3d 94 b4 07 3e f3 94 49 3d 6c f8 3b 3d
       0.07731672 0.13252479 0.049214315 0.04589121
000250 20 62 09 3e 7f 93 4f 3c 9d f0 02 be 82 dc d0 3c
       0.13416338 0.012669443 -0.12787099 0.025495771
000260 77 e5 e5 3d 26 05 6a bd bf 89 a1 bd 82 58 d1 bb
       0.112254076 -0.057133816 -0.07887601 -0.006388725
000270 c3 a5 09 3d 8a 3e 9c bd 78 78 3f bd fb 8b c6 3d
       0.03360535 -0.07629116 -0.046745747 0.09694668
000280 8b 51 b2 bd e4 c5 95 3c 13 4f a0 bd ac 71 ea bc
       -0.08706959 0.018282838 -0.07827582 -0.028618656
000290 77 9a 5f 3d 23 06 9a 3d ae 00 3d 3d c6 39 89 bd
       0.05459067 0.07520702 0.046143226 -0.067004725
0002a0 9b f4 23 bd ef a6 b4 3d 27 87 51 3d 85 97 63 3d
       -0.040028196 0.088209026 0.051154282 0.055564422
0002b0 0c 76 cf 3d 19 56 14 3a fa c1 38 3d b4 d4 d6 3d
       0.101299375 0.00056585815 0.045106865 0.10489789
0002c0 f7 d7 84 bc ba cc 0b 3d d5 c1 54 bc 81 df c3 3a
       -0.016216261 0.03413079 -0.012985666 0.0014943929
0002d0 a9 a0 96 3c e2 e5 1b 3e fb 26 e0 bc 8e 0e 10 3c
       0.018387156 0.15224412 -0.027362337 0.008792533
0002e0 55 a7 a1 3d 22 0d 4d 3d 76 8b 95 3d 64 18 c4 bd
       0.07893244 0.050061353 0.07301991 -0.09574965
0002f0 13 80 80 3d 18 02 08 3d 38 42 45 bd d3 e2 42 3b
       0.06274428 0.03320512 -0.048158854 0.0029737249
000300 dd 79 01 be f4 ac 9f bc a2 c2 1c bc 9f 64 e2 3c
       -0.12644143 -0.01949165 -0.009567888 0.02763587
000310 9a c0 b3 bc 7a b8 b4 bc c3 b4 91 bd 1e 7d 2c bb
       -0.021942426 -0.022060622 -0.07114556 -0.0026319693
000320 b9 ee 96 ba 4e b0 df 3c c2 03 18 bd e3 2c 9d bb
       -0.0011515237 0.027305748 -0.03711296 -0.0047966107
000330 69 41 83 bd a2 ea 02 3d ac a5 f3 bc 36 bc c5 bd
       -0.0640896 0.031962045 -0.029742084 -0.09655039
000340 9a c7 0c 3e e3 00 81 bd 25 5c 2b 3d be 0f a4 3d
       0.13748017 -0.06298997 0.041835923 0.08010815
000350 0e 4f 99 bd eb 9e 70 bb 1c 6f 61 3c be a2 70 3d
       -0.074857816 -0.0036715816 0.013759401 0.058748953
000360 d1 3b 0c 3d 91 65 78 bd e3 f9 b7 bd 8d 1a 6b bb
       0.034236733 -0.060643736 -0.08983209 -0.003587398
000370 24 ad 24 3d e1 02 c4 bd 8c df dd ba 10 4b aa 3c
       0.040204182 -0.095708616 -0.0016927584 0.020787746
000380 c8 f2 1b 3e fb 7b 9c 3d d2 1a 98 bd 7d 9b 3d 3c
       0.15229332 0.07640835 -0.074269906 0.011572716
000390 da 5a e0 3d db a8 eb 3d f7 3c fa 3d be 2c f7 3c
       0.109548286 0.11506816 0.12218659 0.030172702
0003a0 56 b5 08 be ab bd 7f 3b 81 21 0a 3e 70 1c a6 3b
       -0.13350424 0.0039022963 0.13489343 0.005069308
0003b0 8a ff 67 3d 0f 04 fb 3c 2b 20 30 bd e9 f4 16 bd
       0.056640185 0.030641584 -0.042999428 -0.03685466
0003c0 c7 0b 3e bd 90 d9 5e bd c1 7b 49 bd e6 7e 64 3d
       -0.04639795 -0.054406703 -0.049190287 0.055785082
0003d0 1e f5 9a 3c b3 f0 88 bd 74 c5 a0 3d c7 25 4d be
       0.01891571 -0.06686535 0.07850161 -0.20033942
0003e0 80 8d 6a bd dc 70 0c bd b0 f0 e0 bd d8 32 2a 3c
       -0.05726385 -0.03428732 -0.109834075 0.010388099
0003f0 81 cd 82 bd e8 e7 52 bd fe f4 01 bd 44 b3 d9 bd
       -0.06386853 -0.051490694 -0.031727783 -0.10629895

network_body.linear_encoder.seq_layers.2.bias f4 [256]
000000 d1 aa 86 3b 25 1e a9 3c 3b 39 d4 3c ff 06 ad bb
       0.0041097184 0.020644257 0.025906196 -0.005280375
000010 4c ee d5 3b 1b 85 77 3c 6e c8 b1 3a 11 32 70 bb
       0.0065286513 0.015107418 0.0013563761 -0.0036650936
000020 c9 9c 00 3c e3 2e b9 3b 6f 2d 56 3c 93 17 69 3c
       0.0078498805 0.0056513413 0.013072356 0.014226812
000030 f4 d5 c6 3b ea e5 9f 3c 34 e4 46 3c 02 52 86 3c
       0.0060679857 0.019518811 0.012139369 0.016396526
000040 34 f5 b3 39 6e 91 3f 3c 66 f8 cf bb cb e1 b0 3c
       0.0003432423 0.011692388 -0.00634675 0.021592041
000050 f1 fc 0b 3c 5e de c9 3b df 7b 25 3c 01 e0 8e 3c
       0.008544193 0.0061605414 0.010100334 0.017440798
000060 1e 46 44 3c d5 8e a1 3b c8 ed 74 bc fd 9b 90 3c
       0.011979608 0.004930357 -0.01494927 0.017652506
000070 ef 60 b0 3c 16 ea ba 3a f6 7a 8f 3c 21 a7 f8 3b
       0.021530597 0.0014260437 0.017514687 0.0075882827
000080 49 37 b4 3a 5e e0 3b 3b 9a ae ac ba 0b 71 3b bb
       0.0013749386 0.0028667669 -0.0013174594 -0.0028601314
000090 77 29 2e 3c f4 b9 85 3c 98 c0 8c 3c 2b 05 30 bb
       0.010630003 0.01632402 0.01718168 -0.002685855
0000a0 31 96 90 3b 88 41 22 3c b2 36 cc 3b b6 ba 4e 3b
       0.0044124355 0.009903319 0.006232106 0.0031544394
0000b0 f5 f6 65 3c e5 d3 77 3c c2 1b 2f 39 82 1d 4e 3c
       0.01403593 0.015126203 0.00016699641 0.012580277
0000c0 54 5e d3 3a 37 11 38 3c b3 2a 49 3c 74 48 6b 3c
       0.0016126134 0.011234573 0.012278247 0.014360536
0000d0 7d c7 2f 3c 66 a2 60 bb 28 91 37 3c c5 f7 d8 bb
       0.010728714 -0.0034276485 0.011204042 -0.0066213333
0000e0 03 5a 2b bb 25 8c b1 3a fe ba c4 39 e2 e9 09 3c
       -0.002614618 0.0013545795 0.00037523353 0.008417578
0000f0 a7 d2 cb bb d2 83 62 3c 0b 0d 88 b8 01 07 2c 3c
       -0.00622018 0.013825374 -6.487415e-05 0.010499717
000100 7e ed 07 bc 2e 3f a2 3b 81 78 9c 3b be 82 af b8
       -0.008296369 0.0049513793 0.0047751074 -8.369003e-05
000110 d8 b5 e1 bb c9 01 70 bb 36 58 31 3c 33 4c ff 3b
       -0.0068881325 -0.0036622158 0.010824254 0.007791066
000120 34 f8 ea b9 98 34 88 3c 0e 32 aa 39 07 08 b7 ba
       -0.00044816884 0.016626641 0.0003246222 -0.0013964184
000130 94 4b 76 3c e3 2a e3 3b cb 6f 7c 3c 2b 3a 24 3c
       0.015032668 0.0069326027 0.015407513 0.010023634
000140 48 59 cf 3b fd 6f 32 bb f2 88 04 bb 34 ab 8d bb
       0.006327782 -0.0027227395 -0.0020223227 -0.0043233875
000150 bf 4d 83 3c ba 94 42 3c e9 1c b6 3b b7 0f 48 3b
       0.016028283 0.0118762795 0.0055576456 0.0030526945
000160 82 b3 1b 3c 1a 97 d6 ba d4 fb e5 3b ca 7d ff 39
       0.009503247 -0.0016371936 0.0070185456 0.0004873111
000170 68 b9 17 3c 06 88 3b 3c e1 57 00 bb b4 b7 2a 3c
       0.009260513 0.011446005 -0.001958363 0.010419775
000180 64 50 94 bb d5 03 67 b9 4f db ac 3b 0b 12 72 39
       -0.004526185 -0.00022031304 0.005275167 0.0002308564
000190 0d 8d a9 3b a3 c1 8a 3c 6b 97 ab 39 fc 7f 49 3c
       0.0051742853 0.016938036 0.00032728477 0.01229858
0001a0 70 e9 8b 3c cf c7 a2 3c 00 17 60 3c be d1 8d 3b
       0.017079085 0.019870667 0.013677359 0.0043279817
0001b0 fa 9b 61 3b 1d 60 16 3c 2c e8 51 bb ad 00 95 3b
       0.0034425245 0.009178189 -0.0032029254 0.0045471997
0001c0 e8 cc 63 bb 0f af 84 3b 8a 94 df 3b cd 2c 03 3b
       -0.0034759585 0.004049189 0.006823127 0.0020015717
0001d0 80 7d 8a bb 7c 0f 21 bb 6f 9c c1 b9 99 fb 05 3c
       -0.0042263865 -0.002457588 -0.0003692838 0.008177661
0001e0 ab 70 90 3b 3b 4f ee ba 55 dd 83 3b ef cb d2 3c
       0.0044079623 -0.0018181572 0.0040241876 0.025732009
0001f0 54 f7 5a 3c 52 f3 29 3c 78 c3 20 3c fc 0e 36 3c
       0.013364632 0.0103729535 0.009812228 0.011111971
000200 b6 83 86 3b 37 b3 48 3c 60 4e 91 3b b9 62 77 3c
       0.0041050566 0.012249759 0.004434392 0.015099221
000210 a5 83 a6 3c b7 b5 fe 3b 26 08 0b 3c 1e 8e 1e 3b
       0.020326445 0.007773127 0.008485829 0.0024193595
000220 1a ee d6 3b 64 ea 02 ba 60 7a 35 3c 13 d5 c9 3b
       0.0065591456 -0.00049940334 0.01107654 0.0061594336
000230 b0 7a 8b bb 7a 4c 38 3b 38 7a 84 3b f9 e8 af bb
       -0.004256569 0.0028121755 0.00404289 -0.0053683487
000240 9d 1b 0c 3c bf 82 9c 3b 02 55 9c 3b 3d e7 04 bb
       0.008551505 0.0047763283 0.004770876 -0.002027943
000250 28 b6 13 3a ed 66 a8 bb cf b6 63 3c f9 3a 62 3c
       0.00056347484 -0.005139223 0.013898565 0.0138080055
000260 dd 6b 8a ba 68 30 d5 3b 2d 25 52 ba a2 31 9f 3b
       -0.001056071 0.0065060146 -0.0008016404 0.0048582116
000270 2c fa 70 3c 82 67 99 3b 7f da 9c 3c 2a 73 40 3c
       0.014708083 0.0046815285 0.019147156 0.011746207
000280 11 5c 5f bb 67 ba 03 bc db 2c 08 bb eb 97 48 3c
       -0.0034081975 -0.008040047 -0.002077869 0.012243251
000290 fc 6e 07 bc 65 d7 f4 3b 0a 38 50 3c e2 5b 71 3c
       -0.008266207 0.007471966 0.012708673 0.014731379
0002a0 7b 51 51 3b df 7f 3e 3c ac 9f c3 3b 9c 0c 3e 3b
       0.0031939435 0.0116271665 0.005969962 0.0028999215
0002b0 32 25 33 3c 4d c2 3c bc 2d 7e 22 bc 73 1e 0c bb
       0.010934161 -0.011520934 -0.009917778 -0.0021380454
0002c0 d7 f6 8c bb fa b5 69 3c 3b ae 8b 3a eb 79 04 3c
       -0.0043018865 0.014264578 0.0010656783 0.008085708
0002d0 e1 59 59 3c 73 c5 86 3b d7 43 3f 3c e3 05 9a 3c
       0.013266058 0.0041128932 0.011673889 0.018801635
0002e0 66 45 78 3b ee d5 90 3c 14 d5 18 ba f9 56 5d 3b
       0.0037883162 0.017680135 -0.0005830091 0.0033773764
0002f0 e3 75 f9 3b fe f6 a0 3a 5c 94 21 3a f3 86 be bb
       0.00761293 0.0012280641 0.000616377 -0.005814427
000300 95 b3 b0 3b 54 0c 9b 3b 22 54 68 bb a3 57 21 3c
       0.0053925016 0.0047316942 -0.0035450538 0.009847554
000310 92 43 42 3b 07 7b 77 3c aa b6 6a 3c cc b9 5f 3c
       0.0029642326 0.015105016 0.014325777 0.013655137
000320 dd 1a 97 3c b1 3a 4b 3c 2f 83 b1 3a ad cf d0 3b
       0.018445427 0.01240413 0.0013543124 0.006372413
000330 b8 1f e2 3b af b4 6b 3c 16 04 39 3c c0 1d 33 3c
       0.006900754 0.01438634 0.011292478 0.010932386
000340 0b 7c d0 ba 1d 66 ac bb f8 75 54 3c 93 b3 52 bb
       -0.0015906108 -0.0052611963 0.012967579 -0.0032150492
000350 0c 06 98 bb 81 64 4f 3c 88 67 ac 3a 48 05 8c 3c
       -0.0046393927 0.012658239 0.0013153413 0.017092362
000360 0d ba 9b 3a a2 c4 81 3c 35 c6 57 3c 9d d3 f1 3b
       0.0011881009 0.015840832 0.013169815 0.0073799626
000370 80 77 d9 3b 36 9b db 3b 5e 5b 05 3c 73 54 a9 3b
       0.00663656 0.006701852 0.008139459 0.005167538
000380 bb f8 14 3c 8a 6b 61 3c b3 0c b6 bb 1e cc ae 3b
       0.009092505 0.0137585495 -0.005555713 0.0053343913
000390 57 07 85 3c b6 f8 ba b9 b2 d1 13 3c 4a 78 ba 3b
       0.016238851 -0.0003566199 0.009022163 0.005690609
0003a0 e6 b4 93 3b 11 13 05 bb be be 2b ba ce 70 4e 3b
       0.0045076488 -0.0020305554 -0.0006551555 0.0031500342
0003b0 e5 f9 cc 3b e8 ea db ba d6 9c 3a 3c 9e 0d ce bc
       0.0062553757 -0.0016778382 0.011389932 -0.025152978
0003c0 5f 5f c8 bb bc 8a e4 3b 00 81 42 3c f9 15 27 3c
       -0.0061148847 0.0069745462 0.011871576 0.01019811
0003d0 de 49 c1 3b 0a 61 85 bc 3f 06 c1 ba 41 73 b0 3b
       0.0058986982 -0.016281623 -0.0014726593 0.005384833
0003e0 38 93 11 3c 96 ab a4 3b 2f 21 d4 3a 24 8e d6 ba
       0.008885197 0.0050253375 0.0016184206 -0.0016369266
0003f0 b5 b1 ae bb b9 dd 49 3c 56 1e b0 3b b6 80 5e 3b
       -0.005331243 0.012320929 0.00537471 0.003395123

action_model._discrete_distribution.branches.0.weight f4 [5, 256]
000000 74 3f 51 bc 70 28 f2 bc 09 f8 cf bc f0 f8 03 3c
       -0.012771476 -0.029560298 -0.025386827 0.008054957
000010 99 cb 69 3c f9 73 90 3c 5b d9 50 3b 62 00 04 3c
       0.014269733 0.017633425 0.0031867835 0.008056732
000020 0f 20 76 bc 12 0f 5d 3c 81 19 69 3c c3 d9 eb bb
       -0.015022292 0.013492363 0.014227272 -0.00719759
000030 b0 62 90 bc f1 f6 9f bc ce 4c 15 bb 6f 48 42 bc
       -0.017625183 -0.01952693 -0.0022781375 -0.01185809
000040 d6 d1 26 bc 32 b6 ae bc ee d9 0a bb 8c 78 93 3c
       -0.010181865 -0.021327112 -0.0021187025 0.018001817
000050 05 3f b0 bc 2a fa b8 bc e8 1a e4 bc 1e a4 d9 bc
       -0.021514425 -0.022580225 -0.027844861 -0.026567515
000060 bf 58 43 bc 80 f6 97 3c 75 f9 86 b9 62 80 bf ba
       -0.011923014 0.018550158 -0.00025744332 -0.0014610405
000070 dc 0e 5c 3c 80 50 09 3b 03 20 9d bb 5f 7f 86 bc
       0.013431277 0.0020952523 -0.004795076 -0.016418157
000080 37 44 1e 3c 46 17 5b 3b a6 3e 14 3c 4b 41 ff bc
       0.009659818 0.003343062 0.00904814 -0.031159064
000090 8c d4 e2 3c d0 83 c5 bc d7 08 1b 3c 18 9a 86 ba
       0.02768924 -0.024110705 0.009462557 -0.0010269312
0000a0 01 9e 0c bb 9d 95 d5 bc 73 bb e3 3c 85 b0 ff 3a
       -0.0021456482 -0.026072318 0.027799344 0.0019507563
0000b0 14 b1 73 bc cb e8 85 3c 00 99 68 3c 00 07 c2 38
       -0.014873762 0.016346356 0.014196634 9.251945e-05
0000c0 2c 7b b3 bc 6d d7 f2 3b c3 84 9a ba ae 80 9e 3c
       -0.021909319 0.0074109347 -0.0011788834 0.019348469
0000d0 bb 81 0b bb f1 7a e8 bb 6a 8b 5c bc fd a3 53 bc
       -0.0021287042 -0.007094734 -0.013460973 -0.012917516
0000e0 d6 c9 f5 3b a5 7e 32 bc 12 fc c8 3b f2 62 5c bc
       0.0075008674 -0.010894452 0.0061335647 -0.013451325
0000f0 5a 3b 2d ba d5 f8 f4 ba 07 4a 3c bc 15 c3 7b 3b
       -0.00066082703 -0.001868988 -0.011492259 0.0038415838
000100 56 24 fd 3a 1e 1f 9b 3c 46 37 e6 bb e7 4a 83 3c
       0.0019313197 0.018935736 -0.007025632 0.016026927
000110 cd ea 81 3b e2 75 80 bc 00 25 1d bd 0f e6 df 3c
       0.003964758 -0.01568121 -0.038365364 0.02733138
000120 44 b9 a4 39 37 0b d3 bc 17 e1 e1 bb f4 95 38 3b
       0.0003141855 -0.025762184 -0.006893288 0.002816555
000130 1e 56 4b bc 9d 22 b8 3c a0 e6 9d bc d9 4f c1 3c
       -0.012410669 0.022477442 -0.01927501 0.023597645
000140 29 f2 f4 3c 69 3a 54 3a 90 57 8e 39 23 67 17 bc
       0.029900627 0.0008095862 0.0002714959 -0.009240898
000150 1c 81 dc 3c 6c 4b 01 bd 8c 30 96 3c 62 0c b8 bc
       0.026917033 -0.03156607 0.018333696 -0.022466842
000160 44 93 ba 3c 8a 95 6c 3c 47 e6 33 3c dd 16 6c 3c
       0.0227753 0.01443995 0.010980195 0.014409748
000170 e0 36 bc bc ed 53 ec bc eb 5f 61 ba d2 6e 4c bb
       -0.022975385 -0.028848613 -0.0008597362 -0.0031193984
000180 60 6e 6e 3a 17 f9 92 3c 6b 3b a7 3c 39 5f 8c bb
       0.00090954266 0.01794104 0.020414075 -0.0042838124
000190 59 9d fc 3a 0f 0c 12 bd 19 6a 38 3c 0c 48 f0 3c
       0.0019272967 -0.03565603 0.011255764 0.02933123
0001a0 ed f0 66 bc f2 46 bf bc 1a cb 2c bb 9a df 39 3c
       -0.014095527 -0.023349259 -0.0026366175 0.011344815
0001b0 96 8b 38 bb 10 45 04 39 7c f9 b3 3b 57 eb 7f bc
       -0.0028159372 0.00012614229 0.0054923873 -0.015620074
0001c0 4c 95 f4 3a 67 e2 87 bc ad 49 72 bc dc 8e 3a bb
       0.0018660217 -0.01658745 -0.0147880735 -0.0028466498
0001d0 43 f9 28 3b 08 be 84 3c 57 9a 8d 3c 78 43 49 bc
       0.0025783337 0.016203895 0.017285509 -0.012284152
0001e0 3f f5 bc 3c 08 c5 55 3c e4 11 89 3c 02 b6 9c bc
       0.023066161 0.013047464 0.016732164 -0.019129757
0001f0 c6 88 b6 bc 12 c3 3c bc 10 b7 00 3d c5 07 79 3b
       -0.022282016 -0.011521118 0.031424582 0.0037999016
000200 03 e3 7c 3c 2d 7c 88 bc 6f 59 34 bc bc e3 d1 bc
       0.015434983 -0.016660774 -0.011007651 -0.025621288
000210 eb 87 90 3c b4 b0 17 bc ef e1 be 3c 51 35 33 3c
       0.017642936 -0.009258438 0.023301093 0.010938005
000220 e5 8b 10 bc 83 77 aa 3b e0 71 e1 3c 1b 4b 89 3c
       -0.008822416 0.005202235 0.02752012 0.016759446
000230 35 15 3c bb f5 a8 e7 bb 79 0a 20 bc 2a 54 6b 3c
       -0.0028699164 -0.007069702 -0.009768122 0.014363328
000240 2a ad a2 3b c7 3e d8 ba 7c d7 0b 3c 14 88 60 3b
       0.0049644904 -0.0016498201 0.008535262 0.0034260796
000250 29 be 9a bc ad 19 3a bc a2 a4 99 bc 18 8c 85 bc
       -0.018889504 -0.011358661 -0.01875526 -0.016302153
000260 4d ff 85 3b 3b 00 e1 bc 31 08 54 bc 30 76 2c bc
       0.004089272 -0.02746593 -0.012941406 -0.010526225
000270 7a 3e ce bc fe c0 fb ba bd ec 09 3b d1 d2 9d 3c
       -0.025176276 -0.0019207296 0.0021045648 0.019265564
000280 4a 3e b5 ba d4 c9 3c 3b 51 08 99 3b 69 2b ba 3b
       -0.0013827768 0.0028806822 0.004670181 0.0056814444
000290 ea 1e 16 bb 8b d3 fa 3a 4b b4 0f 3c bf af f8 bc
       -0.002290661 0.0019136531 0.008771013 -0.03035724
0002a0 88 a9 32 bc 45 5d cb 3c 0e a3 83 bc 77 3d 81 bc
       -0.010904677 0.024824748 -0.016068961 -0.015776379
0002b0 7e 3b c4 3c f5 c9 e3 3b eb c3 68 bb bd 29 22 bc
       0.02395415 0.0069515654 -0.0035517167 -0.0098976465
0002c0 61 dd 0a 3c 54 74 d8 bc e3 8c 2a bc 08 8a aa 3c
       0.008475632 -0.026422657 -0.010409567 0.020817772
0002d0 54 c0 8c bc 5a eb 84 3b 8f 04 87 bc 6c e4 5a bc
       -0.017181553 0.0040563764 -0.016481666 -0.013360124
0002e0 b0 36 5b bb 88 77 fe bb ed 23 31 bb d6 25 b6 3c
       -0.0033449344 -0.007765714 -0.002702947 0.022234838
0002f0 ec 9d bf 3b ce ed 8f 3c 0d 04 e4 bb 7b 52 84 bc
       0.005847683 0.017569449 -0.0069584907 -0.016152611
000300 1e 8f cc 3c 0d 42 d8 3c 7f d5 e3 3b c1 fa a5 bc
       0.024970587 0.026398683 0.006952941 -0.02026117
000310 aa 2b 63 bc 65 d9 e3 3c 14 ba 10 bb 08 9f 10 bc
       -0.013865391 0.027813623 -0.0022083567 -0.0088269785
000320 49 96 89 bc f5 79 74 bc 5c 51 11 3c d4 be 5d bc
       -0.016795294 -0.014921655 0.008869495 -0.0135342665
000330 56 50 36 bb 07 1f be 3c 9d bf 85 3c 5b ed a3 bc
       -0.002781888 0.023208154 0.01632672 -0.02001064
000340 c4 64 79 bc 52 03 2e 3c 50 9e e2 3c 3c 22 8f 3c
       -0.015221778 0.010620909 0.02766338 0.017472379
000350 80 69 0b 3c 71 a0 9d 3c 8d 15 47 3c eb 0d 71 bc
       0.00850904 0.019241543 0.012151134 -0.014712791
000360 32 ae 7b 3c c0 d1 cd 3c ab 8b a2 3c 6c a1 40 3c
       0.015361356 0.02512443 0.01984199 0.011757236
000370 0a 12 9a bc 18 bd 85 bb f4 3a 18 3c 57 8e c7 bb
       -0.01880743 -0.0040813796 0.009291399 -0.0060899663
000380 01 8e fd 3c db 20 b0 3c 3c bd f2 3b fd 84 f4 bb
       0.030951502 0.021500042 0.0074078124 -0.0074621425
000390 4e ee 76 3c 48 a6 95 bc 4d 28 9a 3c 07 ad 45 3c
       0.015071465 -0.018267766 0.018818045 0.012065179
0003a0 d1 5e 57 3c 3c e9 e2 3b 4b 47 23 bc fa a7 57 3c
       0.013145165 0.0069247764 -0.009965728 0.013162607
0003b0 78 d7 52 bc 27 55 41 bc c7 cc c7 bc 05 72 2d 3c
       -0.012868755 -0.011800087 -0.024389638 0.010586266
0003c0 49 0c 81 bb 80 9d be 3c ae db be 3c 51 fc 21 3d
       -0.003938232 0.023268461 0.02329811 0.03954727
0003d0 be d0 7f 3c 1e 87 55 bc 54 28 0f 3c 1b d9 aa 3b
       0.015613733 -0.013032703 0.008737642 0.0052138693
0003e0 f0 34 e5 bc 2c 9e 89 bb f2 68 dd 3c ab 0a a6 3a
       -0.027979344 -0.0041997638 0.02702758 0.0012667974
0003f0 e1 46 cc bb c6 3f c6 bc 53 f1 f4 3c 7a e6 9e 3c
       -0.0062340354 -0.024200331 0.029900229 0.01939701

action_model._discrete_distribution.branches.0.bias f4 [5]
000000 d3 b0 92 3a 03 ae ba bb a3 89 90 3b b5 12 dd bb
       0.0011191614 -0.0056970133 0.004410939 -0.006746615
000010 6c 9c ef 3b
       0.007312348
