results/t5/Fork1/Fork1-42543.onnx (onnx, 333139 bytes, 6 tensors)

network_body.linear_encoder.seq_layers.0.weight f4 [256, 58]
00000000: ee35 a73a 11f7 cebd 0759 54be 4bc3 ddbe
00000010: fa32 28be 5b34 763d a1c0 593d 6d1f c9bd
00000020: 2fa2 ce3e 2309 373d 3af2 5fbd 4f1f 04be
00000030: 1430 623e 395e 4e3d 3259 6b3e 7449 b7bd
00000040: e2a4 c4bd 8740 b83d efb4 b83d 45ef a53d
00000050: 13de 5a3d 067f 4c3d d106 c43c deca 3dbd
00000060: 1a8d 37be c910 7c3d 8376 f1bc 9a1e 82bd
00000070: 84f0 2a3e e329 8b3d 535a 5dbe daca 8f3d
00000080: d2ac d63d b479 793c 925c d43b 6d55 c8bd
00000090: 57b4 f23d da71 b03d ff79 96ba ccbd 003e
000000a0: 4ba4 df3d 9e0c 40bd f246 f63d f838 bb3c
000000b0: 1844 7abe be9a b83d 260d 993d 0236 6abe
000000c0: e941 71bc 61df 893d 3c42 a9bd b119 23be
000000d0: cae2 68bd c3b2 ea3d 351e d3bc 78f1 2e3e
000000e0: 9ae3 46be 2270 9b3e 8f9b b7bd 0b92 2b3d
000000f0: b145 ddbc b1b5 e13d 193e 7fbd afcb 4b3d
00000100: cd27 02be 59cd 0b3e cc58 52ba a84a c2bd
00000110: 92bb 483e 7443 0a3c 0f15 94bd 0926 0d3e
00000120: 9bcb 323e cd2f 16be ef4b 063e 441a 72bd
00000130: b541 04bd 8967 d53d d40a 363e 9815 b43c
00000140: 9d54 9fbd 27f0 01bd 7932 5a3d a1a4 11bd
00000150: 8002 353d 7e29 f93c 9845 b5be 63ea 873c
00000160: 7354 24be 84de 183d 0aa7 01be 562b 233e
00000170: c3d6 e53c ad9a e8bc 45a7 c33d 9f97 2fbd
00000180: 2ec2 aabc 692a 2ebe 0665 0abd 2e47 69bd
00000190: c0c1 5d3e 27ca 2d3e 62ac a53e 692d a9bb
000001a0: 3af1 4fbd 153a 12be ea6a fc3c 9cf5 da3c
000001b0: 25eb 7f3d 817a 803d 4ea6 153d 7b8e 263d
000001c0: d6d8 04be 37fc d93d 49d0 babd 071f e9bd
000001d0: 9fd2 8abe 98fa 79bd 5234 09be d680 29be
000001e0: a1e7 12be b9b5 28be e2c8 30be 60e6 b83e
000001f0: 7f1b 053e 579f 23be 7f56 53be f180 cabd
00000200: 5a6d 0a3d 0000 06bd 2306 393e c995 593c
00000210: ac4e fbbd e18a 51be d3ca 08be 0fe7 c03d
00000220: 1721 4cbd 4723 093e 3d8e dd3d a677 10be
00000230: 31f6 073e fea6 27be 3118 2fbd 48fe a7bd
00000240: 98dd b13e fc27 48be ef9a 783d 2a6c 2bbe
00000250: 7f82 923d 7c91 a33d c5b0 bd3d 8dc6 373c
00000260: 8bbc ba3e 23df 993c 310d 8b3d 10c8 903e
00000270: 8819 cabd b91e a9bc ddd3 ef3d d84c 91be
00000280: ade8 313e 785a 353e 2a3a c4bd d2b8 91bc
00000290: 9a77 52bd b867 a6bd 4feb 9dbe 9d98 5c3e
000002a0: cfa6 813e d181 07be 202f 433e 9fc0 66be
000002b0: a44e 0cbe f713 783e a905 a1bb 4b82 4cbe
000002c0: d94e 1fbe c2aa 06be 617e 553c 05f4 973d
000002d0: 46c5 2dbe d63f 8abd 12f3 d33d a7cf f83d
000002e0: 1e10 bf3b e3ee 1bbd e117 8cbd 5a1a bbbd
000002f0: 813a 873e fb6c 853d fff9 fabd 0877 d9bd
00000300: 2d72 373e db2c 513d baac b73d 0e10 093e
00000310: d812 713d e660 18bc 13ae d53d e079 f4bd
00000320: 36b5 49bd 5c7b 24be e277 2d3c ba38 c9bd
00000330: 1843 b5bd 11cf 7cbc ca88 ab3c 82f8 193e
00000340: 8fca 033e 50d4 243e 2e26 d53c 4499 b63d
00000350: 7ad6 c3bd de4e d3bd e224 b9bd ab65 083e
00000360: 880c 58be 80ce 52bd 698e e0bb b3e6 a73d
00000370: 8c5e 903d fd9c ddbd 31e4 ba3c c3c8 973c
00000380: 755a 4bbd f952 9cbd 903f a33d 5b4d 0f3e
00000390: a2fd a33e c87b d3bd b776 3ebe 9de7 4a3e
000003a0: 6ee3 803d f89c 0a3e 584c 393d 0b5d 16be
000003b0: 50d0 ea3b c19a 8dbd 1bb6 05bd 899c a83d
000003c0: d53a 1d3e a948 e3bd 95d0 2fbb 83be 123e
000003d0: 185c cebc 2044 223d 7ee5 963d 5001 38be
000003e0: 1105 67be a242 9cbd c247 8c3c 8992 ac3b
000003f0: d921 b53d 9c0b c1bd 5f82 fabd 2d3d acbe
0.0012757161 -0.10105718 -0.20737086 -0.4331306 -0.16425696 0.060108524 0.05316222 -0.09820447
0.4035811 0.044686448 -0.054674365 -0.12902568 0.22088653 0.050382826 0.22983244 -0.08949557
-0.096017614 0.089966826 0.09018885 0.08102278 0.053434443 0.049925826 0.023929032 -0.046336047
-0.1792492 0.061539445 -0.029475456 -0.06353493 0.16693312 0.06795099 -0.21616487 0.07021113
0.104821816 0.01522677 0.006480762 -0.09781919 0.11850803 0.086154655 -0.001148045 0.12572402
0.10920008 -0.046887033 0.120252505 0.022854313 -0.24440038 0.0901389 0.07473211 -0.22872165
-0.014725187 0.06732059 -0.08264586 -0.15927769 -0.056856908 0.11459877 -0.02577124 0.170843
-0.1942276 0.30358988 -0.08965217 0.041887324 -0.02701077 0.11020983 -0.06231508 0.049754795
-0.12710495 0.13652553 -0.0008024096 -0.09486896 0.19602802 0.008438934 -0.07230579 0.1378404
0.17460482 -0.14666672 0.13114904 -0.05910708 -0.032289226 0.104201384 0.17777568 0.021982953
-0.077798106 -0.031723168 0.05327079 -0.035557393 0.044191837 0.030415293 -0.35404658 0.016591256
-0.1604784 0.037321582 -0.12661377 0.159345 0.028056508 -0.028394068 0.095533885 -0.042869207
-0.020844545 -0.17008366 -0.03378775 -0.056952648 0.21655941 0.16971646 0.3235808 -0.005162884
-0.05076716 -0.14279969 0.0308127 0.026728444 0.06248011 0.06273366 0.036535554 0.040663224
-0.12973341 0.10643809 -0.091217585 -0.11382871 -0.27113816 -0.06103 -0.13398865 -0.16553053
-0.14346172 -0.16475572 -0.1726413 0.36113262 0.1299877 -0.15978752 -0.20638464 -0.09887875
0.033795692 -0.032714844 0.18068747 0.0132803405 -0.12270865 -0.20463134 -0.13358621 0.09419071
-0.049836244 0.13392363 0.108181454 -0.14108142 0.13277508 -0.16372296 -0.04274768 -0.08202797
0.34739375 -0.19546503 0.06069463 -0.1674048 0.071537964 0.07986733 0.09262232 0.011216772
0.36471972 0.018783158 0.067896254 0.28277636 -0.09868151 -0.020644533 0.117103316 -0.2837894
0.17373915 0.17710292 -0.095814064 -0.017788325 -0.051383592 -0.081252515 -0.3084359 0.21542592
0.25322577 -0.13233115 0.19060946 -0.22534417 -0.13701874 0.24226366 -0.004914005 -0.19971578
-0.15557422 -0.13151076 0.013030619 0.0741959 -0.16969785 -0.06750457 0.10349096 0.121489815
0.0058307787 -0.038069617 -0.06840492 -0.091358855 0.26411822 0.06514927 -0.12254714 -0.106184065
0.17914648 0.051068168 0.08968492 0.1338503 0.05885586 -0.009300446 0.10433593 -0.11937308
-0.04924508 -0.16062683 0.010587664 -0.09825273 -0.08850688 -0.015430228 0.02093925 0.15036204
0.12870239 0.16096616 0.026019182 0.08915952 -0.095623925 -0.10317777 -0.09040238 0.13320033
-0.2109853 -0.051466465 -0.006852914 0.08198299 0.070492834 -0.10820959 0.022813888 0.018528348
-0.049646813 -0.07633013 0.07971108 0.13994353 0.32029444 -0.10326344 -0.18599974 0.19814916
0.06293379 0.13536441 0.045238823 -0.1468393 0.007165946 -0.069142826 -0.032644372 0.08232982
0.15354474 -0.11097843 -0.0026827205 0.14330487 -0.025190398 0.03961575 0.07367991 -0.1796925
-0.22560526 -0.07629897 0.01712406 0.005266492 0.088443466 -0.094260424 -0.122318976 -0.33640423

network_body.linear_encoder.seq_layers.0.bias f4 [256]
00000000: d9d5 e63a 5a21 7f3c 9aad 803c cdaf 953b
00000010: 86b4 813c 2390 4dbc 3bf3 bbb9 81c1 073c
00000020: 44f5 22bc d6df 253c 0fdc 493c 300d aa3b
00000030: 91e9 443c d02d 273c 3553 31bb 3217 dd3b
00000040: 4072 913a c4c6 0fbc 1b44 e9bb d605 13bb
00000050: 76e4 1f3c 98e0 833c bbf0 143c 93c1 efbb
00000060: 6e57 013d 8e43 4cbc 4a09 813c 31c4 9f3b
00000070: 241b 8ebb dbb9 a73c 8073 963c ef37 9e3c
00000080: 514d 7f3c 494f 483c 2e28 50bc 4564 8b3c
00000090: fab1 0e3c 745f 243c c0bc ffbb 08b0 7c3c
000000a0: 65b6 683c ba04 81bc c302 c23c 6ee2 493b
000000b0: 2067 d1bb 4b35 463c f041 e239 f726 3a3c
000000c0: 4b61 3fbc b5cb 383c 23c6 843b 9e77 f63c
000000d0: 7b81 bd3c 5385 1cbc ede7 163c 5f29 0b3c
000000e0: e3d4 8f3c d81c ccbb fc24 23ba 4f3f 853a
000000f0: e4f5 143c b93e 7d3c 65d4 4d3c 26bf 953c
00000100: 07e8 d73c 9657 513c d0b3 a7bb e530 5b3c
00000110: 306e c23c d8c5 cdbc fb04 54bc 8c24 3f3c
00000120: c7c1 583c 9b33 193c 4e5a b93c 29c0 36bb
00000130: b1d5 8a3c 9aab 4bb8 ef67 6c3c 1026 1bbb
00000140: 3f53 773b 69b5 06bc 3901 1d3c 481b 3e3b
00000150: 3917 5a3b 93fb c53b fc42 3d3c d692 213c
00000160: af07 af3c ce5e 88bc 7849 35bc 4392 a53b
00000170: a204 01ba ae18 6a3c 0209 fb3a b9f0 a2bc
00000180: 834c 2abc 5069 6e3c 7876 d339 7f24 733b
00000190: 78f8 6a3c 46b4 793c 1d9f ce3b aea7 b63b
000001a0: 010b ba3b 6de3 56bb 2b6d 063c 052c 0fbc
000001b0: 296f 31bc 5eda 8ebc 4684 94bb e05c 243c
000001c0: d8a4 423c a977 59b9 3be4 9d3c ae2b 483c
000001d0: c92b 31bc cbca 8d3c 5274 983c fe3f 1a3c
000001e0: 14a9 9abb e6f2 133c 3f8f d93b 8f6c 50bc
000001f0: 6590 083c 4561 d8bb fbd7 033c dfe2 8a3a
00000200: d747 973c 2ec0 973c 500f 63bb acbc 39bc
00000210: 86bb 403b 6b9b b43b 54fa 213c b5bd c53b
00000220: f77a 323c 2300 8c3c 6f82 db3b 3d4a 1db9
00000230: b39e 31bb 5ce9 213c 273c 8d3a 0aeb 063c
00000240: 4953 d03b bba1 703c ea14 46bc ea8a aab9
00000250: 1c10 ec3b 00cd a13b 0dae bcba 5dfc 883c
00000260: 5995 9b3c 9193 5c3c 1ab7 f93b 8634 e13b
00000270: 9b87 d83c caf8 9c3c 35b2 a8bb 22a1 323c
00000280: 95e8 e4ba f5dd 8a3c 3bce 28bd 9adc 22bc
00000290: 9a70 d13b 6d4e 92bc d679 d4bb 0bde 9dbc
000002a0: a0ea 1f3c 69d7 193c a29d 353b e0a4 663c
000002b0: 3e80 bbbc 0c7a 3c3c a3ee d93a e816 9bba
000002c0: b033 80bb 139a 5e3b 0189 023d 149a 753c
000002d0: 9c87 0c3c 6404 573c 5d3f a43b cdd2 4dbc
000002e0: 7c68 603c 1122 22bc b8ab cd3c 0b47 373c
000002f0: a102 bc3c c7df 8c3c 4409 3b3c 607a fd3b
00000300: 30e6 993b 93c9 35bc b524 913c 4f24 d63c
00000310: 33ef 0cba 99e3 1c3c 08d3 e23b 6100 fbbb
00000320: e0ec 883c 433a 103d 922d 263c 3945 d13b
00000330: ff17 1ebd 7aaf d03b 61f5 163c e810 993b
00000340: e416 2d3c e0b2 c5bb 4f6d 893c 2b5d 4d3c
00000350: cad2 853c 39de a33c da84 c03c cdda 743c
00000360: 04b8 373c f2a0 733b a1e3 d33a 9b7e 5d3c
00000370: b53b f23b 7a54 79bb c621 89bc 3a04 f43a
00000380: f6a9 223c 5eec babb f114 0bbc f7e6 8cba
00000390: 1706 c3bb 8a2f ae3b 45e4 ae3c 0810 f33b
000003a0: 4078 eb39 3883 1e3c 19d9 20bc 77db 0cbc
000003b0: 6d36 7d3b 9a96 82bc 4a43 953b 4c4c 473b
000003c0: ad22 c63b 4669 89bb 126d 1dbc 71da 863c
000003d0: 7491 e23b e4c1 4c3c 7f53 b43b fb0c 29b9
000003e0: 2a84 84bc e31b 173c 7552 a33c 5581 073c
000003f0: 2c88 8a3c 3a19 b43b 89ea b63b 5c31 edbb
0.0017611339 0.0155719165 0.01570778 0.004568076 0.01583315 -0.012546572 -0.0003584864 0.008285881
-0.009946171 0.010124167 0.012320532 0.0051895604 0.012018577 0.010203794 -0.0027057652 0.00674715
0.0011096671 -0.008775417 -0.0071187145 -0.0022433898 0.009759059 0.016098306 0.009090598 -0.007316777
0.03157752 -0.012467278 0.0157515 0.0048756828 -0.0043367315 0.020474365 0.018365622 0.01931378
0.0155823985 0.012225934 -0.012704892 0.017015586 0.008709425 0.010032523 -0.007804483 0.0154228285
0.0142036425 -0.015749324 0.023682958 0.0030805129 -0.0063904673 0.012097667 0.00043155206 0.011361829
-0.011680911 0.011279036 0.00405194 0.030086335 0.02313303 -0.009553271 0.009210569 0.00849375
0.017557567 -0.0062290244 -0.00062234676 0.0010165962 0.009091828 0.015456849 0.012562846 0.018279623
0.026355756 0.01277723 -0.005117871 0.013378357 0.023734182 -0.025118753 -0.012940641 0.011666428
0.013229794 0.009350683 0.022626068 -0.0027885532 0.0169476 -4.8558788e-05 0.014429077 -0.002367381
0.0037738828 -0.0082219625 0.009582811 0.002900796 0.0033278002 0.006041953 0.011551615 0.009861669
0.021365969 -0.016646769 -0.01106488 0.005052836 -0.000492165 0.014288111 0.0019152465 -0.019890176
-0.010394218 0.014551476 0.00040333322 0.003710061 0.014341466 0.015240734 0.006305589 0.005574188
0.0056775813 -0.0032789365 0.008204739 -0.008738522 -0.010829725 -0.01743811 -0.00453237 0.010031909
0.011880122 -0.0002073931 0.019273868 0.012217445 -0.010813662 0.017308613 0.018610153 0.009414671
-0.0047198627 0.0090300795 0.0066393907 -0.012721195 0.008335208 -0.0066033923 0.008047099 0.0010596177
0.018466873 0.018524256 -0.0034646578 -0.011336487 0.0029408648 0.0055116913 0.009886343 0.0060345777
0.010893575 0.017089909 0.0066988985 -0.00015000343 -0.0027102649 0.009882297 0.0010775373 0.008234749
0.0063575846 0.014686997 -0.012089947 -0.00032528426 0.007204069 0.004937768 -0.0014395133 0.016721899
0.018992113 0.013462917 0.0076207044 0.0068727164 0.02643185 0.0191616 -0.005148197 0.010902675
-0.0017464334 0.01695154 -0.0412123 -0.009940291 0.006391597 -0.017859662 -0.0064842505 -0.019270917
0.009760529 0.009389737 0.0027712365 0.014077395 -0.0228883 0.011503708 0.0016626905 -0.0011832388
-0.0039124116 0.0033966347 0.03186894 0.014990348 0.008577254 0.013123605 0.0050124363 -0.012562466
0.013696786 -0.009895817 0.025106296 0.011186372 0.022950472 0.01719655 0.011415783 0.0077355355
0.00469663 -0.011095422 0.017717699 0.02614036 -0.00053762196 0.009575748 0.0069221295 -0.0076599573
0.016714513 0.035211813 0.010142701 0.006386426 -0.038597103 0.0063685747 0.009213776 0.004671205
0.01056454 -0.0060332865 0.016775755 0.01253442 0.016335864 0.020003425 0.023500849 0.014944744
0.011213306 0.0037174788 0.0016165861 0.013518955 0.0073923715 -0.0038044737 -0.016739737 0.0018616982
0.009928217 -0.0057044467 -0.00848888 -0.0010749985 -0.0059516537 0.0053157257 0.021349082 0.0074176826
0.00044912286 0.00967484 -0.009817385 -0.008597246 0.0038637177 -0.015940953 0.0045551406 0.0030410467
0.006046614 -0.004193458 -0.009608524 0.016461583 0.006914312 0.012497399 0.0055031176 -0.00016121932
-0.016176302 0.009222957 0.01993678 0.008270581 0.016910635 0.0054961713 0.005582158 -0.00723855

network_body.linear_encoder.seq_layers.2.weight f4 [256, 256]
00000000: f3d9 c1bd 07c1 dbbd fa5a 423d 7894 113d
00000010: c3b7 bf3c 41ff 693d 66d5 a53b c682 86bc
00000020: 78cf 0fbd d840 803d 2a85 27bd 5bfd d8bb
00000030: f28b 82bd dbc9 323d 76d0 51b9 a349 07bd
00000040: 394e 7e3c 8e06 ffbc f660 ddbd 142a acbd
00000050: 8ce0 c3bd ce3c f8bd c002 84bc d0bd 363c
00000060: 19e5 583d 84de e0bd b3a7 873d a688 6cbd
00000070: 58d7 dcbd 1210 e23c 4c74 cb3b 8579 25bd
00000080: 6312 fdbd 11c0 84bc 84cd f5bd edd5 863c
00000090: a8f9 3d3d ae8b 40bd 4d73 983c d718 40bd
000000a0: 5a1c 25bd c0aa d2bd da4d b03d 031e 5d3d
000000b0: f7da 5a3d 6b79 75bd 8a03 88bd ef4c 843c
000000c0: daaf a13b 1438 bb3d 71df 443d 22d2 f93c
000000d0: d50f d73d 682d c5ba 3949 80bc cf2c dcbc
000000e0: 6d5c 27bc 3a86 f03c 9ab0 2ebb e3de 553d
000000f0: 1c73 9a3d 0de4 b43d 2ecb 9abc b682 083d
00000100: cf0d 94bc abe8 113e 3bb2 663d bf2b 21bd
00000110: c328 aebd c8d7 ce3d 99e6 b43b e7e7 dcbc
00000120: 8883 1bbd 349b 61bc 85d5 3ebe d1bd b23d
00000130: ed8c fbbb cd48 993c a8b9 683d f1f1 153d
00000140: e861 3b3e 56ff 363d a577 5ebc 2ea2 373d
00000150: 9cd2 88bc e239 cd3a 525c d9bd c244 12bd
00000160: abf4 a13b d715 a33b 1441 903c 276c a5bc
00000170: b6ad 22bd 8348 463c 8979 4ebd f657 4e3d
00000180: 6502 3c3d 8a2e 48bd 4dad 8d3d e7e6 b83c
00000190: 5a29 353d 9d0f 063e 42ce 07bd ff87 1e3d
000001a0: 0684 da3d 9686 053d 0190 b73b 0d6b 333e
000001b0: abef 9abd 2e6a c2bd 5e64 7a3b a4de 013d
000001c0: 679e 593b 5d31 993c c38a 553d 8918 1fbb
000001d0: 549b d7ba f3b7 a2bc 0a02 953d f23e d6bc
000001e0: 3981 8abd a35e 8cbd 9daa fdbc b104 623d
000001f0: b4e1 4c3d 18ff 303d ecfd 563d f938 e83d
00000200: 3c5e febd 20b6 d53c 4b7a ebbc 6eab 01bd
00000210: 636d 17be 5d51 c43d e7de b03d 647a b2bd
00000220: c665 c5bd 4b88 493d cd45 273b e0d1 5cbd
00000230: fa03 9ebd 553b 02bc 8269 adbc 3f54 fbbc
00000240: 1837 1b3d 4cbb 28bd e625 35bd 5629 343b
00000250: cca0 14be 4236 00be 37f0 343d 08d4 f33b
00000260: 7655 4e3b 6966 3d3d 11f7 3dbd 6f92 19bc
00000270: d8db d73d f71a fc3c dca8 68bc 43b5 b4bc
00000280: 98b1 6f3d 973c 74bc edd1 12be 9284 e4bc
00000290: 44aa 5c3d d514 80bd 65f3 77bc 5faf aebc
000002a0: 6416 e2bd ca9d 353d 80ea 26bd 958c 8d3c
000002b0: b58a 6a3c c5fa a7bd 53f1 1d3d b656 503d
000002c0: 2c7d 9d3d 447b adbc 52d4 853d ca98 62bd
000002d0: 46e1 aabc 7b9d 30bd 0f4f 66bd 742b fabb
000002e0: f496 a73b 9f17 09be 3e06 dd3d 7916 a4bd
000002f0: b79b 14be a18b cabd 1c61 113d e0e4 fbbb
00000300: 5457 53bd f242 813d 1eea d4bc d03d 05be
00000310: d49c 4abd 40ee 3d3d 7ae6 1abe e140 3fbd
00000320: 0895 643d 8f89 bebb 4e6e 233d 93c6 463d
00000330: 97d8 983d 9bc4 06bd bdd7 90bd f4c2 083d
00000340: f5a3 a13d 7f4c 51bc 21bd 0c3e 9a76 e33d
00000350: 9886 0f3e 287f b8bd 2864 583c 59b1 29bd
00000360: 6d65 56bd 0858 1ebc 917e 043d 4b54 06bd
00000370: b5bd 023e 00b5 f33c 44f3 1cbd 304a 033d
00000380: fc8b 9dbd 86ec 403d 600e 09bd ce22 e739
00000390: 7c33 4b3b 0e0d bdbb ae33 cfbd bbbd 03be
000003a0: 3ed6 d23d d1b7 5c3d 9189 433d 7fb5 553d
000003b0: 17b6 7f3d ee9e 0cbe 9876 f83b 1887 ef3d
000003c0: a374 b93c 5c19 4e3d a3bb acbd 0a50 19bd
000003d0: 6fdc ae3d 0881 8d3d fa64 febc 3deb f5bd
000003e0: 6bbf 9bbc 471e b2bb b4c4 d03d 7ba3 da3d
000003f0: 2b58 753d b94c c73c 60df 873c 0468 4bba
-0.09465399 -0.107301764 0.047450043 0.03554198 0.023403054 0.057128195 0.0050608395 -0.01641978
-0.035109967 0.06262368 -0.04089848 -0.006621999 -0.06374349 0.043649536 -0.00020009451 -0.03302921
0.015521579 -0.031131055 -0.108095095 -0.08406463 -0.09564313 -0.121209726 -0.016114593 0.011153653
0.05295286 -0.109799415 0.06623783 -0.057747506 -0.10783261 0.027595554 0.006208932 -0.040399093
-0.123570226 -0.016204866 -0.120020896 0.01645943 0.04638067 -0.04700821 0.018609667 -0.04689869
-0.04031024 -0.10286474 0.08608599 0.0539837 0.053431477 -0.059930246 -0.066413 0.016149966
0.004934293 0.091415554 0.048064653 0.030495707 0.105010666 -0.0015043439 -0.015659915 -0.026876835
-0.010214907 0.02936088 -0.0026655556 0.052214514 0.075414866 0.0883256 -0.018895712 0.03332778
-0.01807299 0.14248912 0.056322318 -0.03934836 -0.085038684 0.10099751 0.0055206534 -0.026966048
-0.037967235 -0.013769913 -0.18636139 0.08727611 -0.007676712 0.018711472 0.05681768 0.036607686
0.18299067 0.0446771 -0.01357833 0.0448324 -0.016701989 0.0015657509 -0.10613312 -0.035710104
0.004942497 0.0049769687 0.017609157 -0.020193173 -0.039716445 0.012102249 -0.050408874 0.050376855
0.04590072 -0.048872508 0.0691782 0.02257104 0.04422889 0.13091893 -0.033155687 0.038703915
0.10669713 0.032599054 0.0056018834 0.17521305 -0.07565244 -0.094929084 0.0038206796 0.031706467
0.0033205987 0.018700296 0.052134287 -0.0024276099 -0.001644949 -0.019863104 0.072757795 -0.026153062
-0.067629285 -0.06853988 -0.030965144 0.055180255 0.050019935 0.043212026 0.052488253 0.11338992
-0.124203175 0.02608782 -0.028744837 -0.03165763 -0.14787821 0.09585831 0.08636265 -0.087147504
-0.09638552 0.049202245 0.0025523782 -0.05391109 -0.07715602 -0.007948716 -0.021168474 -0.03067982
0.03789434 -0.041194245 -0.044225596 0.0027490458 -0.14514464 -0.12520698 0.0441744 0.0074410476
0.0031484044 0.046240244 -0.0463782 -0.009373291 0.10539979 0.030774577 -0.014200415 -0.022059089
0.058518976 -0.014907024 -0.14337893 -0.027895246 0.053873315 -0.062539734 -0.015133713 -0.021323858
-0.11039427 0.044339933 -0.04075098 0.017278949 0.014315297 -0.08202127 0.038560223 0.050863944
0.0768989 -0.021176942 0.065346375 -0.055321492 -0.020859372 -0.043118935 -0.05622774 -0.0076345745
0.0051144306 -0.13387917 0.10792206 -0.08012099 -0.14512525 -0.09889913 0.035493 -0.007687196
-0.051596954 0.06311597 -0.025990542 -0.13011861 -0.04946597 0.04636979 -0.15126982 -0.046692733
0.05580619 -0.005814738 0.039900117 0.04852922 0.07463186 -0.03290234 -0.07072399 0.033389047
0.078926004 -0.012774586 0.13744022 0.11106606 0.14016187 -0.09008628 0.013207473 -0.041428898
-0.05234282 -0.009664543 0.032347266 -0.03279523 0.1276768 0.029749393 -0.038317934 0.032053173
-0.076927155 0.047100566 -0.033460975 0.00044085685 0.003100603 -0.0057693785 -0.10117279 -0.12865345
0.1029477 0.05388624 0.047738615 0.05217504 0.062429514 -0.13732502 0.007582497 0.11695689
0.022638625 0.050317153 -0.08434226 -0.037429847 0.08538138 0.069093764 -0.031054009 -0.12007759
-0.019012174 -0.0054357382 0.10193768 0.10675713 0.059898537 0.024328576 0.016586006 -0.0007759335

network_body.linear_encoder.seq_layers.2.bias f4 [256]
00000000: eeb4 df3b c79b 4dba 84ae aabb 5de3 843b
00000010: d3df 6c3c 1c4a 9c3b b095 e7bb df7f 4abc
00000020: 0b76 ff3b b55e 723a 03b7 293c f396 9139
00000030: f117 eb3a 4454 59bc 3bda 3e3c 0243 e8b9
00000040: b71b 76bb 9c3d 253c 52fc 4cbb 5b21 a33b
00000050: 14e7 3ebc f4bd afbb 764f 93bb 5d1d ab3b
00000060: d688 ccbb e500 47bb bca1 0bbc 660e ab3b
00000070: 5ed8 2bbc 1cb1 07ba 1b0a dd39 30b1 17bb
00000080: 61ae 2f3b 1f22 923c 56ea 473c a37d 8b3a
00000090: d4c0 963a 9966 9cba 8c08 a13c 982a 2c3c
000000a0: 2619 823a 555f 053b 4f0a 7b3c 1b2f 89bc
000000b0: f51c d83b 0cfd 863b 1fba 523b a399 42bc
000000c0: 2205 693c 4683 48ba 3839 143c d014 923b
000000d0: 5274 7d3c 13fe c83a f72f 8d3b 932f dbba
000000e0: 3829 913b 4d46 493c 073b daba a40c 713c
000000f0: 46e1 e13b c48a 683c c30a 533b a116 683c
00000100: 6c6c 853c 3db4 20bb ae03 5b3c 7959 1cbb
00000110: bacb a2bb 21c1 683c b92d 103b ab64 553c
00000120: 239b 27bb d354 abbb 9abe 663c e96d d7ba
00000130: e296 223b ba09 613c c626 9d3b f64e 613c
00000140: a62e 523b 6436 ddbb 0288 8b3c 0da7 efbb
00000150: e5f9 833b e6fa 1b3c b238 553c d817 a2bb
00000160: e574 993c b3fa 79bc b236 383c c891 06bb
00000170: 3159 443c c937 453b db57 d53b 8600 013c
00000180: 8224 593b 7b25 1e3b f98f df3b 77df f4bb
00000190: e33b 9abb 8aae 03bb 28de 813c d0e9 a6ba
000001a0: 66b0 f03b 964e 91bb c3d4 953c c91c 84bc
000001b0: 42a0 593c 09d5 51bc ad67 39bb fc5f 653c
000001c0: 3ae5 4a3c 8c51 823c e747 a83b eb63 9f3c
000001d0: 5a6e 84ba 446d a93a 0aab dfb9 c04d efbb
000001e0: 50a2 0abb f0df d73b 3382 0abc 97f4 3cbb
000001f0: be54 5eb9 12dd 693c 73a9 60bb 06bc 183c
00000200: 2d6b c2bb 7866 8a3b 23b1 2cba 23d5 583c
00000210: 552e 2c3b 486f be3a 4b40 eabb 381a 8e3c
00000220: 515b a63b a2ff bb3b 6bdf 153b 9714 25bb
00000230: 0f7e 29bc 8612 c03b a514 88bb 4718 963a
00000240: e673 4a3c e11c f63b d6aa 713c 781f 2cbc
00000250: 28f7 a03b 6068 d93b c10f 24bc 3f5a 233c
00000260: e29c 443c 1f3b 813c 67b8 033c b8ee 503b
00000270: f08f de3b a5b2 3d3c abd6 e1bb 0234 e8bb
00000280: 769d debb 4008 773c 1776 71bc 4104 b1ba
00000290: 0b03 513c aa75 a53b a3e9 753c 3235 06bb
000002a0: eb84 1b3c e7bb f23b 13c3 d9b9 0069 273c
000002b0: bd07 0c3c 974a b7bb ac71 0abb 6d21 2bbb
000002c0: 180f 143c 88d8 93bb a7b1 b53a 7656 923b
000002d0: caad f5bb 12e5 403b 56df 423b 8a2e b73b
000002e0: d991 c53b 8ca8 753c 8858 a73b db72 4f3c
000002f0: 1262 1037 aa76 9d39 5a8a 363c cdc9 5f3c
00000300: 0683 103c ae19 7cbb e98d 853c 5fb7 19bc
00000310: c9f5 dd3b 1e68 e83b cb77 e0bb cc1a 323c
00000320: 50ac 043b ab4e 80b9 f92b 783a 31fd 323a
00000330: c1d0 753c 5ee0 543c 4112 21ba 9d37 f83b
00000340: 129c 523b aaf1 643c a8ce 66bc b434 c93b
00000350: b70b 833c 2be7 aabb ac1f 16ba 7456 1a3c
00000360: 2a70 e03b 3854 963a f9b4 663c e808 4f3c
00000370: ca7f 6e3c cf96 89bb b763 4f3c 64b6 b83b
00000380: 108b 39bc e1fa 7ebb 5bd6 1939 00a0 8c37
00000390: ff02 843c 1c37 823c 976f 143c 5fbc 833a
000003a0: 953d 9ebb d985 2e3c b062 fa39 f5f1 e83b
000003b0: 7200 b33b 03da fa3b 8001 863c cb28 803b
000003c0: aa24 dfba a0e5 d03b 317a a43b 9baf 9abb
000003d0: a6ac 023c f8c8 4f3c 32d8 cabb 4b32 483b
000003e0: fcb5 323b 6a0e ee3b a350 013c fd1b afbb
000003f0: 84ef 43bc 4359 3c3c 919e 403c d056 6f3c
0.0068269884 -0.0007843342 -0.005208792 0.004055424 0.014457661 0.0047695767 -0.0070674047 -0.012359588
0.0077960542 0.000924568 0.010358575 0.0002776902 0.0017936212 -0.013264719 0.01164871 -0.00044300413
-0.003755314 0.01008549 -0.0031278324 0.0049783415 -0.011651773 -0.0053632203 -0.0044955565 0.0052220062
-0.006241898 -0.0030365523 -0.008522447 0.0052202223 -0.010488598 -0.00051762327 0.00042159934 -0.0023146383
0.0026806819 0.017838536 0.012201866 0.0010642301 0.0011501559 -0.0011932432 0.019657396 0.010508202
0.0009925708 0.0020351012 0.015322282 -0.016746094 0.006595249 0.004119521 0.0032154394 -0.01187745
0.014222415 -0.0007648956 0.009046845 0.0044580474 0.015469627 0.0015334509 0.0043086964 -0.0016722552
0.0044299625 0.012284827 -0.0016649672 0.014712486 0.0068933098 0.014193241 0.003220246 0.014165551
0.016287051 -0.0024521493 0.0133675765 -0.002385704 -0.0049681338 0.014206202 0.002199991 0.013024489
-0.0025574646 -0.0052286177 0.014083529 -0.0016435954 0.0024809171 0.013735229 0.004795882 0.013751736
0.0032071262 -0.0067508686 0.017032627 -0.007313615 0.0040275925 0.009520268 0.0130140055 -0.00494669
0.018732497 -0.015257525 0.011243509 -0.002053367 0.0119841555 0.0030093065 0.0065107173 0.00787366
0.0033133333 0.0024131227 0.006822583 -0.007472928 -0.004706846 -0.0020093047 0.015853003 -0.0012734476
0.007345247 -0.004434417 0.01828993 -0.016127007 0.013282837 -0.012807139 -0.0028290555 0.013999935
0.012383753 0.015908025 0.0051355246 0.019456824 -0.0010103688 0.001292624 -0.00042661309 -0.0073029697
-0.0021153875 0.0065879747 -0.0084538935 -0.002883231 -0.00021203139 0.014273899 -0.0034280687 0.009322172
-0.0059331865 0.004223641 -0.0006587675 0.0132344095 0.0026272733 0.0014529014 -0.0071487776 0.017346486
0.0050768037 0.005737261 0.0022868763 -0.0025189274 -0.010344996 0.005861583 -0.0041528516 0.0011451327
0.012356734 0.007510767 0.014750203 -0.01050555 0.004912276 0.006634757 -0.010013522 0.009970247
0.012000294 0.015775261 0.00803957 0.0031880569 0.006792061 0.011578237 -0.0068920455 -0.007086278
-0.006793673 0.015077651 -0.0147376275 -0.0013505296 0.012757073 0.005049427 0.015009317 -0.0020478484
0.009492139 0.0074076536 -0.00041534807 0.010217905 0.008546767 -0.0055936086 -0.0021124883 -0.0026112453
0.009036802 -0.0045118965 0.0013862149 0.0044658734 -0.007497524 0.0029433412 0.002973517 0.0055902647
0.0060293493 0.014993798 0.0051069893 0.012661661 8.605903e-06 0.00030033785 0.011141384 0.013658953
0.008820301 -0.0038467455 0.01630302 -0.009382098 0.0067736846 0.00709249 -0.006850218 0.010870647
0.0020244308 -0.00024472675 0.00094670017 0.00068278896 0.015003384 0.012992946 -0.00061443826 0.007574989
0.0032136482 0.013973633 -0.014087357 0.006140316 0.015996797 -0.0052155457 -0.00057267654 0.009420026
0.0068493085 0.0011469191 0.014081233 0.012636401 0.0145568345 -0.004198886 0.012658051 0.005636977
-0.011324659 -0.003890686 0.0001467107 1.6763806e-05 0.01611471 0.015895419 0.009059808 0.0010050646
-0.0048291185 0.010652029 0.00047757244 0.0071089217 0.0054626996 0.0076553836 0.016358137 0.003911113
-0.0017024477 0.0063750297 0.005019449 -0.004720641 0.007975733 0.012682192 -0.0061903233 0.0030547555
0.0027269116 0.007264902 0.00789276 -0.0053439126 -0.01195896 0.011495891 0.011756555 0.0146081

action_model._discrete_distribution.branches.0.weight f4 [7, 256]
00000000: 9478 a2bb 7c99 913c 3a08 d93b 3e19 0dbc
00000010: e22f fcbb c2dd 183b c606 f83b d334 043b
00000020: f1a6 49bc 66d6 68bc cd46 4eba 42c7 d5ba
00000030: 6d29 9e3b 2710 29bb 50d9 6fbc 5d06 bf3b
00000040: 4642 4c3c 06f3 143c b724 7d3b cad3 ea3b
00000050: e252 843b 06b5 ab3c d38c a93b be4d a3bb
00000060: 7a92 20b9 284f 31bb 5db1 e73a 4013 a7bb
00000070: 3eef db3b c439 3cbb 7597 b53b 7779 a13a
00000080: 1c10 2e3b fbb0 f03a 6097 17bb b1de 083b
00000090: 4bda eabb ddf4 893b 4c88 54ba 5f89 d738
000000a0: 97d8 023c 6cab c7bb e027 503a 532f d93a
000000b0: 5408 e1bc 5d8c 20bc d3e4 98bb 49cf abbb
000000c0: 1811 8d3a 2164 04bc cdd6 2abc 5ec0 353b
000000d0: 53b4 5bbb 243b 413c 014e b53a 3989 b6ba
000000e0: 0389 433c b1c3 bcb9 a2b8 98bb 5596 503c
000000f0: 80eb 173b a524 41bc 1a4d c0b6 734d f43b
00000100: 285b eb39 6768 8dbc bfee c23b 853e 8c39
00000110: 01db 5a3c f25e 7dbc 0a96 9aba e3de 353b
00000120: 90c4 b9bb 3acc 0a3b 6026 c239 3253 0a3c
00000130: 62b2 193c 9127 953a c8db 9639 5261 d1bb
00000140: fbe4 19bc 5b45 2a3c 2489 a73b 4aa4 b13a
00000150: 2009 433b eb3f 02bb 8370 11bb f6e2 50bc
00000160: be42 32bb bad3 45bb 33e7 94bb 1955 ba3b
00000170: c9bf 43bc 12f4 21bc b3ad d2bb bfd4 623c
00000180: b7d8 daba c30a 1f3a 22f6 4cbb cdf5 dbb8
00000190: e517 cabb 0424 ed3b 96c7 1b3c cff7 633b
000001a0: d3f6 82bb 1d96 adb9 91f2 d4bb f1c9 0abb
000001b0: 8d52 aa3b 5866 f9bb 34d2 73bb f90e 373b
000001c0: 1228 e2bb ad93 403c 8ac3 f33a 78be b9bb
000001d0: 586f de3b e473 013c 6cdd bc3a b35a 483c
000001e0: 22b4 3d3b 4ade a23b d305 993b a144 2a3b
000001f0: df81 243c c31d 043c fb2c ec3b 8b9e 8a3b
00000200: fd7f 003c 28a6 67bb 233f 1e39 20d1 843b
00000210: 9d74 ba3b 5e8b 523c 21d1 563c 26a2 203c
00000220: 0301 05bb 6548 21bc 27df cf39 c9c8 353c
00000230: 1ea7 85bb 141d e53b 143f 0b3c 8ae8 193c
00000240: 4b5a 53bb 9368 1f3a 18de 233a fe61 883a
00000250: 694a 743c 29db 933b 3e81 123c 22d5 85bb
00000260: 97db 5cbc a08e bfba fc80 3cbc bc7d 9dbb
00000270: 8a6c cf3b 08a6 bdbb cc30 673b 39a2 023c
00000280: beb1 433c 4c1c dc3b 65f9 0e3c 20ea 1dbb
00000290: e9fb a0bb 4d60 83bc 334e 0dbb a4da bf3b
000002a0: d7d9 97bb 6dde 4e3b 8cbd 873b eb03 c33a
000002b0: af19 02bb 139d 4bbb 1a87 8abb aeb9 153b
000002c0: b31f 77bb 0c6a cab8 dda0 adb9 3013 803a
000002d0: 34f0 a3bb cb4d 8cbb 127e f33b bbd6 903b
000002e0: 3c90 a5bb 662e 393b cfea 473c 4b35 843b
000002f0: c80a bdba be25 35bb 0c43 5839 01ce c2bb
00000300: 2b88 4abc af98 9cbb 553f fabb 3a60 bf3b
00000310: cef5 b4bb 0aaa e9bb c24e 8b39 0ef7 00bc
00000320: 19b9 003c 4017 593c 96b4 d8bb 0cc3 65bc
00000330: 529e 2ebb a5c6 003b aea5 18bc 05c5 913a
00000340: b92a b3bb 8201 03bc d5f2 e43b 3806 143c
00000350: 1fe2 bebb 245a 2a3c 281c ba3a db00 c5bb
00000360: 317c 0fbc 5186 753b 973e a139 14dd 3a3c
00000370: 19b4 79bc f9f1 0e3c b2e4 163c daf2 33bb
00000380: 5bfb 7f3b d39e 7cbc 9a2b 103a 7b45 74bb
00000390: 1bf2 20bc 1dca 0cbc 1ea1 31ba be0d 0fbb
000003a0: 01e5 b83b d6a8 86bb 2725 67bc 6858 3bbc
000003b0: ba54 aabb f41b 3abb f140 83bb 3286 ca3b
000003c0: c41c 723c a7a6 d63b 903e 633b 290e 87bb
000003d0: 44a0 e3bb 18b6 c9bb abbb b83c dbff c53a
000003e0: 89e8 833b cddf dfbb cece b23b daea e93b
000003f0: 7c0b c0b9 085b 163c 6dcc 88bc 4749 91bb
-0.0049582217 0.017773382 0.006623295 -0.008611975 -0.0076961378 0.0023325537 0.007569167 0.0020173087
-0.012307868 -0.014211273 -0.00078688265 -0.0016309994 0.0048267157 -0.002579698 -0.014639214 0.005829616
0.012466973 0.009091144 0.003862662 0.0071663605 0.0040382007 0.020960342 0.0051742583 -0.004983633
-0.00015313356 -0.0027055237 0.001767676 -0.0050987303 0.0067118695 -0.0028720954 0.0055417367 0.0012319525
0.0026559895 0.0018363291 -0.0023130998 0.0020884688 -0.007167136 0.004210098 -0.0008107468 0.00010277586
0.007986209 -0.006093433 0.0007940512 0.001656989 -0.027469791 -0.00979909 -0.00466595 -0.005243216
0.0010762541 -0.008080513 -0.010427189 0.0027733068 -0.003352423 0.011793885 0.0013832451 -0.0013926394
0.011934522 -0.00036003956 -0.004660682 0.012731154 0.002318114 -0.011788522 -5.7310217e-06 0.0074555217
0.0004489061 -0.017261697 0.005948871 0.00026749462 0.013357879 -0.015464531 -0.0011793983 0.002775126
-0.005669184 0.0021178857 0.00037031155 0.008442687 0.009380909 0.001137959 0.0002877398 -0.0063897753
-0.009392972 0.010392512 0.005112784 0.001355299 0.0029760078 -0.0019874524 -0.0022192306 -0.012749424
-0.0027200426 -0.0030186013 -0.0045441627 0.005686414 -0.011947581 -0.009884851 -0.006429398 0.013844668
-0.0016696666 0.0006066972 -0.0031274636 -0.00010488518 -0.006167399 0.0072369594 0.009508034 0.0034785157
-0.003996709 -0.00033108974 -0.0064986427 -0.0021177495 0.005197829 -0.0076110773 -0.0037204148 0.0027932508
-0.0069017494 0.011753959 0.0018597704 -0.0056684576 0.0067881756 0.007901166 0.001440925 0.012228656
0.002894648 0.0049703466 0.0046698838 0.0025980847 0.010040729 0.008063736 0.0072075105 0.0042303256
0.007843015 -0.003534684 0.00015091574 0.00405325 0.005690171 0.012850611 0.013111384 0.009804284
-0.0020294792 -0.00984392 0.00039648378 0.011095234 -0.00407876 0.006991992 0.008498926 0.009393821
-0.0032249864 0.00060809514 0.0006251051 0.001040518 0.014910319 0.00451221 0.008941947 -0.0040842453
-0.013480089 -0.0014614649 -0.011505362 -0.0048062485 0.0063300775 -0.0057876147 0.0035276888 0.007973247
0.0119442325 0.0067172404 0.0087264525 -0.0024095848 -0.0049128425 -0.01603713 -0.0021561503 0.0058549214
-0.004634123 0.0031565682 0.004142469 0.0014878487 -0.0019851734 -0.0031068965 -0.004227531 0.002284627
-0.0037708103 -9.6518634e-05 -0.00033116984 0.0009771343 -0.0050029997 -0.0042817346 0.0074308002 0.004420129
-0.0050525945 0.0028256415 0.012201979 0.0040346733 -0.0014422769 -0.0027640904 0.00020624342 -0.0059449677
-0.012361567 -0.0047789435 -0.0076369443 0.0058403285 -0.0055224663 -0.007130866 0.00026570825 -0.007871402
0.007856631 0.013250172 -0.0066133244 -0.014023554 -0.002664466 0.0019649651 -0.009316845 0.0011121338
-0.0054677394 -0.007995965 0.0069869556 0.009034686 -0.0058252956 0.010397468 0.0014199065 -0.006012065
-0.008757637 0.0037464092 0.00030754946 0.011405248 -0.0152406925 0.008724683 0.009209799 -0.0027457983
0.0039059732 -0.015418726 0.0005499661 -0.003727286 -0.009823347 -0.008593109 -0.00067760225 -0.002182826
0.005642534 -0.0041094823 -0.014107979 -0.011434652 -0.0051980885 -0.002839801 -0.0040055444 0.006180548
0.014777366 0.006550628 0.0034674741 -0.004121561 -0.0069465954 -0.0061557405 0.022550425 0.0015106158
0.004025523 -0.006832099 0.005456782 0.007138592 -0.0003662965 0.009176977 -0.01669904 -0.004433784

action_model._discrete_distribution.branches.0.bias f4 [7]
00000000: 52c1 b53a 2f56 66bb 1245 513b e832 8a3c
00000010: e6b0 253b e9da 46bc 9958 7abc
0.0013866818 -0.0035146584 0.0031932038 0.016869977 0.0025282442 -0.012137153 -0.015279912
