results/t5/Fork1/Fork1-49176.onnx (onnx, 333139 bytes, 6 tensors)

network_body.linear_encoder.seq_layers.0.weight f4 [256, 58]
0.21325898 -0.050971694 -0.10398385 0.08854262 -0.0467884 -0.05690361 -0.058991823 -0.3389054
0.064384684 0.028499506 0.10635815 0.0017117426 0.19350399 -0.09607318 0.024102056 0.07251792
-0.095642835 -0.014219863 0.16264597 0.07356552 0.13198726 -0.10412738 0.1253926 0.27658916
0.019122181 0.19711535 0.19369127 -0.03414609 0.011527946 -0.051936734 -0.09453866 -0.14118211
-0.0037122695 -0.24881738 0.17054088 0.124971665 0.23240462 -0.073547274 -0.065282725 -0.31547028
0.09162253 0.0790502 0.1928394 0.020743845 0.13382809 0.017706731 0.20190792 -0.20713095
-0.017607113 0.17545083 -0.08642713 -0.022437403 0.10445886 -0.10780022 0.05301829 0.025619548
-0.18678091 -0.20720449 0.22610462 -0.13581266 -0.13184218 0.041689415 0.010168265 -0.105273135
-0.023676945 -0.036941018 0.119752586 -0.008051742 -0.14306498 0.21898307 -0.07545172 -0.15090707
-0.31861445 -0.19475205 0.051145505 0.28694904 -0.11222123 0.1809932 -0.14233801 -0.18940526
0.21424924 0.123190284 0.11552686 -0.16256385 -0.088329695 0.023369515 -0.046439134 -0.044862267
0.3095243 0.19177298 0.08355684 0.2696149 -0.07732119 0.078343116 -0.22426148 0.05920897
0.31776804 -0.067533486 0.013509564 0.086030655 -0.24562366 -0.022365484 0.0006604097 0.07049749
0.16802168 -0.109405935 -0.13122602 -0.097664274 0.011721731 -0.23014434 0.20328182 -0.05543054
0.42846468 0.0115957055 0.04256034 -0.16947448 0.18682635 -0.092756465 0.19991705 -0.023790712
0.03851405 -0.11635468 -0.024979789 -0.014386615 -0.092120565 -0.097267725 0.09299765 -0.023460725
0.094676025 0.0856949 -0.06340732 -0.061241057 -0.05335779 -0.006390945 -0.035308953 -0.08905145
-0.12150701 0.20840527 -0.1467316 -0.10584404 0.16731885 0.07319929 -0.17416584 -0.27835026
0.027786385 -0.015130603 -0.08397508 0.13205652 -0.058646563 0.23136897 -0.07140958 -0.08137884
-0.067609265 -0.20153393 0.09823188 0.016620262 -0.004257515 -0.17192839 0.01126326 -0.13429925
-0.1893579 -0.21785745 -0.011590834 0.06260732 -0.1288934 0.1552441 0.0074991104 -0.1373208
-0.04706056 -0.218051 0.007884937 0.14897944 0.12788936 0.026564505 -0.16753225 0.023677684
0.10244872 0.081073396 0.099175416 0.043380205 0.052867007 -0.09390731 0.030095464 -0.062210325
0.0020157676 0.06732423 0.1841404 0.26895362 -0.059506457 -0.017120942 0.027062872 -0.03465872
-0.020457987 -0.010646664 0.18752636 0.04537531 -0.17683168 -0.048213705 -0.08608322 0.060272835
0.049516905 0.03253375 0.2433624 0.094709285 -0.14518096 0.22621915 0.11403391 0.029490916
-0.03051878 0.09136795 0.052362908 -0.0545444 -0.20334128 0.13090809 0.2523959 0.03420649
-0.13646337 -0.09579264 -0.00030328834 0.06469328 -0.18344086 -0.041108917 0.16971275 -0.281741
-0.15914541 0.0806627 0.026299262 0.11216162 0.021926844 0.05414907 -0.10437976 0.15407504
-0.13651386 0.04878198 0.16702199 -0.04490704 -0.0253181 0.08646894 0.08793105 -0.25853735
-0.052332025 -0.034686625 -0.059889626 0.040212918 -0.04516966 0.16720282 0.03373865 0.023384089
-0.04277553 0.1446279 0.13969393 -0.047179546 0.0992456 -0.06578335 -0.10643324 0.2952852
00000000: 9060 5a3e b2c7 50bd 7cf5 d4bd d555 b53d
00000010: 31a5 3fbd c213 69bd 69a1 71bd 0285 adbe
00000020: 1edc 833d cc77 e93c 4dd2 d93d 8d5c e03a
00000030: e925 463e 04c2 c4bd ad71 c53c 4684 943d
00000040: 64e0 c3bd 6efa 68bc aa8c 263e 85a9 963d
00000050: ab27 073e bc40 d5bd eb66 003e 189d 8d3e
00000060: 1fa6 9c3c 9bd8 493e 0157 463e c5dc 0bbd
00000070: b6df 3c3c 9dbb 54bd 7c9d c1bd 0b92 10be
00000080: 8c49 73bb fcc9 7ebe 45a2 2e3e 25f1 ff3d
00000090: 7afb 6d3e f49f 96bd f3b2 85bd 5285 a1be
000000a0: 98a4 bb3d 12e5 a13d b177 453e ffee a93c
000000b0: 3b0a 093e b50d 913c f3c0 4e3e 231a 54be
000000c0: cb3c 90bc 62a9 333e b500 b1bd a5ce b7bc
000000d0: 87ee d53d 5dc6 dcbd b529 593d 16e0 d13c
000000e0: 7f43 3fbe 6a2d 54be f887 673e 7912 0bbe
000000f0: a301 07be 85c2 2a3d cb98 263c 7199 d7bd
00000100: 27f6 c1bc 774f 17bd d840 f53d 74eb 03bc
00000110: a07f 12be 193d 603e 6e86 9abd 6287 1abe
00000120: 6f21 a3be 156d 47be f37d 513d fcea 923e
00000130: 3fd4 e5bd 4856 393e 0ec1 11be 74f3 41be
00000140: 2764 5b3e 304b fc3d 5999 ec3d 2377 26be
00000150: 33e6 b4bd 6d71 bf3c f636 3ebd 7fc1 37bd
00000160: f879 9e3e 2360 443e d91f ab3d f70a 8a3e
00000170: 925a 9ebd 5b72 a03d cda4 65be 1b85 723d
00000180: 7eb2 a23e ff4e 8abd 3857 5d3c d730 b03d
00000190: c584 7bbe d237 b7bc 581f 2d3a fd60 903d
000001a0: e00d 2c3e 3810 e0bd 1d60 06be 3504 c8bd
000001b0: 810c 403c f5aa 6bbe 1c29 503e 220b 63bd
000001c0: b95f db3e eafb 3d3c c053 2e3d b88a 2dbe
000001d0: 684f 3f3e 1af7 bdbd 0eb7 4c3e bde4 c2bc
000001e0: e9c0 1d3d 5d4b eebd 6aa2 ccbc d6b5 6bbc
000001f0: b5a9 bcbd 4d34 c7bd 8d75 be3d b530 c0bc
00000200: 81e5 c13d cf80 af3d b2db 81bd e7d7 7abd
00000210: b38d 5abd 226b d1bb 1fa0 10bd 9b60 b6bd
00000220: abd8 f8bd 3168 553e cf40 16be c3c4 d8bd
00000230: a255 2b3e 82e9 953d 8858 32be ed83 8ebe
00000240: 46a0 e33c 59e6 77bc 20fb abbd d339 073e
00000250: 6137 70bd fdeb 6c3e 303f 92bd f3a9 a6bd
00000260: ba76 8abd e95e 4ebe cc2d c93d 3727 883c
00000270: a082 8bbb ff0d 30be 8989 383c be85 09be
00000280: 0ae7 41be 0616 5fbe 7be7 3dbc 4438 803d
00000290: a2fc 03be 4ff8 1e3e 19bb f53b d39d 0cbe
000002a0: 93c2 40bd c348 5fbe d32f 013c 118e 183e
000002b0: 6ef5 023e ce9d d93c 938d 2bbe b4f7 c13c
000002c0: a2d0 d13d cf09 a63d 7b1c cb3d 71af 313d
000002d0: 138b 583d 7a52 c0bd c38a f63c 41d0 7ebd
000002e0: f81a 043b 49e1 893d 4d8f 3c3e 4ab4 893e
000002f0: 0bbd 73bd 3841 8cbc f5b2 dd3c 4df6 0dbd
00000300: 8297 a7bc 586f 2ebc e906 403e 76db 393d
00000310: 5d13 35be bc7b 45bd 664c b0bd a6e0 763d
00000320: 3dd2 4a3d 1c42 053d fe33 793e f1f6 c13d
00000330: 51aa 14be fea5 673e 9c8a e93d ef96 f13c
00000340: 8502 fabc 1f1f bb3d 7d7a 563d f369 5fbd
00000350: b238 50be c50c 063e 093a 813e 1b1c 0c3d
00000360: 0ebd 0bbe ee2e c4bd ac02 9fb9 e97d 843d
00000370: ecd7 3bbe d361 28bd 2ec9 2d3e 5b40 90be
00000380: 04f7 22be 7c32 a53d 8d71 d73c feb4 e53d
00000390: ed9f b33c 6acb 5d3d 0ec5 d5bd d9c5 1d3e
000003a0: 4aca 0bbe 9dcf 473d d007 2b3e 72f0 37bd
000003b0: e767 cfbc a116 b13d 3215 b43d 025f 84be
000003c0: 1b5a 56bd 9013 0ebd d34e 75bd 4db6 243d
000003d0: d203 39bd 3737 2b3e 8a31 0a3d fd8f bf3c
000003e0: 6535 2fbd 5619 143e ed0b 0f3e 573f 41bd
000003f0: 4741 cb3d 6cb9 86bd acf9 d9bd 9f2f 973e

network_body.linear_encoder.seq_layers.0.bias f4 [256]
0.0064907665 0.012948566 -0.027253533 0.009382323 -0.009557534 0.028248157 -0.008663085 0.019630672
-0.0036902186 0.0070223785 -0.041253395 0.017784983 0.01681565 0.035018373 0.011071082 0.0014482784
0.028029397 -0.01451091 0.020023214 0.023551708 0.0244082 0.028485445 0.011363119 0.014262021
0.01914815 -0.013963999 0.0018239847 -0.009055648 0.006410885 -0.04500522 -0.006371645 -0.001485661
0.00017785734 0.0054516275 0.0021145355 0.013567836 -0.009378337 8.511566e-05 0.005312854 0.020543128
0.006170023 0.022831684 0.012861434 0.016101079 0.016086392 0.012415794 0.018234635 0.03361294
0.025854932 0.011820523 0.0096664 0.011532596 0.0075397366 0.02625419 0.007926469 0.0067964336
0.020186424 0.008036258 0.017488843 0.0021237503 0.019642768 0.004750672 0.01572428 0.024324339
0.013120633 0.029424973 0.0048784683 0.0051273894 0.024717335 0.012605301 -0.004523452 0.011990698
-0.0030386315 0.025274703 0.012501774 0.006223937 0.0060888766 0.0086470535 0.025302282 0.019540543
-0.014099855 -0.0058634724 0.018221712 0.01810867 0.01544232 -0.023332346 -0.0032254402 0.019836646
0.010626136 0.00047728023 0.02223655 0.026285766 0.02294158 0.020263564 0.024193946 -0.0099010235
0.016504267 0.014494948 -0.009732357 0.006671388 0.0064078257 0.021774853 0.026029116 0.030625435
-0.0031761914 0.005817709 0.013132946 0.0049224114 0.011256184 0.015048748 0.00031637764 0.030086461
0.006828967 -0.007565138 0.004369417 0.03309973 0.019354703 0.015065151 0.02001692 -0.00207075
0.013861329 0.020068688 0.010646822 0.028464777 0.0193176 0.014767182 0.043472257 -0.006459102
0.010916022 -0.007600471 -0.0026361067 -0.0059065684 0.020303153 0.014712512 0.02269955 0.02077055
0.011553851 0.019318998 0.008816244 0.011552061 0.0061286497 0.020428967 0.024132447 -0.016267072
0.00913996 -0.004804321 0.011204474 0.015858928 0.013616027 0.016888952 0.016811127 -0.011323049
0.022127606 0.014640511 0.031778 0.005356623 0.025308607 0.024210019 0.021823822 0.01322679
0.024044918 0.0031506135 -0.040154584 -0.0056360248 0.01660234 0.01472485 0.0116211735 0.0070818653
0.0056130765 0.010706126 0.0057011223 0.019510766 0.005122954 0.0065849186 0.012953068 0.021500006
0.022270795 -0.0057863323 0.021806912 -0.010290188 0.006238733 0.020771438 -0.015724847 0.008137851
0.011984076 0.014545558 0.002586221 0.018417146 0.01660117 0.004116421 0.005079579 0.023050977
-0.022344287 0.008638587 0.03021176 -0.012482825 0.013104275 0.008093289 0.02408073 -0.003862699
0.0110232895 -0.013251727 0.019024001 0.017569775 0.01584837 0.016157288 0.017378604 -0.00029676806
0.0120517975 0.009076956 -6.149265e-05 -0.022465125 0.012441465 0.017316373 0.009134539 0.0065287077
0.008726222 0.015803114 -0.024312953 -0.001042138 0.0121044805 0.010237491 0.012694165 -0.004144276
-0.016022105 0.015890032 -0.0070369286 0.020810476 0.02939826 0.021182053 0.0068951882 0.0016939993
0.008311241 -0.0027587323 0.0045960373 -0.0010300854 0.002392601 -0.010232316 0.009548024 0.0025880532
-0.0012046756 0.01448322 0.028353613 0.018573742 -0.034048792 0.0315368 0.025586452 0.016836416
-0.011834322 0.024433596 0.020987034 -0.016421676 0.009938614 0.014901058 0.0385107 0.035261214
00000000: 7fb0 d43b 3926 543c cd42 dfbc 51b8 193c
00000010: 3497 1cbc ae68 e73c 9def 0dbc 81d0 a03c
00000020: 98d7 71bb fb1b e63b 52f9 28bd d0b1 913c
00000030: f9c0 893c 6d6f 0f3d 7c63 353c 29d4 bd3a
00000040: e89d e53c 2bbf 6dbc b907 a43c 83ef c03c
00000050: b5f3 c73c 4f5a e93c 602c 3a3c 40ab 693c
00000060: 95dc 9c3c 42c9 64bc c512 ef3a 245e 14bc
00000070: 6712 d23b 6557 38bd 3bc9 d0bb 83ba c2ba
00000080: 377f 3a39 91a3 b23b 0594 0a3b a14b 5e3c
00000090: 99a7 19bc 1f80 b238 7317 ae3b 104a a83c
000000a0: e82d ca3b 8309 bb3c c4b8 523c 69e6 833c
000000b0: 9cc7 833c 9d6b 4b3c cd60 953c b9ad 093d
000000c0: b9cd d33c deaa 413c d25f 1e3c 37f3 3c3c
000000d0: e50f f73b 0713 d73c 05de 013c 9eb4 de3b
000000e0: 005e a53c 82aa 033c c344 8f3c 9e2e 0b3b
000000f0: dfe9 a03c 86ab 9b3b 35d0 803c d643 c73c
00000100: ecf7 563c a40c f13c 8fdb 9f3b a903 a83b
00000110: 027c ca3c 7786 4e3c 7739 94bb a274 443c
00000120: c723 47bb e50c cf3c 3ed4 4c3c 2bf2 cb3b
00000130: 3385 c73b 5fac 0d3c bb46 cf3c 7d13 a03c
00000140: 1403 67bc 5f22 c0bb b345 953c a258 943c
00000150: c901 7d3c 7a23 bfbc e861 53bb 7680 a23c
00000160: 3f19 2e3c 783b fa39 6d29 b63c 3f55 d73c
00000170: fbef bb3c c6ff a53c 6232 c63c e737 22bc
00000180: f533 873c 387c 6d3c 7774 1fbc a99b da3b
00000190: bdf8 d13b 2d61 b23c 033b d53c 31e2 fa3c
000001a0: a627 50bb 7ba2 be3b 912b 573c 2e4c a13b
000001b0: dc6b 383c 068f 763c 7ddf a539 e277 f63c
000001c0: 87c5 df3b fae4 f7bb 542d 8f3b 9593 073d
000001d0: c18d 9e3c d3d3 763c 86fa a33c 6cb5 07bb
000001e0: a11a 633c 1767 a43c 0270 2e3c f72e e93c
000001f0: f23f 9e3c 0df2 713c f70f 323d e0a6 d3bb
00000200: 1dd9 323c 5f0d f9bb 88c2 2cbb e38b c1bb
00000210: cc52 a63c bf0c 713c 68f4 b93c 0027 aa3c
00000220: 5d4c 3d3c e042 9e3c 0272 103c db44 3d3c
00000230: d7d2 c83b a65a a73c 69b1 c53c 8642 85bc
00000240: c5bf 153c 916d 9dbb f892 373c 95ea 813c
00000250: c215 5f3c b35a 8a3c 7db7 893c 4f84 39bc
00000260: f444 b53c c1de 6f3c a629 023d 9c86 af3b
00000270: ff53 cf3c 1754 c63c dfc7 b23c 2eb5 583c
00000280: d9f9 c43c 867a 4e3b 2279 24bd 67ae b8bb
00000290: a101 883c 7f40 713c bc66 3e3c fe0e e83b
000002a0: e6ed b73b bf68 2f3c 7bd0 ba3b 0bd5 9f3c
000002b0: 74de a73b 4dc6 d73b 1b39 543c c820 b03c
000002c0: 3e71 b63c 469b bdbb 69a4 b23c 2d98 28bc
000002d0: 496e cc3b dd28 aa3c 65d1 80bc 9f54 053c
000002e0: dc58 443c 7e50 6e3c 977d 293b 8edf 963c
000002f0: 2dff 873c 0be3 863b 9972 a63b 67d5 bc3c
00000300: 5e0b b7bc dc88 0d3c a77e f73c c384 4cbc
00000310: 50b3 563c b799 043c f344 c53c 5625 7dbb
00000320: 079b 343c c61d 59bc 39d8 9b3c 7dee 8f3c
00000330: 71d4 813c 4a5c 843c 935d 8e3c 8997 9bb9
00000340: e774 453c 83b7 143c 9df5 80b8 c808 b8bc
00000350: 49d7 4b3c 11db 8d3c 09a9 153c c5ee d53b
00000360: 6ef8 0e3c 8875 813c f52b c7bc 5998 88ba
00000370: df51 463c 26bb 273c 30fb 4f3c b5cc 87bb
00000380: ca40 83bc d02b 823c 0996 e6bb bb7a aa3c
00000390: 9fd4 f03c fc85 ad3c 08f1 e13b 2f09 de3a
000003a0: df2b 083c d9cb 34bb 5b9a 963b ee03 87ba
000003b0: 2fcd 1c3b 72a5 27bc 516f 1c3c 549c 293b
000003c0: 35e6 9dba 074b 6d3c d645 e83c f627 983c
000003d0: bf76 0bbd bb2c 013d ae9a d13c 86ec 893c
000003e0: bee4 41bc f728 c83c 00ed ab3c c086 86bc
000003f0: 92d5 223c 9123 743c 65bd 1d3d 106e 103d

network_body.linear_encoder.seq_layers.2.weight f4 [256, 256]
0.07514948 -0.0630319 0.024366481 -0.07206657 0.09318098 0.051926836 0.07180512 0.07835696
0.023694606 -0.028454747 0.027552418 -0.008364154 0.015957398 -0.06337283 -0.11363941 -0.09855756
0.02451677 0.04135361 0.021960218 0.009676866 0.08203778 0.015760006 0.06584871 0.023163019
0.011857987 -0.0753462 0.027409052 -0.00043907113 0.051496055 -0.008490134 -5.1262985e-05 -0.027246919
0.024084954 -0.035643037 0.036044043 -0.10705086 0.060207885 -0.07611861 0.18035294 -0.019974018
-0.039523665 0.11382355 0.039214145 -0.016317556 0.039814405 0.052649796 0.10303301 0.03886013
-0.046840556 0.06193698 -0.02145103 -0.05533343 0.055616967 0.019735867 0.027121302 0.043644417
0.06828411 -0.0062649767 -0.066865295 -0.02259863 -0.09788755 0.022019485 -0.13643216 0.1093466
-0.041281823 0.02334616 -0.061312933 -0.058741927 -0.051606122 0.013682872 0.065120056 -0.072659634
0.0036020784 0.0433256 0.13307562 0.02316342 -0.045072705 -0.076905295 0.08921473 -0.06015851
-0.042682003 0.024191387 0.0029882928 0.02997358 0.08650685 0.050673492 0.04877849 -0.04953072
0.002802667 -0.0050151004 -0.095437445 -0.058205325 0.03856727 -0.118486986 0.08510146 -0.0909772
0.011784969 0.059013896 0.04981844 0.062397018 -0.023442438 0.056413487 0.019879337 -0.07471934
0.037049145 0.038632937 -0.026030319 0.026280187 -0.06619528 -0.0066521196 0.034211893 -0.0043808934
0.03230025 0.0462336 0.048257187 0.030797781 -0.005469897 -0.014028418 -0.15539818 0.15167123
-0.011711288 -0.009345167 -0.012318093 0.015414062 0.114789456 0.04057738 0.038786948 0.031819053
0.05738855 -0.015439511 0.015633969 -0.07999742 0.0076676044 0.15095408 -0.034690414 0.06650371
0.11309752 0.09646314 0.021623753 -0.10777343 0.004521021 0.060511153 -0.09241971 0.016685808
0.040697306 0.053371053 0.008387134 -0.021427363 0.09996848 0.13262613 -0.015681043 0.048294734
0.046510305 0.03263141 0.05693975 0.014940958 0.074996255 0.07952995 0.0038780237 0.12705068
0.05157638 0.03197326 0.016009621 0.019753562 -0.067283146 0.020816531 -0.024018716 0.0068559195
0.11017699 -0.026955388 -0.036808625 -0.116416164 0.11889588 -0.06900863 0.030587345 -0.035151597
-0.056827344 -0.025731703 0.09490285 0.14057076 -0.08796458 0.052111547 0.043247253 0.05258217
0.05330465 0.009999262 -0.046752166 0.024435285 -0.056851476 0.08651649 -0.034222048 -0.012869309
-0.066714145 0.043593224 -0.061940216 -0.07487765 0.03987455 -0.11069166 -0.027371066 0.06586575
0.06403857 -0.0031241372 -0.04885535 0.014839635 0.016250186 0.02977084 0.06703048 0.09421651
-0.11413682 0.036881905 0.014989459 0.045502763 -0.10838779 -0.033123743 -0.031994868 0.12017596
0.042556282 -0.08728266 -0.05984965 0.036640633 0.23674525 -0.073773846 -0.0368057 -0.06377853
-0.0010669885 0.060876332 0.041048177 -0.061627913 0.026447631 -0.00910732 -0.012254918 -0.0036005557
-0.053017393 -0.029535048 -0.09732421 0.034801744 0.054613497 -0.07734498 -0.0053068288 0.04773059
0.008932994 -0.016086241 -0.026993211 -0.0029701511 0.046174332 -0.09174972 -0.04849293 -0.0062944326
0.05440841 0.12382734 0.035974864 -0.066279136 -0.025307968 0.021803135 -0.017622665 0.028353134
00000000: f8e7 993d de16 81bd 379c c73c a397 93bd
00000010: abd5 be3d 3cb1 543d 900e 933d 9d79 a03d
00000020: 311b c23c ee19 e9bc 9cb5 e13c ce09 09bc
00000030: 17b9 823c 9dc9 81bd c7bb e8bd 8cd8 c9bd
00000040: 65d7 c83c 6762 293d eae5 b33c b88b 1e3c
00000050: 6c03 a83d 211b 813c b0db 863d 5fc0 bd3c
00000060: 0148 423c 1c4f 9abd f388 e03c 2133 e6b9
00000070: 87ed 523d 341a 0bbc 3603 57b8 ee34 dfbc
00000080: cf4d c53c 6ffe 11bd eba2 133d 7b3d dbbd
00000090: 8b9c 763d 13e4 9bbd 71ae 383e 8da0 a3bc
000000a0: 91e3 21bd 521c e93d 039f 203d 65ac 85bc
000000b0: 6e14 233d 50a7 573d f902 d33d cd2b 1f3d
000000c0: e2db 3fbd a1b1 7d3d 12ba afbc 4fa5 62bd
000000d0: 9ece 633d 1dad a13c 7e2d de3c 7dc4 323d
000000e0: 8ad8 8b3d 6f4a cdbb acf0 88bd c320 b9bc
000000f0: 4579 c8bd 3562 b43c dfb4 0bbe 1cf1 df3d
00000100: 2117 29bd 7240 bf3c 4523 7bbd 609b 70bd
00000110: f160 53bd 202e 603c aa5d 853d 93ce 94bd
00000120: d910 6c3b 2f76 313d fa44 083e 36c1 bd3c
00000130: 289e 38bd 8680 9dbd 36b6 b63d c568 76bd
00000140: 53d3 2ebd 042d c63c 3cd7 433b 278b f53c
00000150: 812a b13d 028f 4f3d f4cb 473d b9e0 4abd
00000160: f3ac 373b b655 a4bb b574 c3bd b568 6ebd
00000170: b7f8 1d3d 4ea9 f2bd ad49 ae3d 4152 babd
00000180: be15 413c 8eb8 713d 6c0e 4c3d 0494 7f3d
00000190: 5b0a c0bc d411 673d fed9 a23c 7406 99bd
000001a0: d8c0 173d 923d 1e3d 893d d5bc 8c49 d73c
000001b0: 6491 87bd 06fa d9bb c521 0c3d 998d 8fbb
000001c0: 444d 043d 715f 3d3d 54a9 453d a14b fc3c
000001d0: d23c b3bb 73d7 65bc b320 1fbe b44f 1b3e
000001e0: b4e0 3fbc 791c 19bc d4d1 49bc 438b 7c3c
000001f0: bc16 eb3d 7834 263d 10df 1e3d b254 023d
00000200: 4210 6b3d 01f6 7cbc cf12 803c b0d5 a3bd
00000210: 8740 fb3b b593 1a3e 8917 0ebd 1933 883d
00000220: ac9f e73d 778e c53d 4c24 b13c 51b8 dcbd
00000230: 1325 943b 8bda 773d 8b46 bdbd adb0 883c
00000240: 38b2 263d 9b9b 5a3d 316a 093c 7088 afbc
00000250: 46bc cc3d 25cf 073e 8875 80bc b3d0 453d
00000260: 9781 3e3d 83a8 053d a839 693d ebca 743c
00000270: a397 993d 99e0 a23d 7126 7e3b 9319 023e
00000280: c141 533d 65f6 023d 9c26 833c 39d2 a13c
00000290: bfcb 89bd 6e87 aa3c e6c2 c4bc 9fa7 e03b
000002a0: 79a4 e13d 8cd1 dcbc a4c4 16bd 996b eebd
000002b0: af7f f33d 6654 8dbd 5092 fa3c 1ffb 0fbd
000002c0: cac3 68bd 4bcb d2bc 6d5c c23d c8f1 0f3e
000002d0: c626 b4bd eb72 553d 0824 313d 6760 573d
000002e0: fa55 5a3d f2d3 233c 337f 3fbd 822c c83c
000002f0: 18dd 68bd 8f2f b13d 6b2c 0cbd cbd9 52bc
00000300: 6da1 88bd cf8e 323d 06b5 7dbd 7459 99bd
00000310: 7f53 233d 4fb2 e2bd 4939 e0bc 9fe4 863d
00000320: a726 833d 53be 4cbb 8c1c 48bd f121 733c
00000330: 1c1f 853c fae1 f33c 4747 893d 96f4 c03d
00000340: 91c0 e9bd 7b11 173d 5996 753c 1b61 3a3d
00000350: 6bfa ddbd c3ac 07bd 0d0d 03bd d01e f63d
00000360: 7f4f 2e3d 40c1 b2bd e824 75bd 7d14 163d
00000370: 596d 723e be16 97bd 93c1 16bd 519e 82bd
00000380: 31da 8bba 7659 793d 2222 283d 8d6d 7cbd
00000390: b4a8 d83c de36 15bc dac8 48bc 4df7 6bbb
000003a0: c428 59bd 7cf3 f1bc ea51 c7bd 468c 0e3d
000003b0: 67b2 5f3d 0b67 9ebd e8e4 adbb 2781 433d
000003c0: b15b 123c 4bc7 83bc de20 ddbc dea6 42bb
000003d0: 4c21 3d3d 47e7 bbbd 86a0 46bd 8741 cebb
000003e0: 5adb 5e3d 3099 fd3d 615a 133d 5bbd 87bd
000003f0: a852 cfbc 7d9c b23c 685d 90bc d544 e83c

network_body.linear_encoder.seq_layers.2.bias f4 [256]
0.006826545 0.00672282 0.009493657 0.007992244 0.0025523663 0.013664888 0.017054783 0.016681138
0.001129171 0.0008456971 0.01766811 0.019101158 0.012167594 0.007746133 0.016731832 0.012064626
0.010374882 0.010092829 0.009355383 0.007304602 0.01023134 0.016700612 0.02056047 0.012812808
0.008732772 0.018914763 0.016964147 0.006838374 -0.0014153093 0.009409748 0.0148071805 0.00039706787
0.008396361 0.012042996 0.0087614 0.012660117 0.017777013 0.012534856 0.015938777 0.004071776
0.021523803 0.014241437 0.018151483 0.0124812955 -0.0014384945 0.004696449 -0.0031729972 0.023391861
0.012229313 0.019003699 -0.0074448036 0.017506016 0.009066437 0.008113712 0.007545301 0.02394756
0.0026334606 0.0061705075 0.02029299 0.009659488 0.016573796 0.020261006 0.003319932 -0.0013594661
-0.001764006 0.01415095 0.019929193 0.015453278 0.021268288 0.011926451 0.0040502567 0.012706475
0.020339975 0.012582038 0.012664518 0.012648374 0.013948656 -0.0036063541 0.0015735009 0.0029153214
0.015274968 0.0073454776 0.015161639 0.0037628873 0.013197335 0.008534877 0.009463753 0.0075562103
0.009864747 0.00809854 0.008877651 0.011711335 0.01662136 0.019620312 0.020342516 0.018985702
0.016321769 0.0168374 0.011858581 0.00015283951 0.0070217755 0.014334824 0.019665042 0.02329747
-0.00049106305 0.010727577 -0.0015961645 0.01464889 0.009016556 -0.0002321262 0.014598604 0.011923475
0.019364597 -0.0004777007 0.01490534 0.004476429 0.013228032 0.010729108 0.014291312 0.002982094
0.008701289 0.008407262 -0.0038106178 0.014072463 0.010832127 0.017584136 0.008325165 0.018843949
0.01965213 0.014914724 0.005731416 0.013098575 0.015737517 0.009158206 0.012030202 0.015139464
0.0020825297 0.00592054 0.0188114 0.0103091085 0.012910513 0.015192997 0.0029559378 0.013846258
0.019279962 0.0056402213 0.0099352775 0.008972852 0.006039287 0.016881961 -0.0055233343 0.006041958
0.0046533193 0.014336545 0.015437826 0.005407517 0.0151095195 0.0075006196 0.014948856 0.01363848
0.009979627 0.019615075 0.009992011 -0.0027907728 -0.0019581139 0.0051843743 0.009368239 0.0030916638
0.007528635 0.016162751 -0.000100897996 0.015765851 0.011296553 0.009872166 0.014958753 0.021607816
0.0015539239 0.005518181 0.020100372 0.029268509 0.0018747186 0.01660907 0.0044892454 -0.00070906355
0.004622854 0.01726802 0.010014084 0.013749358 0.005789723 0.00032905542 0.0024916444 0.0057856836
0.0045836326 0.023511698 0.012915404 0.019385124 0.015377899 0.001622343 0.013023099 0.0043291245
0.020890916 0.01480658 0.011774985 0.013644999 0.0044395495 0.015962133 0.017442603 -0.0081267385
0.012600505 0.004544197 0.01476814 0.009459143 -0.0072798464 0.019348808 -0.0019595327 0.015282886
0.0038250266 -0.007997299 0.018564168 0.011442622 -0.0005996812 -0.0033124876 0.01668288 0.011346525
0.012156746 0.004426313 0.012463735 0.013517684 0.008712664 0.018465945 0.006282336 0.018472157
0.012728276 0.0036683274 0.0067229327 0.0006835993 0.010249113 0.012015085 0.0018579155 0.021249551
0.021785835 0.019572427 0.014335115 0.013686999 0.014093758 0.012871328 0.01324646 0.012454707
0.006927005 0.011898823 0.014192663 0.0049049305 0.0010421157 0.008039394 0.011491917 0.00022694822
00000000: 36b1 df3b 1a4b dc3b 498b 1b3c e7f1 023c
00000010: 9a45 273b b2e2 5f3c 79b6 8b3c e2a6 883c
00000020: b100 943a c6b1 5d3a b6bc 903c 087a 9c3c
00000030: 975a 473c 46d3 fd3b 3211 893c b6aa 453c
00000040: 69fb 293c 655c 253c 5247 193c 715b ef3b
00000050: 5aa1 273c b9cf 883c 6e6e a83c d0ec 513c
00000060: e713 0f3c 22f3 9a3c 65f8 8a3c 7014 e03b
00000070: e681 b9ba 582b 1a3c d199 723c 8c2d d039
00000080: e490 093c fc4f 453c fa8b 0f3c 616c 4f3c
00000090: 19a1 913c ff5e 4d3c 0a92 823c 886c 853b
000000a0: b052 b03c eb54 693c 6bb2 943c 597e 4c3c
000000b0: de8b bcba abe4 993b 0ff2 4fbb 4aa0 bf3c
000000c0: 755d 483c a5ad 9b3c 8af3 f3bb c768 8f3c
000000d0: 658b 143c 60ef 043c 933e f73b ac2d c43c
000000e0: 2396 2c3b f831 ca3b 7c3d a63c d442 1e3c
000000f0: c5c5 873c 69fa a53c 3793 593b 1d30 b2ba
00000100: 3836 e7ba 63d9 673c 8c42 a33c bf2f 7d3c
00000110: d53a ae3c 2967 433c 04b8 843b d22e 503c
00000120: 05a0 a63c e424 4e3c d77e 4f3c 203b 4f3c
00000130: e788 643c 9558 6cbb ee3d ce3a fa0e 3f3b
00000140: dc43 7a3c 55b2 f03b 8668 783c c69a 763b
00000150: a339 583c ded5 0b3c db0d 1b3c 169a f73b
00000160: bf9f 213c bdaf 043c 9173 113c e6e0 3f3c
00000170: 8529 883c c7ba a03c 59a5 a63c e787 9b3c
00000180: 3bb5 853c 96ee 893c 7e4a 423c 8b43 2039
00000190: ec16 e63b 9cdc 6a3c 9518 a13c 56da be3c
000001a0: afba 00ba b8c2 2f3c 6536 d1ba e601 703c
000001b0: 2dba 133c e766 73b9 fc2e 6f3c ae5a 433c
000001c0: 81a2 9e3c e773 fab9 8735 743c 02af 923b
000001d0: 63ba 583c 24c9 2f3c 1b26 6a3c 3c6f 433b
000001e0: da8f 0e3c 9dbe 093c 8fbb 79bb 3090 663c
000001f0: 3c79 313c 9b0c 903c 4666 083c a05e 9a3c
00000200: 81fd a03c e35c 743c 9ace bb3b 689b 563c
00000210: f7eb 803c 4d0c 163c 531a 453c 840b 783c
00000220: 0d7b 083b 1701 c23b 5d1a 9a3c 89e7 283c
00000230: 9e86 533c 0cec 783c 68b8 413b 6adb 623c
00000240: 03f1 9d3c 9bd1 b83b 93c7 223c de02 133c
00000250: 36e5 c53b 0a4c 8a3c 16fd b4bb 9efb c53b
00000260: df7a 983b d4e3 6a3c efee 7c3c 8a31 b13b
00000270: eb8d 773c c2c7 f53b 0cec 743c ee73 5f3c
00000280: 9781 233c cbaf a03c 88b5 233c 66e5 36bb
00000290: b353 00bb afe1 a93b 3e7d 193c 839d 4a3b
000002a0: c5b2 f63b bf67 843c 3399 d3b8 6327 813c
000002b0: 2d15 393c debe 213c 8f15 753c e002 b13c
000002c0: 09ad cb3a dbd1 b43b 89a9 a43c 83c4 ef3c
000002d0: 1eb9 f53a bf0f 883c 851a 933b 73e0 39ba
000002e0: 4f7b 973b aa75 8d3c 1d12 243c fd44 613c
000002f0: b7b7 bd3b 1285 ac39 db4a 233b d595 bd3b
00000300: 4c32 963b 9b9b c03c 219b 533c 8dcd 9e3c
00000310: 95f3 7b3c cca4 d43a d65e 553c 54db 8d3b
00000320: 6d23 ab3c 4c97 723c deeb 403c 468f 5f3c
00000330: a479 913b 05c3 823c cae3 8e3c 0326 05bc
00000340: 5972 4e3c 7de7 943b 12f6 713c 85fa 1a3c
00000350: c78b eebb 6481 9e3c 816b 00bb 1265 7a3c
00000360: 4cad 7a3b 1a07 03bc e213 983c d679 3b3c
00000370: ed33 1dba 5216 59bb 89aa 883c c6e6 393c
00000380: 172d 473c 9b0a 913b b234 4c3c 4779 5d3c
00000390: 90bf 0e3c e545 973c 0edc cd3b ec52 973c
000003a0: 428a 503c 5268 703b 0c4c dc3b 9333 333a
000003b0: e5eb 273c ebda 443c 4d85 f33a 8a13 ae3c
000003c0: 3578 b23c 5b56 a03c d5dd 6a3c 6f3f 603c
000003d0: 81e9 663c 43e2 523c ae07 593c d40e 4c3c
000003e0: eefb e23b 48f3 423c 5888 683c 8ab9 a03b
000003f0: 9a97 883a aab7 033c 9848 3c3c f3f8 6d39

action_model._discrete_distribution.branches.0.weight f4 [7, 256]
-0.011961205 0.006684207 -0.011370225 -0.021835927 -0.0027674877 -0.0013752832 -0.018659316 0.012304286
-0.0058609312 0.0018616617 0.032001566 -0.029193668 -0.0029974587 0.003311768 -0.0036216234 -0.00084206753
0.01029696 0.005662588 -0.003009702 0.01431823 0.035518117 -0.013236577 -0.025266837 -0.006210201
0.017981762 -0.0106670065 -0.009147843 -0.008846643 0.010973283 0.0017747073 -0.0093215965 0.0027227488
0.0013867785 0.010738714 0.03734342 -0.003249776 -0.01841276 -0.029938133 -0.008971006 -0.014222398
-0.03230403 0.003671063 -0.016991625 0.0015236044 0.0128483465 -0.0134280315 -0.0050719604 -0.0016118677
0.0022304691 -0.021767884 -0.0026147268 -0.012344762 -0.00511791 0.0075977608 0.010093692 -0.022819743
-0.005549451 0.03625406 -0.012907361 -0.021032555 -0.016748894 -0.00883795 0.006434254 0.03144704
-0.01625373 0.0032273752 -0.018010162 -0.0210882 -0.0024112174 0.03357462 0.005666357 0.008323522
-0.0153113725 0.005160923 -0.02555421 -0.009510193 -0.017710295 0.0030662764 -0.0046591507 0.0038082106
-0.027096676 -0.0010244143 -0.02274459 -0.0034080413 -0.00049492484 -0.01636237 0.00588156 -0.0090885665
0.0030969493 0.006543511 -0.008791292 0.014301188 -0.021765778 -0.009137406 -0.027957669 -0.008386941
-0.0016507283 -0.024881184 -0.015798235 0.017338818 0.0025381087 -0.009221249 -0.019810408 -0.018968068
0.0016296962 -0.01027589 0.020168137 0.022912703 -0.0062756343 0.01596743 -0.017592374 0.012786634
-0.045317564 -0.010195619 -0.027748873 0.008473956 -0.028165605 -0.024530623 -0.028401952 0.017210005
0.0029906845 0.029380629 0.012314862 -0.009468953 -0.0105863465 -0.009640142 0.0247487 -0.01943712
-0.014255265 -0.014441288 0.003971997 0.005933088 -0.003830147 -0.010814114 -0.018576501 -0.03824289
-0.00019467491 0.0032249645 -0.029922785 0.031749845 -0.01884541 -0.023790492 0.024514733 -0.035165723
0.002095998 0.003598602 -0.003076848 0.022505358 0.016980467 -0.0148399 -0.003023559 0.016473934
0.0017995375 -0.019565234 0.0039800424 0.00030022653 -0.0077209603 0.019490054 -0.012020319 -0.017498806
-0.037116546 -0.016012894 -0.015891772 0.008149435 0.015552227 0.013642485 0.025507722 0.0176357
-0.0009111563 -0.018994499 -0.018186625 0.013333148 -0.0069025448 0.039559763 -0.022126988 -0.015760032
0.009723824 0.005264042 -0.0021162073 -0.019341884 0.020761799 -0.023444839 -0.019034281 0.016607935
-0.011275611 -0.019638427 0.0035404754 -0.028226446 0.027243838 -0.006070825 -0.0041982485 -0.0043419716
0.032718882 -0.010260947 -0.006894358 0.04340343 -0.009730584 0.022779707 -0.0053204 0.006864885
-0.01571168 0.012371735 -0.009799194 -0.008851112 0.0019901937 -0.021962758 -0.008247785 0.005254947
-0.02307744 0.000104895895 -0.008306999 -0.0075668916 0.005431314 -0.02880864 0.042653725 0.008726979
-0.010041383 -0.0024202787 0.0024577947 0.0019411823 0.002454403 0.006816271 -0.023559853 -0.004837299
-0.011144443 -0.010364351 -0.016965967 -0.0030975847 0.007814899 0.0009492201 0.017509647 -0.017559005
0.010520136 0.016702162 0.006873606 0.0319811 -0.019410662 0.030455483 -0.00715649 -0.009813785
-0.031949338 -0.011315821 -0.0054736696 -0.01706278 -0.019754274 -0.0068672462 0.008738148 0.0028330449
0.038332883 -0.017240383 -3.450133e-05 0.00811601 0.012058393 -0.0006918195 0.0115210535 0.013294949
00000000: eef8 43bc 3107 db3b 2e4a 3abc 42e1 b2bc
00000010: bd5e 35bb d942 b4ba 6cdb 98bc ea97 493c
00000020: 0e0d c0bb 0003 f43a 1314 033d 8f27 efbc
00000030: 0371 44bb 3f0a 593b c258 6dbb 32be 5cba
00000040: 95b4 283c 3b8d b93b 6c3e 45bb 0297 6a3c
00000050: 727b 113d 3ade 58bc 66fc cebc f17e cbbb
00000060: 7d4e 933c abc4 2ebc d6e0 15bc 83f1 10bc
00000070: 49c9 333c 4c9d e83a 9cb9 18bc 2570 323b
00000080: 91c4 b53a 6ef1 2f3c 6af5 183d 32fa 54bb
00000090: 5bd6 96bc d140 f5bc 20fb 12bc 1005 69bc
000000a0: 3b51 04bd 3896 703b 0532 8bbc aeb3 c73a
000000b0: df81 523c 3f01 5cbc b032 a6bb 4e45 d3ba
000000c0: 102d 123b 9052 b2bc d65b 2bbb af41 4abc
000000d0: 24b4 a7bb a3f6 f83b 0360 253c 78f0 babc
000000e0: 2bd8 b5bb 237f 143d 6579 53bc 774c acbc
000000f0: fa34 89bc 0dcd 10bc 6fd6 d23b 9dce 003d
00000100: 8b26 85bc 5f82 533b 0c8a 93bc 29c1 acbc
00000110: 8405 1ebb 8a85 093d d9ac b93b 625f 083c
00000120: 8ddc 7abc f61c a93b 1057 d1bc a4d0 1bbc
00000130: 2e15 91bc 95f3 483b caab 98bb 2c93 793b
00000140: d9f9 ddbc a445 86ba dd52 babc 7259 5fbb
00000150: d8bd 01ba 610a 86bc 1aba c03b 36e8 14bc
00000160: 30f6 4a3b f36a d63b 5a09 10bc 884f 6a3c
00000170: 254e b2bc 0fb5 15bc 7b07 e5bc 6169 09bc
00000180: 405d d8ba a0d3 cbbc 4d6b 81bc 230a 8e3c
00000190: 6656 263b b914 17bc 7049 a2bc ec62 9bbc
000001a0: 889b d53a 355c 28bc a637 a53c 6cb3 bb3c
000001b0: d6a3 cdbb 21ce 823c e21d 90bc 087f 513c
000001c0: e99e 39bd 870b 27bc 9b51 e3bc 59d6 0a3c
000001d0: 8ebb e6bc 72f4 c8bc 36ab e8bc fffb 8c3c
000001e0: 5cff 433b a5af f03c 46c4 493c ab23 1bbc
000001f0: 5b72 2dbc b0f1 1dbc c9bd ca3c 983a 9fbc
00000200: ea8e 69bc 279b 6cbc 8727 823b 596a c23b
00000210: 3403 7bbb ae2d 31bc bf2d 98bc 94a4 1cbd
00000220: a621 4cb9 ed59 533b a120 f5bc 200c 023d
00000230: b061 9abc 47e4 c2bc 1fd3 c83c ef09 10bd
00000240: 035d 093b 86d6 6b3b f2a4 49bb 285d b83c
00000250: 9f1a 8b3c 0d23 73bc e726 46bb 58f4 863c
00000260: 75de eb3a 4547 a0bc 046b 823b b967 9d39
00000270: 1c00 fdbb 9ba9 9f3c dff0 44bc a859 8fbc
00000280: 8507 18bd 792d 83bc 762f 82bc 3585 053c
00000290: c5ce 7e3c bb84 5f3c 92f5 d03c be78 903c
000002a0: aada 6eba 5a9a 9bbc 1efc 94bc 4773 5a3c
000002b0: be2e e2bb 6b09 223d a843 b5bc 2f1b 81bc
000002c0: ad50 1f3c fc7d ac3b 11b0 0abb df72 9ebc
000002d0: a614 aa3c 640f c0bc c8ed 9bbc 5d0d 883c
000002e0: 57bd 38bc c4e0 a0bc 5207 683b 263b e7bc
000002f0: 782e df3c c5ed c6bb 7691 89bb 1947 8ebb
00000300: 3c04 063d 881d 28bc 11ea e1bb ccc7 313d
00000310: 076d 1fbc 829c ba3c c056 aebb d4f2 e03b
00000320: c8b5 80bc d1b2 4a3c cc8c 20bc 4104 11bc
00000330: e96d 023b 3eeb b3bc b821 07bc b131 ac3b
00000340: e60c bdbc 8efb db38 141a 08bc b0f3 f7bb
00000350: 2af9 b13b 1900 ecbc acb5 2e3d 9afb 0e3c
00000360: 9d84 24bc 8a9d 1ebb f412 213b 456f fe3a
00000370: 0dda 203b 075b df3b 9800 c1bc 3582 9ebb
00000380: 2f97 36bc 3dcf 29bc 36fc 8abc d900 4bbb
00000390: 100a 003c 15d5 783a 6470 8f3c e7d7 8fbc
000003a0: a65c 2c3c f9d2 883c fc3b e13b 9dfe 023d
000003b0: 1c03 9fbc c77d f93c fd80 eabb ffc9 20bc
000003c0: 4fdd 02bd fe65 39bc 785c b3bb 3ec7 8bbc
000003d0: b7d3 a1bc a306 e1bb 732a 0f3c 9baa 393b
000003e0: f102 1d3d b43b 8dbc 85b5 10b8 03f9 043c
000003f0: 9190 453c 395b 35ba cdc2 3c3c 0fd3 593c

action_model._discrete_distribution.branches.0.bias f4 [7]
-0.0033925641 -0.01846213 0.0021472666 0.011744805 0.0031378 0.007129185 -0.012699372
00000000: c855 5ebb e53d 97bc 28b9 0c3b 486d 403c
00000010: 8ca3 4d3b f09b e93b 0711 50bc
