results/t3/Fork1/Fork1-29220.onnx (onnx, 332115 bytes, 6 tensors)

network_body.linear_encoder.seq_layers.0.weight f4 [256, 57]
00000000: 7cdf cdbd 00c1 03be 6846 dfbd 48d8 20be
00000010: d1c8 8ebd 4002 e5bd c299 163e 7f57 30bd
00000020: 8610 06be ccbf 523e 75b1 54bd 5e7f 9abd
00000030: 3e41 44be ec77 cb3d 3a90 2abd ca3e ca3d
00000040: 527b 00be 1305 8f3c 7c57 a13e 75a6 8e3c
00000050: a094 d4bd 415e 04be 1c19 1e3c 418e f93d
00000060: 254e 2abe 29c5 503e 768c 013e f697 d83d
00000070: 7696 023e e0a2 053e 5fae c3bd 8fce d43c
00000080: ed21 febd d95b 1fbd c7ae 65bc 843b 34be
00000090: 3e5f 073e 2cc1 843e 4fba b73d e8b4 e03c
000000a0: 55b8 03bc 8927 8d3e a103 ce3d e26d b0bc
000000b0: 5cd1 093e e26c 4e3e 4386 f63d aa7f f83d
000000c0: 1070 eebd a1af 52bd 0e9b b3bd 194c b43d
000000d0: 069b e43d ca8f d93d 0f53 7dbe 44b2 1d3e
000000e0: ad37 cebd 3f96 16be 8d75 e43b 6c86 353d
000000f0: 6a49 2e3e ca79 9e3d a54a 903d 9633 363c
00000100: 7890 b53b 10c5 723d be73 ea3b 1e5c f13d
00000110: a1e5 d03d 645d 88bd 0976 593c 9a26 863d
00000120: 79b5 b93a f261 963d da61 8bbd 376c d3bd
00000130: 7b9f 18be 06a8 fb3d 82cc 0b3e ab31 e3bd
00000140: 9134 a13d f57d 20be add7 663c 053d 5d3d
00000150: c44e 603e 7625 bc3d 70ea 8b3e 455d 943c
00000160: 0aed 2d3e 40c3 33bd 7584 a0bd 5ef5 c0bd
00000170: cdea 00be a875 2abe 6d6c 8ebe 6fc7 093d
00000180: 7933 e3bd 3308 3abe f796 05be ecbc eebd
00000190: 5e0a 5d3e d207 b03d 6db5 00be e279 17be
000001a0: b6fa 94bd ef07 4a3b a5cc 0cbe 4941 fd3c
000001b0: 76b5 c93d 29b0 b2bb dfae be3d 81b0 65be
000001c0: 1585 3bbe f3b6 08be 2927 98bd a89e 813c
000001d0: 46db d3bc eae1 f83d 3adb 22be 20ca d5bc
000001e0: 1fdd 813e 4d2c 0cbd 8170 343e 1eb7 823c
000001f0: cfd5 7cbe d0b2 9ebe 401e d23d e9a8 2d3e
00000200: 4c1a 603c 1cec 303e 4077 913c eb4d 80bd
00000210: 59f7 2dbe e1b2 dd3d df83 7abd 05b1 513e
00000220: 04c9 d1bd ab3d 323c 24e4 f83c 33e7 6c3d
00000230: e4ff 263e dc60 3abd d870 2c3c bfd5 ecbd
00000240: 503c 81be 5cc3 3b3c fbe9 bfbd da52 163d
00000250: 4586 2ebe a4fb dd3b 569b cabd 1ac8 02be
00000260: 83f0 a53d 5da7 4a3e 91ad 883e f1a4 953d
00000270: 27bf 773d f3bc 4b3b ba19 10be 35ef 66ba
00000280: d22f 1ebe 3d97 fcbd 6c0d 823e c70f 83be
00000290: b449 fa3d bc2b eb3d 5302 bf3d 7ddb 75bd
000002a0: 374b 4ebe c74f bf3c 8736 cc3d 6282 783e
000002b0: 907a ce3d 3c9e 493c 5d8c dabd 9953 163e
000002c0: ef3a d13d 0105 be3d 59a7 bd3d 5751 123e
000002d0: 1bd2 9bbd 68a5 d8bd 2ce8 093d c240 803d
000002e0: 19ba 263e 9ec3 38bd b601 633e 95cc 1dbe
000002f0: 4575 6e3e 8417 0bbe 23d2 3d3d bb56 9bbd
00000300: 6550 e6bd 2e8b 403e fff3 c7bd 12a5 2abe
00000310: 920c ec3d 6d46 a8bd 0227 f93d 277f ef3d
00000320: b9b2 56bd 8b7a 7f3e 6fcf 3b3e 7c92 90be
00000330: c86f b63d ba45 65bd 9a01 743e 790e 34bd
00000340: 7e8c 923d 5b61 4cba 516a 29bd b281 95bd
00000350: 7372 af3d cf33 a83c cbc2 053e b372 603d
00000360: a57f 87bd a4ab dd3d 7aec 0a3d 1842 323e
00000370: 4ba1 373e ef57 8b3d ad6b 92bd 4432 72be
00000380: 2f86 df3d fe16 443b 2bf0 bf3d 0a67 633d
00000390: ae21 053d a0bc 0fbe 4f4f a6bd f1b9 223e
000003a0: f777 95bc 6f51 2b3d c831 d6bd 2324 6e3d
000003b0: 5574 7f3d e80d afbb f481 503e 5795 a13e
000003c0: ad98 f7bd f51f 333e e73f 9f3b e44d 603d
000003d0: ca8e 133e 5304 0ebe d7ab f2b9 50c6 83be
000003e0: d46d a3be c51c 2ebb 4307 b93d 0b96 7c3d
000003f0: 75f6 c83d 057e 9dbd 410d a3bd ec17 8fbd
-0.10052392 -0.12866592 -0.10902101 -0.15707505 -0.069718964 -0.1118207 0.14707091 -0.043052193
-0.1309224 0.20580977 -0.05192705 -0.075438246 -0.19165513 0.09934983 -0.04164145 0.09875257
-0.12547043 0.017458474 0.31512058 0.017413357 -0.103799105 -0.1292658 0.009649541 0.12185336
-0.16631372 0.2038771 0.12651238 0.10575859 0.12752709 0.13050413 -0.09554743 0.025977401
-0.124088146 -0.038905952 -0.014018721 -0.17600828 0.13219926 0.25928628 0.089710824 0.027430013
-0.008039554 0.27569225 0.10059286 -0.021536771 0.1345877 0.20158723 0.12037327 0.12133725
-0.11642468 -0.051437024 -0.08769809 0.08803577 0.11162381 0.10623129 -0.24738716 0.15400034
-0.10069213 -0.14705752 0.006972021 0.044317648 0.17020193 0.07738073 0.07045487 0.0111206975
0.0055409037 0.059269965 0.007154911 0.11785148 0.10200048 -0.06658438 0.013272771 0.065503314
0.0014168463 0.073429 -0.06805773 -0.10323375 -0.14904587 0.12287907 0.13652232 -0.11093458
0.07871354 -0.15673049 0.014089507 0.05401327 0.21905047 0.091868326 0.273273 0.01811088
0.16984954 -0.043887377 -0.07837764 -0.094218 -0.1258957 -0.16646445 -0.27817097 0.03363746
-0.11093802 -0.1816719 -0.1304587 -0.11657128 0.21585986 0.085952416 -0.12569208 -0.14792588
-0.07274382 0.0030827483 -0.1374994 0.03091492 0.09849064 -0.005453129 0.09310698 -0.22430612
-0.18312486 -0.1335104 -0.07429344 0.015822724 -0.025861394 0.12152465 -0.15903941 -0.026097357
0.25364015 -0.034221936 0.17621042 0.015956458 -0.24690937 -0.30995798 0.10259676 0.16958965
0.013678145 0.17277569 0.017757058 -0.06264862 -0.16988887 0.10825134 -0.06116092 0.20477684
-0.10243419 0.010878961 0.030382223 0.057837676 0.16308552 -0.04550253 0.010524951 -0.11564206
-0.25241327 0.0114601515 -0.093708 0.036700107 -0.17043407 0.0067743827 -0.09892909 -0.12771645
0.081025146 0.19790407 0.2669492 0.07306851 0.06048503 0.0031087964 -0.14072314 -0.00088094483
-0.1544793 -0.12333534 0.25400865 -0.25597975 0.12221089 0.11482951 0.09326615 -0.060023773
-0.2014588 0.02335347 0.09971338 0.24268487 0.10081971 0.012305792 -0.106713034 0.14680327
0.10216319 0.09278298 0.09260435 0.14288841 -0.07608434 -0.10578424 0.033668682 0.062623516
0.16281928 -0.04510843 0.22168621 -0.15410073 0.23286922 -0.13583189 0.04634298 -0.07584902
-0.11245803 0.18803093 -0.097633354 -0.16664532 0.11525835 -0.08216558 0.12165643 0.11694174
-0.052416537 0.2494909 0.18340848 -0.2823676 0.08908039 -0.0559747 0.23828736 -0.043959115
0.07155703 -0.00077964895 -0.041361157 -0.07300128 0.08566751 0.020532517 0.13062589 0.054796886
-0.06616143 0.108237535 0.033916928 0.17408025 0.17932622 0.068038814 -0.07149444 -0.23651987
0.10914265 0.002992093 0.0937198 0.055518188 0.032502823 -0.14036798 -0.08120596 0.15891244
-0.01824568 0.041825708 -0.10458714 0.05813993 0.062366802 -0.005342234 0.20362073 0.3155925
-0.120896675 0.1749266 0.0048599127 0.054761782 0.14409938 -0.13868837 -0.00046285868 -0.25737238
-0.3191973 -0.002656744 0.09034588 0.06166653 0.09812633 -0.07690052 -0.07961512 -0.069869846

network_body.linear_encoder.seq_layers.0.bias f4 [256]
00000000: f08d 3b3c 17af 123d b533 35bc 2333 a63b
00000010: bfc1 b23c 7616 bc3c 354d b1bc f518 b03c
00000020: 75db 7ebb 4a27 a43c 1b65 14bb 4567 693b
00000030: bab9 463c 15e8 a43c 94b0 523c 25e3 333c
00000040: 797b 483d f9e6 6f3c 2b51 aa3c 3eac 1f3b
00000050: b291 8e3a ac1b 323c 1cba 0e3d d40a 023c
00000060: 6eb9 1d3d c338 033d a144 4a3c 26f8 813c
00000070: 97fe 443b 87d5 8b3c 31db bbbb 7ba6 313c
00000080: 0e45 073d 3e20 c13c b97c ecba 97b2 3b39
00000090: 879a dfbb 7102 47bc 6607 b83c 8a3f f13b
000000a0: cd56 90bc 4dd3 553c ecc8 9eba 9a1b f439
000000b0: 1b09 803a 1db2 27bc 151e 2f3c ff72 c0ba
000000c0: 71eb 11bc 971b 43bb 6f53 98bc 6805 863c
000000d0: fffd a2bb b94b 1c3d c524 893a 4c13 ce3c
000000e0: d6c7 1f3c ed52 9d3b 7130 79bc 8305 693c
000000f0: e1ad 133c a067 b33a 655f de3b 2e70 963b
00000100: 1419 523c 7812 9b3a 6116 953b 3ff7 043c
00000110: 7862 49bc 8af9 063c 4b55 a93b 490d 6f3c
00000120: 469d 5a3a 19cd 863b db8e 803c 9a47 d53a
00000130: 554c e1bb 32da 8c3c d842 a2bb 2830 a33b
00000140: b2a0 c33c acb1 d13b f2fc 11ba 9400 833c
00000150: 33f3 1b3c 58ea 583b 8ded f83b 21d1 cfbb
00000160: 3263 4d3c a6ea 323c 7abb 283c 6934 8d3b
00000170: 27b8 263c 3fe1 3a3b 843e dcba 8f83 293c
00000180: 901e 733c d0de bb3b 35d4 bf3c 5b5a 633b
00000190: 19fb cb3b eb00 cf3c d505 49bc 47c8 a83c
000001a0: 091d fd3c 6f40 133c e509 bbbb 1530 2839
000001b0: e733 7a3a 431b 65bb 07f5 b13a 405a 25bb
000001c0: adfd 1aba 027b c23c b869 753c 7c9a a2bc
000001d0: d310 8b3c 8878 f43c ecee 863b e3d6 2f3c
000001e0: 86c7 d53b 3a12 b9b9 8ffe 223c bbbc a2ba
000001f0: 109c 77bb 16c7 1cbb 8224 67bc 305b 6c3b
00000200: 2e27 003c 71bb 0dbc e6ec 0bbc 2b4e 46bc
00000210: 5e8b 90bc 76c5 c63c 2025 fcbc 9625 2dbb
00000220: 2c22 bd3b 0d2c 23bc 995b 403b 4557 0abc
00000230: 3f90 f03c 9ec8 773c b2de c23a 9aad dd3c
00000240: 2c8a 0cbd 0b51 3b3c 4f09 ce3b 1bfd a03c
00000250: c6b9 59bc 24ab c03c efdc abbc 264d abbc
00000260: b17c c53c 90fa 1c3c 3ece 243c f0c0 99ba
00000270: 76e4 263b 9643 53ba 4039 193c 2b5d 003d
00000280: 77d5 093c c6d8 bd3b a865 113c 2bdc 5abb
00000290: 047d 0d3d ac67 9f3c fb21 4b3c 8940 5f3c
000002a0: 759d b0b7 ad56 8b3c 860b 863c add9 953c
000002b0: b09a 763c b59e a33c 0b66 ddbb 0dc0 d33c
000002c0: 3730 903b 55d1 543c 7216 203c f96a 573c
000002d0: 2a68 ad3c b6ed b93c 6ae7 e43c 437e f23b
000002e0: ba63 02bc 762c 8f3c b18b ec3b a3a7 683b
000002f0: 426e 043d 86c1 743c 391a ea3c 1021 da3c
00000300: cb03 56bb 43bb a6bb 0c58 7b3c e783 153d
00000310: 75d5 c2ba e158 103c f46b 653c 80fe f93b
00000320: 62dd 15bc 306a ab3c 10df 823c 7ca5 273b
00000330: ea1d b43b c2c0 a13c bcd0 d23a 5d77 cb3b
00000340: 4972 3c3c 05a0 033c e005 9abc 689b 4b3b
00000350: 94bc 1a3a 1126 723b 41a1 52bc cd1a d63b
00000360: 4ed4 04bc 3f1c 7ebc 0feb 853c cc5e 7a3b
00000370: b092 13bb 47b8 20bc 701f 10bc 5b76 e53a
00000380: 2313 45bb a5de 6f3c 8f1a 06bb 657c 863c
00000390: fa60 40bc 4d32 423a 496d 733b 6ff2 d23b
000003a0: 5b7c d93c 6a5e 033d 91e0 363b be1f 4f3c
000003b0: e265 8b3c 2a1c 8c3c 16f4 bcbb 239f 593c
000003c0: 68ad 7b3b 09bd d83c 1785 2b3c 3774 15bc
000003d0: af25 f23b eaad 36bb a5c8 7dbc 5177 a23c
000003e0: f0eb dc3b 9ba9 cebb a5c2 05bc 1a23 683c
000003f0: 0ea8 ec3c 02c8 6d3b ac2f 173d e594 543b
0.011447415 0.03581151 -0.011059691 0.005072014 0.021820901 0.022959929 -0.02164326 0.021496275
-0.003888813 0.020038266 -0.0022643271 0.0035614532 0.012129242 0.020130197 0.012859482 0.010979448
0.048945878 0.0146424705 0.020790657 0.002436414 0.0010877161 0.010870855 0.034845456 0.007937152
0.038506918 0.032036554 0.012345464 0.015865397 0.0030058974 0.017069591 -0.0057329168 0.010842915
0.03302484 0.023574945 -0.0018042541 0.0001790024 -0.006823841 -0.012146578 0.022464465 0.007362311
-0.017619515 0.013050866 -0.0012114323 0.0004655987 0.0009768339 -0.010235337 0.010688324 -0.0014682709
-0.008906231 -0.0029771084 -0.018594472 0.01636 -0.0049741264 0.038158152 0.0010463229 0.025155686
0.009752234 0.0048011453 -0.015209303 0.0142225055 0.009013624 0.0013687499 0.0067862743 0.0045910096
0.012823362 0.0011831066 0.004549787 0.008115589 -0.012291543 0.008238206 0.0051676384 0.01459057
0.00083394756 0.004113805 0.015693119 0.0016271949 -0.0068755546 0.017193887 -0.004951816 0.004980106
0.023880336 0.006399354 -0.0005569003 0.015991487 0.009518432 0.0033098664 0.0075966776 -0.006342069
0.012535857 0.010920202 0.010298604 0.0043092263 0.010175741 0.0028515605 -0.0016803299 0.010346307
0.01483883 0.0057333484 0.023416618 0.0034691307 0.0062250015 0.025268992 -0.012269457 0.020603312
0.030897634 0.00898753 -0.0057079666 0.0001603964 0.0009544477 -0.0034958876 0.0013577052 -0.0025230795
-0.00059124344 0.023740295 0.014978819 -0.019849055 0.016975796 0.02984263 0.004117837 0.010732385
0.006524029 -0.0003529953 0.009948387 -0.0012415865 -0.003778223 -0.0023922375 -0.014107825 0.0036065094
0.007821841 -0.008650647 -0.008540368 -0.012103598 -0.01764458 0.024264079 -0.030779421 -0.0026420108
0.005771896 -0.009959233 0.0029351471 -0.008443658 0.029365657 0.015123514 0.0014867394 0.027060319
-0.03431146 0.011432896 0.0062877308 0.01965194 -0.013288921 0.023519106 -0.020979373 -0.02091081
0.024107309 0.009581223 0.010058938 -0.0011730473 0.0025465763 -0.00080590823 0.009352028 0.031338852
0.00841271 0.0057936637 0.008874334 -0.003339539 0.034543052 0.019458614 0.012398238 0.013626226
-2.1054157e-05 0.017009104 0.016362917 0.018292272 0.015051529 0.019973138 -0.0067565492 0.025848413
0.004400279 0.012989362 0.009770976 0.013148063 0.021167833 0.022696357 0.027942378 0.0074003055
-0.007958347 0.017477255 0.007218801 0.003550031 0.032331713 0.014938718 0.028576957 0.026627094
-0.003265607 -0.0050882413 0.015340816 0.036502745 -0.001486464 0.008810253 0.014002789 0.0076292157
-0.00914702 0.020924658 0.015975505 0.0025580814 0.00549673 0.019745234 0.0016083936 0.0062092976
0.011501857 0.008033757 -0.01880163 0.003106797 0.0005902734 0.003694896 -0.012855829 0.0065339566
-0.008107258 -0.015509664 0.016347436 0.0038203476 -0.0022517852 -0.00980956 -0.008796558 0.0017506586
-0.003007122 0.014640485 -0.0020462607 0.016416738 -0.011741871 0.0007408008 0.0037143996 0.0064375917
0.026548555 0.032072462 0.0027904848 0.012641845 0.017016355 0.017103273 -0.005766402 0.01328257
0.0038402919 0.026457326 0.010468743 -0.009121946 0.007389746 -0.0027874657 -0.015489732 0.019832285
0.006741993 -0.0063068396 -0.008164083 0.014168525 0.028888728 0.0036282544 0.036910698 0.003243738

network_body.linear_encoder.seq_layers.2.weight f4 [256, 256]
00000000: 2894 6abd a29b 9bbc d5d9 823d 9544 9b3d
00000010: 601a 8abd 12ad 363d 874b 8fbc 8b8c 113d
00000020: bc65 b33d ded5 a9bb bedf cebc 4aa7 0e3d
00000030: 431d 873d f1e5 c4bd 5314 073d 1718 273d
00000040: aa50 13bd e299 433e 4c1c c63c e09a 3abd
00000050: ca5d a63d 9201 a83d bec0 ffbd 930a 0f3e
00000060: 22f1 bcba 33d0 843d f6f6 023e 644f 06bd
00000070: 72b6 ff3b 8487 d0bd effb 3dbd afca 2d3d
00000080: 3634 043c 8067 14bc 356d 813c 638a b53c
00000090: b4bb 8c3c cccc 703d a42f ef3c a6e0 203e
000000a0: f018 5b3c ccec 1f3c 452f a7bd 59b1 1b3d
000000b0: d32a 6b3c de7c 8c3c b121 9fbd 45ba d6bd
000000c0: 18fb ad3c 2ce8 f63d 37ed 09be 2d36 0ebc
000000d0: 43c6 243d db06 8abd 8f64 9dbd 1816 9abd
000000e0: 4b21 cebc 68f2 12bc e987 ac3c 5f92 083e
000000f0: 994a 1b3d 45d1 953d 5053 103e 60ff 2f3d
00000100: 4d80 94bd 6e4f bebd da2c 31bc 2416 babc
00000110: 22cd ce3c 96bd 6a3c a366 9abd 7b49 183d
00000120: bc4d 333d 4617 553d 49c8 a6bb 53da e9bc
00000130: fdec 49bc fe8e eebc 76cf a53c 4361 7cbd
00000140: ff4c ca3b 1488 463d 7680 26bd c936 04bd
00000150: 5504 0cbd c713 0cbd 25aa e7bb 60f5 45bd
00000160: ab2c 16bc 7ad5 163d 928f 00bd 741a a53d
00000170: 85ca 1b3c 6012 b3bd cd46 8c3d fb26 463c
00000180: daf2 d0bc eb38 2a3c 8755 cd3c 1cfa 58bd
00000190: e09b bebd 270f f03a 40da 8fbd 0701 ac3d
000001a0: 8062 b33d 840a 713d 41d4 0d3e 8f37 773d
000001b0: d124 70bd ef1c 91bd 624e 4cbd 51b1 243d
000001c0: 299c 343c e894 10bd 6f64 47bd a412 e1bd
000001d0: af00 88bc 72a9 0e3d 67b6 ccbb 9782 27bc
000001e0: e1aa 543c d0e1 163d 291d 0dbe 1111 a2bd
000001f0: a754 f13c 2b53 adbd 192f 8f3d ca43 a43d
00000200: 8b7e da3d 18f2 45bd d2dc 2d3c 5033 4a3d
00000210: 7136 04bd 202b 96bc 6eff cbbc be67 2dbd
00000220: e929 fcbc b04a bc3d 356c a9bc 37e6 323d
00000230: 6d27 9abc a86a 843d 882b 81bc 0d5d 31bc
00000240: f36c 563d f2c4 0abc 959c 5dbd da75 713c
00000250: 7233 93bd b9d6 bb3b 9983 36bd edfb a3bd
00000260: 774c 073c 7d51 e0bd e517 023d 2b95 37bd
00000270: 084b fbbc 98f9 25bd 5d14 393d 659d 4bbd
00000280: bcf7 3c3c 1ab1 003e 1d31 e93c ba25 77bd
00000290: d477 313d 011a abbd 9a72 d5bd 5a8b 37be
000002a0: 864f 32bd 0cfd f63d 9a71 5abc 545c 9dbd
000002b0: d6e2 8c3c a68f e3bc 9d8f c7bd cebe bcbd
000002c0: cc44 183b 6015 063d 4536 a73b 71ce acbd
000002d0: 3e73 5e3d e44e a7bc a540 5d3d b338 933d
000002e0: 8df5 90bd 8a5a 91bd 02d1 093d 897a b1bc
000002f0: d6ba 8abd aa6f 87bd 693b dfbd 4a59 813d
00000300: 3a8a 47bd e750 92bd 4192 d53d 8023 3b3a
00000310: 4a33 923b 957b 9abc c445 28bd 10c6 10bd
00000320: c199 e8bc cabd c5bc 83c5 d1bd 1915 a5bc
00000330: 0e5c 7bbd e61f 9dbd 415b 0dbb 646a bd3a
00000340: 7e60 97bd 8a4b b8bc 21e7 ba3c 8de4 09be
00000350: 8e50 1c3d 1e64 08bd 6b45 303d f49d 443e
00000360: 8c9e a03d bc84 703c 5b9c e33c c8d9 a83b
00000370: 78d4 ebbc a75f 01bd daaa d1bc 6c06 91bd
00000380: ca69 35bc f723 9bbc 9bec 073e 28ad 1cbd
00000390: fcb3 3d3c 6b6c 90bc a4fc 1dbd 5b0f 63bc
000003a0: 8ba9 eabc d7c0 cc3c de29 f73d 2189 32bd
000003b0: 99e0 2ebd ab52 e9bc bdc1 1ebe 4bd8 a2bd
000003c0: e7bb 9d3d 68d6 b2bd f91d 0ebe 78a0 9b3d
000003d0: 4452 86bd 9cf0 cc3c 9244 0a3e 9106 ddbc
000003e0: 370b d63d 3479 283e 25e1 d83c 1dd6 4dbd
000003f0: fc82 5dbd d322 c63c 820b 963d b1cf 863d
-0.0572702 -0.01899511 0.063892044 0.0758144 -0.06743312 0.044598646 -0.017492069 0.035534423
0.08759639 -0.0051829657 -0.025253173 0.034827508 0.06597378 -0.0961417 0.032978367 0.04079446
-0.0359656 0.1910167 0.024183415 -0.045557857 0.081233576 0.082034245 -0.124879345 0.13968877
-0.0014415125 0.06485023 0.1278952 -0.032790557 0.0078037316 -0.101820976 -0.04638284 0.042429622
0.008069089 -0.009057879 0.015799144 0.022160714 0.017179348 0.05878906 0.029197522 0.15710697
0.013372645 0.009761047 -0.08163313 0.03801093 0.014353472 0.017149385 -0.07770098 -0.10484747
0.021237895 0.12056002 -0.13469397 -0.008679909 0.04022814 -0.06739589 -0.07685196 -0.07523745
-0.02516236 -0.008968927 0.0210609 0.13337086 0.03791294 0.073153056 0.14094281 0.042968154
-0.07251034 -0.09292494 -0.010813916 -0.022715636 0.0252443 0.014327427 -0.07539108 0.03717945
0.043775305 0.05202415 -0.005089794 -0.028546488 -0.012324569 -0.029120918 0.020240527 -0.061616194
0.0061737294 0.048469618 -0.040649854 -0.03227881 -0.03418382 -0.03419855 -0.0070698434 -0.04832971
-0.009165923 0.03682468 -0.03138692 0.08061686 0.009508734 -0.08743739 0.06849442 0.012094255
-0.025506426 0.010389547 0.025065197 -0.052972898 -0.093070745 0.0018315063 -0.0702405 0.083986335
0.08759022 0.05884792 0.138505 0.06035572 -0.05862886 -0.07085597 -0.04987944 0.040208165
0.01102356 -0.035298258 -0.048679765 -0.109898835 -0.016601888 0.034829564 -0.00624733 -0.010224006
0.012980194 0.036836445 -0.13780655 -0.079134114 0.02945931 -0.08463129 0.06991405 0.08020742
0.106686674 -0.04832658 0.01061173 0.04936534 -0.032278482 -0.01833111 -0.024902072 -0.042335264
-0.030781703 0.09193933 -0.02068148 0.04367658 -0.018817628 0.064656556 -0.015767828 -0.010825408
0.052349996 -0.008469807 -0.054104406 0.014737571 -0.07187547 0.005732384 -0.044559095 -0.080070354
0.008257977 -0.10953043 0.03176107 -0.044819992 -0.030675426 -0.040521234 0.045185436 -0.04971065
0.011533674 0.12567559 0.028465802 -0.060338713 0.043327168 -0.08354569 -0.10422249 -0.17924252
-0.04353287 0.120599836 -0.013332749 -0.07683626 0.017198008 -0.027778458 -0.09744189 -0.092160806
0.0023234366 0.03273523 0.005102905 -0.08437813 0.054309122 -0.02042336 0.054016728 0.07188549
-0.07078085 -0.07097347 0.03364659 -0.021664875 -0.067739174 -0.06613095 -0.109000035 0.06315859
-0.048715807 -0.07144337 0.10428286 0.0007138774 0.0044616805 -0.018857757 -0.04108216 -0.035345137
-0.028393628 -0.02413835 -0.102427505 -0.020151662 -0.061367087 -0.076721 -0.0021569284 0.0014451263
-0.07391451 -0.022496957 0.022815289 -0.13466091 0.03816276 -0.033298604 0.043034952 0.1920088
0.078427404 0.014680084 0.027784517 0.0051529147 -0.028787836 -0.03158536 -0.025594164 -0.07081303
-0.011072585 -0.018938048 0.13273852 -0.038251072 0.011578556 -0.017629823 -0.038571015 -0.0138586415
-0.028645298 0.024994297 0.120685324 -0.043587808 -0.04269466 -0.028481802 -0.15503593 -0.07951411
0.07701855 -0.08732301 -0.13878621 0.07598966 -0.0655866 0.025017075 0.1350272 -0.02698067
0.10451358 0.16452485 0.026474545 -0.050253022 -0.054079995 0.024186527 0.07326414 0.06582583

network_body.linear_encoder.seq_layers.2.bias f4 [256]
00000000: 71e0 1ebc c2ce ab3c 79aa 953b 3fd0 a3bb
00000010: 84f1 723c 3b3c e83b 8836 aa3b ef15 9239
00000020: 56c4 b13c d6fb 9bbb edc0 8b3b c6f4 2b3b
00000030: 778a 503c 72a3 33b9 748f 653b c684 553c
00000040: ac64 083b 3a4b 463c d7aa 913c 64db 723b
00000050: e769 da3a 1bcc 043a e342 b33c 0192 793c
00000060: 06e9 943b 5a34 a43b b64c 703c abb2 a2bb
00000070: bed9 8cbb 9283 ae3c 4398 31bb 6329 9f3c
00000080: 82de 1b3c 90db 043b 8e7d 813c c0c0 063d
00000090: 4ab8 46bc 93ce 693b f923 cf3c 3bd5 173c
000000a0: 21c4 363b 3828 993b 3e4c c0bb f671 96bb
000000b0: c4f6 7e3b cc22 c63c babf 453c e35c 163d
000000c0: 5f43 b93b 82f7 bb3c eee8 083c e85c f0bb
000000d0: 3e26 ec3b 076b d2ba 9853 38b7 0a6d 6e3b
000000e0: 3ce8 6fbb b814 043d 4acb 5dbb af49 50bb
000000f0: 1ae7 593c ebb8 5c3c ef21 b33b 42b0 abbb
00000100: ed06 e03b e96e f33b 9099 ffbb ff73 323c
00000110: 1cce 6f3b 1127 5d39 4e55 9a3c c7f6 c9bb
00000120: d8a9 cc3c 7c36 5f3b 4ea5 643c 05a4 533b
00000130: 3617 4c3c 9462 0fbb 2017 0abc 0e55 ad3b
00000140: ec0b 10bc 3a78 773a ad76 c83b 4679 453c
00000150: e83a b03c 4bbe 95ba 8df3 613b 68cb 043c
00000160: 9d7b 893c 9f9d c03c c648 583c eec4 5e3c
00000170: ba75 0e3c f83b ad3b 0c53 ba3c 138e 9a3b
00000180: b3eb 6a3c 6fe2 593c 40f7 113d 942e a13c
00000190: 5656 7d3b 039d 653c b8f5 383c d0b3 183c
000001a0: 1f35 423c 8d6e a1bb 3e28 423c 6f5e 4b3c
000001b0: d297 173c 87ca d0bb 5c36 983c 961f 0b3c
000001c0: d3b4 6fbc 4187 2a3c c906 5e3b a132 873c
000001d0: 0a95 3f39 b4e1 f43b b19e 6fbc e6d8 f0bb
000001e0: 308d eebb cb2b 783b 7dce c839 f2bb 5bbc
000001f0: e0a0 22bb 0df6 a63b 723c 293c 7e95 c73b
00000200: ab81 1cbc a30e b63c 4bc8 0b3c f793 96bb
00000210: ecb7 ab3c 8a6d 273b f27a 98bc 3dd5 243c
00000220: 8bdb a73c 3c70 6c3c 2fef 773c ae94 5b3c
00000230: 8426 2a3c 31c5 90bb 33e3 d53c 247b 683c
00000240: b24f dd3c d6d1 073c cb55 e93b 8408 963c
00000250: 4a28 29bc 5635 7bba df96 5ebb f937 76ba
00000260: 5b4d 023c 4413 953c 89b8 003c 0398 b63b
00000270: b497 9a3c 5c73 893b 7d7c b33c 84a1 e23b
00000280: ea9e bb3c 7b03 f73b 8b87 d23b 3eb1 693c
00000290: eb21 a83b 460c 363c 7c9c 1e3c 557e e2bb
000002a0: 0feb 063c d686 a33c 82f7 1abc 3ad3 e13c
000002b0: 6322 8c3c 3af0 453c 4f77 45ba aaed 883c
000002c0: 4ffd 7eba 2006 2a3c fa16 a33b a773 85bb
000002d0: cd0d 043c 466c 0e3c 0ab8 27b9 e0b0 6339
000002e0: 5dc8 57b9 38f8 eab9 8852 e93b e4d7 cfbb
000002f0: 8f20 bc3b 09ed 063c d6de 86bb a88a 28bb
00000300: dc0e da3b f8bb 133c 60a1 033b 3da8 8cba
00000310: 0ade 2e3b e53e 293c 9b98 a6bb 294c adbb
00000320: 1b10 7239 24dc 353b 8e43 363c abbe e5ba
00000330: 1f6e 9d3c 78af 093c 2fdc 203c 4f61 b93c
00000340: 6612 ecb9 0f31 ee38 1c1f d03b 56e6 933b
00000350: c8ab 053a 8b91 303c e8e5 553c 7352 0e3c
00000360: ef88 953c 4839 093c 2333 683c c7e7 103c
00000370: abab 0ebc f44a 9dbb 96ad b83b 032e 183c
00000380: 1320 f8bb 155c bb3c f3af 0e3c ee7a b53a
00000390: 94d0 8b3a bd43 a43b 3ff7 00bc 0239 dd3c
000003a0: a7b9 eb3b 16b6 4c3c d73b 21bb 3763 473c
000003b0: 85a2 0c3a 5cff 07bb cbc0 123c 6bff 0d3c
000003c0: d660 bc3c 7de0 783c 3868 4a3b 96b2 803a
000003d0: 811d 44bc 1ccc 903c 9c8b f13b 9a88 0e3c
000003e0: 4bec 203c 6c6a d43c f894 453a b988 983b
000003f0: 52bf 8f3b 112e cc3b 9e00 f43b b909 92bb
-0.009697066 0.020972613 0.004567441 -0.00499919 0.01482809 0.007087258 0.005194489 0.00027863632
0.021700066 -0.004760246 0.004264942 0.0026238426 0.012728325 -0.00017131658 0.0035028132 0.013032144
0.0020811958 0.012102896 0.017781658 0.0037057037 0.0016663641 0.00050658145 0.02188248 0.015232564
0.00454438 0.0050111236 0.014666727 -0.0049651465 -0.004298418 0.021302972 -0.0027098812 0.019428914
0.009513499 0.002027247 0.01580694 0.032898664 -0.012128899 0.0035676106 0.025285708 0.009267147
0.0027887898 0.004673984 -0.005868464 -0.004591222 0.0038904408 0.024186514 0.012069637 0.036709677
0.005653783 0.02294517 0.008356316 -0.007335294 0.0072067073 -0.0016053625 -1.0986718e-05 0.003638091
-0.0036606928 0.03224632 -0.0033843094 -0.00317822 0.013299728 0.013471822 0.0054666917 -0.0052395174
0.006836763 0.007428993 -0.0078002885 0.010891913 0.0036591357 0.00021090756 0.018839505 -0.0061634514
0.024983332 0.0034059575 0.013955427 0.0032293808 0.012456706 -0.0021878826 -0.008428365 0.0052896803
-0.008791905 0.00094402174 0.006117663 0.01205284 0.021512464 -0.001142451 0.0034477443 0.008105136
0.016782576 0.02351266 0.013200944 0.013596756 0.00869506 0.00528669 0.022744678 0.0047166436
0.014338422 0.013298615 0.035636187 0.01967553 0.0038656197 0.014014485 0.011289053 0.009320214
0.011853485 -0.0049265088 0.011850415 0.012412651 0.009252505 -0.0063717994 0.018580608 0.008491417
-0.014630514 0.010408224 0.0033878556 0.016503634 0.00018270701 0.007473195 -0.014625237 -0.007350075
-0.0072800145 0.00378679 0.00038300818 -0.013411509 -0.0024815127 0.0050952495 0.010329353 0.006090819
-0.0095524 0.022223776 0.00853164 -0.0045952755 0.020961724 0.0025547468 -0.018613312 0.010060606
0.020490428 0.014431056 0.015132709 0.013402147 0.010385159 -0.0044180383 0.026109314 0.014189515
0.02701554 0.008289775 0.007120823 0.018314607 -0.010324547 -0.0009582838 -0.0033964438 -0.0009392496
0.007953013 0.018197663 0.007856497 0.0055723204 0.018871166 0.00419466 0.021909947 0.006916227
0.022902925 0.0075382567 0.0064248494 0.014263449 0.0051309965 0.011111325 0.0096808635 -0.0069120326
0.008234753 0.019961756 -0.0094584245 0.027566541 0.01710624 0.0120812 -0.0007532732 0.01671489
-0.0009727077 0.010377437 0.0049771043 -0.0040726247 0.008059931 0.008692807 -0.00015994921 0.00021714298
-0.00020578639 -0.00044816895 0.007120434 -0.006342875 0.005741186 0.0082352245 -0.0041159196 -0.0025717411
0.0066546034 0.009016983 0.00200852 -0.0010731291 0.0026682639 0.010329937 -0.00508411 -0.00528862
0.00023084918 0.0027749622 0.011124505 -0.0017528137 0.019217549 0.008403651 0.009818121 0.022629408
-0.00045027136 0.00011357862 0.006351365 0.004513542 0.0005099145 0.010776888 0.013055302 0.00868665
0.018253772 0.008375473 0.014172348 0.0088443225 -0.008707921 -0.004800195 0.0056359274 0.009288314
-0.007572183 0.022871057 0.008708942 0.001384584 0.001066702 0.005012958 -0.007871448 0.027004723
0.0071937623 0.012494585 -0.0024602318 0.012169651 0.00053647935 -0.0020751571 0.008957098 0.008666853
0.022995394 0.015190241 0.0030884873 0.0009818848 -0.011969925 0.017675452 0.007371379 0.008699561
0.009821962 0.025929652 0.00075371517 0.0046549705 0.004386821 0.0062310775 0.0074463626 -0.0044567254

action_model._discrete_distribution.branches.0.weight f4 [7, 256]
00000000: e346 ebbb ba3c 7a3c 6ab9 3dbc 0953 d03b
00000010: c1cd 58bc e457 3b3c add9 9fbc a900 6cbc
00000020: 9588 3bbc b5b1 9e3c 4375 c4bb 186d b3bb
00000030: cc85 993c 7827 12bc 5bdd f4bb 7696 90bb
00000040: 1e84 d9bb 3245 6cbc 21ba 2ebb 1317 d7bc
00000050: 5d82 b0bc 57b0 293c 5973 6f3c 483c 073a
00000060: 8bc8 efbb d1a2 95bb fd13 0bbd 6444 27bb
00000070: 2739 5abc 9798 7f3c 9bb0 db3b 8368 6e3c
00000080: 7b26 653a 74a1 1f3c cdbc 893c 520e 333c
00000090: d859 013c 7d15 733c 105e 6abc e914 753c
000000a0: 828e ebbb a619 58bc 336f 633c 9b6c 78bb
000000b0: 573b 643c 8e9d 803c 84eb 793c 1258 0c3c
000000c0: 4a4b ad3c 6954 8c3c be05 b33a 09c6 a3bb
000000d0: 7740 593c 0c3a 7ebb bbbf 24ba a458 34bc
000000e0: 1563 6f3c a988 b43b f65b e239 e08a b63b
000000f0: 8635 37bc da1e 253c 2c23 acbc edf2 623c
00000100: f0d5 a5bc a018 9fbc bfba 73bb 6d18 063c
00000110: 161f a03c c21b 9abc cb05 b13c 191c e43b
00000120: e813 92bb fca1 3abc f552 47bb 5d02 90bc
00000130: 11fb 2bbc 1baf edbb 0a02 743b f285 9e3c
00000140: e1e8 13bc e7b9 83bc 0cb9 f0bb 7fdf 45bc
00000150: 1c5a 973c 1560 fa3b 27e3 0abc dad2 04bc
00000160: fe6a 9f3b 6b6a 833b 526d cbbb ec62 77bc
00000170: 1096 4c3c 0155 d3bb 7ca1 e6bb 6d20 4dbc
00000180: 9364 933c c79d b73c f716 733c 02c2 883c
00000190: 63bb 24bc 078a 43bc 2006 8dbb 616b bdbc
000001a0: 53fe ebbb 2cce ba3b 4f9b 7dbc c901 49bc
000001b0: 81c8 4d3c 2ec1 9f3b e144 a83b 3f62 e8bb
000001c0: ea6f 06bb 24ab a0ba b38f 63bc ad49 a438
000001d0: 9116 e43b a098 ddbb 0131 d93a b21d 8d3c
000001e0: 00a3 abbb 9345 533c 2536 1ebc c078 74bb
000001f0: ae99 ecbb 5c60 683c e880 86bb 3566 aabb
00000200: dd2a 8f3b dc8e 05bc 6f15 293c f050 813c
00000210: 5d74 a0bc fb3b 24b9 d86f ee3a 4153 183c
00000220: 8c7d 273c 2af0 f03b 1ba4 5d3c 781e 89ba
00000230: 69e3 633c 3c9e 8a3c 5878 5f3c 5335 793c
00000240: f2c8 b13b 6c34 afbc 3a88 58bc 2dbd 4c3c
00000250: a97b d2bb dae1 013c 7b94 273b 0bcc b8bb
00000260: 97d5 5d3b bf9a 423c 70b2 8ebc 52aa bbbb
00000270: e45c 9b3b 5fe9 14bb 1d15 fdba bb13 853c
00000280: a1d4 ab3b 7720 7fbc a319 e93a f26b 12bc
00000290: c719 01bc c382 a03b 2532 a33c 2a54 9e3a
000002a0: 87bd 2a3c e7c1 8e3c 621e 573c 09ce febb
000002b0: 6568 69bb 3c99 4a3c 9cd3 833b 9ad4 fcbb
000002c0: 46ff 633c 77fc 5abc de50 533c 750f 023c
000002d0: 27a8 24bc acd2 693c 6150 5b3a b20f 5d3c
000002e0: 1bc9 a7bb 0787 a2bb 8c1e b9bb ba66 d03b
000002f0: 94a4 e5ba 3ff4 073c 793a 613a 857a 683c
00000300: 2764 2c3b d04b 863c 91b1 603c b783 4dbc
00000310: 0cd8 06bc fc1f f1b9 f305 c73b 17ea a1bb
00000320: 988a 5a3c fe71 8abc 8760 003c 003c 2ebc
00000330: 3c08 343c 33ec 87bc 69c8 ea38 9547 4e3c
00000340: 8567 80bb 9eb8 e5b8 42ed 613c 16b1 9abb
00000350: 26e8 f7bb 497c 96bc 8eeb f13b 644c 9f3c
00000360: 087f 123c 87f2 803c 805b b0bc 7030 6e3c
00000370: 9773 9c3c 7a2a 393b bc58 85bc 14e8 61bc
00000380: dd3b 54bc 2d5a 373c 0716 66bc 4110 12bc
00000390: 3b42 383c 7b9d 9b3b 4de7 80ba c0d4 933c
000003a0: fc46 aeba 7721 86bc 3c1e 2cbc 8bea 583c
000003b0: 1ff6 653b 6730 20bc 1aeb 963c bf98 933b
000003c0: 3b67 1d3c dd43 2bbc 9e87 9d3b c25b d0bb
000003d0: bdc4 823c 5afe cb3b 3115 8abc f800 6b3c
000003e0: efca e3bb 2e8c 343c 5e5b 4a3c 1560 4cbc
000003f0: cca8 25bc 3fb6 833c a3d8 053c 0eba b43b
-0.007180081 0.015273267 -0.011579851 0.006357555 -0.013232649 0.011434529 -0.019512976 -0.014404454
-0.011446138 0.019371847 -0.005995424 -0.0054756515 0.018740557 -0.008920543 -0.0074726767 -0.0044124676
-0.006638064 -0.014420794 -0.0026661234 -0.02625612 -0.021546537 0.010356984 0.014614903 0.0005158824
-0.0073176078 -0.0045665284 -0.03395461 -0.0025522942 -0.01331929 0.015600345 0.0067044026 0.014551285
0.0008741391 0.009743083 0.01681366 0.010928707 0.007894956 0.014836666 -0.014304653 0.014958599
-0.007188619 -0.013189709 0.013881492 -0.003790653 0.013930163 0.015700128 0.015253905 0.0085659195
0.021154065 0.017130094 0.0013658328 -0.004997973 0.0132599985 -0.0038791923 -0.00062846736 -0.011007462
0.014611025 0.005509455 0.00043174595 0.0055707544 -0.011182195 0.010078156 -0.021012865 0.013851863
-0.020243615 -0.019420922 -0.0037190167 0.0081845345 0.019546073 -0.018812064 0.021609208 0.0069613573
-0.0044579394 -0.011391159 -0.0030414436 -0.017579252 -0.010496871 -0.00725354 0.003723266 0.01935098
-0.009027691 -0.016079856 -0.007346278 -0.012077211 0.018475585 0.0076408484 -0.008477009 -0.008106912
0.0048650494 0.0040104887 -0.0062081004 -0.015099268 0.01248695 -0.0064493422 -0.0070382934 -0.012519938
0.017992293 0.022414101 0.014837018 0.016694073 -0.010054442 -0.011934764 -0.0043037087 -0.023122491
-0.0072019487 0.005700847 -0.015478923 -0.012268492 0.012560011 0.0048753237 0.005135164 -0.00709179
-0.0020513483 -0.0012258035 -0.013889241 7.8338526e-05 0.006960698 -0.006762579 0.001657039 0.017226074
-0.005237937 0.012895006 -0.009656464 -0.0037303418 -0.0072204685 0.01418313 -0.0041047223 -0.0052001723
0.0043691234 -0.008151736 0.010320052 0.015785664 -0.019586736 -0.00015662603 0.0018191291 0.009297193
0.010222804 0.0073528485 0.013527895 -0.0010461351 0.013909199 0.016921155 0.013639532 0.015210467
0.005425566 -0.021387301 -0.013216073 0.012496275 -0.006423433 0.007927382 0.002557068 -0.005639558
0.0033849233 0.011877715 -0.01741907 -0.005727091 0.004741298 -0.0022722108 -0.001930866 0.01624476
0.005243853 -0.015571705 0.001778413 -0.008936869 -0.007879681 0.0048984005 0.019921372 0.0012079526
0.010421163 0.017426444 0.013129802 -0.007776026 -0.0035615203 0.0123656355 0.0040230285 -0.007715774
0.013915842 -0.013365856 0.012897698 0.007938256 -0.010049856 0.0142714195 0.00083661644 0.013492512
-0.005120409 -0.004959944 -0.0056493934 0.006359902 -0.0017520362 0.008297979 0.0008591782 0.014189367
0.0026304813 0.016393572 0.01371421 -0.01254361 -0.0082302205 -0.00045990932 0.0060737072 -0.0049412358
0.013338707 -0.016900059 0.007835514 -0.010634422 0.010988291 -0.01659212 0.00011195319 0.012590309
-0.0039185905 -0.000109539586 0.013789477 -0.0047208173 -0.007565516 -0.01836981 0.0073828166 0.019445606
0.008941419 0.015740646 -0.021528006 0.014537916 0.019098086 0.0028254078 -0.016277663 -0.013788242
-0.012953726 0.011190933 -0.014043338 -0.008915008 0.011246259 0.0047489977 -0.0009834558 0.018045783
-0.0013296301 -0.01637338 -0.010505255 0.013239513 0.0035089327 -0.009777165 0.018422652 0.0045042927
0.009607132 -0.010453192 0.0048074266 -0.0063585946 0.015962953 0.0062253894 -0.016855808 0.014343493
-0.006951682 0.01101975 0.012350885 -0.01247408 -0.010111045 0.016078113 0.008169326 0.0055153435

action_model._discrete_distribution.branches.0.bias f4 [7]
00000000: c17e ccbb 8571 10bc 2ca3 a0ba a558 703c
00000010: e51f d73a 8f1a 2e3c 3410 12bc
-0.006240696 -0.008816128 -0.001225566 0.014669572 0.0016412704 0.010626449 -0.008914996
