results/tb2/Fork1.onnx (onnx, 326987 bytes, 6 tensors)

network_body.linear_encoder.seq_layers.0.weight f4 [256, 54]
00000000: 7335 d83d d039 133e 35f5 583e 75ad c23d
00000010: 0240 cc3d f927 0abe d132 98bd 3b2a abbd
00000020: d9ca 66bd cba9 f8bc 3570 bb3e 5156 10bd
00000030: 7154 24bd d9bc ce3c 2da5 12bd 5911 a2be
00000040: 4c54 dcbc 3315 08bd 38d9 6d3d 3316 a13c
00000050: 212b ae3d 4867 c9bc 38ad 4fbd 0eae 973d
00000060: 0df8 493e 5985 c4bd 3ca5 7cbd ac06 fdbb
00000070: 45de 863e 5946 17be bcbc 353e bc71 2b3c
00000080: 28fa 0b3e e380 cbbd 8de8 d63b 8d72 093e
00000090: 11e5 00be b3b8 33bc 5a96 e1bd 34d5 293c
000000a0: da1a 363e 59cb 073e b462 cebd f3bc 313c
000000b0: a96d 483e f44b 3a3e ca7f 883e 5ad5 02be
000000c0: 66dd 903e 501f b73e 17dc 563e 541e 9bbe
000000d0: bb45 8b3d acb8 b9bc dbb2 393e eed7 7b3e
000000e0: a4af 823d 2dce e83d 8837 e93d 506e a4bd
000000f0: 1424 d8bd 6a04 8f3e 33e2 4d3e 9cb6 c0bc
00000100: 38bc 24be 7657 bcbd 87cd 9e3d 5caf 87be
00000110: c3a2 303e 7369 e6bd 3d45 0ebd 258b 0e3e
00000120: e80f 013e b189 ee3c 26b6 64be 8687 543d
00000130: 7100 5dbc 36f0 58bd 528a a33c 58a9 613e
00000140: 00ce c53d e228 77be 2685 37be 167d dcbd
00000150: ea05 0a3c aecd d6b9 0782 24be ce13 05bd
00000160: 9a19 c63d a7f9 73bd dd75 13bc a37d 29be
00000170: ed68 173e 942a 5a3e fc63 0f3e 1727 d8ba
00000180: 078b 1e3e fb24 9c3d e3cf df3d fe87 39bd
00000190: d4ff 37be 7dc5 3b3e d21f 47be bc26 35be
000001a0: 9cc3 f7bd 15bf aa3c d467 99bd 8b4c 393e
000001b0: 91e9 8e3d 3c72 4a3e ad7a 48bd ede4 57be
000001c0: a23b 40bd 7f89 e63d a293 2d3e ee95 1dbd
000001d0: 901f 19be 001f 3c3d f339 64be 9946 84be
000001e0: 255e 0cbe e4e1 4c3c 4977 ea3d 4863 33be
000001f0: d1ec 98bd 3261 573e dce7 a63e 44b2 fd3d
00000200: b5ab b63d 4921 0ebe 72ac 9c3d 539e 8b3e
00000210: a9cd 033e ccff f5bb 9668 0abd 86a3 2cbe
00000220: a819 b03d fcf8 333e 9f1c 5f3e 3031 ecbd
00000230: 230f 3f3e b205 753e 6d25 c7be 2e78 133e
00000240: f863 8ebe fca4 213d 442e 70be c4cf 603d
00000250: 7178 053e 960b 153e 0055 58bd e6ba 193d
00000260: b721 d9bd 95fd 39be 9a9a c9be 5cee 043e
00000270: 0368 413d 652e 263e f9db cbbc 1e18 423d
00000280: 53b1 a1bd 7460 3c3e c83b febd f4d4 2ebd
00000290: 23d8 07be 27d0 9cbc 2bf3 cb3d 799a 3f3e
000002a0: e739 2ebe 5974 673e 8d8f 52be df95 5bbd
000002b0: b635 20bc 7e44 3c3e 6f56 f83b 2e3b 3abe
000002c0: ed7c 693e e6ba 3a3d af4c 393e 9607 aabd
000002d0: 9dcf 97bd 2298 debd 8d24 06be 40f1 8ebd
000002e0: 874a a03d ec45 e9bd b0f0 16bd 02b3 c9bc
000002f0: 5db1 2ebd 6cfb 3439 6743 673e 8e72 0a3e
00000300: 7073 80bd ef65 bd3d 28af 393e 4506 a4bc
00000310: a964 043e 2595 34be 219f 6f3d 8445 6b3e
00000320: fad8 2b3c 01fc a63d 4927 61be 5cbe 1d3d
00000330: d1f0 c53d 4b3f df3e aa74 b83d b6cb 9fbd
00000340: 4bdc 313e 843b a93d dd41 08be 2a9b e4bc
00000350: cc84 a23d 3d2e b7bd 1ef5 2b3e 59a2 a83e
00000360: 735b 57be 820a 99bc fdad 383e 1c25 cf3d
00000370: c77a 3a3d 2cff 73be 151a 513e a0e0 86be
00000380: 589f 023d 2719 bcbd e4d3 c23e 483b ec3b
00000390: 58b3 763d c777 243d 5ee6 00be 2d75 87bd
000003a0: 9064 e8bd 5735 593e a10c 2abd d4dc 62bc
000003b0: 5bcc 8fbe 3082 bb3d 7c74 45bd f5c8 e23d
000003c0: 612f 23be 7824 92bb 23fa 2b3d 1ad5 da3d
000003d0: 0317 2fbd 8a20 113e 09ef 02bd c5cc 81bd
000003e0: e70b a23c 438f 1a3e 2d6a 39be e7c6 843d
000003f0: 9e52 28be 8cab aa3d 9242 203d 3cec b53c
0.1055707 0.14377522 0.21187289 0.095057406 0.09973146 -0.13491811 -0.074315675 -0.08357664
-0.056345794 -0.030354401 0.36609045 -0.035238568 -0.040119592 0.025236534 -0.035802055 -0.3165386
-0.026895665 -0.033223342 0.058068484 0.019663906 0.0850432 -0.024585381 -0.050702304 0.07406245
0.1972353 -0.095957465 -0.061681017 -0.0077217426 0.26341453 -0.14772929 0.17747778 0.010464128
0.13669646 -0.099366926 0.006558484 0.13422604 -0.12587382 -0.010969329 -0.110150054 0.010365773
0.1778368 0.13261165 -0.1007742 0.010848272 0.19573082 0.18193036 0.26659995 -0.127767
0.28293914 0.35766077 0.20982395 -0.30296576 0.068004094 -0.022671066 0.18134634 0.2459409
0.06381157 0.1136745 0.11387545 -0.08028853 -0.10553756 0.27933055 0.2010582 -0.023524575
-0.16087425 -0.09196369 0.07754045 -0.26500976 0.17249589 -0.112505816 -0.034734 0.13920267
0.12603724 0.02911839 -0.22335109 0.051887058 -0.013488875 -0.052963458 0.019963417 0.22037256
0.09658432 -0.2413669 -0.17921886 -0.10766046 0.008424262 -0.00040970504 -0.16065226 -0.03248959
0.09672852 -0.05956426 -0.009000269 -0.16551833 0.1478612 0.21305305 0.14002985 -0.0016491142
0.15482722 0.07624241 0.10928323 -0.045295708 -0.17968684 0.18337055 -0.19445732 -0.17690557
-0.120978564 0.020843068 -0.07490507 0.18095605 0.06978143 0.1977014 -0.048945118 -0.21083422
-0.04693187 0.11256694 0.16950849 -0.038473062 -0.14953446 0.045928 -0.22287731 -0.25835112
-0.13707788 0.012505028 0.11448533 -0.17518342 -0.07467044 0.21033171 0.3259877 0.12387517
0.08919469 -0.13879885 0.07650079 0.2726923 0.12871422 -0.0075073 -0.033791147 -0.16859254
0.085986435 0.17575449 0.21788262 -0.11532819 0.18658118 0.23927954 -0.3889574 0.14401314
-0.27810645 0.039463982 -0.23455149 0.05488564 0.13034226 0.14555201 -0.052815437 0.037531756
-0.10602134 -0.1816314 -0.39375764 0.12981552 0.047218334 0.16228636 -0.024885165 0.04738628
-0.0789515 0.18396169 -0.12413746 -0.042683557 -0.13266043 -0.019142224 0.0995849 0.1871127
-0.17014275 0.22602977 -0.20562573 -0.053609725 -0.009778431 0.18385503 0.007578663 -0.18186638
0.22801562 0.045588396 0.18095659 -0.08302228 -0.07412646 -0.10868861 -0.1309988 -0.069796085
0.07826715 -0.1139029 -0.03685063 -0.02462149 -0.042649616 0.000172598 0.22584306 0.13520262
-0.06272018 0.09247958 0.18133223 -0.02002252 0.12929024 -0.17635019 0.058501367 0.22975737
0.010488743 0.08153535 -0.21987642 0.03851162 0.09665073 0.43602976 0.09006627 -0.07802527
0.17369191 0.08263305 -0.13306375 -0.02790602 0.07935485 -0.08944366 0.16792724 0.3293636
-0.21030979 -0.018681768 0.18035121 0.101145 0.045527246 -0.23827809 0.20420106 -0.2634325
0.031890243 -0.09184485 0.38052285 0.0072092153 0.06022963 0.04015329 -0.12587878 -0.066141464
-0.11347306 0.21211754 -0.04151595 -0.013846595 -0.28085598 0.09155691 -0.04820679 0.11073486
-0.15936042 -0.004459914 0.041986596 0.10685177 -0.042746555 0.14172569 -0.031966243 -0.06337885
0.019781066 0.15093713 -0.18106909 0.0648325 -0.16437766 0.08333501 0.039125986 0.022207372

network_body.linear_encoder.seq_layers.0.bias f4 [256]
00000000: 75b5 223d 1dd1 91bc effd 7f3b 5655 b73c
00000010: 61b8 dd3c ac1f 033d 7b02 e13c 14ff 303a
00000020: 5d96 093c 39ef 253d c97f 17bb a93d b63c
00000030: eb08 b8bd 5cec 1c3d 0a7e ab3c 0065 073c
00000040: 9a5a 153d fc99 733c 63f7 8a3c 1156 623c
00000050: 016c 3c3c 4919 ef3c 4ccf 2f3c 8adb abbc
00000060: 338c c4bc 461d 3f3d c19e c43a 4a66 2e3c
00000070: c7ce 313c 3de3 573c 17dc 96bb 59cb e3bc
00000080: b8c0 c03c 8052 073d 070b 77bc 2017 1b39
00000090: 2f7f 2bbc c50c 1bbc af21 91bd 2d21 343c
000000a0: 4276 273b 119d be3b def5 73bc 05a0 f33c
000000b0: 3048 1b3c fba8 1cbc 4ba5 5ebc 4f3c a83c
000000c0: 0a32 333d d4cf 703c 605d 6eba 312b c8bc
000000d0: d174 fd3b 372b 81bc f50a b5bb 7dd1 db3b
000000e0: d181 9e3d 3b65 46bd dc1b 943c 2899 093c
000000f0: 82dc 373d c840 403d d3ed 1d3c 10be 1dbd
00000100: 1099 bcbc 82ff a13b 35b2 cb3c bee2 f1b9
00000110: a3f8 493c 60aa adbc 92b8 dbba bb74 033d
00000120: 30e8 a23c daa3 d5bc a9a5 c73c 18ad 1e3c
00000130: 383a cdbb 4752 093d 89a7 59bc 172d a63c
00000140: b465 b1bd 1c27 2cbc 27f9 673b e67b a53a
00000150: cc11 cebb 3664 953c 4357 3e3c 7201 63bb
00000160: 0788 edbc c200 e6bb 046c 943b 9e15 153d
00000170: 018f 763d f383 dd3c 32ca 9b3c d3de 2a3d
00000180: 6957 0cbd e295 823c 598e e83b 3106 b7bb
00000190: 4cba b43c f15a 0a3c dc53 bdba 189b 3d3d
000001a0: 06ca b7bc 7c82 f9b9 12d8 6a3c 33b9 b7bd
000001b0: a81a de3c 34fd 57bb c4ff a7bc ec13 3a3c
000001c0: 6bf6 c43a d0ee 233b 2ae7 cf3c 413b 2a3b
000001d0: 9b6c e8bb 3bf9 0e3c c963 eb3b 89ab 6a3b
000001e0: 94e6 04bd bbf5 ffbb e447 5b3c 52c6 b53c
000001f0: 435b b93b a03f f53a ca26 81ba 9264 b43c
00000200: ba30 9f3b c877 92bc c7be 413c 2ddb c63b
00000210: ee60 833c 1fb1 433c f8bb d43c 7cca 9d3b
00000220: 3e6b 473d 0aea 70bb 8c03 0c3c 1921 48bd
00000230: af03 b93c 739a c63c e4b3 ef3c 5506 0cbc
00000240: deb2 a63c 3e21 4c3c 50a4 763d 1763 833c
00000250: 2090 133c f898 ec3a fbf8 8dbc bf4d 983c
00000260: ea31 993b 87f0 2abd 6f99 e43b 2e4d 723c
00000270: 4121 653b 0719 263c e7be 98bc 595f 8abb
00000280: 39b7 13bc e22e e7bb a130 133d 91dd d43b
00000290: ba76 213c 13e3 483c 9c6a bf3c 6ecb da3b
000002a0: 5f9e a5bb c454 7c3c 90f7 6a3c e06f 6c3d
000002b0: 52c5 1ebb e61f a13c 7340 c53c 141d 08bc
000002c0: 006b 06bb e39e e03c 56e0 6b3c 7b0c dc3c
000002d0: 92d5 3e3d d342 053c f7f1 2ebc fa44 90ba
000002e0: 811d 143d 6852 653c bf3a 513c 494c c53c
000002f0: 284a cfbc 7332 ae3c e244 a73c 2bef 8cbc
00000300: 27ff c43a 121c 053c 4e3d 0ebc 883d c0bb
00000310: 032d cd3c 5b5b 6fbd f181 9ebb 13ff 833b
00000320: e39f 223d 139a e8bc 87ba 503c 9683 703c
00000330: 78b5 f2bb 9499 1bbb 4e3c 213d 99cb 41bd
00000340: 6b8c a83b 464d d5ba 3621 e73c acb2 273d
00000350: 2f17 223c d3f7 d83b 1574 16bd 9984 023d
00000360: 0349 9bba 59ef 9ebc b246 fb3c 9c1f 38ba
00000370: 66ae e03c 1ed8 e63b 03c9 93bd f3a5 2b3c
00000380: 39a7 1cbc 7870 143c ca6e bd3c d7ef 3b3b
00000390: 0884 6a3d ad67 29bc e50d 9f3d f491 863b
000003a0: 5450 e63c 9f3c b03c 920c 59b7 018f ac3c
000003b0: 1e10 e9bb d08e cc3b 8b75 38bd 2585 c6bb
000003c0: 5da3 273c b776 c33c 448e 843b 062e a2bb
000003d0: 8763 833d 1ae8 1c3c 5a1c adbb e8ef af3b
000003e0: a6c8 ccbc bc2d 373c 9411 493c ac7e b53c
000003f0: b636 b23b d377 c33b a669 b13c f8e7 203d
0.039723832 -0.017799908 0.0039061268 0.022379559 0.027065458 0.032012627 0.027467003 0.0006751877
0.008397666 0.040511344 -0.0023116937 0.022246199 -0.08986076 0.038311347 0.020934124 0.008263826
0.036463358 0.014868256 0.016963666 0.013814465 0.0115003595 0.029186862 0.010730576 -0.020978708
-0.023992633 0.046658777 0.0015000926 0.010644505 0.010852522 0.013176736 -0.0046038735 -0.027806925
0.023529395 0.033037663 -0.015078313 0.00014790567 -0.010467335 -0.009463494 -0.07086503 0.010994238
0.0025552665 0.0058170636 -0.014890162 0.02973939 0.00947766 -0.009561772 -0.013589214 0.02053657
0.043748893 0.014697988 -0.00090928935 -0.024434658 0.007734873 -0.015767677 -0.005524988 0.0067083226
0.07739604 -0.048436385 0.01807969 0.008398332 0.044888027 0.04693678 0.009639221 -0.038511336
-0.023022205 0.004943789 0.02486525 -0.00046136038 0.012327346 -0.021199405 -0.001676338 0.032093745
0.019886106 -0.026079107 0.024370985 0.009684823 -0.0062630437 0.03352573 -0.013284572 0.020285172
-0.086619765 -0.010507371 0.003539631 0.0012625426 -0.0062887426 0.01823626 0.0116174845 -0.0034638313
-0.028995527 -0.0070191333 0.004529478 0.03639757 0.060194973 0.027040457 0.019017313 0.041716408
-0.03426305 0.01594061 0.0070970473 -0.005585455 0.02206149 0.008444534 -0.0014444548 0.046290487
-0.0224352 -0.000475902 0.014333742 -0.08970871 0.02711232 -0.0032957317 -0.0205077 0.011357289
0.0015027052 0.002501417 0.025378782 0.002597526 -0.007093025 0.008726413 0.007183526 0.003580781
-0.03244646 -0.007811276 0.013383839 0.022189293 0.005656631 0.0018710978 -0.0009853479 0.022020612
0.0048581036 -0.017879382 0.01182527 0.0060686083 0.01603743 0.011944084 0.025968537 0.004815398
0.04868626 -0.0036760592 0.0085457675 -0.04885969 0.022584764 0.024243569 0.029260583 -0.008546432
0.020348962 0.012459097 0.060215294 0.01603846 0.00900653 0.0018050959 -0.017330637 0.01859176
0.0046751397 -0.04173329 0.0069762985 0.014788909 0.0034962448 0.010137803 -0.018645717 -0.004222792
-0.009015852 -0.0070551494 0.035935048 0.0064961393 0.009854967 0.01226117 0.023366265 0.0066770827
-0.0050542797 0.015401069 0.01434125 0.05772388 -0.0024226499 0.01966853 0.024078583 -0.008307714
-0.0020510554 0.027419513 0.014396748 0.02686142 0.046590395 0.008133608 -0.010677806 -0.0011006885
0.03616095 0.013996698 0.012770354 0.024084227 -0.025303915 0.02126429 0.020418588 -0.017203888
0.0015029655 0.008124368 -0.008681608 -0.00586671 0.025045877 -0.058436733 -0.0048372676 0.00402821
0.03970326 -0.02839378 0.012739784 0.01467981 -0.0074068867 -0.0023742663 0.03936415 -0.047313306
0.0051436923 -0.001627364 0.028214078 0.04094188 0.009893223 0.00662134 -0.0367318 0.031864736
-0.0011847321 -0.01940124 0.030673359 -0.0007023753 0.02742691 0.007044806 -0.07216074 0.010476577
-0.009561353 0.009060018 0.023124117 0.0028676891 0.05725482 -0.01033966 0.07766322 0.0041067544
0.028114475 0.021513281 -1.2937135e-05 0.021064283 -0.007112517 0.0062426105 -0.045033973 -0.0060583525
0.01023182 0.023860319 0.0040452797 -0.004949334 0.06415468 0.009576822 -0.005282921 0.005369175
-0.02499802 0.0111803375 0.012272257 0.022155128 0.005438651 0.005965212 0.021656822 0.039283723

network_body.linear_encoder.seq_layers.2.weight f4 [256, 256]
00000000: 0ad9 84bc 28f4 dfbd 234e 8d3d a270 533e
00000010: 2e88 7c3b 0078 4cbb 0695 ba3d 142f 713d
00000020: 8c58 5f3c 2615 333b ca67 33bd 83be 4a3d
00000030: adec f3bc 4a83 a6bd 177e 2b3d 6d41 a2bd
00000040: b52d e73c 1e3f 43bc ca02 85bc 8ed0 87bc
00000050: 9554 b33c a416 a4bd ac25 1ebd d57e 713c
00000060: a3f4 103c c92c e4bc a2e7 493c c8e2 d1bd
00000070: 0c21 0e3e 9f14 923c 53c3 c2bd 3b77 023e
00000080: fdf1 20bd 346c 883d ff9e 3d3d 33da 203b
00000090: 87e6 94bd 3319 213d 260e e73c caac 04bd
000000a0: dce4 7fbc d9da 59bd fcbd 9ebd 813d c2bc
000000b0: db5c 00be 1307 273d 17c8 35bd 070a 073d
000000c0: 63ca 20be 5812 963d ce09 083b 4644 4bbd
000000d0: cf0c ebbb 04c8 a63d 8963 c93c 79ee e43c
000000e0: 6f68 073e ca4e 0cbe 9e5a bcbd 8878 6f3c
000000f0: 7908 18be 6c29 a8bb 1b1b 693e e23b c33c
00000100: f24e 6d3d a37d b53d e470 ef3c eb41 d53d
00000110: 37ee 2dbd 4749 bdbc 198b 40bd e1ab 823c
00000120: 9595 c7bd 7bc4 343d 2256 07bd 4fea 5f3d
00000130: 46ad 3cbd d1f0 4f3d d8ec 2c3e bb87 043e
00000140: 99fc a43d 763f 2f3c d7b6 abbc 6644 57bc
00000150: 7d40 c13d e820 efba 516f 40bd 32f0 d53c
00000160: 9f3d 063e f92a 8abc 85ab bd3d df25 12bd
00000170: 49fa ef3d 9fc6 36bb cbbb c33d 8943 a8bd
00000180: 7b2d 05bd 3197 37bd 1063 5fbd bb8b 7d3d
00000190: 638c 433e 9d8e dbbd 3362 e13c 6822 3abd
000001a0: fbaf f3bd 8798 4c3c d97f 53bd d765 553d
000001b0: 7699 75bb ff21 c0bc 5fb7 cbbc e2fc c23d
000001c0: 0581 9fbc 1f2b 2ebc a511 17bd 08ae 633d
000001d0: 1a3b c33c 5acc 883d f097 abbd 1c1d 103d
000001e0: 7471 7b3d 71fe 803d 7369 d7bc 80ce 42bd
000001f0: 837a 57bd 5172 b0bc e383 dc3d d855 493c
00000200: 7940 71bd 82f6 9cbc b3ca 49bb 7315 13bd
00000210: f76e bdbd 7785 31bd 0b20 2cbd e239 82bd
00000220: 63b9 8c3c 3685 0ebd 2724 10be 5dc8 19bd
00000230: 0e59 b43d 54f8 cebc b8db db3d c2b2 973d
00000240: c217 d93d 5a88 a43d 6dec 983d 5816 393c
00000250: 3729 1b3e fa2b b33d b907 183d 72b5 03bd
00000260: 3bfb 00be 5031 8d3c b8f6 62bc 28ce f93d
00000270: 5baf d03c 76da ea3d 7eed 3dbd 1f4a 463d
00000280: 2e96 523d 6e49 45bb 34df 37bd 4c30 a13d
00000290: 6591 2b3c e249 7bbc 69b6 c73d 1ee2 063d
000002a0: ac6d eebc 0e2b a0bd 0357 993b 3bb6 063c
000002b0: b45f 823d ba00 fb3c 74e1 88ba 4e42 d53d
000002c0: c1ad d03d b866 c33d a167 06bd ad4a c1bc
000002d0: 00f7 44ba 1815 bdbc dada c33c 7f12 15bd
000002e0: fcda 113e 15c4 1d3e 1241 05bd 31f0 a13c
000002f0: 96e3 783c 06b3 aebd f9d3 8abc 2dd8 8f3d
00000300: d2a1 45bc 6f9e b43d b64d 313d b33f b33b
00000310: 68d6 e7bc ba35 e8bc 8742 a7bc ba28 873d
00000320: 9d6d d13d b01f c7bc 4e69 b2bc 136f 323d
00000330: a0c3 d93c 24ef e7bd f350 c7bd 9d45 a8bc
00000340: 4e04 e33c 8476 153d 82f7 d2bd 7c54 a7bd
00000350: efbd 763d 8f78 e8bc e2eb 5c3c 37de 9e3d
00000360: 2926 9a3d 72c1 0ebd 4b6b d6bc 8b03 993d
00000370: a4ed e7bc c231 de3c 7799 d03d cc11 2f3d
00000380: b5eb 0b3e d17e 9bbd 21be a3bd 1b64 6fba
00000390: 8049 acbd f4b1 e13c 69bf bbbd 47e2 31bd
000003a0: 0d77 7d3d 8cdb 183e 3058 e63d fd24 39bd
000003b0: acbe fe3c be01 06bc 0cf9 c2bc ac38 a2bc
000003c0: eb4a 053d 0c09 243d f8d2 033c 63aa 453c
000003d0: 4be3 403d 595f 4cbd ea4c 543d e81e b7bd
000003e0: da73 04bd 347b c0bc 3d90 20bd 828e 60bd
000003f0: 5f75 d93c 262e df3c 8fae 553c d773 a5bd
-0.016216774 -0.10935241 0.06899669 0.20648435 0.0038533318 -0.0031199455 0.09110455 0.058882788
0.013631951 0.0027325838 -0.043800153 0.049498092 -0.029775942 -0.0813051 0.041868296 -0.07922635
0.028220037 -0.011916904 -0.016236681 -0.016578939 0.021890918 -0.08012131 -0.038610145 0.014739712
0.008847388 -0.027853386 0.012323292 -0.10248333 0.13879794 0.017832099 -0.095099114 0.12740795
-0.039293278 0.06661263 0.04629421 0.002454412 -0.07270532 0.039330672 0.028204989 -0.032391347
-0.015618529 -0.053187225 -0.077510804 -0.023710968 -0.12535422 0.04077823 -0.044380274 0.032968547
-0.15702204 0.073277175 0.0020757797 -0.049625657 -0.0071731578 0.08143619 0.024583595 0.027945744
0.13223432 -0.1370193 -0.09196971 0.014616139 -0.14846982 -0.005131891 0.22764246 0.023832265
0.057936616 0.08861854 0.029228635 0.104129635 -0.042463508 -0.02310623 -0.047007654 0.015951099
-0.097453274 0.04413269 -0.033041127 0.054666813 -0.046063684 0.05076677 0.16887224 0.12942402
0.08055992 0.010696283 -0.020961208 -0.013138866 0.09436128 -0.001824406 -0.04698116 0.02611551
0.13109444 -0.016866194 0.092612304 -0.035680648 0.1171766 -0.0027889383 0.09557303 -0.08216006
-0.032514077 -0.04482192 -0.054537833 0.061900835 0.19096522 -0.10720561 0.027512645 -0.04544297
-0.118988 0.012487537 -0.051635597 0.052099075 -0.0037475503 -0.02345371 -0.024867712 0.0952089
-0.019470701 -0.010630398 -0.03688206 0.05558589 0.023831893 0.06679602 -0.08378589 0.03518401
0.061387494 0.06298531 -0.0262954 -0.047560215 -0.05260707 -0.021538885 0.10767343 0.012288533
-0.058899377 -0.019160513 -0.0030790984 -0.035909127 -0.092496805 -0.043340173 -0.042022746 -0.063586965
0.017178243 -0.03479501 -0.14076291 -0.037544597 0.08806048 -0.025264896 0.107352674 0.07407142
0.106002346 0.080338195 0.0746697 0.011296831 0.15152441 0.08748622 0.03711674 -0.03215546
-0.12595837 0.017235428 -0.013852768 0.12197524 0.025474241 0.11467449 -0.04636907 0.04841053
0.051412754 -0.0030103582 -0.044890597 0.0787054 0.0104716765 -0.015337439 0.09751589 0.032930486
-0.02910503 -0.07820712 0.004679562 0.008222158 0.0636591 0.030639995 -0.0010443167 0.10413037
0.10189391 0.095410764 -0.032813672 -0.023595178 -0.00075136125 -0.023081347 0.023908067 -0.036394592
0.14243692 0.1540683 -0.03253276 0.019767853 0.0151909795 -0.0853024 -0.01694678 0.07023654
-0.012062507 0.08819281 0.043287 0.00547024 -0.028300479 -0.028345931 -0.020417465 0.06599565
0.10225985 -0.024307102 -0.021778729 0.04356296 0.02658254 -0.11324909 -0.09732237 -0.020541007
0.027712014 0.03648998 -0.103011146 -0.08170411 0.06023973 -0.0283778 0.013483973 0.07757228
0.0752681 -0.034852453 -0.026174208 0.07471379 -0.028311558 0.027123336 0.10185521 0.04274158
0.13664134 -0.07592548 -0.079952486 -0.00091320433 -0.084124565 0.027550675 -0.09167368 -0.043428686
0.061881114 0.149275 0.11247289 -0.04520129 0.031096779 -0.008179126 -0.023800395 -0.019802414
0.03254215 0.04004769 0.008045904 0.012064549 0.047091763 -0.049895618 0.051831163 -0.08941442
-0.032337047 -0.023496248 -0.039200056 -0.054823406 0.026545225 0.027243685 0.013042106 -0.08078735

network_body.linear_encoder.seq_layers.2.bias f4 [256]
00000000: c17b 5bbc e44d 4d3c 0487 e03c 2a2c bf3c
00000010: c013 4f3c 3dde 1b3d ac5d 68bc 27d6 163c
00000020: 64f7 d5bc 1347 78bb 2cd2 8e3c 4e57 463c
00000030: 5532 69bc 395c 303d 7a50 ef3c aee3 7b3b
00000040: 31af 9c3c 5ca3 ca3c 6f88 9a3c 6113 42bb
00000050: edc5 663a fdab 673c 96dc 0f3d 25d7 3c3d
00000060: 2070 73bc 1a2c bdbc 45bd 053d 370f a93c
00000070: 3c4f f23c 9f1f 973c 81e8 803a 8fff 16bd
00000080: f98d 3cbc 840c 063d b6c4 a5bc 3863 293d
00000090: 8f8e 84bc 9f7a b73c e41f 513d e99d 0e3d
000000a0: 1398 17bb fdcc 903c 8459 fbba 2097 953c
000000b0: 9c54 f53c 3d5b 473c c69e 2dbc 5ef0 273d
000000c0: 8b56 913c 0781 c73c 4c35 84bc ddb2 8cbc
000000d0: bb31 223d 6be3 a7bb 2b36 04bc 4c3b 403d
000000e0: d887 55bd 0148 8c3c 0270 593c 5fb6 ee3b
000000f0: 2721 043d a3f8 683a 28e2 153d 4eba 043c
00000100: 63e2 afbb 418c 7e3c 9fa0 c03c 69b4 48bc
00000110: 67f0 70bb d652 c73c c79c 803c ee82 9abc
00000120: 9554 e93b 0758 373c af59 ac3b 3674 e73c
00000130: 0d41 eb3c d2c4 003d e3ae e03b 5c0c 033d
00000140: dee6 1b3c d8e6 d1bb 30a6 863c 080a d0bc
00000150: af9e 403c 4866 033d 7b0e 073d 5fdb 753d
00000160: 8472 453c 1c80 5ebc 9972 053d b414 59bc
00000170: 8050 da3c 5960 fb37 4902 a83c 9c10 343c
00000180: e27b 833c 3c36 cd3b 2e7c 12bc 1d48 2bbb
00000190: 3b67 2339 9798 763c f08a 0e3d c7c9 dabb
000001a0: 5a2a e83c 1fdf 473b 25b0 9a3a f684 9c3c
000001b0: c3ed f03b aefb aebc 6cab d83b ac6e 6f38
000001c0: cec6 003d 6efc d83b 8d5c e83c b5cc c43a
000001d0: de95 2e3d eeae d33c 6246 7238 6f05 a9bb
000001e0: 83ef d53b 3c99 873c 38ee 16bc e548 a13c
000001f0: 2647 c43c cf35 2dbc b198 a3bc 957e 353c
00000200: d816 e83c 8f13 213d e42d 393c 8510 2c3d
00000210: 1838 0c3d 91fa 1abb c021 af3c b81c 30bb
00000220: bee3 663c 2283 3f3c 1640 833c ffda 893a
00000230: 1b72 8b3c 69c6 c63c eb8f ce3b 1a87 913b
00000240: bdee 8ebb 5a61 d3bc c4f1 123d 495d 1fbc
00000250: eb3f 943c 7daa 0b3d 4ed2 1e3d b524 913c
00000260: 0932 513d 5287 2d3d a1ee cc3b 5904 7dbc
00000270: 5671 a43c 2c56 013d ac9b df3c 4c76 cc3c
00000280: 0267 ca3c c697 bb3c 53f1 963c d629 f93c
00000290: e05e f63c dbca b9bb 180a eb3b aefd a73c
000002a0: 2bf5 a43c bf4c ae3c 7689 14bd 6423 063d
000002b0: 85f3 603c 7f7e acbc b97d 73bc ed88 4fb9
000002c0: 1d15 cd3b cdba 853d 0b82 b53b a7b0 0b3c
000002d0: 8ccd 143c 072f 843c 127c 8dbb f78f fc3c
000002e0: a7f2 b63c 4d95 f33c 4dcd 153c e6c4 7a3c
000002f0: edd4 a13b d308 54bc de75 6bbc 2b9f 633c
00000300: fdff dc3c 7bcb b03c d2ca 3dbc 523b 6b3c
00000310: f419 3ebc cb9a 133d cd5b 6d3c 6802 c53c
00000320: 6e4f 063d cd7a 54bc 5ea1 243d b2a9 db3c
00000330: b26c a93c f77b e1bb a25e 3dbc fad1 6d3c
00000340: 5aa1 b3bb dcf7 f03c 8bb6 703b 9a4f 473c
00000350: 95fa b13b eb05 e53c 6f94 5bbc 1610 033d
00000360: 1845 573d 3ffe 033c 813f 903c d990 c43a
00000370: 2f36 073a 5aa1 eabb ad7a b9bb d1ab 073b
00000380: ea53 423c 7e00 46bb f61c 7c3c bd0c f53c
00000390: 74a7 76bc 2bb2 d73b 4bf4 e9bb 0e6d 553c
000003a0: 99f0 dd3c b74d 073d 33aa a43c f5f8 cb3a
000003b0: 74ad f1bc 8007 1f3c 8002 893c c63e ca3c
000003c0: 15e4 e0bc e053 243d 4510 883b 3917 1d3c
000003d0: ffc4 e5bb 34ba 003c 3cc3 2cbb 64e9 0dbc
000003e0: 27a5 bf3c 472c 5b3c f8b9 ce3b 9046 93bc
000003f0: 3bb3 8f3c e3c9 da3b d1f1 493b 0895 5cba
-0.013396204 0.012530778 0.02740813 0.023336489 0.012638986 0.03805374 -0.014182489 0.009206331
-0.026118942 -0.003788416 0.017434202 0.012105776 -0.0142331915 0.0430567 0.029213179 0.0038435268
0.019126507 0.024736099 0.018863885 -0.0029613602 0.0008803297 0.014140126 0.035122477 0.046103615
-0.014858276 -0.023092318 0.032651205 0.020637138 0.029578798 0.018447695 0.0009834917 -0.036864813
-0.011508458 0.03272678 -0.0202354 0.041354388 -0.016181258 0.022397337 0.051055804 0.034818564
-0.0023131415 0.017675871 -0.0019176458 0.018260539 0.029947571 0.012167749 -0.010596937 0.041000716
0.017741462 0.024353517 -0.016138695 -0.017175132 0.039598208 -0.005123546 -0.008069555 0.04693155
-0.052131504 0.017124178 0.013271334 0.007284924 0.03225818 0.00088871474 0.036592633 0.008101059
-0.0053675636 0.015536369 0.02351409 -0.012250044 -0.0036764385 0.024331491 0.015699757 -0.01886126
0.0071206787 0.011190421 0.0052597146 0.028253656 0.028717542 0.031437702 0.0068567856 0.03199421
0.009515492 -0.0064056925 0.016436666 -0.025395408 0.011756583 0.032079965 0.032972794 0.06002366
0.012051228 -0.013580348 0.032579992 -0.013249565 0.026649714 2.9966397e-05 0.020508902 0.010990288
0.016050283 0.0062625688 -0.00894074 -0.0026135512 0.00015583348 0.015051029 0.03480047 -0.0066768858
0.028340507 0.003049798 0.0011801763 0.01910637 0.007352562 -0.021360245 0.006612232 5.708511e-05
0.031439595 0.006621889 0.028364444 0.0015014621 0.042623393 0.025840249 5.7762845e-05 -0.0051581184
0.006528796 0.01655256 -0.009212069 0.01968808 0.023959707 -0.010571911 -0.01997027 0.011077543
0.028331205 0.039325293 0.011302445 0.04200794 0.034233183 -0.0023647884 0.021378398 -0.0026872586
0.014092384 0.011688979 0.01602177 0.0010517536 0.017022183 0.024264531 0.0063037775 0.004441154
-0.004361956 -0.025803257 0.035875097 -0.009726831 0.018096885 0.034098137 0.03877478 0.017717699
0.051073108 0.04236538 0.0062540327 -0.015442931 0.020073574 0.03157632 0.02729591 0.024958752
0.024707321 0.02289952 0.01842562 0.030415457 0.030074537 -0.005669934 0.007172834 0.020506706
0.020136436 0.02127683 -0.036263905 0.032748595 0.013729935 -0.021056412 -0.014861518 -0.00019792067
0.0062586204 0.0652977 0.005539184 0.008526004 0.009082209 0.016135706 -0.004317769 0.030830367
0.022332503 0.029734278 0.009143186 0.015305733 0.004938713 -0.012941557 -0.014371363 0.013892929
0.026977533 0.021581402 -0.011584001 0.014357405 -0.011602867 0.036036294 0.014487219 0.024048999
0.032790594 -0.012968731 0.040192954 0.026814315 0.020681713 -0.006881233 -0.011558207 0.014515394
-0.005481881 0.029415064 0.0036729898 0.012164975 0.005431483 0.027956923 -0.013402089 0.031997763
0.052556127 0.008056222 0.017608406 0.0014996781 0.00051579153 -0.007160348 -0.005660376 0.0020701776
0.011860827 -0.0030212696 0.015387764 0.0299133 -0.015054572 0.0065825186 -0.0071397177 0.013026489
0.027092265 0.0330331 0.020100689 0.0015561866 -0.029501654 0.009706378 0.016724825 0.024688136
-0.027452508 0.040119052 0.00415233 0.009588056 -0.007012009 0.007856894 -0.0026361486 -0.008661602
0.02339418 0.013377256 0.0063087903 -0.017977983 0.017541518 0.006676899 0.00308143 -0.00084145414

action_model._discrete_distribution.branches.0.weight f4 [5, 256]
00000000: 801f 3a3c 117d 10bd 503a be3c 7eee 2e3d
00000010: 9550 4c3c 8c9d 11bc 89bd 88bc 986b 18bd
00000020: 3ede 2cbc 65f9 723c 45c5 6fbd f906 343d
00000030: 9d2c 513d 66ad a6bc 89eb f23c 66cb bc3c
00000040: b084 013c 90ed 763c 2ad3 b63c 67a7 b7bc
00000050: fcba 353d e2f3 75bd 971a 1fbd 35e4 b2bc
00000060: 3e1f f2bc 4b26 863c bf20 7fbd 53ed 39bd
00000070: 4ec4 90bc e0bb 61bd a8dd 17bd fc0c c3ba
00000080: ab3c f13c 2e12 ff3b 10af 0fbc 90d1 d1bc
00000090: 592d 873c e5c3 e3bc 715b cf3a 1bf4 59bd
000000a0: bbe3 2ebd 93fa 3c3d 0d97 0cbb 46b7 aebc
000000b0: 523f acbc 5ad5 68bd 5e5e 943c ac9c c0bc
000000c0: 2c72 db3c 0aaf c33c b8c6 493c a6cd 723c
000000d0: 993f c8bc 3150 1f3d 4def cb3c 6e80 cf3b
000000e0: d6e2 663b bed2 4d3d 8229 063d f313 ba3c
000000f0: 7bc8 553c 1460 c03c c4d0 90bc 89ed 0d3d
00000100: e9ed 9fbc 4aea 59bd 0618 56bc b25f 21bd
00000110: ef1f fa3b 5d3b 16bc b274 263c 9eb7 933c
00000120: 6273 e8bc 08bc 1ebd c94f 01bd f9a1 3abc
00000130: f728 3b3c 4fe4 13bd 09b9 febc fd11 0b3d
00000140: 9787 70bc 9a90 d53c 444f 71bd 402f 12ba
00000150: e5cd 143d b350 a73c 5bd4 97bc 60a1 95bc
00000160: dbce 3abb e81c 293d e280 51bd b143 873c
00000170: 135d 3fbd 1773 403d 156c 0b3d da94 4fbd
00000180: 6630 5a3d 41b9 4cbd f66f d53c ed8a d03c
00000190: 9f12 813c e070 563d 81c7 28bc 4de0 813c
000001a0: 9c09 8cbc 3b85 c13c 73da e83c 7096 bbbb
000001b0: 71dc 02bd c308 0bbc 24a5 153d eef2 143d
000001c0: 11c6 9b3b d033 45bd e527 05bd a0d4 32bd
000001d0: cc7f d3bc e7bb ecbc 84d4 16bc 42e7 d5bc
000001e0: 08d8 0c3d 4cf7 f23c 0a12 df3b 51e9 cebc
000001f0: dcb6 423d ab5b bcbc 92fa 88bc aac1 19bc
00000200: ae80 35bd ee59 9abd 273d 153d 0c69 b9bc
00000210: 6c7a e33b 5be6 a8bc 8dc6 b6bc e64c 303d
00000220: 0656 293b b9a4 663b ba7f 77bb bfe6 2d3d
00000230: 3646 be3c 6459 53bd 5e10 3d3d e500 c6bc
00000240: c4e2 273d 749d c93b f64e 4ebd 3ada a6bc
00000250: 80af 1e3c 050e 4c3c f079 01bd c92e 393d
00000260: 312d dabc 066d 9fbb fd64 19bd bb1b 08bd
00000270: efd1 843a 90c1 c6bc e5ed b0bd 38ee 833c
00000280: bca4 183c 6c74 21bd 5b6a 033d 7614 7f3b
00000290: dda0 85bd e909 153d 6a60 a73c 9b4b 38bd
000002a0: 649f 24bd 2b5e 103d bfaa 10bb d3ff 1f3c
000002b0: d93b 323d 2ee4 78bb 5755 de3a 1e41 37bd
000002c0: 9b51 163d eaa7 14bd 0bcb 67bd 7a17 1d3d
000002d0: 6316 2b3d 5b42 0dbd 738c 563c 6720 3bbc
000002e0: cf4d 94bc 8689 67bd eafb 19bc 5307 bc3a
000002f0: a07e 21bd 7d04 8d3c 0f6c e53c cca5 c73c
00000300: fc27 f1bc ce69 ad3c a996 183d 01f9 563d
00000310: 3cea 433d d4b9 30bc 60f4 52bd 3272 74bd
00000320: d021 0ebd 8e77 fd3c 1aa4 323c 59fc 0abd
00000330: 1706 84bd 966f 47bd 9910 143d 3422 83bd
00000340: fd6b b7bc 350d 8fbd b820 433d a9ac 37bc
00000350: 9946 24bc 6874 8f3c 0d0a 40bd 0ae7 a8bc
00000360: 8951 143c 4c13 823c 5ab0 27bd 664b 0a3d
00000370: 18a8 0c3d dfb4 1bbd b5e2 283d d32c 263d
00000380: 4b27 003d 3269 b33c 2d69 47bd f3bc 3c3c
00000390: 200d ecbc c930 05bd 915b f63c 5edd 123d
000003a0: f859 12bb efcb d9bc bfc7 1b3d 76b8 2abd
000003b0: 806e 3e3c 7d1c cf3c aadd 86bc 35b3 773c
000003c0: 3d5d b03b 3632 60bb 7f04 003d 5ff8 3f3c
000003d0: cb3d 293d 82f3 4c38 3dc1 033d 4944 433c
000003e0: 6fad d2bc 5f39 433d efb5 d9bc c040 60bc
000003f0: 18f1 273d 659d fabb 61dd 60bc 7179 153d
0.011360049 -0.035275523 0.023221165 0.042707913 0.012470384 -0.00888766 -0.01669194 -0.037211984
-0.010551034 0.014829968 -0.05853774 0.043951962 0.051067937 -0.020346355 0.029653328 0.023046207
0.00790517 0.015071288 0.022317488 -0.02241869 0.044367775 -0.060047038 -0.038843717 -0.021837333
-0.029555913 0.016375681 -0.06228709 -0.045392346 -0.01767173 -0.055110812 -0.037076622 -0.0014881189
0.029447874 0.0077841496 -0.0087697655 -0.025612622 0.016501116 -0.02780337 0.0015820098 -0.053211313
-0.04269765 0.046137404 -0.0021452338 -0.021327626 -0.021026287 -0.056844093 0.018111404 -0.023512207
0.02678784 0.023887176 0.012315445 0.014819538 -0.024444388 0.038894836 0.024894381 0.0063324487
0.003523042 0.050249808 0.03275443 0.02271459 0.013048287 0.023483314 -0.017677672 0.03465036
-0.019522624 -0.05320195 -0.013067251 -0.039397903 0.0076332013 -0.009169427 0.010159658 0.018031891
-0.028375331 -0.03875354 -0.03157023 -0.011391156 0.011423341 -0.036106404 -0.031094091 0.0339527
-0.014680765 0.026069928 -0.058913484 -0.0005576499 0.03632917 0.020424223 -0.018533876 -0.018265426
-0.0028504643 0.041287333 -0.051148303 0.01651177 -0.046719622 0.04698476 0.034038622 -0.050679065
0.053268813 -0.04998136 0.026054364 0.02545687 0.01575595 0.05235374 -0.010301472 0.015854025
-0.017094426 0.0236231 0.028424477 -0.0057247207 -0.03194851 -0.008485976 0.036534443 0.03636449
0.004753836 -0.048145115 -0.03250875 -0.043659806 -0.025817774 -0.028898193 -0.009205941 -0.026111249
0.03438571 0.029658936 0.0068075703 -0.025257738 0.04753767 -0.02299293 -0.016721044 -0.009384552
-0.04431217 -0.07536684 0.036435273 -0.022633098 0.006942084 -0.020617655 -0.022311473 0.043042086
0.0025838627 0.0035193397 -0.003776534 0.042456385 0.023226839 -0.05159892 0.046158187 -0.024170348
0.040987745 0.006152803 -0.05036827 -0.02036773 0.009685397 0.012454514 -0.03161043 0.045210633
-0.026632877 -0.0048652915 -0.037449826 -0.03322957 0.0010133366 -0.02426222 -0.08639125 0.016104802
0.0093166195 -0.03941767 0.03208385 0.0038922108 -0.06524823 0.036386404 0.020431716 -0.044993978
-0.04019107 0.035246056 -0.002207443 0.009765583 0.043514106 -0.0037977803 0.0016962689 -0.044739835
0.03669892 -0.036292948 -0.05659012 0.038352467 0.041769397 -0.03448711 0.013095009 -0.0114213
-0.018103508 -0.056527637 -0.00939844 0.0014345445 -0.0394274 0.017214054 0.028005628 0.02437105
-0.029438011 0.021168616 0.037253056 0.052483562 0.047830805 -0.010786492 -0.051502585 -0.059679218
-0.034700215 0.030940797 0.010903383 -0.033932064 -0.06446474 -0.0486904 0.03614864 -0.06403008
-0.02239036 -0.06984941 0.047638625 -0.011210599 -0.010026597 0.017511562 -0.046884585 -0.02061798
0.009052643 0.015878342 -0.040939666 0.03376331 0.034339994 -0.03801429 0.04123183 0.04057009
0.031287473 0.021900747 -0.048684288 0.011519658 -0.028814852 -0.03251723 0.03007296 0.035855643
-0.0022331458 -0.0265865 0.03803229 -0.041679822 0.011623025 0.025282139 -0.01646312 0.01511841
0.0053822086 -0.0034209616 0.031254288 0.011716931 0.041318696 4.8864174e-05 0.03216671 0.011918136
-0.025717465 0.047662135 -0.02657601 -0.013687313 0.04100141 -0.0076481574 -0.013724656 0.03649277

action_model._discrete_distribution.branches.0.bias f4 [5]
00000000: 3c1f 5cbb da62 c0bc 47c7 d03c 06da 2f3c
00000010: 1acc a1bb
-0.0033587953 -0.023484636 0.025485648 0.010733133 -0.004937661
