results/t7/Fork1/Fork1-41347.onnx (onnx, 333139 bytes, 6 tensors)

network_body.linear_encoder.seq_layers.0.weight f4 [256, 58]
00000000: 05eb 083d 6e34 e8bc 8e19 a43b f048 cdbd
00000010: e31d a83d a30b 8c3d 3bc1 ec3b 47c1 70bd
00000020: cd6c a7bd 12b5 7e3d a2ec 913d ce4c c8bb
00000030: cbe8 13be 7667 673e b5a1 efbc af60 c43d
00000040: a463 443d 46d8 dd3d c585 29bc 50cc 09be
00000050: 072a ad3e c346 fabb 47cf 5c3e 6016 6cbd
00000060: bb5a 583d af55 92be b538 1abd 64c3 5fbe
00000070: 7f4b e73d ebd7 2e3e f46d 9bbd 0313 653e
00000080: 81e0 413d eeeb 4f3d fb52 c93b 328a be3c
00000090: 888c adbd 732d 2ebe d190 153e 97ca 7a3e
000000a0: 093e 99be ee04 6c3d 3748 6e3e 7a38 8e3d
000000b0: 0a55 40bd 68fc e7bc 8629 44bd 479c d0bb
000000c0: 69fa fa3d 71c2 6abe 2aa8 82be c891 33bd
000000d0: 84b8 fc3d ae55 a4bc f8d2 92be 2399 37be
000000e0: 0b7c 323e 33cf e9bd 8613 83bd 4824 0cbd
000000f0: ebf9 b53d 0557 02bd 0a33 a7bd 0e3f a2bd
00000100: 237a 113e facb d0bc caec 9b3d 0cd2 8abc
00000110: 338a fcbd 8854 95bd 14ae babd 8137 053e
00000120: b917 7fbc 6c05 033d cb95 833d 5362 233d
00000130: 6136 a6bd 1f31 aa3d d84d 463d 3d31 8fbc
00000140: 6d84 94bc 7e25 3cba e637 9b3d df89 d83d
00000150: 5805 2cbe 43c3 413d 1a17 7e3e db82 ae3d
00000160: 6cac 18be 6fb2 943e 6eee f53c daef d43d
00000170: 5979 8a3d 7047 853e a322 613e e2e3 243e
00000180: 5c00 2ebe ce70 783d 8300 f93d c069 ab3e
00000190: 8a27 653e e877 853d 931e 2fbe 1dbd 573b
000001a0: 7163 a9be 094a 7bbe 2a99 a4bc 9cfb 62ba
000001b0: f270 28bd 0d3c f73c ab3c 86bd a2f1 1b3e
000001c0: dd4f a0bd 6c1d 1cbe e885 633d 49ca 25be
000001d0: 91ba b6bd af82 6bbd 587a 8b3d 7aca fcbd
000001e0: 5221 48ba 34d7 7bbe 6b09 78be fa42 d73d
000001f0: 4dcb 7f3d 2a47 d13e 5fcc 9dbd c51d 863c
00000200: 3dd0 1b3e e4a3 1ebe 21d6 19be 3b90 b2bd
00000210: 5583 55bd 47fb a4bd f9bc 80bd d9c6 e63c
00000220: eb4e 3ebd 58ad 0a3d b658 973c 3e34 17bd
00000230: f5f1 e9bd f09b 7fbe a950 603c 6b9b 01be
00000240: 6641 5d3e 5783 cdbd b517 1c3e c398 b7bd
00000250: cac3 d13d dcd3 683e 94c1 5c3d 05aa 0b3e
00000260: 1fb0 48bd 86f3 3a3e 544d 62bc a319 4dbb
00000270: 1913 943e 62c0 14bc 6050 d53c 3620 12be
00000280: a837 58bd 0ae2 583e a0cc e63d f344 b13d
00000290: 20aa c83d 9984 54be 0230 fbbd 047d 953e
000002a0: 5215 0abb d373 5dbd 0d94 8abd 9443 b43c
000002b0: 49bc 74bc 4486 043d 5597 673e a54a 093e
000002c0: a06c 9ebd 0af7 8bbc d69e f1bd fd8d 0cbe
000002d0: 27d9 85bd acb3 b03d 289a 4c3e ba58 9dbd
000002e0: f34e edbd a832 acbd a53f 4bbb 473d 0b3c
000002f0: 5dba bc3e ae8d 01be b5d1 e9bb b4b4 383e
00000300: d170 2c3d 29bb f73d 467d f9bd 4b09 7d3d
00000310: 6546 c0bd 70a7 6dbd d0e9 ba3c 5a25 123e
00000320: 8484 72be 97de e6bc 1514 b53d c68a 513e
00000330: 790d cf3d a9bc 4abe 9165 d8bd 7e06 a03c
00000340: 8085 b6bd 4605 0f3d 5240 38be dafb 543b
00000350: 5444 603d e9a3 ad3d 7ff3 8abd 365d 00be
00000360: f378 5cbb b61e 5abd a5b5 5ebd 01d7 ad3c
00000370: d2da 7fbe fc54 94be 2f66 0ebe 262d 423e
00000380: ce48 283e a14b 5d3e d833 84bc 5025 2f3e
00000390: 742f 80be ffca 95be a577 043d 730e 673d
000003a0: 2b5e 993d f932 8e3d 2036 83bd 86ff e03d
000003b0: 9c0f 3bbe 3c35 f7bc a044 5ebd b1a7 42bd
000003c0: 0eed 18be 33b7 303d 40a7 cf3d e923 a23d
000003d0: 028f 43be 5442 3cbd f6b0 303d c7c8 bbbd
000003e0: 2ab8 4b3e a9f0 e93d 75de 8fbd 137a a13b
000003f0: 18ff d8bc 1735 763c 79af c33d 1b57 453e
0.033427257 -0.028345313 0.005007929 -0.10023677 0.082088254 0.06838157 0.0072251833 -0.058778074
-0.08175049 0.0621844 0.07125212 -0.0061126715 -0.14444272 0.22598061 -0.029251913 0.095887534
0.047946587 0.108322665 -0.010346835 -0.13456845 0.33821127 -0.00763783 0.21563445 -0.057638526
0.052820902 -0.28580996 -0.037651736 -0.2185188 0.112936966 0.17074554 -0.07589331 0.22370534
0.047333244 0.05076211 0.0061439252 0.023259256 -0.0847407 -0.17009525 0.14606024 0.24491344
-0.29930142 0.05762189 0.23269735 0.06944366 -0.0469561 -0.028318599 -0.047891162 -0.006366286
0.12254793 -0.22925736 -0.25518924 -0.0438402 0.12339881 -0.020060387 -0.2867658 -0.17929511
0.17430131 -0.11416473 -0.06400208 -0.034214288 0.08885559 -0.03182127 -0.08164032 -0.07922183
0.14206748 -0.025487889 0.07613523 -0.016945861 -0.12331047 -0.07291514 -0.09115234 0.13009454
-0.015569621 0.031987593 0.06425055 0.03988869 -0.08115841 0.0831015 0.04841408 -0.017479533
-0.018129552 -0.00071772176 0.07579021 0.10573172 -0.16798913 0.047305357 0.248135 0.085210524
-0.14909524 0.29042384 0.030020919 0.103973106 0.067614265 0.26031065 0.21985869 0.16102555
-0.16992325 0.060654454 0.12158301 0.33479118 0.22378364 0.06517011 -0.17101507 0.0032919117
-0.3308368 -0.24539961 -0.020092566 -0.00086587085 -0.041123338 0.030180002 -0.0655454 0.15228894
-0.07827733 -0.15245599 0.055547625 -0.16190447 -0.089223035 -0.057497676 0.068104446 -0.12343307
-0.00076343596 -0.24593812 -0.24222343 0.10510822 0.062449742 0.40874606 -0.07704996 0.016371617
0.15216155 -0.15492207 -0.1502309 -0.08718916 -0.0521272 -0.0805574 -0.06286044 0.02817099
-0.04646198 0.03385672 0.018474918 -0.036915056 -0.11423103 -0.24961829 0.013691106 -0.12656944
0.21606979 -0.10034817 0.15243419 -0.08964684 0.10242422 0.22737068 0.053895548 0.13639076
-0.048996087 0.1825696 -0.013812382 -0.0031295798 0.2892082 -0.009079071 0.026039302 -0.142701
-0.052787453 0.21179977 0.11269498 0.08655729 0.09798074 -0.20753707 -0.12265016 0.29196942
-0.0021069837 -0.054065537 -0.0676652 0.02200488 -0.014937469 0.03235461 0.22616322 0.13407381
-0.07735562 -0.01708557 -0.11797874 -0.13726039 -0.06535559 0.0862802 0.19980681 -0.07682939
-0.11587324 -0.084080994 -0.0031013277 0.008498496 0.36860934 -0.12651703 -0.0071355947 0.18037683
0.042099778 0.12096245 -0.12182097 0.06177644 -0.09388427 -0.05802101 0.022816569 0.14272061
-0.23683363 -0.028182311 0.08841721 0.20463094 0.101099916 -0.1979853 -0.10566247 0.019534346
-0.08912182 0.03491714 -0.17993286 0.0032498748 0.054752663 0.08478529 -0.067847244 -0.12535557
-0.0033641427 -0.053251944 -0.05437245 0.021220686 -0.24985817 -0.28971088 -0.13906167 0.18962535
0.16434023 0.21610881 -0.016138002 0.17104077 -0.25036204 -0.29256436 0.032340664 0.056410264
0.07488664 0.06943316 -0.06406808 0.10986237 -0.18267673 -0.030176751 -0.054264665 -0.047523204
-0.14934179 0.043143462 0.10139322 0.079170056 -0.19097522 -0.045961693 0.043137513 -0.091691546
0.19894472 0.114228554 -0.07024852 0.0049278825 -0.026488826 0.015027306 0.09554953 0.1927151

network_body.linear_encoder.seq_layers.0.bias f4 [256]
00000000: dd93 2a3c 57eb 843c 7647 df3c 88ee ab3c
00000010: ecfc 18bc 2987 ea3c 4c01 993c 9fd0 0f3c
00000020: 8aa2 f0bc e385 e2bc 2615 283c abb4 873c
00000030: 699f 833b 8c22 da3c 1bbf 93bb c4f5 9f3a
00000040: 3f20 c03c 43dd 7e3b 22ea 8abc 0a38 953a
00000050: 5502 ee3c 1827 0c3d 27d4 9cbb e56e d73c
00000060: 9529 4b3c 867c b43c d68e cf3a 5c68 d03c
00000070: e164 5cbc bdbc 813c 6e68 a03c 5995 ae3c
00000080: ab81 91bb 3d1d 863c 908d 5e3c 0bbd 06bb
00000090: eea7 27bc 77ae bd3b 3fc5 9c3c ce66 ab3b
000000a0: 3605 963c d896 143c 5f75 873b 339f c53c
000000b0: 1fc0 b13c 992c 74bb 4930 6c3c 933b 993c
000000c0: 1996 d53c 74b5 ffba 3238 c9bb cafb 9f3c
000000d0: 5cc8 0abb 2f91 97b9 db7e 15bc 555f 123b
000000e0: ebd1 0c3d fb85 1e3c e6d3 c83b 82ab 2ebc
000000f0: f0f8 01bc 8b54 e73c 31ce 193c b412 063d
00000100: 3c0b 3a3c cdd6 df3b 9206 b03c 53a0 d63c
00000110: 5e0c 2cbb ce31 933c 9850 053d 438a dcbb
00000120: d710 e3bb 86bc 8b3c e306 703c 8074 d23c
00000130: 8dee 0b3c 37da 713a 5737 c9bc f5a3 243c
00000140: 2680 ce3c 2ab1 4b3c 4e01 983c c2d4 543c
00000150: 3a03 843c 4954 de3b 8329 653c ffe9 fc3b
00000160: 46ba 813b ed01 313c 9b23 eebb f230 e83c
00000170: 26c3 e03b 13c8 4b3c 733f ce3c 5430 053d
00000180: 3e72 013d f5df 343c 4404 9a3c 732c b03c
00000190: 4a80 ddbb c597 c3bb 79fd af3c c203 613c
000001a0: 84db ed3c 016f ac3c 2db0 643c 2440 2ebb
000001b0: cb23 e63b 8a5d 893c 7e9b 213d 8057 183d
000001c0: 5df6 30bc 9eb8 223d a83c 463c 4f92 b9bb
000001d0: 8218 6e3c 1ba4 c13c 2680 1dbd 77c3 713c
000001e0: 3916 be3c 7fcb f93c 9dc6 babb a725 a1bb
000001f0: fbb7 933c 0a27 4e3c 88e9 25bc ee38 e83c
00000200: ddd3 6c3c 006e 3e3c 9fd5 9bbc 829e 9c3c
00000210: 3762 323c c1a6 163d da43 513c 46b6 7f3c
00000220: ddd0 7bbb 1697 5a3c 3a78 47bc ec3d 473d
00000230: 6aa8 8c3c a864 413c 10a7 983c c3c7 193c
00000240: a6e9 c73c b557 db3c da96 ae3c fe62 9f3a
00000250: c0a2 fe3b ebcd b6ba 45bf 1c3c a0cc c93c
00000260: 7490 b7bb 34d1 cbbb 8b84 913c 4147 55bb
00000270: 5188 bf3c b5d1 01bc c342 753c 542e 7d3c
00000280: d47d 7e3c 3ffb 1c3c dd4a 86bb 6c0c 2a3c
00000290: cd8e 803c 5ab8 bfb9 5262 0a3d af36 833c
000002a0: 7a32 f33c 4c4b 273d cb7b aa3c 4bdb bcba
000002b0: 0e9f 603c 8e68 a03c 9b01 0b3c c891 983c
000002c0: 1b6c be3c cdd8 963c a987 00bd 80ea 9dbc
000002d0: b5e8 243c 1657 933c 1767 633c 7e93 a13c
000002e0: 8977 c23a edd5 48bc aa02 6a3c 051d 2fbc
000002f0: 7068 403b d0f0 1e3c c5d1 eebb 1634 8d3c
00000300: c160 443c c4a7 8a3c 69ba 883c 2619 afbb
00000310: a53f dd3c 14bb 523c f1d4 7c3c 0e7a d33c
00000320: 9be3 f13c 9e5a ab3c 5aa9 433c d60b d63b
00000330: c6c3 7cbc 4ea8 883c 5a66 0b3c d0b3 5b3c
00000340: 8c59 4b3c 004c 933c 0496 963c 642a 2bbc
00000350: eb90 5b3c 8a75 af3c 424c 423c 1863 9b3c
00000360: 9896 06bc afdf cebc 44e2 f93b 4586 b33c
00000370: ec2e 843b b673 d13c 2e8e 3e3c a32d 88bb
00000380: 4eeb d63c 923e 643c c4de 9d3c a888 9b3c
00000390: da16 08bc fa8d 4b3d 7337 363c 283e eebc
000003a0: 0a60 863b 6116 953c f88f 9a3c f856 583c
000003b0: 7859 2cbc 7dd0 d53c 3d07 833b b8f1 c43b
000003c0: 2027 423b e946 aa3c 28bb 763c 959a 81bb
000003d0: 7ac8 bfbb b837 a73c eef2 883b 67b3 31bc
000003e0: 8265 56bc 4e4c bc3c a915 c13a 3f74 6d3c
000003f0: ea56 6d3c cdc5 6ebc 23c3 5c3c 988b 013c
0.01041123 0.0162255 0.027255755 0.020987764 -0.009337645 0.028628903 0.018677376 0.0087777665
-0.02937438 -0.027651733 0.010258948 0.016565641 0.004016806 0.026627801 -0.0045088655 0.0012203981
0.023452876 0.0038889206 -0.016957346 0.0011384499 0.029053846 0.03421697 -0.0047860327 0.026297996
0.012400051 0.022032034 0.0015835415 0.025440387 -0.013451786 0.015837068 0.019581046 0.021311449
-0.0044405065 0.016371364 0.013583556 -0.0020559456 -0.010232909 0.00578862 0.019137023 0.005230761
0.018313032 0.009069167 0.004133865 0.024123764 0.021698056 -0.0037258028 0.014415809 0.018705165
0.026072549 -0.0019509033 -0.006140732 0.019529242 -0.0021176552 -0.00028909135 -0.009124483 0.0022334654
0.03437988 0.009675498 0.006128776 -0.010661008 -0.0079328865 0.028238555 0.009387539 0.03273268
0.011355218 0.006831026 0.021487508 0.026199495 -0.0026252489 0.017968085 0.032547563 -0.0067303493
-0.0069294977 0.017057668 0.014650079 0.025690317 0.008540762 0.0009225937 -0.02456252 0.010048856
0.02520759 0.012432376 0.01855531 0.012990179 0.01611482 0.00678495 0.013986948 0.007718324
0.003958973 0.010803682 -0.007267428 0.028343651 0.006859201 0.012437838 0.02517674 0.032516792
0.03160309 0.011039724 0.018800862 0.02150557 -0.006759678 -0.00596902 0.02148317 0.013733806
0.029035337 0.021049025 0.013958019 -0.0026588524 0.00702331 0.016768236 0.03945493 0.03719282
-0.010800925 0.039726846 0.0120994225 -0.0056631933 0.01453221 0.023637822 -0.03845229 0.014756075
0.023203956 0.030492542 -0.005699946 -0.0049178186 0.018032065 0.01258255 -0.010126479 0.028347459
0.014454809 0.011622906 -0.01902276 0.019118551 0.010887674 0.036780123 0.012772525 0.015607422
-0.0038424053 0.013341686 -0.01217466 0.048643038 0.01717015 0.0118037835 0.01863435 0.009386006
0.024403404 0.02677522 0.021312166 0.0012160239 0.007770866 -0.0013946866 0.009567087 0.024633706
-0.005601937 -0.0062200073 0.017763397 -0.0032543691 0.02338043 -0.007923533 0.0149695305 0.01545294
0.015532929 0.009581386 -0.00409828 0.010378938 0.015693093 -0.00036567712 0.03378517 0.016017286
0.029687155 0.040843293 0.020810982 -0.0014408616 0.013709797 0.019581106 0.0084842695 0.018624201
0.023244908 0.018413926 -0.031379376 -0.019276857 0.010065247 0.017985862 0.013879559 0.01972365
0.001483665 -0.012258035 0.014282862 -0.010688071 0.0029359125 0.009700969 -0.00728819 0.01723675
0.011985959 0.0169257 0.01669045 -0.005343574 0.027007887 0.012861986 0.015431629 0.025815036
0.029527476 0.020917233 0.011942232 0.0065321727 -0.015427535 0.016681816 0.008508289 0.01340957
0.012411486 0.017980576 0.01838208 -0.010447118 0.01340125 0.021418352 0.011859002 0.01896815
-0.008214615 -0.025253145 0.00762585 0.02191461 0.004033914 0.02556787 0.011630578 -0.004155831
0.026235249 0.013930934 0.019271262 0.018986061 -0.0083062295 0.049695946 0.011121619 -0.029082373
0.004100804 0.018199148 0.018867478 0.013204329 -0.010519378 0.026100392 0.0039986656 0.0060102604
0.002962537 0.020785766 0.01505927 -0.003955195 -0.005852756 0.020412311 0.00417935 -0.0108459955
-0.013085725 0.022985604 0.0014731187 0.014493047 0.014486054 -0.014573527 0.013474259 0.007906817

network_body.linear_encoder.seq_layers.2.weight f4 [256, 256]
00000000: a738 e8bd 927d 403d ac3d 203d c0a2 d5bd
00000010: 14ef 373c ab2c d43c b2fa 963d afbc 7c3d
00000020: 5915 f43b 5a2f a6bd b634 62bd 31d9 433c
00000030: 008c 0d3e 2af1 41bd 17b2 9a3c e564 35bd
00000040: 4144 79bc 2fe4 76bd 07e0 43bd 078d 8ebc
00000050: 16b6 453d 813e 8c3d 878a 523e beac 01bc
00000060: 2220 e9bc 0bc7 123c 0f55 25bd 8a01 233d
00000070: 56a8 88bd 2523 78bc 68e2 14bd af23 1e3e
00000080: ca8d e3ba dcf0 d7bd 11e9 ae3d 5216 4a3d
00000090: b7b9 9ebd 9592 5a3a 3be2 a23d b7d1 343d
000000a0: 4b56 e7bc 22b2 933d b0c0 fd3c 44dc 7fbd
000000b0: 1908 54bc 77ae 39bd 0b0c d13d a6d8 42be
000000c0: 9276 08be e3a3 1c3d 58ef b23c bca8 463b
000000d0: 5a44 e53c 918e c93b 7688 dc3c c54e 5b3d
000000e0: 9991 273e 0ab0 4c3d 7793 d2bc fa57 c03c
000000f0: 9d02 b3bc c9a7 b23d 1fdd 173d 3ea2 fe3d
00000100: ef8c b5bc 2d8d 3abd 2307 813d d924 a63d
00000110: a64f fb3c 4f98 403c 0c60 893d 8efc 2c3d
00000120: 1b3c 133c 70fe c5bd c70c 41bc 76ed 383e
00000130: 3746 a73c bac5 44bd 309c 14bc 7c6b b7bc
00000140: aaac a9bd a099 2ebe 0cd2 aabc a355 473b
00000150: e46f 6cbd 369b f93d 1e6a 18be 29a1 52bd
00000160: 48d9 6ebd d403 8fbe f510 1e3e 5afa c839
00000170: 1d0f d2bd 883e 0e3d 9471 873d e544 2d3d
00000180: cd29 773c ed38 32bd ce13 3cbb ba33 bc3c
00000190: 6223 c03d 3404 0a3b 496e f9bc ccc7 073e
000001a0: 7c7c 123d 68f7 973d 9a92 b23c f361 3a3c
000001b0: ed01 213d aac9 e5bc 1901 123d dd3d 283e
000001c0: 9cef 933c 941c e83d 1647 a8bc e3d1 4a3e
000001d0: 4108 61bd 2cd0 c5bd 4e29 c5bc 0147 1cbd
000001e0: 16b5 d93c 91b6 36be 8895 723d 1727 e3bb
000001f0: 035e ecbc d49e 483d 52ef a83c 11a2 873d
00000200: cb06 2f3d 93a6 bebd 2006 3abd 9621 813d
00000210: 7cff 6c3d bb71 8fbd ce9e 81bd 04de 913d
00000220: 4a11 9ebd 2cc7 93bc 0e54 7ebd 3008 6b3d
00000230: 7d93 e93d 02c5 c8bd d87a 203d 824d d7bd
00000240: d66e 83bd 1566 29be d2fa 46bd f11b eabd
00000250: f88a 59be 5cc6 8dbd 61b0 4cbd 0d9b c93d
00000260: aa9d 953c ecf6 28bd 2706 3e3d 6222 cebc
00000270: c62e e03c 6347 2d3b 46c8 c5bb b697 1c3d
00000280: ccaf 9cbc 028f 933d 5407 323d 2cdb f2bd
00000290: 5252 8abc 73ed 0f3c 700d e83c c77c 013d
000002a0: 55a8 ae3d 5706 e4bb e9c8 473d 5955 17bd
000002b0: 656e 413d ff91 1a3e c21d e0bc 9241 0c3d
000002c0: 75e0 53bd 8911 0b3e 5387 91bd 119d 19be
000002d0: f34c bebd 4a9e f73c d8dd 46bc 7705 a7bb
000002e0: 2c97 b53b 14d0 7f3d 6d13 c0bd 9e42 15be
000002f0: 631a 8f3c d1ff 38bd 74f7 0abd 91f6 9f3d
00000300: cf40 a8bd 0698 653d 81e7 8a3d f543 3b3c
00000310: 8006 ce3d b3fe 5c3c 1bdf dabd 1eaf 2c3d
00000320: 9d2c a43d 0584 753d 67c8 88bd 6ad4 483d
00000330: 6a7c 793d 9141 383c 643c 87bd a050 a4bc
00000340: 6c65 34bd f49c 073d cd34 ad3c 821c ca3d
00000350: a527 113d 8652 d5bc 5542 32bc 06df 8fbc
00000360: e152 173d 1f00 9bbb 9869 4d3d 5956 d83d
00000370: 9b8c cbbd 5ea3 38bd 073c 8bbc 633c 3fbc
00000380: 83c0 593d b281 f7bd bbdc 9ebc 566d ab3d
00000390: 2cf7 9dbd 5fb5 963c 8422 d9bd 1809 7f3d
000003a0: ed15 a1bd d482 063e 20f2 bd3d 7877 733b
000003b0: 83f6 05bd 6e56 b6bc 4c99 f13c 6025 213d
000003c0: 2ff4 c4bd db19 be3d 2b9d 943d 9f4c aa3c
000003d0: 9d06 c0bb e601 a83d 77ff 63bc 5a5a be3c
000003e0: 9f2b 0dbd 9b1b 0fbe 4c57 13bd 28be 1d3e
000003f0: 3154 023e bd65 843c 7b18 efbc ce32 4e3c
-0.113389306 0.046994753 0.039121315 -0.10431433 0.011226434 0.025900206 0.07372035 0.06170338
0.007448834 -0.081145 -0.05522605 0.011953638 0.13822937 -0.047349133 0.018883748 -0.044285674
-0.015214027 -0.060276207 -0.04782107 -0.017401231 0.048269354 0.06847859 0.20560656 -0.00791472
-0.028457705 0.008958588 -0.04036432 0.03979639 -0.066727325 -0.015145098 -0.03634873 0.154433
-0.0017360982 -0.10543987 0.08540548 0.049337693 -0.07750266 0.00083378825 0.07953306 0.044145312
-0.02823939 0.072117105 0.03097567 -0.06246592 -0.012941384 -0.0453324 0.10207375 -0.19027957
-0.13326481 0.038242232 0.021842644 0.0030312976 0.027986694 0.0061510284 0.026920538 0.053541917
0.16364135 0.04997257 -0.025705082 0.02347945 -0.021851832 0.08723409 0.037076112 0.12433289
-0.022161929 -0.045544792 0.06300189 0.08112497 0.030677628 0.011755063 0.067077726 0.042233042
0.008986498 -0.09667671 -0.0117828315 0.18059334 0.020419223 -0.04804013 -0.009070441 -0.02239012
-0.08284886 -0.17050791 -0.020852111 0.0030416034 -0.057723895 0.12187807 -0.1488423 -0.051423226
-0.058312684 -0.27932608 0.15436156 0.000383335 -0.10256789 0.034727603 0.0661346 0.04230203
0.01508565 -0.04351132 -0.0028698328 0.022973884 0.09381749 0.0021059634 -0.030448096 0.1325981
0.03576325 0.07420236 0.02179842 0.011375892 0.039308477 -0.028050262 0.035645578 0.16429849
0.01805859 0.11333576 -0.020541709 0.19806628 -0.054939512 -0.09658846 -0.024067547 -0.038153652
0.026575606 -0.17843081 0.059224635 -0.00693215 -0.028853422 0.048979595 0.02062193 0.066227086
0.042731088 -0.09309115 -0.045415998 0.06305234 0.057860836 -0.07004114 -0.06329118 0.07122424
-0.077181414 -0.018039308 -0.06209188 0.057380855 0.11405084 -0.09803201 0.039179653 -0.1051283
-0.06417625 -0.16542847 -0.048579045 -0.11431111 -0.21244419 -0.069226 -0.049972896 0.09844027
0.018263657 -0.041251108 0.046392586 -0.02516288 0.027366053 0.0026440255 -0.0060358373 0.03823062
-0.019126795 0.07205011 0.04346402 -0.1185821 -0.016884957 0.00878464 0.02832672 0.031613138
0.085282005 -0.0069587636 0.048775587 -0.03694663 0.04722442 0.15094756 -0.02735794 0.03424222
-0.05172773 0.13580908 -0.07105889 -0.15001322 -0.09292021 0.030226845 -0.012137853 -0.005097087
0.0055417027 0.0624543 -0.09378705 -0.14576194 0.017468637 -0.04516584 -0.033927396 0.07810701
-0.08215486 0.056053184 0.06782437 0.011429776 0.100598335 0.013488459 -0.10687085 0.042159192
0.08016322 0.059940357 -0.06678849 0.0490307 0.060909666 0.011246101 -0.066033155 -0.020057976
-0.044042036 0.033108667 0.021143341 0.09868719 0.0354382 -0.026040327 -0.010880073 -0.0175624
0.036944274 -0.004730239 0.05014953 0.105633445 -0.09938928 -0.045077674 -0.016996397 -0.011672112
0.05316211 -0.12085284 -0.019392362 0.083704636 -0.0771316 0.018397031 -0.106022865 0.06226453
-0.0786551 0.13135844 0.09274697 0.0037150066 -0.032705795 -0.02225801 0.029492043 0.039342284
-0.09616887 0.09282275 0.0725654 0.020788489 -0.0058601634 0.08203487 -0.013915888 0.023236442
-0.03446543 -0.13975374 -0.035971925 0.1540457 0.12727429 0.016161794 -0.029186478 0.012585355

network_body.linear_encoder.seq_layers.2.bias f4 [256]
00000000: b453 163b b68d 093c 33b1 4e3c c0db 513c
00000010: a613 5c3c 6600 573a 465a 9a3c 12fd c03a
00000020: e471 643c 835a 0a3c ee50 08bc 6252 223c
00000030: 9fe6 f9ba 9709 853b 5281 923b c094 5f3c
00000040: b5c1 673c 6f0e 0ebc 47c6 993c 284c b73c
00000050: 7c04 aeba 75ba 363c a503 743c 6164 fcb9
00000060: 3d82 81bb b81c 0d3c d5d3 db3c 65c5 b13c
00000070: ed61 1ebc 5fdc 2c3c 764d d3b9 aac0 ba3c
00000080: f56a cbbb ed1d 423c c1f3 c7ba 760c bdbb
00000090: d25e 343c a839 5e3c d40d c73c d462 d53c
000000a0: 904b d63b 3fde 9e3a 0542 a8bb f311 883c
000000b0: 5ee4 dd39 01cb 123c 056f 873a 6118 bfba
000000c0: 3eda 54bc ff30 a13b d0bc ab3c bbdb 863c
000000d0: 76c5 d93c 79a1 823c f6af 8b3c 3bf3 213c
000000e0: 3269 c139 4c15 b7bb 66a3 88bb f64a 8e3b
000000f0: 8309 bcba 5b20 4f3c 964a d0ba 5107 36bb
00000100: 8ec1 eabb 54bf 8a3c dbf2 4d3c b309 c13c
00000110: b9d2 4d3c 185f a438 fe1a 01bb 068b f0bb
00000120: 6303 5b3c 7b1c 043c 30d2 c63b 43bf d7ba
00000130: 9e13 c23b 330c 923c 9bc9 37bb 2d16 683c
00000140: 1c21 6e3c 7aa2 a63b b1c1 9bbb d26f ab3c
00000150: 6efc 843b 9180 8a3b 39a6 24bb 39a2 9037
00000160: 6ff8 e73c a404 973c d7f6 15bb ca79 f93c
00000170: 3b6e c43c b161 6d3c 0d55 99bb 79cd 873c
00000180: a378 133b ed65 28b8 5185 2f3c 1db0 a43c
00000190: 29bb cbbb cd75 063c 1815 a1bb c72c 903c
000001a0: 717e af38 bdbe 2bbc d00a b03c 8ae6 213c
000001b0: 4cd7 663b 220c a03b c27d bf3b bc1f b7bb
000001c0: a95f e53b 3b03 4eba 6063 9f3c 4d2c 85ba
000001d0: cabc d43b b9ae 1dbc 80f2 b63c 4256 1c3c
000001e0: dc2d e1bb 2114 07bc 94c7 633c 3287 8d3c
000001f0: 42a2 783c dc34 283c 5f1b f63a a2a3 5cbb
00000200: 9150 093c 0269 a43c 62cc b73c c803 df3c
00000210: 7267 953c b321 a33c 2472 c23b 26ab 01bc
00000220: 8774 dd3c 549a 173c 3965 8e3c 9085 093c
00000230: 9576 ea3b 44bf 8c3c 4c4d bf3b 1663 293c
00000240: 86f1 883c 71c5 5cbb 3ce9 0bbc bf7c 91bc
00000250: 0369 16bb 1614 793c 3ae5 2b3b ce0b b03c
00000260: 1906 f23b f339 d13c e428 563c da87 1dbc
00000270: 24e4 92bb b6dc 033c b37b 7fbb 2cdc 363c
00000280: 9063 50bc 9dcd 173c 2428 093c ae7b ff3b
00000290: 94cb 5dbb d4de 4f3c a7ff fb3a 3b85 153d
000002a0: 2b3b 303b 09a0 ca3c 40d7 7a3c ef06 3dbc
000002b0: 4c9e c33c 2044 6e3b 9ca4 b83c a8de c13a
000002c0: ddfd 3a3c 2604 be3c a8d3 9abb 7363 16bb
000002d0: 109f 3e3c 0009 0b3c b4ff 773c c16b 9f3c
000002e0: 27bd fabb 7011 0eba 4b54 01bb 868c 5f3c
000002f0: 80a1 653b 5306 593c 1846 443a f258 7b3b
00000300: a677 8f3b abf3 8c3c 6aaf de3b 6539 f03b
00000310: e7e2 11bc a035 413c 47d8 833c d9ba 513c
00000320: ec5c b23c e7a1 a83b ef54 123c bf35 3f3c
00000330: ae64 febb d774 b63b af16 0c3a 525a 1e3c
00000340: 0daa e43c cba1 973b 1b26 fc3b 7309 193c
00000350: 54c5 e93a 7563 6f3c db5b 5b39 228d 3e3c
00000360: 3077 853b 79ad c0b9 d0f8 ac3b c7d2 84bb
00000370: 3320 bebb f20b d13a 93a3 903c fd55 013d
00000380: 87c2 f9ba f570 af3c fa90 b43c 6f8a 4f3c
00000390: 635b 973a 7d4b 97bb d2c5 993c c25f 063b
000003a0: 7630 1b3b 55d3 0d3b 849d 7abb 20bc af3b
000003b0: b036 873c 4151 74bc 17b6 cf3b e7e7 d93b
000003c0: 9fa8 bb3b 6eb4 ac3c c690 673c d516 073c
000003d0: 5520 ea3b f31c 643c 8ddf b23c 1fd2 b73a
000003e0: 1251 a13c b527 003c 9f17 503c 65f6 9e3c
000003f0: cb65 963c 08c5 b93c 3ee3 c33c e669 563c
0.0022938075 0.008395603 0.01261549 0.01280874 0.013432419 0.00082016585 0.018841874 0.0014723858
0.013943169 0.008444431 -0.008320076 0.009907337 -0.0019065923 0.004059981 0.0044709826 0.013646305
0.014145304 -0.008670433 0.018771304 0.022375181 -0.0013276483 0.011152853 0.014893447 -0.00048139974
-0.003952293 0.008612804 0.026834408 0.02170057 -0.009666902 0.010550587 -0.0004030277 0.022796948
-0.0062078186 0.011847955 -0.001525514 -0.0057693077 0.011008935 0.013563551 0.024298586 0.026048101
0.0065397695 0.0012120678 -0.0051348233 0.016610121 0.00042322552 0.008959533 0.0010332769 -0.0014579409
-0.012991486 0.004919171 0.020964056 0.016462198 0.026583415 0.015946137 0.017051678 0.009884651
0.00036890205 -0.0055872556 -0.0041698692 0.004342432 -0.0014346096 0.0126419915 -0.0015891369 -0.0027775357
-0.007164187 0.016936935 0.012570108 0.023564195 0.012562447 7.837842e-05 -0.0019699926 -0.0073407916
0.013367507 0.008063431 0.006067537 -0.0016460199 0.0059227487 0.017828083 -0.002804375 0.014165443
0.014534261 0.0050852867 -0.0047533144 0.020927344 0.0040584123 0.004226752 -0.002512349 1.7241679e-05
0.028316705 0.01843483 -0.0022882724 0.030453581 0.023978343 0.0144886235 -0.0046793283 0.01657747
0.0022502325 -4.0149247e-05 0.010712937 0.020103509 -0.0062173796 0.008206797 -0.0049158446 0.017599477
8.368202e-05 -0.010482487 0.02148953 0.009881625 0.0035223542 0.004884259 0.005843849 -0.0055885
0.006999929 -0.0007858758 0.019456565 -0.0010160297 0.006492232 -0.009624177 0.02233243 0.00954205
-0.006871922 -0.008244545 0.013902564 0.01727638 0.015175404 0.010266509 0.0018776468 -0.0033666869
0.008381025 0.020069603 0.022436325 0.027223483 0.018237803 0.01991353 0.005934017 -0.00791434
0.027033104 0.009253103 0.017382251 0.00839366 0.0071552494 0.017181046 0.005838072 0.010338565
0.01671673 -0.003368702 -0.008539494 -0.017759679 -0.0022950775 0.015202543 0.002622916 0.021490004
0.007385981 0.025540328 0.0130712725 -0.009614909 -0.004482763 0.008048227 -0.0038983643 0.0111608915
-0.01271905 0.009265331 0.008371387 0.007796726 -0.0033843266 0.012687404 0.0019225971 0.03650401
0.0026890736 0.024734514 0.015310109 -0.011537298 0.023879193 0.0036356524 0.02253943 0.0014791088
0.011413065 0.023195338 -0.0047249384 -0.002294746 0.011634603 0.0084860325 0.015136648 0.01946056
-0.0076519432 -0.00054194685 -0.001973408 0.013644343 0.0035038888 0.013246137 0.00074872514 0.0038352576
0.004378277 0.017206034 0.0067958133 0.0073310607 -0.008904195 0.01179257 0.01609434 0.012800896
0.021772824 0.0051462534 0.008931383 0.011670529 -0.007763467 0.0055681276 0.0005343956 0.009665089
0.027913118 0.0046274415 0.007694972 0.009340632 0.0017835298 0.014611115 0.00020919686 0.011630328
0.004073046 -0.0003675034 0.005278684 -0.004053447 -0.0058021783 0.0015948995 0.017656123 0.031576145
-0.0019055166 0.021416167 0.022041786 0.0126672825 0.0011547621 -0.004617153 0.018771086 0.0020503853
0.0023680008 0.0021640856 -0.003824086 0.0053630024 0.01650557 -0.014911951 0.0063388455 0.0066499594
0.0057268883 0.02108213 0.014133638 0.00824519 0.0071449676 0.013922918 0.021835113 0.0014024413
0.019691978 0.007821967 0.012700944 0.0194046 0.018359086 0.02267696 0.023912068 0.013086772

action_model._discrete_distribution.branches.0.weight f4 [7, 256]
00000000: 0bf4 c73c 0332 373c b6f6 eebb bf9d a43c
00000010: 1742 e13a 6440 883c a787 c5bc 16b3 323c
00000020: 376e ae3c d50a 28bc 5743 c33b 2892 773c
00000030: ffe8 d6ba 9113 913b ce28 2dbc 2416 8e3c
00000040: 92dc cdbb 7d72 c53a e603 2f3c 3e0e efbb
00000050: 009b 043c 6410 953c 8e26 a33c e860 3fbc
00000060: 321b 59bb 613e 963b e5b6 d4bb 86fd 8fbc
00000070: d564 263c bd58 c239 f894 0b3c 85f0 653c
00000080: 30f3 963b ddb2 a1bc 5f06 b3bb 96e0 ebbb
00000090: bf92 303c 5433 e5ba 2aa1 95bc 4a82 eabb
000000a0: 4e33 543c ec8a f13b c14a 2bba ce73 e4bc
000000b0: 67c7 bfbb be4c b3bc 6a49 8cbb 0368 eb3a
000000c0: 3edf 83bb e55d 503c 1c1c 463c e10f d0ba
000000d0: 56ea b6bc 86d5 ad3c 1eb8 c2bb dfd1 4a3c
000000e0: cefb 1b3c e059 0a3b cb41 bf3c f6e7 8fbb
000000f0: fcfe f5bc 57da 373b 1cb5 923c ca90 29bb
00000100: 77aa 303c 46b2 6cbc c6f5 943c cddf 023c
00000110: 011c 973c 0f39 34bc 66dd f33b 54bf fcbb
00000120: bbb1 1e3c c62c 943c 54c3 2eb9 1100 fa3b
00000130: 4772 b43b 71fd 493c 7619 d53b 9375 29bc
00000140: 678f 873c 39a9 093c ea23 493c 5509 f23a
00000150: 1ceb 113b 8453 5e3c af88 a03c 7019 823c
00000160: 16f0 efbb b910 10bc 8210 3e3c 4be0 82bb
00000170: c0da 6bbb a268 8f3c 1d85 103c 26cd 793a
00000180: 6281 303b 2eb1 34bb 968f 7bbc ecba d63a
00000190: 889f 623c 8854 033c 1109 37bb 6299 223a
000001a0: 8e1e 62bc ece5 dd3b 3e2a 713b 1be4 bb3a
000001b0: 1620 a43b c703 b33c 5e0a 8f3b fcb7 b13a
000001c0: 73d1 ac3b ab01 923c db3f 99bc 263f 7f3c
000001d0: f782 0d3c 3268 23bb 9730 a33b 708f ccbb
000001e0: 0b8c 483b 01ad 613a cc5f d5bc 870d 073d
000001f0: fea1 8dba efb8 eabc 45ec c83b e0d6 723c
00000200: db61 a03c 89d3 94bc 9250 10bd a56b 08b9
00000210: 6062 abbc 768b 523c e9d7 773c a041 253b
00000220: 2709 973a 98cf 0b3c d7e4 fa3c 54ae 04bb
00000230: 0d8e ad3b 0c88 c5bc a6d1 843c d493 9bbb
00000240: 79c3 d33c 3278 2a3c d51c 293c 3ff3 86bb
00000250: 83ea 713b ca54 ce3a ff31 2a3c 9497 3c3c
00000260: d73a 6f3c 69b9 e5bb ff46 973c c8d5 923b
00000270: 795e 033c b8dd ba3b a338 013b 0e36 34bb
00000280: c60c 36ba d3a0 9a3a 4e15 143c aea4 0f3c
00000290: 524c 66bb 30f5 b23b 6a15 293b b0d7 dcbc
000002a0: 0b9e db3b 0488 54bc f4ef 5a3c 2a9c c3b8
000002b0: 2226 88ba 80a2 4bbc 1b96 60bc b6fd b93c
000002c0: f37a edba e783 b9bc 737e 4f3c 93fc 2e3c
000002d0: ccd9 dbbb 204f 81bc 9041 8d3c 80f2 59bb
000002e0: 62c6 6e3b d078 2e3c aa19 3e3c 012e 96bc
000002f0: aed9 4d3c 1a6b 1dbb 4cb7 13bb 4c6d cebb
00000300: 030f be3c e5e7 dbbc 46fc 663c f805 e5ba
00000310: 3e58 18b9 02e2 e53a 5e8c b1bb d9d1 573c
00000320: c808 e5bb 1ead e7bb 8b24 2e3c 5540 39bb
00000330: 4b5c 133b 666d b93b 16a5 9b3c 9600 d03c
00000340: 4299 8dbc c9f6 973c 90e7 c4bb ed51 573c
00000350: be6a 8e3a c2d8 853c eb99 313b de29 9f3c
00000360: 99f6 793c f27c de3c b9c5 543b d0b7 da3b
00000370: 9d76 eabb bf18 34bb 4b10 f03a 4592 e9bb
00000380: 7525 be3b 89ff 0a3c c5cb 5abb 2cfe 7c3c
00000390: d6dc c53c 104d 7ebb 6f6f 9e3c 2c00 7c3b
000003a0: 6590 dd3b 7610 e43c e743 a5bb 8002 cc3c
000003b0: d5c2 953c abfa 223b c3de a63c 4195 c73b
000003c0: 5d99 91bb 2942 0abd 7532 dd3c 0310 b53c
000003d0: 3880 16bc 4eb3 f73c 425d 08bc 8948 be3b
000003e0: 6d8b bd3c 073e 2cbc ed74 19bc 74e4 a1bb
000003f0: 6330 bcbc b33e 23bc 6828 a6bc b94c a93c
0.024408361 0.011181357 -0.007292594 0.02009475 0.0017185834 0.016632266 -0.024112536 0.010906955
0.021292789 -0.010256489 0.0059589553 0.01511053 -0.0016396343 0.0044273813 -0.010568811 0.017344542
-0.0062823975 0.0015064027 0.010682082 -0.007295399 0.0080935955 0.018196292 0.019915845 -0.011680819
-0.0033127782 0.004585073 -0.0064915293 -0.017576944 0.010155876 0.0003706868 0.008519404 0.014034395
0.004606627 -0.019738609 -0.005463406 -0.0071984036 0.0107771745 -0.001748661 -0.018265326 -0.007156645
0.012951685 0.007371297 -0.00065342715 -0.027887251 -0.005852628 -0.02188718 -0.0042812126 0.0017960075
-0.0040244153 0.012717699 0.012091663 -0.0015873873 -0.022328537 0.02121998 -0.0059423586 0.012379139
0.009520484 0.0021110699 0.023346802 -0.0043916656 -0.030028813 0.0028053725 0.017908625 -0.0025873655
0.0107828295 -0.014446801 0.0181836 0.007987929 0.01844597 -0.010999932 0.0074421642 -0.007713238
0.009685929 0.018087756 -0.00016666699 0.0076294024 0.005506787 0.012328492 0.0065032793 -0.010342973
0.016547872 0.008402162 0.012276629 0.0018465916 0.002226538 0.013569716 0.019596426 0.01588127
-0.0073223216 -0.0087930495 0.011600615 -0.003994023 -0.003598854 0.017505948 0.008820799 0.00095291657
0.0026932587 -0.0027571428 -0.015354058 0.0016382611 0.0138319805 0.008015759 -0.0027928988 0.00062026654
-0.01380123 0.0067717936 0.003679886 0.0014334949 0.0050087078 0.021852387 0.0043652495 0.001355886
0.0052739917 0.017823061 -0.018707206 0.015579021 0.0086371815 -0.0024933931 0.0049801576 -0.006242685
0.003060105 0.00086088484 -0.026046656 0.032971885 -0.0010805724 -0.028652636 0.006131681 0.014821738
0.019577911 -0.018167274 -0.035233088 -0.00013010071 -0.020920932 0.012850633 0.015127161 0.0025216118
0.0011523113 0.008533381 0.030626697 -0.002024551 0.005296475 -0.024112724 0.01621325 -0.004747847
0.025850045 0.010404633 0.0103218155 -0.0041183527 0.0036913462 0.0015741822 0.010387897 0.011510748
0.014601431 -0.007010628 0.01846647 0.004481051 0.0080181295 0.0057027005 0.0019717596 -0.002749804
-0.00069446524 0.0011797197 0.009038283 0.00876729 -0.0035140705 0.0054613575 0.0025800117 -0.026958317
0.00670219 -0.012971882 0.013362873 -9.3274124e-05 -0.0010387341 -0.01242888 -0.013707663 0.022703987
-0.0018118307 -0.022645904 0.012664425 0.010680336 -0.006709313 -0.0157848 0.017243177 -0.0033256114
0.0036434163 0.010648921 0.0116027985 -0.018332483 0.012564106 -0.0024020136 -0.0022539673 -0.0062996503
0.023200518 -0.026843974 0.014098233 -0.0017473092 -0.00014528722 0.0017538669 -0.0054183444 0.01317259
-0.006989572 -0.0070701977 0.01062883 -0.0028267105 0.002248543 0.0056587933 0.018999618 0.025390904
-0.017284993 0.018550294 -0.0060090497 0.013142091 0.0010865552 0.01633871 0.00270998 0.019429144
0.015256547 0.027159188 0.0032466485 0.006674744 -0.007155253 -0.002748057 0.0018315403 -0.0071280324
0.005802805 0.008483776 -0.0033385616 0.015441459 0.024153154 -0.0038803257 0.019340245 0.003845225
0.006761598 0.02783988 -0.005043495 0.024903536 0.01828138 0.0024868648 0.020369893 0.0060907905
-0.004443331 -0.0337545 0.027001599 0.022102362 -0.009185843 0.030236866 -0.008323016 0.0058069867
0.023137772 -0.010512835 -0.009366256 -0.004940564 -0.022972291 -0.009963679 -0.02028294 0.020666467

action_model._discrete_distribution.branches.0.bias f4 [7]
00000000: 05bd 183b 1481 7ebc 8578 6ebc 6147 37bb
00000010: ee8a 91bb 4f4c 843c 44a7 7d3c
0.0023306024 -0.015533704 -0.014555101 -0.002796613 -0.0044416105 0.016149668 0.015481774
