results/t7/Fork1/Fork1-6036.onnx (onnx, 333139 bytes, 6 tensors)

network_body.linear_encoder.seq_layers.0.weight f4 [256, 58]
-0.048845813 0.12868851 -0.10788359 0.19586411 0.23593785 0.054085527 -0.06725006 0.050054364
0.08503953 0.03186494 -0.03930579 -0.18732813 -0.06627648 0.028197214 0.1293137 0.06118712
-0.024232028 0.02685153 -0.026933575 -0.016541615 0.117094845 -0.028058229 -0.18227518 -0.10848693
-0.24388967 0.086308114 0.22166756 0.07730165 -0.04825176 -0.12022444 -0.0081413435 0.03777194
0.018238846 -0.013881357 0.018897051 0.038145844 -0.15180509 -0.11760119 0.17387368 -0.004434957
0.13542254 0.17399444 -0.06721709 -0.033515427 -0.12670921 -0.053352717 0.16963385 -0.08228003
0.18185246 0.29217586 -0.03733735 0.1803346 -0.2064712 -0.02119077 0.14154026 0.08443611
0.15777755 0.02660516 0.115574636 -0.035259373 0.049195148 0.2784123 -0.1654587 -0.053847555
-0.02136377 -0.014656721 -0.07024559 0.13066202 0.17100215 0.022180453 -0.101771936 0.13745603
-0.21509714 -0.08169912 0.023492336 -0.0063307113 0.024095252 -0.2956753 0.080763236 0.070883
0.089750625 0.17632721 -0.13912551 0.22715263 0.025480853 -0.25692412 0.09290559 0.24464697
-0.24090332 -0.24126615 -0.061275683 0.13282028 -0.14197026 0.1849391 -0.2605194 -0.1688363
-0.18539514 0.11308152 0.021427482 0.021653704 -0.33020157 -0.08217891 -0.02841149 0.0022767843
-0.19737186 0.04955176 0.30081567 0.08491384 0.079579875 0.026834747 -0.13419148 -0.09983977
0.16464134 -0.14171126 -0.108485356 -0.06811012 0.17598867 0.045476876 -0.11368585 0.037112713
0.03584805 0.1337166 -0.11129651 0.119072504 -0.0031678665 -0.0006511733 -0.079998426 -0.14183839
0.02742208 -0.04740639 -0.11270075 -0.21986459 0.03829787 -0.07141131 0.1572888 0.17856458
-0.05152906 -0.12195362 -0.03193341 -0.04378431 0.35514754 -0.19512457 -0.01040131 0.0020091382
0.18162619 -0.05512843 -0.08516059 0.02874931 0.09297917 -0.17634723 -0.039457105 -0.2975782
0.0064477134 0.093171835 -0.1354422 -0.051617227 0.0051503195 -0.060017433 -0.060830053 -0.032927442
0.06731256 -0.15980239 0.0056100497 -0.008052016 -0.1514823 0.16852589 0.03169541 -0.1867872
0.22861122 -0.029230803 0.17316023 0.18448198 0.2915404 0.058146182 0.0023976865 -0.09378634
-0.045980327 -0.040237233 0.057963695 -0.07712426 -0.35362908 -0.12970053 -0.21301472 0.19903274
-0.3216111 -0.118238345 0.09692031 0.23910713 0.11412045 0.014476898 0.11675748 -0.028592903
-0.13623032 -0.026305651 -0.20303085 -0.11533119 0.058393877 -0.09675826 0.1781086 0.09994521
-0.08123505 0.08710678 0.28674152 -0.122806974 0.086259566 -0.20587023 0.10078711 -0.21579562
-0.017737996 0.010700945 0.0677073 0.18146619 -0.36125058 -0.026101917 -0.08511892 -0.2989416
0.039757565 0.022017643 0.101035185 0.08164805 0.11829668 -0.12507789 -0.07208812 0.23575859
-0.073124014 0.061191432 0.0002159925 0.04261347 -0.1593909 -0.11456403 0.15263602 -0.034960017
0.18789858 -0.047506593 -0.03612546 -0.03448656 -0.07966727 -0.12379606 0.15406524 -0.067371786
0.0651998 -0.09130185 -0.17988724 0.12422381 0.106221825 -0.16697375 -0.14455092 -0.05941076
0.13306786 0.35896468 -0.1667127 -0.022048248 0.05861698 0.007752056 0.13993593 0.020678684
00000000: 8c12 48bd ecc6 033e 12f2 dcbd 9a90 483e
00000010: b199 713e c988 5d3d 66ba 89bd ce05 4d3d
00000020: 3529 ae3d d084 023d 1cff 20bd f2d2 3fbe
00000030: f7bb 87bd d8fd e63c d06a 043e 589f 7a3d
00000040: 3f82 c6bc bdf7 db3c cda3 dcbc 4882 87bc
00000050: 6ccf ef3d 5fda e5bc 58a6 3abe 652e debd
00000060: 37be 79be 4fc2 b03d d2fc 623e 5450 9e3d
00000070: a3a3 45bd 3b38 f6bd 4563 05bc c0b6 1a3d
00000080: a269 953c a26e 63bc fdcd 9a3c d13e 1c3d
00000090: cb72 1bbe e5d8 f0bd f10b 323e 1e53 91bb
000000a0: 35ac 0a3e 992b 323e 1da9 89bd 7947 09bd
000000b0: 0fc0 01be 6188 5abd 7fb4 2d3e 6f82 a8bd
000000c0: 8837 3a3e 1398 953e 0def 18bd a2a9 383e
000000d0: 306d 53be 4498 adbc eeef 103e d7ec ac3d
000000e0: 7090 213e 11f3 d93c 65b2 ec3d 226c 10bd
000000f0: da80 493d 0f8c 8e3e 016e 29be 418f 5cbd
00000100: 1303 afbc be22 70bc ebdc 8fbd 44cc 053e
00000110: 301b 2f3e c8b3 b53c ce6d d0bd 46c1 0c3e
00000120: 6d42 5cbe de51 a7bd 0073 c03c db71 cfbb
00000130: 6863 c53c c162 97be 3267 a53d 1b2b 913d
00000140: 2dcf b73d 1f8f 343e eb76 0ebe b39a 683e
00000150: 39bd d03c 8f8b 83be 4945 be3d bc84 7a3e
00000160: 5caf 76be 790e 77be 36fc 7abd 0a02 083e
00000170: a760 11be ad60 3d3e cc62 85be 6ce3 2cbe
00000180: 39d8 3dbe 4997 e73d b088 af3c 1c63 b13c
00000190: 2e10 a9be 6b4d a8bd 37bf e8bc 1a36 153b
000001a0: d91b 4abe c9f6 4a3d 8304 9a3e 4fe7 ad3d
000001b0: c6fa a23d 8bd4 db3c 7e69 09be cb78 ccbd
000001c0: bd97 283e c21c 11be 922d debd 527d 8bbd
000001d0: 6036 343e f645 3a3d 20d4 e8bd 8003 183d
000001e0: 68d5 123d 01ed 083e 6def e3bd 49dc f33d
000001f0: fb9b 4fbb 80b3 2aba 37d6 a3bd 153e 11be
00000200: 45a4 e03c 342d 42bd a7cf e6bd 2f24 61be
00000210: 3ade 1c3d 1840 92bd 5110 213e a2d9 363e
00000220: 2310 53bd d2c2 f9bd 9bcc 02bd 2d57 33bd
00000230: e6d5 b53e bcce 47be 426a 2abc bfab 033b
00000240: 37fc 393e 59ce 61bd ad68 aebd ac83 eb3c
00000250: dd6b be3d 5e94 34be c69d 21bd 2b5c 98be
00000260: 5747 d33b e0d0 be3d 5cb1 0abe 966c 53bd
00000270: 03c4 a83b d7d4 75bd ef28 79bd edde 06bd
00000280: 2bdb 893d 3da3 23be 82d4 b73b 9aec 03bc
00000290: 2d1e 1bbe 0d92 2c3e 0cd3 013d 2545 3fbe
000002a0: 0f19 6a3e 7075 efbc ea50 313e d8e8 3c3e
000002b0: c944 953e b12a 6e3d 8122 1d3b 0d13 c0bd
000002c0: de55 3cbd cccf 24bd 576b 6d3d 53f3 9dbd
000002d0: df0e b5be 37d0 04be 8820 5abe 3dcf 4b3e
000002e0: 36aa a4be f226 f2bd 287e c63d 80d8 743e
000002f0: fcb7 e93d 8330 6d3c 8c1e ef3d aa3b eabc
00000300: f67f 0bbe f37e d7bc 52e7 4fbe c232 ecbd
00000310: 6b2e 6f3d 3229 c6bd 1a62 363e 13b0 cc3d
00000320: 905e a6bd 0a65 b23d c9cf 923e 3982 fbbd
00000330: dba8 b03d a5cf 52be 7969 ce3d 87f9 5cbe
00000340: 464f 91bc 0453 2f3c 20aa 8a3d 46d2 393e
00000350: d6f5 b8be b0d3 d5bc d452 aebd e00e 99be
00000360: d4d8 223d 585e b43c 89eb ce3d 1837 a73d
00000370: 8845 f23d 6b14 00be f0a2 93bd b36a 713e
00000380: 0bc2 95bd dea3 7a3d 0c7c 6239 768b 2e3d
00000390: 5e37 23be 8ca0 eabd 9e4c 1c3e 3c32 0fbd
000003a0: 7c68 403e 4696 42bd 4af8 13bd c741 0dbd
000003b0: 9828 a3bd ca88 fdbd 47c3 1d3e 38fa 89bd
000003c0: 7987 853d 77fc babd 5c34 38be 0e69 fe3d
000003d0: d48a d93d 2bfb 2abe 2805 14be b258 73bd
000003e0: f142 083e 38ca b73e bcb6 2abe 879e b4bc
000003f0: 5c18 703d f504 fe3b 5d4b 0f3e 5866 a93c

network_body.linear_encoder.seq_layers.0.bias f4 [256]
-0.0034928704 -0.007304205 -0.00460615 -0.0044268556 -0.0004086218 0.00033278833 0.0006351513 0.0060063316
0.0022822425 0.0024291757 7.647574e-06 0.00032097538 -0.002201232 0.0034297877 -0.009511524 0.00407281
-0.009531352 0.005718452 0.010566638 -0.00049897365 0.00015607463 -0.003431502 0.004521022 -0.0028994584
0.0032353555 -0.0021881321 -0.0061696195 -0.00043175704 -0.00040096225 -0.0004832658 -0.000991139 -0.0003636284
0.008629159 -0.008112065 -0.0016627215 -0.0022055088 0.002100102 -0.006066875 -0.0028450517 0.0046471567
0.003903119 0.008213242 0.00012502036 -0.0031297177 0.002952552 -0.0008224057 0.011780602 0.0022031118
0.003942905 0.0027353074 0.003839673 -0.009523932 -0.00082439394 0.00064474146 -0.003556049 0.0010168083
-0.0040259366 -0.0038192922 -0.0009952282 -0.0016838417 -0.010397468 -0.001705097 0.0032392393 0.00450087
0.00057317223 -0.004497765 -0.0040585487 -0.00026074878 0.0008692227 0.0037818397 -0.005373881 -0.0014349582
-0.0061607426 0.0031217274 0.0018038935 -0.0045573204 0.00013329941 0.0018329737 0.0029197265 0.0040326375
-0.00043294622 0.00093725993 -0.001614169 -0.0023850028 0.014513792 -0.007736738 0.008138941 0.016234921
9.1078175e-05 0.009172359 0.0025416226 0.0015439678 0.008887845 -0.0022784327 0.010482695 -0.008258395
0.008705903 -0.007324755 -0.004367272 0.009013759 -0.0061984733 -0.00031219254 0.0064277924 0.0018364805
0.0077330964 0.0048055025 -0.013382944 -0.0060367817 -0.005612247 -0.00877768 -0.00016274085 0.0006835756
0.00026746286 0.006823629 -0.005759869 -0.0023799008 0.004361165 0.013003023 -0.008978052 -0.00052339723
0.005148413 0.0011174637 -0.0020419252 0.007677241 -0.0044235694 0.013417341 -0.0014948117 -0.0030652368
-0.00018387225 0.00078709424 -0.0010556055 -0.0013349138 0.0054679695 -0.010221445 -0.0046446747 -0.0024060376
-0.0020731054 0.006905766 0.005039361 -0.0032063276 0.009571897 0.00084380334 0.0012440812 0.0034160418
3.027343e-05 0.007701924 -4.6069505e-05 -0.0022980792 -0.005022872 0.0037647241 0.0058457307 0.0007268117
-0.0057403827 0.0023856733 0.003714069 -0.0034218943 0.00899462 -0.005912384 -0.004115816 0.0013028181
0.0069395285 0.004224216 -0.0022029076 -0.0047588516 0.0023818617 0.0039176946 -0.0048659598 0.00034851427
-0.0005092529 -0.0041559185 0.006779757 0.008917301 0.00030528576 -0.0039972914 0.0023589681 -0.012698326
0.0043099737 0.0041059894 0.01310958 -0.007957653 0.0046310117 -0.0022109367 0.005597593 0.000638939
-0.00018420663 0.010091374 -0.0037552826 0.0008831209 0.00306693 -0.002018622 0.0018270274 -0.008176009
-0.012582103 -0.0014353219 0.0062377644 -0.0028646858 0.00494876 -0.0045605027 -0.002932049 0.00013228304
0.00041456686 0.012966168 -0.0069002197 -0.0018383521 -0.0020563374 0.0044020996 -0.00074569794 0.0050729746
-0.0011707358 0.0074203652 -0.003967892 -0.0023661258 -0.0017013057 -0.01118732 0.007387469 0.005150775
-0.00470852 -0.0012917966 -0.0038193283 -0.006857197 -0.0027717336 -0.002615486 -0.0026420502 0.005248982
-0.0055467305 -0.0048025185 -0.0015044844 0.008663802 0.0040922975 -0.010297785 -0.0001008538 0.0006099658
-0.0017231198 -0.0021912807 0.0029572584 0.009463208 0.00380892 0.0024007843 -0.009495083 0.0077723553
-0.008822224 0.0061273617 -0.00042520286 0.00094997656 0.009437322 0.003905299 0.016150521 0.0012322546
-0.0045650746 -0.009002141 -0.0014929028 -0.0076365788 -0.0049099037 0.012945132 -0.0034226815 0.005140108
00000000: a4e8 64bb 1d58 efbb 30ef 96bb 280f 91bb
00000010: 4a3c d6b9 187a ae39 4880 263a c3d0 c43b
00000020: ad91 153b ce32 1f3b 154e 0037 9648 a839
00000030: 8b42 10bb 4ac6 603b 39d6 1bbc 3575 853b
00000040: 6329 1cbc da61 bb3b b11f 2d3c 8ecd 02ba
00000050: f7a7 2339 0de3 60bb 1525 943b d704 3ebb
00000060: 4208 543b c466 0fbb 852a cabb 735d e2b9
00000070: 3e38 d2b9 d65e fdb9 1be9 81ba 61a5 beb9
00000080: 5161 0d3c 77e8 04bc adef d9ba 4c8a 10bb
00000090: dda1 093b a3cc c6bb 0c74 3abb 2d47 983b
000000a0: 78cb 7f3b d590 063c e617 0339 f31b 4dbb
000000b0: 9a7f 413b b696 57ba 6d03 413c 1562 103b
000000c0: 7c33 813b d842 333b 06a3 7b3b 440a 1cbc
000000d0: 241c 58ba de03 293a 9a0c 69bb 6d46 853a
000000e0: 01ec 83bb 174d 7abb 5172 82ba 5ab4 dcba
000000f0: 245a 2abc 907d dfba 6b49 543b 097c 933b
00000100: f040 163a fd61 93bb 93fd 84bb 1cb5 88b9
00000110: 8cdc 633a bed8 773b 6217 b0bb 3515 bcba
00000120: 0ee0 c9bb e595 4c3b 9f70 ec3a 9355 95bb
00000130: 4ac6 0b39 6440 f03a e258 3f3b 3724 843b
00000140: 0ffd e2b9 73b2 753a 8692 d3ba b54d 1cbb
00000150: 41cb 6d3c 7684 fdbb 3159 053c 19ff 843c
00000160: 3901 bf38 a947 163c 5a91 263b f65e ca3a
00000170: 539e 113c c251 15bb 9cbf 2b3c 384e 07bc
00000180: 34a3 0e3c 8004 f0bb 551b 8fbb 72ae 133c
00000190: 901c cbbb c6ad a3b9 3ba0 d23b 0fb6 f03a
000001a0: ea65 fd3b 7a77 9d3b 2344 5bbc 32d0 c5bb
000001b0: f1e6 b7bb 42d0 0fbc 6aa5 2ab9 fb31 333a
000001c0: 423a 8c39 c098 df3b 48bd bcbb 1cf8 1bbb
000001d0: 1be8 8e3b a20a 553c ae18 13bc 9834 09ba
000001e0: 05b4 a83b dc77 923a d2d1 05bb 5e91 fb3b
000001f0: 97f3 90bb 68d4 5b3c 8fed c3ba 24e2 48bb
00000200: d5cd 40b9 0055 4e3a 3e5c 8aba 46f8 aeba
00000210: a72c b33b d977 27bc 5b32 98bb 9dae 1dbb
00000220: f0dc 07bb c449 e23b 3921 a53b 4021 52bb
00000230: 72d3 1c3c af32 5d3a 7010 a33a acdf 5f3b
00000240: b2f3 fd37 6c60 fc3b c13a 41b8 5f9b 16bb
00000250: e796 a4bb 97b9 763b 8b8d bf3b 8287 3e3a
00000260: d219 bcbb f558 1c3b bd67 733b dc41 60bb
00000270: 2c5e 133c acbc c1bb f8dd 86bb 52c3 aa3a
00000280: fc64 e33b 4b6b 8a3b a85e 10bb 24f0 9bbb
00000290: 0219 1c3b 0160 803b a172 9fbb cbb8 b639
000002a0: 627f 05ba 5f2e 88bb b928 de3b df19 123c
000002b0: c30e a039 b6fb 82bb eb98 1a3b a40c 50bc
000002c0: ae3a 8d3b 898b 863b 90c9 563c d160 02bc
000002d0: bebf 973b 5de5 10bb 036c b73b 787e 273a
000002e0: 9727 41b9 4a56 253c 301b 76bb 3e81 673a
000002f0: 8cfe 483b db4a 04bb de78 ef3a abf4 05bc
00000300: 2a25 4ebc 6921 bcba 2966 cc3b 74bd 3bbb
00000310: 3529 a23b 4570 95bb 9f27 40bb 75b5 0a39
00000320: 395a d939 0d70 543c 3d1b e2bb dcf4 f0ba
00000330: 9ec3 06bb 7d3f 903b f17a 43ba 323b a63b
00000340: 6073 99ba 8926 f33b 1705 82bb 0111 1bbb
00000350: 59fe deba 054b 37bc 9512 f23b d5c7 a83b
00000360: ee49 9abb 8051 a9ba b24d 7abb 56b2 e0bb
00000370: f9a5 35bb 9368 2bbb 3f26 2dbb a7ff ab3b
00000380: 59c1 b5bb 725e 9dbb 1f32 c5ba 9ff2 0d3c
00000390: ae18 863b 0ab8 28bc 7981 d3b8 1de6 1f3a
000003a0: 4eda e1ba 979b 0fbb 90ce 413b 920b 1b3c
000003b0: 139f 793b 7a56 1d3b 4491 1bbc 3eaf fe3b
000003c0: 178b 10bc 09c8 c83b c3ed deb9 d907 793a
000003d0: ff9e 1a3c 0bf0 7f3b 194e 843c 9a83 a13a
000003e0: 9f96 95bb b77d 13bc 81ad c3ba 443c fabb
000003f0: 42e3 a0bb d217 543c 114f 60bb 5a6e a83b

network_body.linear_encoder.seq_layers.2.weight f4 [256, 256]
0.075924486 -0.0020251283 0.052061684 0.022967516 0.046450708 -0.07673837 -0.04574998 0.036126155
-0.12497617 -0.09713459 -0.027773896 -0.03561509 0.018568572 -0.025973931 -0.0055609164 0.09149544
-0.054562308 -0.052227527 0.016406933 -0.11592905 -0.03752981 -0.09277498 -0.0025083935 0.02452463
0.05359568 -0.09627318 0.06555056 0.053513687 -0.08204937 0.095824614 0.094466105 -0.009542422
-0.03190286 0.0041420497 -0.044393823 0.10679192 0.006311672 -0.1343345 0.11577643 0.059360735
-0.020605998 0.0073331753 -0.07377908 -0.09476474 -0.056403168 -0.1087803 -0.005411502 -0.014592989
-0.151949 0.03697022 -0.052555226 0.07301537 0.06482951 -0.059507325 0.106062934 -0.020539762
-0.0045410413 -0.038294178 -0.06754928 0.06048504 0.03464243 -0.029316716 0.028550182 0.041593377
0.057170026 0.060034107 0.004706759 -0.05260563 -0.014305747 0.005828284 -0.063173115 0.057025753
0.011202974 -0.09747461 0.08718926 -0.09679048 -0.0626714 0.104773805 0.08955291 -0.10362517
-0.07968093 0.047379363 0.00047778204 0.04107276 -0.105133414 -0.09134216 -0.07518442 0.14583229
0.08856185 0.014081388 -0.028166091 0.043358196 -0.05287429 -0.050126344 0.11975477 0.03953741
-0.005885569 -0.00070573244 0.04634819 -0.03751776 -0.09064963 -0.0072763613 0.03460832 0.093932465
0.041670598 -0.05838099 0.028573288 -0.008117512 0.0028720275 -0.09963998 -0.0046929833 -0.009076914
0.11833327 -0.06380396 -0.12496372 0.080588885 0.0936162 0.0508954 -0.004977531 -0.014635076
0.09809325 -0.11644925 -0.053254403 0.020983739 -0.003745275 0.027650135 0.0017677959 -0.08231407
0.06152968 0.043405663 -0.035411794 0.060732692 0.0054287417 -0.09797306 0.0028735045 0.040664673
-0.055106804 0.040698268 0.085883595 0.04893214 0.080635086 -0.061875507 0.029203938 0.05748803
-0.082281776 -0.013795361 0.1691984 0.02569921 0.07099482 0.07584209 0.023696858 -0.0062191826
-0.08741867 0.0018207049 0.03662855 0.023054468 -0.034047283 -0.012436783 0.07243068 -0.016418513
-0.070901506 0.04576858 0.03266284 0.024535239 -0.0097190505 -0.10148236 -0.029704366 0.04405204
0.014122178 -0.018682541 -0.022522142 0.041046645 0.083213925 -0.008318472 -0.016767576 0.018950203
-0.021384906 0.014755709 0.058201108 0.058630522 0.0088499645 -0.053078227 0.05230461 0.020210695
-0.0639606 0.13069378 -0.030677924 0.02911302 -0.003013431 -0.08911469 0.07071252 0.090483844
-0.0049346313 0.033686332 -0.013925921 -0.032731675 -0.12899679 0.008637469 0.013990157 0.036883377
-0.0013442674 0.020136068 0.17946374 -0.096692376 0.037017442 -0.019878667 -0.039837357 0.006450088
-0.0058755963 0.03446847 0.04057601 0.03552542 -0.044597913 -0.10994869 0.071354926 0.02509966
-0.014642094 -0.06765605 -0.06863529 -0.013912259 0.031979106 0.017743535 0.029758723 -0.14029989
-0.03959629 0.03775053 -0.00045277568 0.041252136 0.08034804 0.035498418 0.0054459707 -0.0065663583
0.01828567 -0.020681102 0.16259642 -0.08852886 0.01604484 0.025962159 0.086306654 -0.058461756
0.022456162 0.01399555 -0.02243305 -0.050456107 -0.03357894 -0.03095636 -0.048590302 0.062415715
-0.006773922 0.016824497 0.09600424 0.015425215 0.033817563 -0.08526644 -0.13807505 -0.09266688
00000000: 4c7e 9b3d 04b8 04bb a23e 553d 5f26 bc3c
00000010: 1943 3e3d 0229 9dbd 5564 3bbd 05f9 133d
00000020: 82f3 ffbd 80ee c6bd 1586 e3bc 21e1 11bd
00000030: 1e1d 983c 48c7 d4bc 5938 b6bb f661 bb3d
00000040: ba7c 5fbd 88ec 55bd d567 863c 366c edbd
00000050: dcb8 19bd cf00 bebd dc63 24bb e0e7 c83c
00000060: 2587 5b3d df2a c5bd 5f3f 863d 2b31 5b3d
00000070: 8009 a8bd b23f c43d 7277 c13d d257 1cbc
00000080: 93ac 02bd 08ba 873b 4cd6 35bd b9b5 da3d
00000090: 24d2 ce3b fc8e 09be 311c ed3d 3e24 733d
000000a0: e9cd a8bc 224b f03b 7c19 97bd 0414 c2bd
000000b0: 0207 67bd 35c8 debd f852 b1bb 6f17 6fbc
000000c0: 8598 1bbe 166e 173d 2644 57bd 1589 953d
000000d0: 56c5 843d f4bd 73bd 8637 d93d 0143 a8bc
000000e0: 04cd 94bb 5bda 1cbd 4757 8abd 29bf 773d
000000f0: 38e5 0d3d 9c29 f0bc 12e2 e93c d15d 2a3d
00000100: 1e2b 6a3d 53e6 753d 283b 9a3b 0079 57bd
00000110: a762 6abc 31fb be3b e860 81bd d693 693d
00000120: ae8c 373c c5a0 c7bd 4890 b23d 163a c6bd
00000130: dd59 80bd a693 d63d 8467 b73d 6f39 d4bd
00000140: c12f a3bd dd10 423d d27e fa39 e93b 283d
00000150: 3050 d7bd 9911 bbbd 4afa 99bd 0f55 153e
00000160: ea5f b53d 9fb5 663c 93bc e6bc 5d98 313d
00000170: b692 58bd 4851 4dbd fd41 f53d fbf1 213d
00000180: bbdb c0bb e700 39ba 9ad7 3d3d 39ac 19bd
00000190: 83a6 b9bd 8b6e eebb 74c1 0d3d aa5f c03d
000001a0: caae 2a3d e820 6fbd 8712 ea3c 50ff 04bc
000001b0: a038 3c3b 0c10 ccbd 99c7 99bb 56b7 14bc
000001c0: b758 f23d a7ab 82bd fbec ffbd c90b a53d
000001d0: dab9 bf3d b277 503d 8e1a a3bb f5c7 6fbc
000001e0: 1de5 c83d f27c eebd 4a21 5abd 17e6 ab3c
000001f0: 4a73 75bb 8982 e23c 63b5 e73a 4794 a8bd
00000200: 8c06 7c3d 23ca 313d f50b 11bd d8c2 783d
00000210: 96e3 b13b 1aa6 c8bd 6851 3c3b 0090 263d
00000220: acb7 61bd 3ab3 263d bde3 af3d 116d 483d
00000230: 0224 a53d 2c71 7dbd 193d ef3c 9278 6b3d
00000240: 5983 a8bd f005 62bc 5842 2d3e 2687 d23c
00000250: bb65 913d 1953 9b3d ea1f c23c 49ca cbbb
00000260: 8f08 b3bd b8a4 ee3a d207 163d b9dc bc3c
00000270: 2a75 0bbd a6c3 4bbc 8956 943d 1e80 86bc
00000280: cf34 91bd d677 3b3d 78c9 053d 20fe c83c
00000290: a73c 1fbc fcd5 cfbd 9256 f3bc e96f 343d
000002a0: b560 673c 210c 99bc 5b80 b8bc 8720 283d
000002b0: 106c aa3d 334a 08bc 285c 89bc 753d 9b3c
000002c0: 662f afbc eec1 713c 4964 6e3d 8f26 703d
000002d0: 71ff 103c 8e68 59bd 5c3d 563d e690 a53c
000002e0: c6fd 82bd 97d4 053e 4550 fbbc 6e7e ee3c
000002f0: fc7c 45bb c381 b6bd bad1 903d 984f b93d
00000300: b0b2 a1bb aefa 093d 8c29 64bc a611 06bd
00000310: bc17 04be 2c84 0d3c f936 653c 0613 173d
00000320: 2132 b0ba 65f4 a43c 58c5 373e a706 c6bd
00000330: 9a9f 173d 96d8 a2bc 7f2c 23bd 435b d33b
00000340: 1388 c0bb cf2e 0d3d 0833 263d 1a83 113d
00000350: 4dac 36bd c72c e1bd 8822 923d cd9d cd3c
00000360: 65e5 6fbc 418f 8abd a990 8cbd 3ef0 63bc
00000370: 86fc 023d e45a 913c 91c8 f33c c6aa 0fbe
00000380: b82f 22bd 4da0 1a3d 8662 edb9 00f8 283d
00000390: 838d a43d ca66 113d 1d74 b23b 9b2a d7bb
000003a0: d4cb 953c 6a6b a9bc ad7f 263e 9e4e b5bd
000003b0: 7870 833c 98ae d43c 8bc1 b03d 9875 6fbd
000003c0: fcf5 b73c 974d 653c 84c5 b7bc 10ab 4ebd
000003d0: 128a 09bd 3198 fdbc a006 47bd 9fa7 7f3d
000003e0: c7f7 ddbb 87d3 893c df9d c43d 0aba 7c3c
000003f0: 4984 0a3d 2ca0 aebd 8c63 0dbe 22c8 bdbd

network_body.linear_encoder.seq_layers.2.bias f4 [256]
-0.003142481 -0.0013655084 0.009670017 -0.0068520396 0.006853315 0.00031198905 -0.0017680312 -0.001503632
0.0002390486 0.004996728 -0.00042481703 0.002767912 -0.0011674087 -0.00060451735 -0.0041330657 0.009460537
-0.0007742885 0.0036577212 0.0054285405 0.012730653 -0.00010142314 -0.008630363 0.0022697684 0.007244696
-0.00034647147 0.0031442367 0.0074841552 -0.0023519644 0.0030595458 -0.0034467243 0.004384865 0.00062702637
0.0008976226 0.0035731632 0.004620007 0.0054327203 -0.0043430375 -0.0048726867 -0.005289068 -0.0069879713
0.0023360273 0.002260317 0.0040114736 -0.0029485202 -0.00066894304 -0.006163665 0.00730463 -0.00015248753
0.001439646 0.0036294132 0.0006183916 -0.006542752 0.0007810628 -0.001941736 -0.001201237 -0.0006979569
-0.004624366 0.007729629 -0.009886057 -8.574305e-05 0.0016419318 0.009810184 0.0018373141 0.0073520085
-0.002791982 -0.0023300278 -0.0039698044 -0.0021246825 0.0005175693 0.00050476595 0.010092471 0.0031067762
0.0019531345 0.0015053451 0.0040479554 0.00540135 0.006141675 0.0011507615 0.0035945356 -0.0013195298
0.0036777195 -0.0015751102 0.0021130254 -0.002963014 0.011522979 -0.0018797574 -0.00088764523 0.01157407
-0.005851853 0.0033659972 -0.0015678969 -0.0037364226 0.000238232 0.002151848 -0.0032068684 -0.0026927283
-0.0001266433 0.0038898434 -0.0008378425 0.009459244 -0.0026104779 -0.006810267 0.0036189244 -0.0022550896
0.0018606306 0.0015352906 0.0062326025 0.010128578 -0.001059515 0.0071923006 0.007587367 -0.004692005
0.010383786 0.006779658 0.0037351265 0.0034331537 0.0053486293 0.005838569 0.000681852 -0.0026670704
0.001763311 0.0008970672 -0.00289619 0.0014916623 0.009404779 -0.00031755492 0.0055735437 0.0028277554
-0.004721143 0.0025265198 -0.0031486 0.013174822 0.005246946 -0.0058384542 0.005738303 -0.0010975446
0.0050922027 0.012973862 -0.0011972875 0.001119592 -0.0005103852 -0.003740079 0.0125731705 0.0034227702
-0.0038424989 0.006117933 0.005675689 -0.00482976 0.004318975 0.0032533358 0.0061693294 0.0017081953
0.0052744695 -0.0045699896 -0.0031471266 0.0030823383 0.0055591697 -0.0001504777 0.0036170995 0.00292073
0.0021018982 9.0027344e-05 0.010934552 0.001031644 0.012596331 -0.005817532 -0.005493489 0.0006827607
0.004633733 -0.0008559351 -0.0019239087 0.004155606 0.007956405 0.0047534956 0.0044588936 -0.0043848082
0.0012068446 0.001590203 -0.00052757555 -0.0017232947 0.0061441264 0.0036180483 0.015054138 0.0037085866
0.0029551305 0.002932831 -0.00012578699 0.0044876356 0.011791736 -0.005935715 -0.0017516676 -0.0011950447
-0.0009413013 -0.0063389605 -0.0038528112 0.0028029042 0.0013767284 -0.0023902117 0.0015138087 0.0027160877
0.00022022377 0.0031720963 0.00045406315 0.0042975326 0.012761324 0.00088607386 -0.006148846 -0.00409416
-0.0013245465 -0.0027710812 0.000113636896 -0.001233533 0.0002859732 0.0014215627 -0.0030787345 -0.0034684127
0.0072024274 0.005434151 -0.0031472938 0.0040765824 -0.005744886 -0.007882954 -0.0012897551 0.0023788344
0.00073826435 0.00203728 7.2698385e-05 0.0013254565 0.007693442 -0.0071803797 0.0012837525 -0.00066295394
-0.00063798024 -0.0018135963 -0.00051268167 0.00035253158 0.0005920296 0.0064981794 0.006579267 0.005520469
-0.002527133 -0.0019737668 0.007106616 0.0066108466 -8.495469e-05 -0.0002620605 -0.01197048 0.004669453
0.0056108595 -0.0026805217 -0.0060048923 0.0037247317 0.0060926317 0.011728883 0.005692436 0.0035905074
00000000: 15f2 4dbb dcfa b2ba fe6e 1e3c 1387 e0bb
00000010: c691 e03b 7692 a339 48bd e7ba 8515 c5ba
00000020: 1fa9 7a39 98bb a33b fab9 deb9 dc65 353b
00000030: bc03 99ba 7978 1eba ab6e 87bb 5e00 1b3c
00000040: 9ff9 4aba 61b6 6f3b e6e1 b13b 3b94 503c
00000050: 22b3 d4b8 5e66 0dbc 65c0 143b ea64 ed3b
00000060: 9da6 b5b9 8a0f 4e3b a53d f53b 6a23 1abb
00000070: a982 483b 70e2 61bb eaae 8f3b 075f 243a
00000080: 6f4e 6b3a bb2b 6a3b 6d63 973b f604 b23b
00000090: 0a50 8ebb 0fab 9fbb eb4f adbb 5afb e4bb
000000a0: 0918 193b d421 143b ae72 833b f63b 41bb
000000b0: 025c 2fba 92f8 c9bb ad5b ef3b 0fe5 1fb9
000000c0: 81b2 bc3a 73db 6d3b 8f1b 223a 9564 d6bb
000000d0: 3dc0 4c3a d981 feba d372 9dba 18f7 36ba
000000e0: fe87 97bb d448 fd3b 21f9 21bc f3d0 b3b8
000000f0: 1736 d73a e5ba 203c 08d2 f03a 1ee9 f03b
00000100: aff9 36bb 61b3 18bb 2215 82bb 423e 0bbb
00000110: 7dad 073a 4552 043a e45a 253c 0e9b 4b3b
00000120: 2900 003b 004f c53a b6a4 843b cffd b03b
00000130: 1b40 c93b 26d5 963a 4d92 6b3b 13f4 acba
00000140: e505 713b ee73 ceba af7a 0a3b 202f 42bb
00000150: e0ca 3c3c 3162 f6ba ddb0 68ba 2ba1 3d3c
00000160: e7c0 bfbb 1098 5c3b e481 cdba c5de 74bb
00000170: eacd 7939 0506 0d3b 532a 52bb 7c78 30bb
00000180: 8dcb 04b9 beec 7e3b a9a2 5bba f2fa 1a3c
00000190: 8d14 2bbb a928 dfbb 7a2b 6d3b 20ca 13bb
000001a0: 67e0 f33a ce3b c93a dc3a cc3b 56f2 253c
000001b0: 6ddf 8aba 64ad eb3b 739f f83b 64bf 99bb
000001c0: c120 2a3c e527 de3b 06c9 743b c3fe 603b
000001d0: 8e43 af3b 7751 bf3b 50be 323a 04ca 2ebb
000001e0: e61e e73a 2929 6b3a 01ce 3dbb e283 c33a
000001f0: 8116 1a3c 807d a6b9 46a2 b63b dd51 393b
00000200: d1b3 9abb f893 253b be58 4ebb 35db 573c
00000210: 93ee ab3b 8150 bfbb 6008 bc3b 7cdb 8fba
00000220: 7edc a63b 5290 543c 4dee 9cba 46bf 923a
00000230: 5fcb 05ba 1d1c 75bb b3ff 4d3c 8e50 603b
00000240: 6fd2 7bbb f178 c83b 21fb b93b f742 9ebb
00000250: 3086 8d3b eb35 553b 1628 ca3b 86e5 df3a
00000260: 75d5 ac3b dabf 95bb 0640 4ebb 0e01 4a3b
00000270: b229 b63b 8dc9 1db9 dc0c 6d3b b869 3f3b
00000280: 00c0 093b 10cd bc38 d626 333c 3a38 873a
00000290: d760 4e3c ffa0 bebb ba02 b4bb 4cfb 323a
000002a0: 92d6 973b d560 60ba aa2b fcba c02b 883b
000002b0: 955b 023c 36c3 9b3b e91b 923b 70ae 8fbb
000002c0: fc2e 9e3a 5c6e d03a ff4c 0aba 2de0 e1ba
000002d0: ab54 c93b c71c 6d3b a2a5 763c c20b 733b
000002e0: ddaa 413b bd34 403b b0e5 03b9 040d 933b
000002f0: 2032 413c 6380 c2bb 3698 e5ba 0ca3 9cba
00000300: a9c1 76ba 0eb7 cfbb 727f 7cbb eeb0 373b
00000310: 5773 b43a 19a5 1cbb fe6a c63a 6400 323b
00000320: deeb 6639 f2e2 4f3b 530f ee39 51d2 8c3b
00000330: df14 513c 6947 683a 427c c9bb 4e28 86bb
00000340: 689c adba 079b 35bb 5850 ee38 80ae a1ba
00000350: acee 9539 bb53 ba3a 98c4 49bb 4f4e 63bb
00000360: 5702 ec3b f610 b23b d442 4ebb da94 853b
00000370: 993f bcbb 8127 01bc 000d a9ba 38e6 1b3b
00000380: 1588 413a e383 053b a675 9838 f1ba ad3a
00000390: 4519 fc3b 6449 ebbb 9643 a83a 16ca 2dba
000003a0: 213e 27ba 32b6 edba 7c65 06ba fdd3 b839
000003b0: 6f32 1b3a aeee d43b e496 d73b 0de5 b43b
000003c0: 429e 25bb 505a 01bb 9ede e83b cd9f d83b
000003d0: b429 b2b8 2a65 89b9 d51f 44bc 3602 993b
000003e0: 4ddb b73b b1ab 2fbb b0c4 c4bb a11a 743b
000003f0: b3a4 c73b 802a 403c 9d87 ba3b b84e 6b3b

action_model._discrete_distribution.branches.0.weight f4 [7, 256]
0.012324464 0.0020918208 0.004968792 0.010312408 -0.013940663 -0.008659531 0.0032551216 0.005579065
0.013844501 -0.010200449 -0.005755806 -0.015998578 0.0105728 -0.001484607 -0.0011101763 0.0035820643
0.0011324591 0.0027668944 -0.015778799 0.0056075724 0.0022784085 0.005588174 0.012840067 -0.01458235
-0.002476268 0.009513301 -0.009929592 0.0017089535 -0.0058748852 -0.0010440642 0.0020643887 0.0047825435
0.0026794255 0.0014656053 -0.008311147 -0.00911223 0.00015261876 -0.0007377268 0.006383224 0.015249006
-0.005534847 0.010410371 5.0965176e-05 -0.001313954 0.007292607 0.006052425 0.0058684256 0.0020432484
0.010968744 -0.010496376 0.0021442953 -0.0024145553 0.00655519 0.0019556892 0.004518292 0.012343456
0.009205701 -0.010546157 0.0053523188 0.008108006 -0.019083498 -0.0043031513 -0.006157242 -0.0065721534
-0.0010716683 0.0075738225 -9.020882e-05 0.0035462494 0.008553588 -0.002718737 -0.014192564 0.003570878
-0.0034807997 0.0024572394 -0.006776149 -0.004585929 0.002697606 -0.00679294 -0.0011114442 0.0104309665
0.002058339 -0.005041236 0.0017526048 0.010885368 -0.0069838087 0.007398536 -0.0015541121 0.008306402
-0.0018977581 -0.0035952106 0.0029589674 0.005544769 -0.004214923 0.005125524 0.0039720754 -0.008190706
-0.011403763 -0.00043381812 -0.0023557155 -0.007811278 0.0027503038 -0.005349148 -0.0003059538 0.0066207335
0.003626631 0.0036511016 0.0006248774 -0.0066676424 0.003057025 -0.014193695 0.008796662 -0.00022774021
-0.004249201 -0.0063994955 -0.011622038 -0.0010027952 -0.0016124841 0.010922914 -0.004679659 -0.0032743427
0.0045515923 -0.008814009 0.0073502217 0.006924534 -0.0014361524 -0.0107821785 0.013133322 -0.0038662301
-0.005926286 -0.016898539 -0.0060697976 -0.010198125 -0.005660317 0.014280799 -0.01272741 0.011043894
-0.0099397 -0.0061343876 0.013567862 0.0026819846 -0.00013586029 0.0069165374 -0.010649929 0.00434582
0.0008307489 -0.0040041413 -0.0009555617 0.006065367 -0.00015706262 0.00026294193 -0.01521264 0.006326623
-0.010661035 0.013877043 0.00902596 0.008369828 -0.0048071467 -0.013435006 -0.0006278723 0.005448907
0.011120921 0.0044949763 -0.001198735 -0.001166446 -0.0055320463 0.0026936324 0.0063487655 -0.00022200652
-0.00075276353 0.0041639963 0.014487929 0.009814037 -0.0010835136 0.004290295 0.002191468 0.010033976
-0.009736496 -0.0033259105 -0.0020815788 0.009240809 0.002362525 0.0025065462 -0.007410616 0.0003211681
-0.0019621418 -0.0042583887 -0.012897451 -0.01091763 -0.015231801 -0.0038861649 -0.0036982554 -0.0024462813
0.0020567107 0.00044865932 0.0046531213 -0.012717463 0.0032224047 -0.0071804724 -0.0017985924 0.002803948
-0.005090184 -0.0030733182 0.009371873 0.0028890267 0.0009547448 0.0027867728 -0.00071802025 -0.0022523222
0.004570694 -0.009092553 -0.0013518466 -0.0054706107 0.0015889981 0.008857702 0.004297631 -0.006448818
-0.010166675 -0.007913744 -0.002603663 -0.009226881 -0.00043105741 0.0033178797 0.009838836 -0.005661489
-0.005318302 -0.0010821308 0.0044591674 0.005148297 -0.009640294 0.0018332495 -0.0036850625 -0.0068392414
-0.00016718486 -0.0016800349 0.003175339 0.0026460714 -0.0021792524 -6.3927124e-05 -0.002159966 -0.012330483
0.01099397 -0.010565765 -0.018877259 -0.010703809 0.009257697 0.0018670007 0.0077971565 0.005042473
-0.009831761 5.681858e-05 0.00026339336 0.0066590505 -0.006602406 -0.013991625 -0.0028749206 -0.009559973
00000000: 8cec 493c ee16 093b 40d1 a23b 60f5 283c
00000010: 6167 64bc b5e0 0dbc e153 553b 97d0 b63b
00000020: 0cd4 623c c91f 27bc 339b bcbb 730f 83bc
00000030: 8a39 2d3c 2597 c2ba 5683 91ba 11c1 6a3b
00000040: 066f 943a c954 353b 8a42 81bc babf b73b
00000050: 5a51 153b 001d b73b 255f 523c cfea 6ebc
00000060: e248 22bb addd 1b3c baaf 22bc f7fe df3a
00000070: 1c82 c0bb fbd8 88ba b24a 073b e2b6 9c3b
00000080: 4d99 2f3b 8e19 c03a 7a2b 08bc 764b 15bc
00000090: 4908 2039 0264 41ba 5d2a d13b f8d6 793c
000000a0: a95d b5bb 4390 2a3c 71c3 5538 fb38 acba
000000b0: d2f6 ee3b 6c53 c63b ec4b c03b 05e8 053b
000000c0: 3fb6 333c fef8 2bbc 4e87 0c3b 843d 1ebb
000000d0: ebcc d63b 052b 003b 2e0e 943b 353c 4a3c
000000e0: 82d3 163c cac9 2cbc 8162 af3b 71d7 043c
000000f0: ff54 9cbc 7301 8dbb b1c2 c9bb 385b d7bb
00000100: 3977 8cba d42d f83b 7e2e bdb8 3168 683b
00000110: 5924 0c3c d72c 32bb ee87 68bc 6405 6a3b
00000120: 211e 64bb a309 213b 750a debb 9045 96bb
00000130: 52ca 303b 5097 debb e1ad 91ba a5e6 2a3c
00000140: 33e5 063b f430 a5bb a9b7 e53a 8b58 323c
00000150: 6fd8 e4bb 6b6f f23b 59b3 cbba 9317 083c
00000160: 32be f8ba a09d 6bbb 3ceb 413b e5b0 b53b
00000170: 561d 8abb 03f4 a73b 2f28 823b 5032 06bc
00000180: d9d6 3abc 1572 e3b9 5962 1abb c0f5 ffbb
00000190: 713e 343b e847 afbb 6d68 a0b9 bdf2 d83b
000001a0: c6ac 6d3b 5247 6f3b d0ce 233a 3d7c dabb
000001b0: 5e58 483b ac8c 68bc e01f 103c 8ccd 6eb9
000001c0: e23c 8bbb dcb2 d1bb 5c6a 3ebc 3970 83ba
000001d0: fd59 d3ba 06f6 323c d357 99bb 5b96 56bb
000001e0: 8625 953b a268 10bc 21da f03b 34e7 e23b
000001f0: 473d bcba bca7 30bc 252d 573c 9460 7dbb
00000200: 4a31 c2bb ce6e 8abc 27e5 c6bb 0916 27bc
00000210: 2e7a b9bb 03fa 693c a086 50bc 73f1 343c
00000220: 20da 22bc f902 c9bb bd4b 5e3c 3cc4 2f3b
00000230: b875 0eb9 1fa4 e23b 0a7d 2ebc 6167 8e3b
00000240: 9dc6 593a 2c35 83bb a97e 7aba fcbf c63b
00000250: 2db1 24b9 78db 8939 703e 79bc 8f4f cf3b
00000260: 9fab 2ebc 895c 633c 9fe1 133c 9a21 093c
00000270: 4585 9dbb 801e 5cbc cc97 24ba bf8c b23b
00000280: 8634 363c 984a 933b df1e 9dba 6fe3 98ba
00000290: 2b46 b5bb a787 303b 4e09 d03b 6cca 68b9
000002a0: 1b55 45ba 2272 883b c75e 6d3c 0ecb 203c
000002b0: af04 8eba 9a95 8c3b bb9e 0f3b 8c65 243c
000002c0: d385 1fbc 85f7 59bb 196b 08bb c366 173c
000002d0: 98d4 1a3b de44 243b c1d4 f2bb 7462 a839
000002e0: 4797 00bb f489 8bbb d54f 53bc dcdf 32bc
000002f0: ce8e 79bc 07af 7ebb 6e5e 72bb ca51 20bb
00000300: e1c9 063b 093a eb39 3679 983b e85c 50bc
00000310: fb2e 533b 2b4a ebbb bfbe ebba 71c2 373b
00000320: 8fcb a6bb b969 49bb 7c8c 193c d355 3d3b
00000330: d747 7a3a 4aa2 363b 8639 3cba b29b 13bb
00000340: c3c5 953b eef8 14bc 7230 b1ba cf42 b3bb
00000350: ee45 d03a e51f 113c 24d3 8c3b 9b50 d3bb
00000360: 2092 26bc a6a8 01bc 37a2 2abb 582c 17bc
00000370: 8cff e1b9 c970 593b 1233 213c 0384 b9bb
00000380: 2745 aebb 49d6 8dba 351e 923b 0cb3 a83b
00000390: 53f2 1dbc a549 f03a 1781 71bb b71b e0bb
000003a0: 584e 2fb9 9e34 dcba 5919 503b b669 2d3b
000003b0: cad1 0ebb 9d10 86b8 378e 0dbb cb05 4abc
000003c0: 0d20 343c 081c 2dbc 7ba4 9abc 075f 2fbc
000003d0: 98ad 173c 26b6 f43a 4a7f ff3b 543b a53b
000003e0: 6515 21bc 7c50 6e38 0f18 8a39 2a34 da3b
000003f0: ff58 d8bb 213d 65bc 2a69 3cbb 6fa1 1cbc

action_model._discrete_distribution.branches.0.bias f4 [7]
-0.0036221552 -0.0005938785 -0.000713216 0.005291357 -0.00641451 0.0014195719 0.0073671755
00000000: ae61 6dbb 83ae 1bba 1ef7 3aba 1f63 ad3b
00000010: cf30 d2bb ee10 ba3a 5968 f13b
