results/t1/Fork1.onnx (onnx, 329043 bytes, 6 tensors)

network_body.linear_encoder.seq_layers.0.weight f4 [256, 54]
000000 5f e0 50 3e 7e f8 e8 3d 03 85 4f 3d 76 71 2c bd
       0.20398091 0.11375521 0.05066396 -0.042100392
000010 28 4e 3a 3d a2 e3 05 bd 65 a8 c6 bd bf 01 3e 3d
       0.04548469 -0.03268779 -0.097000875 0.046388384
000020 3c 4c f0 bd ca 1a b2 bc 63 8d 01 be 81 05 b1 3d
       -0.117332906 -0.02174129 -0.12651591 0.08643628
000030 21 36 d8 bd bc 5c 0a 3d ac 72 92 ba 67 76 f2 bb
       -0.10557199 0.033779845 -0.0011173091 -0.0073993686
000040 ab e6 54 be 95 a9 47 3e 99 61 9a 3d a2 c8 b6 3d
       -0.20791118 0.19498284 0.075381465 0.089249864
000050 74 b0 13 3e 7e 49 fe bd 74 b4 20 be 7e 61 91 3e
       0.1442278 -0.12416361 -0.15693837 0.28394693
000060 0e 59 66 ba 73 8b 58 be ee e5 3f bd 6b 3d 90 bd
       -0.0008787074 -0.21146946 -0.046850137 -0.070429645
000070 f8 7f 84 3e 32 ef 37 3b c4 44 00 be ff 96 1d 3e
       0.25878882 0.0028066156 -0.12526232 0.15389632
000080 15 02 12 be 21 64 03 3d ff ba a0 be 4b 13 1f be
       -0.14258607 0.032077912 -0.31392667 -0.15534703
000090 70 57 a5 bd 90 2f 5a 3d 20 8f 05 3e 2e d4 96 ba
       -0.08073318 0.053268015 0.13042879 -0.0011507326
0000a0 5b 1a 15 3d 77 ad 2a 3c e2 0c 28 3c 27 43 30 3e
       0.036402088 0.010417334 0.010256978 0.17213117
0000b0 7a 01 67 be b5 76 a4 3e a4 e0 95 bb d7 83 0e be
       -0.22559157 0.32121816 -0.0045738984 -0.1391748
0000c0 e5 f5 19 3d c2 4c e3 bd 33 0f 62 3d 33 d5 86 bd
       0.03758802 -0.11098625 0.055190276 -0.06583633
0000d0 f0 30 71 3d e7 2a 60 3c 15 f4 b7 be 7f ea 47 bd
       0.05888456 0.013682104 -0.35928407 -0.048807617
0000e0 3e 60 0b bd c2 ab a2 bd ec 06 dc bd c4 4f 74 3d
       -0.03402733 -0.079429165 -0.10743508 0.059646383
0000f0 cc 12 b3 be a2 fb 15 3e 2d d8 13 be 09 36 10 be
       -0.34975278 0.14646772 -0.14437933 -0.14083113
000100 ba 53 6c 3e e5 ec 1a be 1f 19 ba 3d 23 54 dd bc
       0.23078814 -0.1512943 0.09086823 -0.027017659
000110 1d de 47 3d 71 2d cc 3c e4 53 01 be c3 2e ad bd
       0.048795808 0.024924012 -0.12629658 -0.08456185
000120 db 98 ba bd 08 d5 af 3d a2 ce 63 be 60 46 5f be
       -0.09111186 0.08585554 -0.22246793 -0.2180419
000130 e4 2b 69 be 07 91 1b 3e 97 b3 ca 3d 1d ff 84 bc
       -0.22770649 0.15192042 0.09897535 -0.016234929
000140 e2 96 2b 3e 23 59 81 3e 35 9e c4 3d 66 ff 19 3e
       0.16756776 0.25263318 0.09600488 0.15038833
000150 74 2a 19 3e 2d 81 8d bd 82 77 df 3d ec 63 1c 3d
       0.14957601 -0.06909404 0.10911466 0.03818123
000160 b3 77 27 be 61 be 36 be 19 92 ff bd e9 73 8b 3d
       -0.16354255 -0.17846061 -0.12479038 0.068092175
000170 fa 1d 64 bd 7b 2b 48 3e 8f f4 ba 3d 25 14 02 3d
       -0.05569265 0.19547836 0.09128677 0.031757493
000180 97 16 26 bd fa 72 07 3d 93 1a 00 bc d4 6d 4a be
       -0.040548887 0.033068635 -0.007818836 -0.19768459
000190 6f a5 2e be 7f 58 b4 bc f7 57 ee 3d 0b bf 8e bd
       -0.17055295 -0.022014854 0.11637872 -0.06970032
0001a0 4f 95 35 bd e0 f3 75 be 21 9d 1d 3e a5 18 33 be
       -0.044331845 -0.24018812 0.15391971 -0.1748987
0001b0 22 f1 6f be 19 fa 26 3e 75 e9 d8 bd 4a bc 09 3e
       -0.23431829 0.16306342 -0.105914034 0.13450733
0001c0 b0 a9 b5 bd 3b 73 ba 3d 05 0a 94 3e 61 c4 49 3e
       -0.08870256 0.0910401 0.28913894 0.19703819
0001d0 38 78 10 3e 0b 57 ea bd fa 47 a6 bd 1b 1c 69 3d
       0.1410836 -0.114423834 -0.08119197 0.05691157
0001e0 98 29 85 3e 4f de 6b bd 9c 1f 7f 3e 35 35 8b bd
       0.26008296 -0.057585057 0.24914402 -0.06797258
0001f0 be b4 cb 3b 01 ad a8 3d 78 bf 0b 3e 33 a0 cf 3b
       0.0062166145 0.08236123 0.13647258 0.006336236
000200 3a 10 51 be 99 a1 66 3d ba 4d 7c 3d 14 18 ae 3c
       -0.20416346 0.056306455 0.061597563 0.021251716
000210 d0 2c 20 be 1b 80 ec 3c b6 d9 fd 3d f5 f9 1b be
       -0.15642095 0.02886968 0.12395041 -0.1523207
000220 36 11 0d 3e 67 ce c9 3d 85 ce 88 3d 7b 85 3c be
       0.13776097 0.09853821 0.066800155 -0.18410294
000230 a1 63 4d 3d 53 b9 ff bc 97 76 c1 3b 88 50 43 be
       0.05014384 -0.0312163 0.0059040296 -0.19073689
000240 5b 2e cb bd 7d 14 18 3e 0f 0b f3 bd 20 4c e7 3d
       -0.09920951 0.14851566 -0.11867344 0.112938166
000250 3c 3b 33 be a2 8b d2 bd 17 29 ac be eb 19 63 3d
       -0.17503065 -0.10280539 -0.336251 0.05544464
000260 1c 51 8a 3e 7d fe 0f 3e ba 1e e0 3d 34 dc dd 3d
       0.27015007 0.14061923 0.109433606 0.10833016
000270 b3 77 32 be cb fe 05 3e 28 6e 4a 3e b0 00 d9 bd
       -0.17428474 0.13085477 0.19768584 -0.10595834
000280 ec 41 27 3d 91 6c 02 be 96 94 be 3d be 16 9e bd
       0.040834352 -0.12736727 0.09305684 -0.077191815
000290 19 5d 20 bd 9d 03 eb 3c b9 40 99 bb 7b e6 b0 bc
       -0.039151285 0.028688246 -0.004676905 -0.021594277
0002a0 b9 90 a2 bc ad bc 38 bd 9d 20 85 be a9 a7 c1 bd
       -0.0198444 -0.04510181 -0.26001444 -0.09455807
0002b0 ac 91 39 bc 42 e9 ba bc 16 93 4e 3e 42 d5 90 3d
       -0.011326235 -0.022816304 0.20173296 0.07071926
0002c0 23 37 49 3e e0 53 a0 bd ad 89 03 bd a2 1c 2e 3e
       0.19649939 -0.07828498 -0.03211372 0.1700311
0002d0 58 74 52 be 68 29 8e bd 93 c0 c4 3d 4d e5 87 3d
       -0.20552194 -0.06941491 0.09607043 0.066355325
0002e0 65 61 22 be 22 87 bd 3c 55 38 27 3e 37 70 07 3e
       -0.15857466 0.023135725 0.16330083 0.132264
0002f0 05 8a f1 bd 9c 3c 04 be c4 3e 56 3e c2 b4 a4 bd
       -0.11793903 -0.12913746 0.2092238 -0.08042289
000300 a8 38 76 bd 65 36 f9 3c 4a de 37 3e 4c b2 20 3d
       -0.060112625 0.030421445 0.1795589 0.039232537
000310 ad cc 5e 3e 06 61 7a 3e 0a 91 13 be 55 ac 01 3e
       0.21757765 0.24451074 -0.14410797 0.12663396
000320 57 73 55 3e ac 70 d6 3d 3b 93 03 be 6b d2 95 3b
       0.2084478 0.10470709 -0.12849133 0.004572203
000330 0a e5 32 3e 4f 99 ec bc 20 f3 69 bd 93 34 1a 3e
       0.17470184 -0.028881697 -0.057116628 0.15059118
000340 04 c0 2b be 1f c6 06 3d 44 75 d5 3d 9b 78 3c be
       -0.16772467 0.032903787 0.10422757 -0.18405382
000350 72 46 11 3e 60 0e 33 3d a5 45 6a bb a6 6e 97 bd
       0.14187029 0.04371488 -0.0035747078 -0.073941514
000360 53 f4 4d bd e3 a9 18 be 2f ec 9d 3e 26 22 5f 3d
       -0.050281834 -0.14908557 0.30844256 0.054475926
000370 4e 5e 13 bb a0 e7 20 bc 79 70 d0 bd 6f b3 4d 3d
       -0.002248663 -0.009820849 -0.101777025 0.05021995
000380 19 c2 16 3d 50 b8 5f 3d fc a4 12 3d 2b ec 39 3d
       0.0368062 0.054619133 0.035801873 0.045391243
000390 d8 fd 4c 3b ad 60 65 3d a9 b5 3b be 73 78 36 be
       0.0031279232 0.0560004 -0.18331017 -0.17819385
0003a0 64 7f 5b bd 6c 7a 99 bd f4 b3 a1 bd 43 16 31 bd
       -0.053588286 -0.07494053 -0.078956515 -0.04323412
0003b0 5d 06 e6 3c 49 2e 30 bd 68 58 d2 bb e9 d8 a9 bd
       0.028079206 -0.04301289 -0.0064192303 -0.082933255
0003c0 f6 29 d2 3d b2 1e 57 bd 1a 2a 9f bd e8 df 05 3e
       0.1026191 -0.052519508 -0.07771702 0.13073695
0003d0 69 3b 65 be 93 37 12 3e b3 27 1a be d0 a6 6b 3d
       -0.22385944 0.14279012 -0.15054207 0.05753213
0003e0 73 82 98 3c 6d 23 40 bd 00 ef 01 be 01 c2 c3 3d
       0.01861689 -0.046908785 -0.12688828 0.09558488
0003f0 09 84 db 3b 31 76 cf 3d bc 66 fd bd 40 32 72 be
       0.0066990894 0.10129965 -0.12373111 -0.23651981

network_body.linear_encoder.seq_layers.0.bias f4 [256]
000000 0c d7 02 bc 15 ee 2a 3b f7 3c 10 ba 86 d8 02 3c
       -0.0079858415 0.002608185 -0.00055022485 0.0079861935
000010 42 aa 6c bb 94 a5 3f bb df 20 5d bb 5b c3 5c 3a
       -0.0036112224 -0.002924298 -0.0033741517 0.0008421444
000020 5e c4 bf b9 2b 4f c4 3a 0d 7b ea b9 45 83 59 b8
       -0.00036576664 0.0014977207 -0.00044723638 -5.1859086e-05
000030 06 5c a5 3a 40 21 63 bb 1c 6f 2c bb c3 f6 10 3c
       0.0012615926 -0.003465727 -0.0026311344 0.008847895
000040 41 d7 9b 3b 7f 69 93 bb 6f 56 11 bb 0c 9a 1f b9
       0.004755885 -0.00449866 -0.0022176763 -0.00015220809
000050 ad 5a 4b 3a 62 a4 c4 bb 14 04 37 b8 57 2c be ba
       0.0007757347 -0.0060010413 -4.3634398e-05 -0.0014509064
000060 a4 9a af ba bd 97 0e bb e8 49 32 3a fb f9 fe b9
       -0.0013397527 -0.0021757924 0.0006801174 -0.00048632905
000070 a9 2e e2 3b 52 41 1f 3b 7c 18 0c 3b bd aa 7a bb
       0.006902535 0.0024300409 0.0021376899 -0.003824874
000080 e6 1e da 39 fd 46 76 39 72 54 f2 bb 93 c7 a1 ba
       0.0004160322 0.00023486833 -0.0073953206 -0.0012342803
000090 f6 4f 51 3a 62 5c 58 bb 5e 11 e8 39 c9 48 32 3a
       0.00079846324 -0.0033014049 0.00044263428 0.0006801007
0000a0 c8 18 2f bb 0a 1e ad ba d8 51 bf 3b f1 48 cf 3a
       -0.0026717652 -0.0013207805 0.005838614 0.0015814585
0000b0 29 10 da 3b 99 2a b3 bb ff a8 44 ba c3 00 5f b8
       0.0066547585 -0.0054677245 -0.0007501989 -5.3168053e-05
0000c0 6c 3f 2e 3b cf 81 b5 bb 54 07 d7 bb 9d 93 a3 39
       0.0026588095 -0.005539156 -0.006562153 0.00031199763
0000d0 5f e8 9c bb 76 a8 34 bb 4b 1b 2f 3a b9 d9 a5 b9
       -0.004788443 -0.002756623 0.0006679787 -0.00031633468
0000e0 45 dc 63 3a c5 10 b4 3b 8f b1 ca 3a 5e 55 8b 3a
       0.00086921855 0.005495163 0.0015464294 0.00106303
0000f0 a7 af 0c bc 8f 88 93 3a 8b c6 33 b9 74 b1 91 bb
       -0.008586801 0.0011255908 -0.00017144733 -0.004446203
000100 00 60 5d bb 3f 80 e6 ba fa 1b ca 3a d2 35 22 bc
       -0.0033779144 -0.0017585828 0.0015419715 -0.009900527
000110 b5 bc ce 39 c6 13 9c 3b 5f bc e5 3a 59 b0 2e bb
       0.0003943198 0.0047630994 0.0017527452 -0.0026655404
000120 eb e1 75 ba 8c 5c 14 ba c8 96 1d 3b 41 6d bf 3a
       -0.00093796727 -0.00056595425 0.0024046171 0.0014604704
000130 37 9c 84 3a 5b cd 86 bb 0c 0f ae 3b 89 35 3c ba
       0.0010117356 -0.0041138357 0.0053118523 -0.0007179608
000140 f4 f3 0a bb f4 f9 2d bb 7e c9 b8 b9 68 c8 03 ba
       -0.0021202536 -0.0026546689 -0.00035245338 -0.0005027116
000150 4f f7 88 bb 1a 43 9c 3a 3c 81 42 bb ff 89 c8 ba
       -0.004179872 0.0011921853 -0.002967908 -0.0015299915
000160 ef 27 e9 ba d8 b0 42 ba 2e 8c 4e 3a 43 3f df ba
       -0.001778839 -0.00074268645 0.0007879165 -0.0017032403
000170 87 6d 57 bb 2c 81 c2 bb ee c9 00 bb f7 75 91 bb
       -0.003287168 -0.0059358086 -0.001965161 -0.0044391113
000180 89 b9 2f bb 57 dd 28 bb b4 54 b6 3b 25 31 d6 b9
       -0.0026813468 -0.0025766694 0.0055642966 -0.00040853876
000190 73 b5 99 3b 69 84 7f bb 83 8e 35 ba 66 9d 4f 3b
       0.00469082 -0.0038988835 -0.0006925838 0.003167951
0001a0 b7 f3 66 bb 6b 3a f9 ba 35 74 3c bb 3c d3 2e 3b
       -0.003524048 -0.0019014602 -0.0028755788 0.0026676198
0001b0 09 44 7f bb e1 87 27 3a 43 65 09 ba f9 77 0a 3a
       -0.0038950464 0.0006390792 -0.00052412244 0.00052821595
0001c0 ac 24 77 bb eb b1 da 39 81 b5 02 bb f5 47 f3 3a
       -0.0037711067 0.0004171276 -0.001994461 0.0018560874
0001d0 d6 e3 be ba 85 1a 42 bb c9 d1 b7 39 8c 79 d9 ba
       -0.001456375 -0.0029617858 0.00035060782 -0.001659201
0001e0 1b 0d 8a 39 7c 8d b2 3b 83 93 85 3b 70 13 8d bb
       0.00026331175 0.005448995 0.0040764227 -0.0043052956
0001f0 2c ca 88 bb 0e 3a b6 bb 4a 92 1d bb d4 69 82 bb
       -0.0041744914 -0.00556112 -0.0024043494 -0.003979901
000200 58 69 47 39 36 3f c9 bb 81 38 8b bb 24 da 1c bb
       0.00019017363 -0.0061415685 -0.004248679 -0.0023933733
000210 8f 5c b8 38 04 4b f8 ba d8 2e 76 3a 8d 85 09 bb
       8.791044e-05 -0.0018943255 0.00093911355 -0.0020984143
000220 89 83 05 3c 5b 9a a8 3a 9a 4c 2f bb 0a 3e ad b9
       0.008149036 0.0012863384 -0.002674854 -0.00033043354
000230 8e 90 c6 bb 79 e6 61 b9 f8 b6 ed ba ed af 9c bb
       -0.0060597127 -0.0002154353 -0.0018136194 -0.004781714
000240 8a 2d bc ba e2 86 7c 3b d8 d6 2b ba 22 d2 90 bb
       -0.0014356833 0.0038532545 -0.00065551465 -0.004419581
000250 85 d6 7b bb 8f 0e 78 b9 88 f3 c5 bb 87 c7 36 3a
       -0.0038427424 -0.00023656547 -0.006040994 0.0006972481
000260 63 47 80 3a 5c 59 42 bb 48 78 41 bb 95 be 98 3a
       0.00097869 -0.0029655313 -0.0029521156 0.0011653478
000270 01 b0 30 bb 53 22 7f bb 52 99 af 3a 7f 57 ef ba
       -0.0026960375 -0.003893037 0.0013397133 -0.0018260329
000280 f0 48 b8 39 50 80 12 bb cd a4 40 3b 4a 02 00 3a
       0.00035149558 -0.0022354312 0.0029395104 0.00048831536
000290 b0 f7 88 3b 03 8c 5d 3a 88 9e a8 b8 bb 7f 16 bb
       0.0041799173 0.00084513443 -8.040393e-05 -0.0022964317
0002a0 d4 99 58 3b 84 15 8b 3a 6c 1e cf 3a 0b 76 af bb
       0.0033050673 0.001061127 0.0015801913 -0.005354648
0002b0 7e a0 c1 3a e8 eb 9c bb 37 ba 3e 38 90 5d f5 3a
       0.0014772562 -0.0047888644 4.5472956e-05 0.00187199
0002c0 f0 23 b4 3b 34 6e ad bb d1 1e a7 bb d1 00 ec bb
       0.005497448 -0.0052926783 -0.005100109 -0.0072022458
0002d0 53 8d a5 b9 fb 77 0f bb 1c 61 ba ba a7 d5 2d 3a
       -0.00031576547 -0.0021891582 -0.0014219615 0.0006631263
0002e0 0c d2 04 bb 40 7b 3e bb 93 fa 0d b8 70 80 62 b9
       -0.00202668 -0.0029065162 -3.3850385e-05 -0.00021600886
0002f0 99 09 20 bb cf 4a 88 bb 47 84 55 bb 2a 81 42 bc
       -0.0024419783 -0.0041593085 -0.0032580064 -0.011871615
000300 fd 45 2f bb f8 e4 ac bb b7 4c 34 3a 7c 07 d4 ba
       -0.0026744597 -0.0052763186 0.00068778865 -0.0016176547
000310 f3 91 4f bb 4e 09 da b9 c0 76 de bb 72 4c 43 3a
       -0.0031672686 -0.00041587133 -0.0067890584 0.0007450051
000320 b4 03 59 3a d0 1d 04 bb a4 98 6c bb 7f b4 73 bb
       0.0008278445 -0.0020159371 -0.0036101723 -0.0037186441
000330 98 df 84 bb 02 97 4d 3b f1 0b cd 3b 6d d7 bc bb
       -0.0040549748 0.0031370525 0.006257527 -0.0057629854
000340 3b bc 5f ba c8 47 c7 3b a7 65 6e 3b 4c 6f 5b 3b
       -0.00085348234 0.006081555 0.0036376507 0.0033483086
000350 c9 0a 32 3b 2f f7 f0 39 21 20 9d ba 37 bf 78 bb
       0.0027167073 0.00045960533 -0.0011987725 -0.003795577
000360 46 81 69 ba 73 80 a2 3b 3e 29 25 bb e7 83 18 3a
       -0.0008907508 0.00495916 -0.0025201584 0.0005817995
000370 d6 88 b0 ba e2 8d 39 bb 75 d7 a5 ba 3c 54 80 3b
       -0.0013468515 -0.0028313329 -0.0012652712 0.0039162915
000380 ab 88 87 bb 86 d1 40 bb b4 05 c7 ba 50 ce 93 ba
       -0.004136165 -0.002942176 -0.0015184195 -0.0011276696
000390 8c 57 d1 ba ce 18 ad bb 99 d8 c2 3b 39 d9 eb bb
       -0.0015971526 -0.005282498 0.0059462306 -0.007197526
0003a0 d2 32 30 b7 1b ab d8 3b 17 f2 a9 ba 35 2d 75 bb
       -1.050225e-05 0.0066121942 -0.0012965825 -0.0037410979
0003b0 df c6 b1 ba a3 87 76 3c 9d 68 93 3a 05 7d 73 ba
       -0.0013563297 0.015046987 0.0011246387 -0.0009288344
0003c0 01 6a e7 3a cc c2 02 bb a4 5d 21 bc d4 7d e5 b9
       0.0017655493 -0.0019952534 -0.009848986 -0.00043772033
0003d0 07 98 35 bb 8c 61 ba bb ba e1 1e bb ad 52 aa ba
       -0.0027709024 -0.005687898 -0.002424343 -0.001299461
0003e0 ff b5 ca 3b 88 e7 c5 39 e7 15 0d bb 4f 7c 20 3b
       0.0061862464 0.00037747272 -0.0021527947 0.0024488156
0003f0 47 82 13 3b f7 01 12 bc 2b 8d 90 bb c3 21 1c bc
       0.0022508071 -0.008911601 -0.00441136 -0.009529534

network_body.linear_encoder.seq_layers.2.weight f4 [256, 256]
000000 62 5e 63 3c 02 5a a3 bd 05 cf 01 be 4c 6a 22 bc
       0.013877483 -0.07976152 -0.12676628 -0.009913038
000010 59 be cb bd 3d 04 4e bb 42 6f 0d bd 70 87 e6 3d
       -0.09948415 -0.0031435632 -0.03452993 0.112563014
000020 34 cd e0 bc 40 e9 07 be 2f af a9 bd a7 6d 5c bd
       -0.027441598 -0.13272572 -0.08285367 -0.05381551
000030 58 ad e0 3b 8c 21 8e bd 88 25 69 3d cb 54 e1 3c
       0.0068566017 -0.06939992 0.05692056 0.027506253
000040 43 b5 64 3d ef 58 ef bc 30 0a 11 3d 0e bb 8c bc
       0.055836927 -0.029217212 0.035410106 -0.017179038
000050 42 50 94 bb c3 e2 fb 3a c4 9c 06 bd 94 54 9a 3b
       -0.004526169 0.001921736 -0.032864347 0.0047097895
000060 b2 2d 09 3d c9 5a ab bd 88 45 cc 3d a9 13 ba 3b
       0.033490844 -0.08366925 0.099741995 0.005678613
000070 12 5b 00 be 80 52 a3 3d 63 c9 be bd a9 49 61 bd
       -0.1253474 0.0797472 -0.09315755 -0.05500189
000080 e4 d4 bb bd b1 1d 5f bd a6 aa b2 3a 1b ae 51 3d
       -0.09171465 -0.054471675 0.001363118 0.05119143
000090 20 52 75 bc 35 b7 60 bd fe df 9c 3d 49 cd 17 bd
       -0.014973193 -0.05486222 0.076599106 -0.03706101
0000a0 46 ad a9 3d c9 d5 a7 bd f5 db 01 3d a0 ec 0f 3d
       0.082850024 -0.08195073 0.031703908 0.035137773
0000b0 18 44 4e 3e d9 8b a6 bc b2 0a 58 3d 9d 2b 9f bd
       0.20143163 -0.020330356 0.052744575 -0.077719904
0000c0 71 25 bd 3a fa 40 29 bc ed 09 0a 3d 86 f1 9b 3d
       0.0014430714 -0.010330433 0.033700872 0.07614426
0000d0 d1 34 bf bd 9c 51 89 bd 7e ff 61 3c 9d 92 e5 3d
       -0.09336246 -0.06705019 0.013793824 0.11209605
0000e0 8c 64 2c 3d 64 4e ef bc 01 4a a3 bc 60 51 d9 3c
       0.042088076 -0.029212184 -0.019932749 0.02652806
0000f0 57 df 9a bc d6 09 98 bc 1e 17 ea bd 28 39 70 bd
       -0.018905325 -0.018559378 -0.114301905 -0.05864826
000100 b0 0d 50 3d 14 9c 2f 3d a8 19 fb 3d 1a 1a 85 3a
       0.050794303 0.042873457 0.12260753 0.0010154874
000110 0d fa 77 3c ea 67 3b 3d 2a db b8 ba fd 99 17 3d
       0.0151353 0.045753397 -0.0014103402 0.03701209
000120 64 02 58 bd 21 03 05 bc 1c 86 17 bd 37 e5 01 3d
       -0.052736655 -0.008118422 -0.03699313 0.031712737
000130 7e 0c fd bb b9 70 01 bd 2c 78 da bb a8 0e 5e bd
       -0.0077224365 -0.03160164 -0.0066671576 -0.054213196
000140 b8 d0 62 bc 97 17 c7 bd b8 93 9f bd f6 3d 7e 3d
       -0.013843708 -0.09721296 -0.07791847 0.06207081
000150 f5 0b 92 bd b1 2d 66 bd cc f7 46 bd b6 90 37 3c
       -0.07131187 -0.05619592 -0.04857616 0.011203935
000160 8d b9 a3 bc 2a a4 75 3d 05 d1 5d be f3 06 96 3d
       -0.019985938 0.059971012 -0.21661766 0.07325544
000170 5d 6f 91 bc dd 6c 1e bd 59 a4 db 3c cc 5d 28 3e
       -0.017753297 -0.03867804 0.026811766 0.1644203
000180 db 79 c2 3d 16 7e bb 3c 05 cc 1f bd 09 0b 69 bc
       0.09495898 0.02288727 -0.039012928 -0.014223822
000190 b4 87 56 bd 3e ed a8 3d b4 3a 85 3e 24 3a b0 3c
       -0.05237551 0.08248375 0.2602135 0.021512099
0001a0 d4 8f ab bd fe 73 d4 3c 3b f1 04 be 16 79 a0 bd
       -0.083770424 0.025934216 -0.12982647 -0.07835595
0001b0 c1 26 a9 bd de b0 c5 3d c7 d2 4a bc 92 5c 81 bd
       -0.08259345 0.09652875 -0.012379355 -0.063164845
0001c0 a9 bf 00 3d 0f fa 07 3d 56 c4 2c bc 55 f0 42 3c
       0.03143278 0.03319746 -0.010544857 0.01189812
0001d0 dd 5a e4 3b 66 7e b3 3c 22 16 cc bd a0 84 c5 3c
       0.0069688396 0.021910857 -0.09965159 0.024111092
0001e0 9f 5f 0f 3d 4b 42 b4 3d 19 63 ea bc 95 3f 1b 3c
       0.0350033 0.08801707 -0.028611707 0.009475608
0001f0 51 28 d4 bc 70 ce 23 3d 27 57 68 bc 1f b9 59 bc
       -0.02589813 0.039991796 -0.014180935 -0.013288765
000200 ce 9b b9 3d 00 08 2b bc d1 ea 31 3d 43 64 0d 3d
       0.090629205 -0.010438919 0.04343683 0.034519445
000210 23 78 47 3d 77 15 4c 3c a7 aa 14 3d 9e aa 97 bc
       0.048698556 0.0124562895 0.03629556 -0.018513974
000220 23 18 46 3c f0 80 f3 bc 69 b3 3f bb 32 c8 e4 bd
       0.012090716 -0.029724568 -0.0029251224 -0.11170997
000230 61 7b 00 3e cc 40 92 3d ab 06 9f 3c a4 3d b3 3d
       0.12547065 0.07141265 0.01941236 0.087519914
000240 8d f7 b0 bc 9e ab fd bd 7c cb 02 3d a3 b9 cb 3c
       -0.021602416 -0.12386249 0.03193234 0.024868792
000250 79 50 6b bd de 61 16 3c 7e fc 89 3d 22 ef ec bc
       -0.05744979 0.009178607 0.06737612 -0.028922621
000260 0e 37 87 3b 76 ea 22 3c 2c 0b aa 3d 7e b1 6b 3d
       0.004126436 0.009943595 0.08302912 0.057542317
000270 89 de be ba 05 48 83 bd 61 60 73 bd a2 12 fc 3b
       -0.001456217 -0.06410221 -0.059418086 0.007692651
000280 f2 f6 24 be 8d 04 0f 3e b8 54 23 3d 38 3c 34 3b
       -0.16109827 0.1396658 0.039875716 0.0027501713
000290 bc bb 1c 3c 4e f8 8c bd f8 8d c7 bd 00 e7 20 3e
       0.009566244 -0.06883298 -0.09743875 0.1571312
0002a0 c1 c1 9a 3d c3 4f 92 bd 9e 69 de bc 8c a6 c3 bc
       0.07556487 -0.071441196 -0.027149972 -0.023883127
0002b0 95 57 1e bd 46 02 91 bc 91 16 ff 3d b4 d5 de bd
       -0.038657743 -0.01770128 0.12455476 -0.108806044
0002c0 9f bc ea bc 46 09 f1 3b aa 84 26 3c 9f 0c 23 bd
       -0.028654395 0.007355842 0.0101634655 -0.03980696
0002d0 83 71 04 3c 81 f9 b2 bc ae 0e 85 3d 54 38 23 bd
       0.008083704 -0.021847488 0.064969406 -0.03984864
0002e0 f7 c4 aa 3d b4 e3 aa b9 7c bf ca 3b 27 c5 8a bd
       0.08338349 -0.0003259458 0.0061873775 -0.06775885
0002f0 e3 3a 94 bd ca 0d 60 bd 5a 0a 5c bd 30 98 35 bd
       -0.07237794 -0.05470065 -0.05372081 -0.04433459
000300 e5 1b 03 bc 92 1a 02 be 56 9e c1 bd 79 4e 3c bd
       -0.008002256 -0.12705448 -0.09454028 -0.045973275
000310 40 80 b3 3d 9e d2 db bd f4 e7 0e bc 1e 77 0d bd
       0.08764696 -0.107335314 -0.008722294 -0.034537427
000320 a3 9b 13 be 53 ea 35 bd 08 34 2a bd 5e 98 f2 3c
       -0.1441484 -0.044412922 -0.041553527 0.02961367
000330 8b a6 7f bd 95 63 9e bd a1 69 9b 3d 68 5e 5d 3c
       -0.062414687 -0.077338375 0.075885065 0.013511278
000340 48 24 c9 bd 92 57 d3 3a ac ab 58 bd 79 f2 72 3d
       -0.09821373 0.001612412 -0.052898094 0.05931327
000350 01 5e 9d bd fa c5 c5 bd 5a 44 58 bd b9 78 58 3d
       -0.076839454 -0.09656902 -0.05279956 0.052849505
000360 72 81 fa bb 66 57 23 3d af 49 87 3d e5 94 b3 ba
       -0.0076448256 0.03987827 0.06605851 -0.001370099
000370 90 0a 3c 3d 08 37 63 bc b7 cf b5 bc 4a 99 e2 3c
       0.04590851 -0.013868101 -0.022193773 0.027660985
000380 33 37 fd 3c c9 17 5e bd 19 d3 b3 3d 51 10 71 3d
       0.03091011 -0.054221902 0.08780498 0.05885345
000390 a3 e2 99 bd 14 18 fb bc ca 83 76 bb 01 c3 6c bd
       -0.07513931 -0.03065113 -0.0037615173 -0.057803158
0003a0 3c 56 b0 bc f1 43 76 bb a7 12 ef 3c de 13 b5 3b
       -0.021525495 -0.0037577117 0.029183699 0.00552605
0003b0 b5 59 03 3e 6c 53 32 3c fd 20 a6 bd 6e 2b 09 3d
       0.1282719 0.010884147 -0.08111761 0.033488683
0003c0 1c 66 6d bb 32 8e 2a 3d 58 b2 3d bd fb 9b 05 bd
       -0.0036224192 0.041639514 -0.04631266 -0.032619458
0003d0 f0 5a 17 3d 7f bd 84 bc e7 61 ce bc e7 89 b2 3c
       0.03695196 -0.01620364 -0.025193168 0.021794273
0003e0 03 d3 b6 bb 60 63 e4 bc 19 f9 2b bd 1b d3 8e 3c
       -0.005579354 -0.027879417 -0.041985605 0.017434647
0003f0 d0 f4 19 be 01 9c 5f bd e2 85 1c 3d b4 43 c9 bb
       -0.15034795 -0.054592136 0.038213618 -0.006142104

network_body.linear_encoder.seq_layers.2.bias f4 [256]
000000 7d ea 88 bb ef a9 46 3a b2 76 02 bb e1 7c b7 b8
       -0.004178344 0.00075784227 -0.0019907174 -8.7493805e-05
000010 ff 43 83 39 b2 1e 86 ba 18 50 4e ba f0 29 6c ba
       0.00025036928 -0.0010232537 -0.0007870211 -0.0009008935
000020 b2 c9 4a b7 f5 d2 8a ba 69 dc 4a bb 02 b5 d5 ba
       -1.2087099e-05 -0.0010591435 -0.0030954129 -0.0016304555
000030 6d 72 1a bb de 5f 4c 3b 31 9e b4 ba 8b 27 23 ba
       -0.0023566738 0.003118507 -0.0013780055 -0.0006223849
000040 77 47 b8 bb 48 c0 96 3a 43 a1 b7 b9 c2 30 6d 3a
       -0.0056237536 0.0011501396 -0.0003502463 0.0009048098
000050 bb 0e 0d bb 71 cc 0b bb 49 18 0a bb 8a c9 11 bb
       -0.0021523673 -0.0021331573 -0.0021071604 -0.002224537
000060 9f c5 8a bb 26 7b 85 bb 92 dc 34 3a c0 e4 f4 ba
       -0.004234984 -0.0040735183 0.00068993226 -0.0018683895
000070 70 48 cb ba 72 1d 99 bb f5 6c a5 ba b4 c8 6e bb
       -0.0015509259 -0.0046726996 -0.0012620973 -0.0036435546
000080 0f 9a 26 bb db dd b4 ba 7b 7b 4c bb 17 0f 6a bb
       -0.0025421416 -0.0013799028 -0.003120153 -0.003571456
000090 40 8a 0c bb 60 a8 83 bb 7e 9e 49 bb 1d 8c 22 3b
       -0.0021444708 -0.0040178746 -0.0030764635 0.0024802752
0000a0 88 90 6d 3b ee 69 66 ba 8f 99 f0 ba ff fd 92 bb
       0.0036249477 -0.00087895885 -0.0018356311 -0.004485845
0000b0 9b 61 24 3a 48 1d 9f ba 20 05 7c bb 90 87 08 3a
       0.0006270648 -0.0012139464 -0.0038455203 0.00052081887
0000c0 e9 7e 2e bb 5d d4 78 bb ea 0c 9c bb 2b ba 8c ba
       -0.0026625937 -0.0037968375 -0.0047622817 -0.0010736635
0000d0 55 51 dd 3a 30 3a be 39 f7 5f 70 39 fc 70 fb 3a
       0.0016885201 0.00036282977 0.00022923933 0.0019183452
0000e0 b7 26 f5 ba f2 63 f6 ba b7 36 52 bb 40 0d 5d 3b
       -0.0018703555 -0.0018798097 -0.003207607 0.0033729821
0000f0 2d 81 78 bb 7a c2 a7 bb 22 d0 00 bb 29 20 88 b9
       -0.0037918792 -0.005119619 -0.0019655307 -0.00025963903
000100 63 28 d8 ba 52 29 44 bb 5f ee 63 bb 79 7a 64 bb
       -0.0016491528 -0.0029931855 -0.0034779531 -0.0034863038
000110 63 27 ce ba 37 bb f4 39 49 7c 3c bb 74 65 ab ba
       -0.0015728291 0.00046678793 -0.0028760603 -0.00130765
000120 1a 5f 9f bb f5 96 54 ba 4f 5d 0d bb 5d 98 03 ba
       -0.004863632 -0.00081096526 -0.0021570509 -0.00050199573
000130 38 9d e2 ba e7 c7 dc ba 25 78 3b bb 7f ba 48 bb
       -0.0017289286 -0.0016844244 -0.0028605547 -0.0030628738
000140 f8 6a b0 3a 2f c5 55 bb ac 10 9b bb 8e d0 90 bb
       0.0013459614 -0.0032618751 -0.004732212 -0.004419393
000150 8a 82 a2 b9 3c a9 b6 bb fc 38 05 bb 1c cd cb ba
       -0.00030996307 -0.0055743735 -0.0020328155 -0.0015548798
000160 d6 48 9e bb 78 b1 01 3b 45 f1 59 bb 2e f2 5d bb
       -0.00483046 0.0019789618 -0.003325538 -0.0033866274
000170 03 0b 95 ba 50 f7 2a bb 33 6e 4b bb 66 28 02 39
       -0.001137108 -0.002608735 -0.0031041026 0.00012412816
000180 48 7f 22 bb 09 d9 53 b9 05 92 7d bb e1 70 1d ba
       -0.0024795104 -0.0002020338 -0.003869177 -0.0006005895
000190 94 c0 2d bb 09 d0 15 bb 88 df d2 39 e6 01 14 bb
       -0.002651249 -0.0022859594 0.00040220865 -0.002258414
0001a0 47 ff 72 bb 47 52 0c ba df 4d 8f ba e6 ae 0a bb
       -0.0037078427 -0.00053528365 -0.0010933242 -0.0021161376
0001b0 4e 20 ef ba 04 ed 3b bb 01 ce 19 bb cd ff 29 bb
       -0.001824388 -0.0028675208 -0.0023468735 -0.0025939823
0001c0 ac 60 2b bb b1 95 12 bb 32 55 e3 b9 bf 38 e2 b9
       -0.002615015 -0.0022367055 -0.0004336029 -0.00043148358
0001d0 92 b2 e6 b8 63 51 50 ba 53 00 75 3a 12 8e c0 3a
       -0.00011000516 -0.0007946698 0.00093460566 0.0014690778
0001e0 01 ec 27 39 e3 cf 6b 3a b7 18 99 ba 06 7d 6b bb
       0.0001601428 0.0008995516 -0.0011680339 -0.0035932674
0001f0 31 0b 3f bb 7e 5a 88 ba 83 1c 9c ba 4b b8 7a 3a
       -0.0029150958 -0.0010402945 -0.0011910353 0.0009564205
000200 a4 52 4c bb 49 cf 39 bb 8e 93 90 3b eb 0e d5 39
       -0.0031177187 -0.0028352311 0.004412121 0.0004063764
000210 ad d5 32 37 3a bf 3c 39 e4 fb a8 3a cc 79 e3 39
       1.0659377e-05 0.00018000315 0.0012892452 0.0004338756
000220 05 41 7a 39 36 fb 3d bb f1 7f 5c bb 0c df 91 bb
       0.0002386608 -0.0028988845 -0.0033645595 -0.004451638
000230 74 b4 1b bb be 46 57 3b 18 64 db b9 cc cf b0 ba
       -0.0023758681 0.0032848562 -0.0004184551 -0.0013489663
000240 2f d0 46 bb 30 85 82 ba f0 0b 89 3b e2 26 03 bb
       -0.003033649 -0.0009957906 0.0041823313 -0.002001219
000250 48 4f 5b bb 91 21 94 3a 20 a0 71 b8 85 96 b4 ba
       -0.0033464003 0.0011301507 -5.7608006e-05 -0.0013777768
000260 a0 8c 88 ba 39 a5 8d bb 14 7a 9d b9 93 d8 34 bb
       -0.0010417886 -0.0043226746 -0.0003003633 -0.0027594909
000270 0a d4 17 3a fe d2 39 3b b5 f0 81 bb cb 68 a8 3a
       0.0005791789 0.002835452 -0.003965462 0.0012848614
000280 7c 30 04 bb 9d 2a 9c ba 7e 68 a0 bb d2 af 14 bb
       -0.00201705 -0.0011914555 -0.004895269 -0.0022687805
000290 60 e9 da b9 7e ad fd 3a b9 18 d7 ba 53 76 85 bb
       -0.00041754078 0.0019354073 -0.0016410566 -0.0040729432
0002a0 bf 0a 3b 3a 43 25 a1 39 18 c6 84 ba 6b 4f 03 bb
       0.0007135085 0.00030736075 -0.0010129837 -0.002003635
0002b0 ca f7 54 bb 80 37 1f ba f9 33 08 ba c5 26 33 ba
       -0.0032496327 -0.0006073639 -0.0005195733 -0.0006834085
0002c0 aa 71 bd ba ed 57 06 3b ca 16 51 3a 5a c0 35 bb
       -0.001445343 0.0020499185 0.0007976113 -0.0027733059
0002d0 c7 30 8c b9 78 ed c7 3a 97 93 a9 bb c7 f3 f4 ba
       -0.00026739223 0.0015253266 -0.005175065 -0.0018688374
0002e0 8e a7 0c bb 04 b3 30 bb 1e 6d f7 ba e8 08 7c bb
       -0.0021462175 -0.002696217 -0.0018877124 -0.0038457457
0002f0 21 35 e8 36 f7 61 58 bb ef dc 06 3b 80 b5 a2 3a
       6.920324e-06 -0.0033017376 0.0020578464 0.001241371
000300 bd d6 44 ba d5 48 81 bb ff 15 48 bb 56 34 20 bb
       -0.0007508805 -0.00394545 -0.0030530689 -0.0024445257
000310 ea 06 85 bb c5 33 52 ba c1 fc d8 ba 02 49 42 ba
       -0.004059662 -0.00080185785 -0.0016554819 -0.00074113917
000320 92 5d 05 bb 14 77 19 3a 9d ed 52 3b eb 06 05 ba
       -0.0020349962 0.0005854231 0.0032185086 -0.0005074578
000330 a7 56 04 b9 3d f6 88 ba 70 2c 38 ba 53 7a 85 ba
       -0.00012620781 -0.0010449361 -0.00070256647 -0.001018355
000340 15 f6 36 bb 42 f3 b1 bb 9a b5 00 bb 5b e2 9d 39
       -0.0027917672 -0.00543061 -0.0019639493 0.00030114022
000350 9b 91 0c bb 09 cf aa ba 83 a8 46 3a 85 8c 1a bb
       -0.0021449092 -0.0013031672 0.0007578211 -0.0023582291
000360 d6 7e c0 ba 24 34 6a 3a ad 8d a8 bb 21 7e 38 bb
       -0.0014686238 0.0008934161 -0.005143842 -0.002815135
000370 77 be fd ba 0d 30 a0 ba 48 47 f1 b9 3c fb ca ba
       -0.0019359131 -0.0012221351 -0.0004602021 -0.0015486251
000380 84 59 dd ba 27 9b 9a ba a5 9a 1b bb a5 81 88 bb
       -0.001688764 -0.0011795507 -0.0023743298 -0.0041658455
000390 49 4b 3c bb b1 dd d9 ba d0 29 e7 ba 74 c7 6d bb
       -0.0028731397 -0.0016621855 -0.0017636362 -0.0036282213
0003a0 62 2a 9f bb 13 97 62 3b ae 0c e0 39 1f 5e 3b bb
       -0.0048573473 0.003457491 0.00042734056 -0.0028590036
0003b0 5d ab 43 bb 11 1b 83 ba c0 13 1a bb 98 a9 07 bb
       -0.002985678 -0.0010002573 -0.0023510307 -0.002070045
0003c0 0a 98 b1 ba f7 92 11 bb 9b bf 38 bb 40 a9 35 bb
       -0.001354934 -0.0022212842 -0.0028190378 -0.002771929
0003d0 e7 cd 29 ba 64 12 0e ba 6e 87 90 ba 3c 1a 03 bb
       -0.000647752 -0.00054196105 -0.0011026689 -0.002000465
0003e0 77 3d 51 bb 07 94 87 b9 6f 23 2d bb b6 27 ee b8
       -0.0031927505 -0.00025859496 -0.0026418825 -0.00011356121
0003f0 10 0c 14 ba 39 83 90 39 97 58 0a bb be ea 80 b9
       -0.00056475494 0.0002756359 -0.0021109933 -0.0002458896

action_model._discrete_distribution.branches.0.weight f4 [7, 256]
000000 04 41 eb 3b 02 65 02 3c ee 2b 6d bc df d8 52 bb
       0.0071793813 0.007958652 -0.014475806 -0.0032172722
000010 fb a6 e7 3b e1 02 f0 ba c9 ee 85 bb bb cd 44 ba
       0.007069466 -0.0018311405 -0.0040873033 -0.0007507463
000020 98 b1 31 bb a5 44 cf 3b b7 98 95 b8 77 e0 0b 3c
       -0.002711391 0.0063253217 -7.133319e-05 0.008537403
000030 eb d2 de 3b f8 8c 03 bc df 77 61 bb 07 76 4b 3a
       0.0068000457 -0.008029215 -0.0034403724 0.0007761423
000040 73 4a 86 b9 d9 65 51 3b 79 dc 8e 3b ec 9c 51 bb
       -0.0002561394 0.0031951575 0.0043597785 -0.0031984402
000050 b0 8c 95 bb c7 23 ed bb 16 c2 c0 3b 59 4c 04 3c
       -0.0045638904 -0.007236931 0.005882512 0.008074843
000060 9b 27 95 3b 74 0f 36 3c 1a 8a 37 3a 44 9e 3a 3c
       0.0045518405 0.011112083 0.0007001475 0.0113902725
000070 7d 6d 55 bc 2f 34 f2 bb 6a 54 fc bb f2 01 26 ba
       -0.013026592 -0.0073914747 -0.0077004926 -0.00063326873
000080 6a 5c 52 3c 76 f3 d1 3b 35 df b3 bb cb 08 07 3b
       0.012839416 0.0064071966 -0.005489255 0.0020604606
000090 18 39 86 3b 3f c5 6c 3b 29 eb 80 3a 6b d9 4f 3b
       0.0040961616 0.003612831 0.0009835708 0.0031715285
0000a0 5c cb 6e bb b5 ca 51 bc de 7d 8e 3b d7 2f a6 3b
       -0.003643713 -0.012804677 0.0043485006 0.005071621
0000b0 cd 49 e3 3b 3a ca 22 ba 7a f1 4f 3b 72 ad cd 3b
       0.006936288 -0.00062099437 0.0031729625 0.00627678
0000c0 08 2d 91 3b 77 ed 20 3c 9d 47 9c ba ab c1 51 3c
       0.004430417 0.009822241 -0.0011923198 0.012802522
0000d0 4a 67 f1 bb 98 2c 21 ba f0 69 13 bc 82 29 16 bc
       -0.0073670493 -0.00061483076 -0.008997425 -0.00916517
0000e0 e4 a2 a9 bb 3a 88 7d 3b 5f e9 81 38 8e 3f 67 3c
       -0.005176889 0.0038685934 6.194668e-05 0.014114274
0000f0 ec d6 b8 3b 63 03 61 3b 86 9c 41 ba c4 d0 d0 bb
       0.005640855 0.0034334294 -0.00073856895 -0.006372543
000100 60 d4 18 bb 6f 19 82 bb 29 04 2f 3b b0 89 5f bc
       -0.0023319945 -0.003970317 0.002670536 -0.013643667
000110 c1 a1 26 3b 29 35 a5 bb 16 a4 b8 3b 64 fa 3a bb
       0.0025426003 -0.0050417376 0.005634795 -0.0028530592
000120 69 95 bf 38 bb c5 07 3c 0f c3 37 3c 0b 90 ea bb
       9.1354195e-05 0.008286889 0.011215939 -0.0071582845
000130 2b a9 d9 bb fb b0 20 bc f9 f2 b5 3b bf dd 12 3c
       -0.006642481 -0.00980782 0.0055526462 0.008964001
000140 68 43 65 bc 58 0c 0c 3c e3 4e d2 bb aa e5 98 bb
       -0.013993122 0.008547865 -0.0064180954 -0.00466605
000150 df c2 16 bc c0 94 7b 3a 92 2a 0a 3c e4 c6 ff 3b
       -0.009201734 0.00095970556 0.008433001 0.007805692
000160 25 3f 9c b9 51 7a 1d 3b ab 80 88 3b ce d3 c2 ba
       -0.00029801685 0.0024029205 0.004165729 -0.0014864148
000170 19 9a 2f 3c a3 da 84 3b 36 ee b0 3b db 5c 42 3b
       0.010717892 0.004054384 0.0053994907 0.0029657397
000180 de 1a 12 bb 38 06 35 bc b4 d7 9c 3b 99 df 21 3b
       -0.0022293846 -0.011048846 0.004786456 0.0024699925
000190 86 ef f3 bb f1 94 80 ba 37 bc 57 bc cd 2f 9a 3a
       -0.007444325 -0.0009810013 -0.0131674325 0.0011763513
0001a0 4f 72 1f 3c 9b 90 24 3c 1f cf a1 3a c8 68 a1 ba
       0.009731843 0.010044242 0.0012345052 -0.0012314552
0001b0 fa 13 f5 b9 43 c8 c2 bb a3 dd f3 ba eb 54 5b ba
       -0.00046744925 -0.005944283 -0.0018605482 -0.0008366841
0001c0 a2 55 61 3b 72 3a 0f bb 8b 22 b7 3b c8 7b 24 3c
       0.0034383317 -0.0021854904 0.0055888346 0.010039277
0001d0 31 e2 5a bc d4 b0 76 3b 7d 8c 4c 3b bf 77 8f bb
       -0.013359592 0.003764202 0.0031211667 -0.0043782885
0001e0 10 ab 47 bb 08 b8 94 3a b6 05 f7 bb 28 98 92 3a
       -0.0030466951 0.001134635 -0.0075385226 0.0011184262
0001f0 52 b7 6f bb 97 3c 95 bb d7 54 51 bc 46 00 31 bc
       -0.0036577773 -0.004554342 -0.012776575 -0.010803288
000200 a7 06 b4 3b 50 52 a5 3b b5 61 d8 bb 45 7e 50 b9
       0.005493957 0.005045213 -0.0066034445 -0.00019883465
000210 ca 48 07 bc 40 d6 9e 3b f7 38 0e ba da e0 95 bb
       -0.0082571 0.004847318 -0.00054253585 -0.0045739235
000220 cd 72 49 ba d4 18 46 3c 26 0b e8 3b 5d 78 1c 3b
       -0.0007684648 0.01209088 0.007081407 0.0023875453
000230 de 06 49 3a f8 68 41 3c d7 d0 67 ba 4f 87 1f ba
       0.0007668565 0.011804812 -0.000884307 -0.0006085531
000240 f5 fe d1 3b bb d9 7c 3b 9e 50 22 3b 66 e0 91 3b
       0.006408567 0.0038581926 0.002476729 0.004451799
000250 f7 4d de 3b 75 f8 a8 3b 01 7a b8 3b 2a a8 8a 3b
       0.0067841965 0.0051565715 0.0056297784 0.0042314725
000260 a4 0c 2f bb 05 7e 97 bb d1 e1 b2 3b 2d 92 85 3b
       -0.0026710415 -0.004623177 0.0054590483 0.0040762634
000270 f7 46 86 3a 9c 30 85 bb 41 dc 22 3b ba 8c 22 3c
       0.0010244538 -0.0040646326 0.002485052 0.009921247
000280 6a 2c 01 3c 32 db a8 3b b2 d2 1a bb 64 fb 81 bc
       0.007884124 0.0051530832 -0.002362412 -0.015866943
000290 5d d9 ff 3a 9b 5e f2 3b 69 73 f4 39 d1 a0 e4 3b
       0.0019519735 0.0073965318 0.00046625294 0.0069771786
0002a0 75 ae 03 3b a3 2b 23 3c e8 4d 17 3b 46 25 9e bb
       0.0020092998 0.009959134 0.0023087207 -0.0048262207
0002b0 b3 18 16 3b cc 46 27 ba ee 2a b3 3a b0 a6 c8 3a
       0.0022902905 -0.0006381094 0.001366941 0.0015308466
0002c0 e6 60 64 bb a6 bf 92 ba 44 7d d3 bb 63 e4 29 3c
       -0.0034847795 -0.0011196032 -0.006454142 0.010369393
0002d0 80 b9 9b 3b 29 26 4d 3b 19 6e 85 3b 64 e5 32 3b
       0.004752338 0.0031303263 0.0040719626 0.0027297372
0002e0 7b ed a3 3a 03 67 92 3b 17 08 39 3c f6 4c f6 3b
       0.0012506688 0.0044678464 0.011293433 0.0075164987
0002f0 f3 94 3d bc 15 e6 fc b9 93 96 0b 3c 17 6a 30 3c
       -0.011571157 -0.0004823661 0.008519786 0.010767481
000300 e2 7c e8 bb 22 12 30 3c 43 18 70 bb 94 5f 55 ba
       -0.0070949653 0.010746511 -0.0036635555 -0.00081395474
000310 49 67 16 bc fb 5e 9b 3b f8 99 13 bc b6 d8 38 3c
       -0.009179899 0.004741547 -0.009008877 0.011282137
000320 eb 29 15 3b 63 42 8a bb 47 95 68 bb fa b5 d3 3b
       0.002276058 -0.0042193397 -0.0035489367 0.0064609023
000330 4f 59 52 3a 5c 5b 9e b9 52 44 38 3c 39 38 b9 bb
       0.0008024172 -0.00030204176 0.011246758 -0.005652454
000340 94 bb 57 3b 00 26 8c bc 1b 0d bd 3a 34 0f f8 39
       0.0032918202 -0.017107964 0.0014423461 0.00047313573
000350 a2 aa db 3b 1a be e6 bb 87 d7 dd 3b 5f 89 84 3b
       0.0067036906 -0.007041705 0.0067700776 0.004044696
000360 2c a2 62 3b 49 44 69 3b 44 4f c7 3a dc 53 66 3b
       0.0034581525 0.003559368 0.0015206118 0.00351452
000370 1d b3 47 3b b2 76 06 3b 02 0c 01 39 79 f3 49 bc
       0.003047175 0.0020517525 0.00012306872 -0.012326115
000380 2c a3 df ba 49 53 95 bb b8 69 8a 3a bc 85 73 3b
       -0.0017062179 -0.0045570475 0.0010560071 0.003715857
000390 57 e3 04 3b d3 4e 44 b9 04 ef be bb ea e8 86 3a
       0.0020277107 -0.00018721381 -0.0058268327 0.0010292802
0003a0 63 31 9b ba ab b4 9a 3b e8 ea 5b 3c 7f 9f 00 3b
       -0.001184028 0.0047212443 0.013422705 0.0019626317
0003b0 68 92 54 3c 04 30 ae b5 63 35 28 bc 30 c5 57 3b
       0.012974359 -1.2977985e-06 -0.010266635 0.003292393
0003c0 b1 15 59 ba 66 69 74 3b f6 5f a5 3b 0e e4 3f bb
       -0.00082811253 0.0037294268 0.00504684 -0.0029280218
0003d0 cb 6d 62 3b 61 27 d6 3b 64 4f 8a ba ae dc 10 3c
       0.0034550305 0.006535456 -0.0010552225 0.008841677
0003e0 a3 f1 85 bb ff 25 83 bb be 81 a6 3b c0 5a db bb
       -0.004087643 -0.004002332 0.0050813844 -0.006694168
0003f0 5a 20 6c bb 18 17 5c 3b 14 5d af bb ea 9e 9d bb
       -0.0036030025 0.00335831 -0.005351672 -0.004810204

action_model._discrete_distribution.branches.0.bias f4 [7]
000000 71 f9 2b ba 9d f8 84 bb 66 08 82 3a 27 fa 52 3a
       -0.0006560302 -0.0040579573 0.0009920716 0.000804814
000010 f7 a7 16 3a aa 4c f6 37 e8 34 7e 3a
       0.00057470746 2.9361185e-05 0.00096972147
