results/t2/Fork1/Fork1-2367.onnx (onnx, 331091 bytes, 6 tensors)

network_body.linear_encoder.seq_layers.0.weight f4 [256, 56]
0	0x3d82c07e	0.06384371
1	0x3e0432f4	0.12910062
2	0xbd261017	-0.04054269
3	0xb9d4b502	-0.00040570652
4	0x3d69c627	0.05707374
5	0x3c80cac9	0.015721695
6	0x3da0a5ac	0.078440994
7	0x3daa40c4	0.08313134
8	0xbd2dd71f	-0.042441484
9	0x3c79687a	0.015222663
10	0x3daa7880	0.08323765
11	0xbde34a2e	-0.11098133
12	0x3ec8932d	0.39174786
13	0xbd9090af	-0.07058846
14	0x3de1a4c9	0.110177584
15	0xbd71e554	-0.059056595
16	0xbd96dc3d	-0.07366226
17	0xbcc495a7	-0.023997141
18	0xbe3fc9e0	-0.18729353
19	0x3de8e987	0.11372667
20	0x3dcfc43b	0.1014485
21	0x3df4e663	0.11958005
22	0x3e0a321a	0.13495675
23	0x3d55c0dc	0.05218588
24	0xbc9a3355	-0.018823305
25	0x3e0a3caa	0.13499704
26	0x3d9f0357	0.07764309
27	0x3e999191	0.2999387
28	0x3d048072	0.032349057
29	0xbe4be27c	-0.19910616
30	0x3dac9c0a	0.084281996
31	0x3dbe3789	0.09287936
32	0xbd16da22	-0.03682912
33	0xbe1349ec	-0.14383668
34	0x3e28f406	0.16499338
35	0xbdf40bc1	-0.119163044
36	0xba9c4546	-0.00119225
37	0x3d08f07b	0.033432465
38	0x3d708116	0.058716856
39	0x3e00956e	0.12557003
40	0xbda353e4	-0.07974985
41	0x3e0e9b67	0.13926469
42	0x3d2586e0	0.04041183
43	0xbe9232b8	-0.2855432
44	0xbd14e7aa	-0.036353745
45	0xbde85dc7	-0.113460116
46	0xbd2418d0	-0.040062726
47	0xbe49a41a	-0.19691506
48	0x3d2e7c9d	0.04259931
49	0xbe6cc6fd	-0.23122783
50	0x3d61345a	0.054981567
51	0x3de60b97	0.11232679
52	0xbd8e54d9	-0.06949777
53	0xbe184bf2	-0.14872721
54	0x3cbe3041	0.023216369
55	0x3d83448a	0.06409557
56	0xbe4b8b43	-0.19877343
57	0x3d33ae8e	0.04386764
58	0xbe88d539	-0.26725176
59	0x3e8ff797	0.28118584
60	0x3dcb53fe	0.099281296
61	0x3e11fda8	0.14256918
62	0x3d7cd808	0.06172946
63	0x3d4f98da	0.05068288
64	0xbe06d2c5	-0.1316634
65	0xbe2dc43b	-0.16969387
66	0xbea3264d	-0.3186516
67	0x3d83ca78	0.06435102
68	0x3d259324	0.040423527
69	0xbdc184f7	-0.09449189
70	0x3e34761d	0.17623182
71	0xbd5c3275	-0.053759057
72	0xbd01fe2d	-0.03173654
73	0x3e07a3bb	0.13246052
74	0x3d1771b6	0.036973678
75	0xbe015568	-0.12630236
76	0xbda0f37d	-0.07858942
77	0x3d8c41cd	0.06848488
78	0xbd4ef07d	-0.050522316
79	0x3df6e438	0.12055248
80	0x3e3dbc7b	0.18528931
81	0x3da4f74f	0.08054983
82	0x3e61dbcd	0.22056504
83	0x3e64b26c	0.22333688
84	0xbe307862	-0.17233422
85	0xbe4eaa67	-0.20182191
86	0xbe24eedc	-0.16106743
87	0x3e9aea88	0.30257058
88	0xbd7b429d	-0.061342824
89	0xbda522a2	-0.08063246
90	0xbe080550	-0.13283277
91	0x3e6f6c50	0.23381162
92	0xbc75ca90	-0.015001908
93	0x3d901a6b	0.07036289
94	0x3e7d1434	0.24714738
95	0xbe242a37	-0.16031729
96	0x3d2d4e20	0.042310834
97	0x3e168a73	0.14701252
98	0xbd88128a	-0.06644161
99	0xbd7615bc	-0.06007932
100	0x3d9cb19f	0.07651066
101	0xbb599691	-0.0033201317
102	0xbd825131	-0.06363142
103	0x3e2f2885	0.171053
104	0x3ced526e	0.02896997
105	0xbe03765d	-0.12838121
106	0x3da208cd	0.07911835
107	0x3d81e9b2	0.06343402
108	0x3dc85b33	0.0978302
109	0xbe137aee	-0.14402363
110	0xbd29b49d	-0.041432012
111	0xbe327841	-0.17428686
112	0xbd9e766f	-0.07737433
113	0xbdac4e22	-0.0841334
114	0x3ecb2c84	0.396824
115	0xbdb400f8	-0.08789247
116	0xbdbfa08b	-0.09356793
117	0x3cb8bff6	0.022552472
118	0x3e028829	0.12747253
119	0x3e17bf4f	0.14819072
120	0x3deb6ba6	0.11495142
121	0xbdb74678	-0.08948988
122	0xbd48899c	-0.04895936
123	0x3de2b348	0.110693514
124	0xbe18c99b	-0.14920656
125	0x3d73b867	0.05950203
126	0xbe332e7c	-0.17498201
127	0x3d1d58a4	0.038414612
128	0xbdd29d49	-0.10283906
129	0x3e16528a	0.14679924
130	0xbb8afba9	-0.004241426
131	0xbdec5cc1	-0.11541129
132	0x3e9d64b4	0.30740893
133	0xbe23c6a8	-0.1599375
134	0xbdd63b57	-0.10460537
135	0xbe0fc037	-0.14038168
136	0xbd14c901	-0.036324505
137	0xbd16d5e9	-0.036825094
138	0xbe1e97b4	-0.15487558
139	0xbdcbca07	-0.09950643
140	0xbdb879a1	-0.09007574
141	0x3e199223	0.14997153
142	0xbc6dc0a6	-0.014511263
143	0xbc2aec08	-0.010432251
144	0xbc15ddd0	-0.0091471225
145	0x3e6685f0	0.2251203
146	0xbd9cdcd7	-0.07659309
147	0x3d4d3bb3	0.05010576
148	0x3e2bf314	0.16791946
149	0x3bd67e33	0.006545806
150	0xbd168ad0	-0.036753476
151	0xbbbe3896	-0.0058050854
152	0xbe70dee0	-0.2352252
153	0xbe21c182	-0.15796474
154	0xbe025062	-0.12725976
155	0x3e0231fc	0.1271438
156	0xbe8a630d	-0.27028695
157	0x3df17db0	0.11791551
158	0xbda4bbe8	-0.08043653
159	0xbe519fda	-0.20471135
160	0x3e343839	0.17599572
161	0x3c39cfe7	0.011341072
162	0xbd0799e9	-0.033105765
163	0xbe4dea62	-0.20108941
164	0xbdd5af9e	-0.10433887
165	0xbdbe5d97	-0.092951946
166	0xbc817816	-0.015804332
167	0xbe506f42	-0.20354941
168	0xbc9e273f	-0.019305823
169	0x3ce2bdcd	0.027678395
170	0xbd4cde0a	-0.05001644
171	0x3dbea14a	0.09308107
172	0xbe692804	-0.22769171
173	0x3a0bdf24	0.000533568
174	0xbdbba85c	-0.091629714
175	0xbd9b7e4e	-0.0759245
176	0xbd9b3588	-0.0757857
177	0xbd148c06	-0.03626635
178	0x3de7dc5e	0.113213286
179	0xbc783b14	-0.015150804
180	0x3ddea124	0.10870579
181	0xbdc2f2c8	-0.09518963
182	0x3e29a601	0.16567232
183	0xbe31951a	-0.17342034
184	0x3d866760	0.06562686
185	0xbde54858	-0.11195439
186	0xbdea409e	-0.11438106
187	0xbdfea4fa	-0.124338105
188	0xbda302ee	-0.07959543
189	0x3e39ce4d	0.18145104
190	0xbdace686	-0.08442406
191	0xbe1cddda	-0.15319005
192	0xbc8c44f1	-0.017122718
193	0x3dc0e756	0.09419124
194	0xbd7abb9f	-0.061214086
195	0x3d1209f2	0.035654016
196	0x3e19e93f	0.15030383
197	0xbe103843	-0.14083962
198	0xbd141321	-0.036151055
199	0x3e06192d	0.13095541
200	0x3d7ccf41	0.06172109
201	0x3e6a8b98	0.22904813
202	0x3b5e994f	0.003396589
203	0xbd8eea12	-0.06978239
204	0x3c8dd311	0.017312558
205	0x3d00ea50	0.031473458
206	0x3e1d47d9	0.15359439
207	0x3da171af	0.078830115
208	0x3d1aee7a	0.037825085
209	0xbe93c0b9	-0.28857973
210	0xbda827f6	-0.08210747
211	0x3d957b94	0.07298961
212	0xbe665e34	-0.22496873
213	0xbd3a4fb4	-0.045486167
214	0xbc387b1f	-0.011259823
215	0xbdf001b2	-0.11719073
216	0xbe43bc68	-0.1911484
217	0x3e708fda	0.23492375
218	0x3ce782f9	0.028260695
219	0xbdeace21	-0.11465097
220	0x3dadaf19	0.08480663
221	0x3e4f54d0	0.20247197
222	0x3dfe8646	0.124279544
223	0x3ddcfd14	0.10790458
224	0x3c280a39	0.0102563435
225	0xbe03d21a	-0.12873116
226	0x3dddcef4	0.10830489
227	0x3e28d6dc	0.16488212
228	0x3e037a09	0.12839521
229	0xbeab1e47	-0.33421537
230	0xbe8c3d08	-0.27390313
231	0xbe663b81	-0.22483636
232	0xbe8748fe	-0.26422876
233	0xbdf4bca1	-0.119500406
234	0x3d7faaa7	0.062418606
235	0x3e4a29bd	0.19742484
236	0xbe4c1a7b	-0.19931976
237	0xbcc3c293	-0.023896491
238	0x3dcd5d4e	0.10027562
239	0xbd8a9268	-0.06766206
240	0xbd0fdad8	-0.035120815
241	0xbdd8a198	-0.105776966
242	0xbe100d5b	-0.14067595
243	0xbd3737c4	-0.044730917
244	0x3d99144c	0.074745744
245	0x3b61b2e6	0.0034438907
246	0xbd216110	-0.039399207
247	0x3e4eafb4	0.20184213
248	0xbe90ddde	-0.2829427
249	0xbcadc077	-0.021209938
250	0xbe99ac7f	-0.30014417
251	0xbdaedad4	-0.08537832
252	0xbe3750ea	-0.1790196
253	0x3e58513f	0.21124743
254	0x3d6de5fe	0.058080666
255	0xbe4dac92	-0.20085362

network_body.linear_encoder.seq_layers.0.bias f4 [256]
0	0x39c06699	0.00036697535
1	0x3a02ee0e	0.00049945794
2	0x3b9830f2	0.0046445066
3	0x3b40b55a	0.002940497
4	0x3b4c9904	0.0031219134
5	0xba422c45	-0.00074071094
6	0x3ab1c372	0.0013562276
7	0xb9e8d3f3	-0.00044408403
8	0x3afc369d	0.001924235
9	0x3b652f74	0.0034970911
10	0x3a94327d	0.0011306551
11	0xbb364642	-0.0027812873
12	0x3ae00c74	0.0017093555
13	0xbb56d3d9	-0.003278008
14	0x3af6e49a	0.0018836439
15	0x3b27ce0c	0.0025604991
16	0xb99dd642	-0.00030105008
17	0xbb03f640	-0.002013579
18	0x381b6014	3.704436e-05
19	0x3b08dc94	0.0020883428
20	0x3b0b9320	0.002129741
21	0xbb45d534	-0.0030186893
22	0xbb89f2c8	-0.00420985
23	0xbb8a78fc	-0.0042258482
24	0x3b1d6484	0.002401621
25	0xba23ec24	-0.0006253144
26	0x38d48205	0.00010133166
27	0x3b674570	0.003528919
28	0xb9c8b0f0	-0.000382788
29	0xbb646a9a	-0.0034853579
30	0xbb22b382	-0.0024826233
31	0x3bad1cc5	0.0052829706
32	0xbb3aea4b	-0.0028520997
33	0xba59b2c2	-0.000830453
34	0x3b11d9bb	0.0022255022
35	0x3b48a66e	0.0030616778
36	0x3a6b6762	0.0008979944
37	0x3ae9e3eb	0.0017844414
38	0xbaab83b6	-0.0013085518
39	0x3b1269b9	0.0022340848
40	0xb9b7d546	-0.0003506338
41	0x3b89113d	0.004182963
42	0x3af0ce53	0.0018372036
43	0xbba5203a	-0.005039242
44	0xbb8460f4	-0.004039878
45	0xb802901a	-3.112862e-05
46	0xb9c433fa	-0.0003742276
47	0xbb9f5e8a	-0.004863565
48	0x3a8ece6b	0.0010895258
49	0x3b881c47	0.0041537615
50	0x3a6c992e	0.0009025511
51	0xbb6d7832	-0.0036234972
52	0x39c118b9	0.00036830248
53	0xba77e011	-0.0009455691
54	0x3aab8464	0.001308572
55	0x3b6faed2	0.0036572707
56	0x3b199ed7	0.0023440623
57	0x3b524aab	0.0032087963
58	0x3b197003	0.0023412711
59	0x3b01d9a3	0.001981356
60	0x3ad78831	0.0016443786
61	0xb9b35247	-0.00034202842
62	0x3b591bcd	0.0033128143
63	0x3b5dc234	0.0033837678
64	0xbb2b458c	-0.0026133982
65	0xba7e18f8	-0.00096930517
66	0xb92d76ac	-0.00016542774
67	0xbac96e73	-0.0015368
68	0x3a0536fd	0.0005081741
69	0x3b631ccb	0.0034654613
70	0xbb0efabb	-0.0021816927
71	0x3bb18221	0.005417124
72	0xb994baea	-0.00028368022
73	0xba9fdd59	-0.0012196704
74	0x3b454584	0.003010125
75	0xbb26d8cc	-0.002545881
76	0xbbcd6f23	-0.006269352
77	0xbad4e47c	-0.001624241
78	0x3a309b3c	0.0006736999
79	0xbb0ae118	-0.0021191295
80	0x39adf9ad	0.00033183154
81	0xbb2a3b32	-0.0025975225
82	0xbb49939c	-0.0030758148
83	0x398415c6	0.00025193224
84	0xbb2487bb	-0.0025105316
85	0x3add4086	0.0016880191
86	0xb8efc618	-0.00011433306
87	0x3ba675ec	0.0050799754
88	0xb9ca694a	-0.0003860689
89	0x3aea938f	0.0017896759
90	0xbb02e897	-0.001997506
91	0x3b769385	0.003762455
92	0x3b86c267	0.00411253
93	0x3b34041e	0.0027468274
94	0xbad01514	-0.0015875422
95	0x3b3660ef	0.0027828773
96	0x3b8bbd48	0.0042645074
97	0x3b166baf	0.0022952368
98	0xb93dad4c	-0.00018089003
99	0xb6d2dff0	-6.2845575e-06
100	0xbb0fad0c	-0.0021923212
101	0xb9bfbd8c	-0.00036571582
102	0xbb2c3e15	-0.002628212
103	0xbb1d4e98	-0.0024003144
104	0xbb9dbc4b	-0.004813706
105	0x3aa1763c	0.0012318562
106	0x3b34ce25	0.0027588692
107	0x3b08bd21	0.0020864683
108	0x3b8542c4	0.004066797
109	0xbaecbb74	-0.0018061236
110	0xb986c353	-0.00025704
111	0xba15903b	-0.0005705391
112	0x3b83fd8f	0.0040280293
113	0xb9a840ba	-0.00032091682
114	0x3b26ea7e	0.0025469358
115	0x3ae8fe2a	0.0017775942
116	0xbb1e9247	-0.0024196075
117	0x3a930457	0.0011216503
118	0xba28ea3a	-0.0006443594
119	0x3ab55db0	0.0013837125
120	0x3915c34d	0.00014282503
121	0x3a39217e	0.00070621807
122	0x3aa55715	0.0012614453
123	0x39865dc2	0.00025628327
124	0x3aa30817	0.0012438324
125	0xbb252681	-0.0025199952
126	0x3bf206e1	0.007386074
127	0xbad22834	-0.001603371
128	0xb902bb75	-0.000124676
129	0xb992f76e	-0.0002803164
130	0x39d0d0a5	0.00039828304
131	0xba3f65f6	-0.0007301265
132	0x3a604664	0.0008555411
133	0x3b96e365	0.0046047443
134	0x3a6ae54c	0.00089605595
135	0x3af93dc1	0.0019015596
136	0x3b838a72	0.0040143067
137	0xb927a637	-0.00015988281
138	0x3b0f53d5	0.0021870036
139	0xbae43dde	-0.0017413457
140	0xba8cebeb	-0.0010751461
141	0x3b4de14f	0.0031414812
142	0x3b999a16	0.004687558
143	0x3b311bd0	0.0027024634
144	0x3a24f9b4	0.0006293312
145	0x393cfec2	0.00018023982
146	0xbaf0182b	-0.001831775
147	0xba4b5dbc	-0.0007757803
148	0x3af5aed4	0.001874412
149	0x3a8e31b7	0.0010848556
150	0xbad548c3	-0.0016272295
151	0x3b67ca6d	0.0035368458
152	0x3acab06d	0.0015463956
153	0x3b40b6aa	0.0029405751
154	0x3b06d135	0.0020571474
155	0xbab546ec	-0.001383034
156	0xbb01a149	-0.0019779971
157	0xba883cce	-0.0010394098
158	0xbb40bb82	-0.0029408638
159	0x3bda132c	0.0066551175
160	0x3a9d5521	0.001200352
161	0x3a1d4061	0.0005998668
162	0xbac2eb8e	-0.0014871226
163	0x3a2189d4	0.00061622006
164	0x3b75cdf3	0.0037506789
165	0x3b339d57	0.0027407014
166	0x3b9155b6	0.0044352664
167	0xb9926a3b	-0.00027926438
168	0xbb600f86	-0.003418894
169	0x3b762385	0.0037557792
170	0x3aebdcba	0.0017994859
171	0x3ac7fe7e	0.001525834
172	0xbb18b6a4	-0.0023302222
173	0x3ae5321e	0.001748625
174	0xbb757306	-0.0037452593
175	0xbab9600c	-0.0014143004
176	0x3b865df2	0.0041005546
177	0xba0ae6e6	-0.0005298689
178	0xba7fd531	-0.0009759246
179	0x39e3db31	0.00043460124
180	0x3a9f75a5	0.0012165798
181	0x3b60aae6	0.003428155
182	0x39cc302b	0.000389458
183	0x3a2a3f44	0.00064944127
184	0x3b009662	0.0019620885
185	0x3ab7e20a	0.0014029157
186	0xbb4554a9	-0.0030110276
187	0x3ae0d731	0.0017153976
188	0xbaeb6b79	-0.0017961106
189	0xba1e3d48	-0.00060363533
190	0xbba2f3a6	-0.004972893
191	0x3ae5c2fc	0.0017529423
192	0x3b8498a1	0.004046515
193	0x3acd8c41	0.0015682058
194	0x3b2d8294	0.0026475536
195	0xba8c7606	-0.0010716326
196	0xbb8ac521	-0.0042349254
197	0x3aa48d7e	0.0012554375
198	0xbb3d75a3	-0.0028909228
199	0x3b6e4a7e	0.0036360319
200	0x3a5196f5	0.00079952116
201	0xbb796f83	-0.003806085
202	0x3b35ece2	0.0027759601
203	0x3a39b2e8	0.0007083849
204	0x3a9a71ed	0.001178322
205	0xbb8a4fd7	-0.0042209434
206	0x3a1e63bb	0.00060420827
207	0x39a16a8d	0.000307877
208	0x3a22fc21	0.00062173797
209	0xbb46f598	-0.0030358788
210	0x3baf7cf0	0.00535547
211	0x3a2282cd	0.00061993004
212	0x3a422b67	0.000740698
213	0xbb2e5343	-0.002659992
214	0xba690c24	-0.0008890054
215	0xba078622	-0.00051698287
216	0x3b718ed7	0.003685882
217	0x3b1de7fe	0.0024094577
218	0xbb6d1888	-0.0036177952
219	0xba2c95c4	-0.0006583596
220	0x3b2e1aab	0.0026566188
221	0x3ae4243a	0.0017405816
222	0xbaa7d5eb	-0.0012804841
223	0xbb5b5296	-0.0033465973
224	0x3a540cd7	0.00080890715
225	0xbb31a783	-0.0027107901
226	0xbacc8e80	-0.0015606433
227	0xbb2a8143	-0.0026016987
228	0x3b0b8bb7	0.0021292993
229	0xb991f65f	-0.00027840116
230	0xbb4581cd	-0.0030137182
231	0xbbb1ce19	-0.00542618
232	0xbb0187af	-0.0019764712
233	0x3afb110e	0.0019154863
234	0xbb26797f	-0.0025402007
235	0x3ac13e9a	0.0014743388
236	0x3826dad4	3.9781284e-05
237	0x3b4ede9e	0.0031565796
238	0xba0e93a4	-0.000543887
239	0x39cacfb8	0.00038683205
240	0xbb4ee8d7	-0.0031571889
241	0xbb943718	-0.0045231692
242	0xbaf15ce3	-0.0018414523
243	0xbbb024ca	-0.0053754793
244	0xbaa54ebf	-0.0012611969
245	0xbae3735b	-0.0017353104
246	0xba698b3a	-0.0008908991
247	0x3b7104e2	0.0036776592
248	0x3b76e6cc	0.0037674187
249	0x3b2a4440	0.0025980622
250	0xba8a58ae	-0.0010554993
251	0x3b02d51f	0.0019963456
252	0xb9a9d63a	-0.00032393803
253	0xbac0639a	-0.0014678121
254	0xbb9c7281	-0.004774392
255	0x3b065645	0.0020498198

network_body.linear_encoder.seq_layers.2.weight f4 [256, 256]
0	0xbd425099	-0.047440145
1	0xbe1aeba6	-0.15128955
2	0x3b9fab29	0.004872699
3	0x3da51836	0.080612585
4	0xbd14c051	-0.03631622
5	0xbaf166ca	-0.0018417474
6	0x3c9dc276	0.019257765
7	0x3cadf8ae	0.021236744
8	0x3c9e3b3d	0.019315356
9	0x3d835383	0.06412413
10	0x3c12bf3e	0.0089567285
11	0xbe4881fe	-0.19580838
12	0x3d39a608	0.045324355
13	0xbc65a05a	-0.014015282
14	0x3d2cf042	0.042221315
15	0x3ad42a38	0.0016186899
16	0x3b8f8d2b	0.004380842
17	0xbce94c02	-0.028478626
18	0x3d57df37	0.05270311
19	0xbd28ba81	-0.04119349
20	0xbd2d890d	-0.04236703
21	0x3d50db81	0.050990585
22	0xbcdf5ce1	-0.027265968
23	0xbcbaa57b	-0.022783985
24	0x3c5138d0	0.012769893
25	0x3da1bbd1	0.07897151
26	0x3c9602d3	0.018311894
27	0x3c75fe16	0.015014192
28	0x3c3dfd83	0.011596086
29	0x3c3646c3	0.011125269
30	0x3be02568	0.0068403967
31	0x3cf51544	0.029917367
32	0x3d293dd2	0.041318722
33	0xbe01d4db	-0.12678854
34	0xbcaf3eac	-0.021392189
35	0xbd12789c	-0.035759553
36	0xbd2cb03a	-0.04216025
37	0xbda5bdf8	-0.08092874
38	0xbc6cdf49	-0.014457532
39	0xbce08927	-0.02740915
40	0xbdb1afc8	-0.08676106
41	0xbe0eae1f	-0.1393361
42	0xbc6eca4c	-0.0145745985
43	0x3d9d2773	0.0767354
44	0x3dd51918	0.10405177
45	0x3d9f833d	0.077887036
46	0xbdee1c0f	-0.116264455
47	0x3bd9f1f3	0.006651157
48	0x3d41bc1f	0.047298547
49	0xbc1ca6a9	-0.009561219
50	0x3d8f629b	0.070012294
51	0x3cb08826	0.021549296
52	0xbd0027b5	-0.031287868
53	0x3bb8122d	0.005617401
54	0xbd0cf788	-0.03441575
55	0x3d651228	0.05592552
56	0xbd15b381	-0.03654814
57	0x3d5f4bef	0.054515775
58	0x39872c36	0.00025782146
59	0xbd5e3405	-0.05424883
60	0x3de0f834	0.10984841
61	0xbaf8c03e	-0.0018978191
62	0x3cca899e	0.024723824
63	0x3caa97cb	0.020824334
64	0x3caa049b	0.02075415
65	0x3d7cba6b	0.06170122
66	0xbd07cb3b	-0.0331528
67	0xbe124214	-0.1428302
68	0xbc5eb128	-0.013592042
69	0xbddc3ffd	-0.10754392
70	0x3d8c33d9	0.06845827
71	0x3d1921df	0.037385818
72	0x3d959258	0.073033035
73	0xbcdd2c39	-0.026998626
74	0xbd891a9f	-0.06694531
75	0x3d3e5298	0.046465486
76	0x3dc08596	0.094004795
77	0x3dcf7f2b	0.10131677
78	0xbcb49f4e	-0.022048619
79	0x3c52a387	0.012856371
80	0x3cbeaed3	0.023276722
81	0xbc285e2f	-0.010276361
82	0x3c72780e	0.014799131
83	0xbd23fbc3	-0.04003502
84	0x3c76764c	0.015042853
85	0x3c8f5f25	0.017501423
86	0x3d851a60	0.06499171
87	0xbd29d95f	-0.041467067
88	0x3d9fea60	0.07808375
89	0x3d4195ba	0.04726193
90	0xbcfc0ecf	-0.03076878
91	0x3c88ca15	0.016697923
92	0x3d40d574	0.047078565
93	0x3b8c95ed	0.0042903335
94	0x3c6c0b85	0.014407043
95	0x3d632068	0.055450827
96	0xbdace934	-0.084429175
97	0xbe09f574	-0.13472539
98	0x3bcaa52c	0.006184241
99	0xbdd22119	-0.10260219
100	0x3c991920	0.018688738
101	0xbcc869af	-0.024464456
102	0xbc186123	-0.009300503
103	0xbdfd2aa2	-0.12361647
104	0xbc947dcc	-0.01812639
105	0x3bfb4485	0.0076680803
106	0xbd1416c0	-0.03615451
107	0xbcc64196	-0.024201196
108	0xbc563bfd	-0.013075826
109	0x3e629d6e	0.22130367
110	0x3cc22509	0.0236993
111	0xbd1d4b63	-0.038401973
112	0xbc53ad00	-0.012919664
113	0xbcdcb2c9	-0.02694072
114	0xbd27f0a1	-0.041000966
115	0xbbdc5c10	-0.006724842
116	0xbd9e935a	-0.07742949
117	0xbd5b6a1f	-0.053568
118	0xbd984708	-0.07435423
119	0x3ce5578d	0.027995849
120	0x3d7a6c89	0.061138663
121	0x3db57df2	0.08861913
122	0x3d57c372	0.052676626
123	0xbb9f06c4	-0.0048531014
124	0x3c68108a	0.0141640995
125	0x3c7c2e52	0.015391903
126	0xbdfd25e3	-0.12360742
127	0xbc56e62c	-0.013116401
128	0x3cd6175e	0.02613419
129	0xbd7444f1	-0.05963606
130	0x3da15069	0.07876665
131	0xbc92b335	-0.017907718
132	0x3c96f8ea	0.018429238
133	0xbd8ab49e	-0.06772731
134	0x3cc391e0	0.02387327
135	0x3c05020e	0.008118166
136	0x3c762cb6	0.015025308
137	0x3d26487c	0.04059647
138	0xbd0b8f44	-0.034072176
139	0xbdb81418	-0.089882076
140	0xbe0c433a	-0.1369752
141	0xbc6dd42f	-0.014515921
142	0xbd641bf7	-0.05569073
143	0xbbc6cde8	-0.0060670264
144	0xbc1a2a2c	-0.009409469
145	0xbd9d89b1	-0.07692278
146	0x3ceb9fb1	0.02876267
147	0x3d9973ac	0.07492766
148	0x3b945684	0.004526915
149	0x3b89ab0f	0.0042013
150	0xbd6926a3	-0.056921612
151	0x3dc17273	0.094456576
152	0xbd7f0c16	-0.062267385
153	0xbdcd0b37	-0.10011905
154	0x3b923654	0.004462043
155	0xbd0fd000	-0.035110474
156	0xbc8f67f0	-0.017505616
157	0x3dd27891	0.102769025
158	0xbb920fdd	-0.0044574575
159	0x3c919de2	0.01777548
160	0x3d63d2ea	0.055621065
161	0x3d41f9e5	0.04735746
162	0xbd4dc74c	-0.050238892
163	0x3d2c8d72	0.04212708
164	0xbd22d8dd	-0.0397576
165	0xbd0f6082	-0.035004146
166	0xbd7add1a	-0.061246015
167	0xbd257aec	-0.04040043
168	0x3dd0968f	0.10184967
169	0xbdcdba0e	-0.10045253
170	0x3c83f2f2	0.016107056
171	0x3c42a4c5	0.011880104
172	0x3cfa2155	0.030533472
173	0x3d7aca77	0.06122824
174	0x3d213afd	0.039362896
175	0x3c8ae3e6	0.016954374
176	0x3c690c50	0.014224127
177	0xbb5138d3	-0.003192474
178	0xbcde3fd8	-0.027130052
179	0xbd84a9e5	-0.06477717
180	0xbe07d69e	-0.13265464
181	0xbdf4b83e	-0.11949204
182	0xbce5685f	-0.02800387
183	0x3c9fefb1	0.019523473
184	0xbd625596	-0.055257402
185	0xbdccb758	-0.099959075
186	0xbd644248	-0.055727273
187	0xbd96181d	-0.07328818
188	0xbdea8bfa	-0.1145248
189	0x3c0043e2	0.0078286845
190	0x3d36cc76	0.044628583
191	0xbb49595a	-0.0030723424
192	0x3d75ba13	0.059991907
193	0xbce5d2da	-0.028054643
194	0xbcb82949	-0.022480624
195	0xbd261950	-0.040551484
196	0xbdaa60c2	-0.08319236
197	0xbd23812f	-0.03991812
198	0x3d540db1	0.05177087
199	0x3d855a26	0.06511335
200	0x3d5f01d5	0.054445107
201	0xbd93fa70	-0.072255015
202	0xbd9f6110	-0.07782185
203	0xbcdcf68f	-0.026973037
204	0xbd512d0d	-0.051068354
205	0x3c800cb2	0.015631054
206	0x3d10a926	0.035317563
207	0x3d1fa2b4	0.038973525
208	0xbd70f9b3	-0.05883188
209	0xbc46f8b9	-0.012144261
210	0x3d540fd0	0.051772892
211	0x3cd5ebac	0.026113354
212	0x3c2622a3	0.010140094
213	0x3e054ff6	0.13018784
214	0x3d087678	0.033316106
215	0x3db7dcb3	0.08977642
216	0xbd411d9b	-0.047147375
217	0x3d26c1df	0.040712234
218	0xbd925dfc	-0.07146832
219	0x3d95598d	0.07292471
220	0x3cadc3bd	0.0212115
221	0xbc8aa19a	-0.01692276
222	0xbde3cb13	-0.11122718
223	0x3dc6bf3d	0.097044446
224	0xbd9ccd2c	-0.07656321
225	0xbdb4833f	-0.08814096
226	0xbcc06dcf	-0.02348986
227	0x3b83be78	0.0040205084
228	0x3d84d6e0	0.06486297
229	0xbd179b1a	-0.03701315
230	0x3c3f44e9	0.011674144
231	0xbcd0a4ee	-0.02546927
232	0x3d26bebb	0.04070924
233	0xbd926f4e	-0.07150136
234	0xbb464b5a	-0.0030257315
235	0x3da173f7	0.07883447
236	0xbcb2cf70	-0.02182743
237	0xbd2f65f7	-0.04282185
238	0xbd3488df	-0.044075843
239	0x3c91e70a	0.017810363
240	0x3dc0258f	0.09382164
241	0xbd4ec9f1	-0.050485555
242	0xbd301da0	-0.042997003
243	0x3e19cb14	0.15018874
244	0x3bca9c18	0.0061831586
245	0xbd2545b2	-0.04034967
246	0x3beb4485	0.007179799
247	0xbdb2438e	-0.08704291
248	0x3ae1bb30	0.0017221924
249	0x3b2205b3	0.0024722635
250	0x3b536fa0	0.0032262579
251	0xbda4c5b6	-0.08045523
252	0xbde28ff8	-0.11062616
253	0xbd3147f0	-0.043281496
254	0x3d65da4e	0.056116395
255	0x3c1405b8	0.009034567

network_body.linear_encoder.seq_layers.2.bias f4 [256]
0	0xba733e1e	-0.00092789705
1	0xbb942752	-0.004521289
2	0x3a82d867	0.0009982706
3	0x3b572f79	0.0032834692
4	0xbb7479b0	-0.0037303977
5	0x3b18f2d7	0.0023338103
6	0xba33ee16	-0.00068637857
7	0xbb1d3296	-0.002398645
8	0x3a9a0442	0.0011750537
9	0x3aeba7a1	0.0017979034
10	0xbb8f9948	-0.004382286
11	0xbb1796d6	-0.0023130677
12	0xbb031944	-0.0020004073
13	0x3b2b9b00	0.0026184916
14	0x3b4379fa	0.0029827342
15	0xbb13a7c9	-0.0022530428
16	0x3b4e033d	0.0031435036
17	0x3b4f0ce1	0.003159337
18	0x387de605	6.0534123e-05
19	0x3b88f214	0.0041792486
20	0x39a3afe1	0.00031220823
21	0x3a5b14ed	0.0008357305
22	0xbac0b3aa	-0.0014701982
23	0xb9b00ed1	-0.00033580375
24	0xba80a0e8	-0.0009813579
25	0xbb768005	-0.0037612927
26	0x3ac81568	0.0015265169
27	0x39831c10	0.00025007175
28	0xbb03f8ce	-0.0020137313
29	0x3aa55ca5	0.0012616111
30	0x3b79877c	0.003807514
31	0xba307cdf	-0.00067324744
32	0xbb391f8c	-0.0028247563
33	0x3b2cb8b7	0.0026355216
34	0x3b15da9a	0.0022865892
35	0x3b8ce431	0.0042996635
36	0xb7f2218e	-2.8864273e-05
37	0x3a01104b	0.00049233873
38	0xbacd91bf	-0.0015683695
39	0xba80716f	-0.0009799431
40	0xbb0a0d51	-0.0021065066
41	0xbb71c042	-0.0036888276
42	0x3b77fb89	0.0037839136
43	0x3b28974b	0.0025724943
44	0xba9d58e1	-0.0012004637
45	0xbaf42326	-0.0018626198
46	0xbb3bbddb	-0.0028647098
47	0x399ff2e5	0.00030507814
48	0x3bb87e17	0.0056302655
49	0x3aba5f32	0.0014219044
50	0xbb8c712e	-0.004285953
51	0x39d3e50e	0.00040415715
52	0xbaacad3d	-0.0013174188
53	0x3adda55e	0.0016910245
54	0xbb0b7ead	-0.0021285221
55	0x3b44493b	0.0029950875
56	0x3b6a672c	0.0035767062
57	0x3b2ca9b7	0.0026346275
58	0xba2c0d49	-0.0006563259
59	0x3bd5b053	0.0065212636
60	0x3a5c339a	0.0008400023
61	0xba8dccac	-0.0010818443
62	0x3b4e5da6	0.0031488924
63	0x3b7ce762	0.0038590063
64	0xbafd6480	-0.001933232
65	0x3b2d066e	0.0026401537
66	0x3b354045	0.0027656716
67	0x3b359b0e	0.0027710828
68	0xbad2209d	-0.0016031448
69	0xbaa7559c	-0.0012766602
70	0xbac7241a	-0.0015193254
71	0x3ac9aa54	0.0015385845
72	0xbb6edcdc	-0.003644756
73	0x381b2456	3.698872e-05
74	0x3a4b7d24	0.0007762483
75	0x393a288d	0.00017753449
76	0x39224a22	0.0001547714
77	0xba34a8ea	-0.0006891625
78	0xbb40ba05	-0.0029407751
79	0xbb08e90d	-0.0020890862
80	0x3b667938	0.0035167467
81	0x3b9498ea	0.0045348303
82	0xba3c7c58	-0.00071901595
83	0x399df314	0.0003012648
84	0xbb8b6267	-0.004253674
85	0x39bea591	0.0003636298
86	0x3b865185	0.0040990734
87	0xba14c7e8	-0.00056755403
88	0x3bcfdce3	0.0063434704
89	0xba248a6a	-0.0006276729
90	0xba495970	-0.0007680869
91	0xb80ea270	-3.400672e-05
92	0x3b05b885	0.0020404172
93	0xba0ca123	-0.00053645874
94	0xba4dad75	-0.00078459765
95	0x3aded37c	0.0017000283
96	0x3b597342	0.0033180271
97	0x399d0cf6	0.0002995503
98	0x3a0c80a7	0.0005359747
99	0x3a3ed555	0.0007279714
100	0x3b46fc82	0.0030362909
101	0x39fa35d3	0.00047723818
102	0x3b3e973b	0.002908184
103	0x3a5274e2	0.0008028281
104	0x3ad0d345	0.0015932104
105	0xbb438abb	-0.0029837328
106	0x3b0c5042	0.0021410142
107	0xbba590f0	-0.0050526783
108	0x3ac7e39d	0.0015250329
109	0xbb4c97db	-0.0031218443
110	0xb9e11b37	-0.0004293562
111	0x3af908c6	0.0018999807
112	0xbb77b77e	-0.003779858
113	0xbb9138fe	-0.004431843
114	0xbb61f7f5	-0.003448007
115	0xbb6c426e	-0.0036050337
116	0x3a923d63	0.0011157211
117	0xb9cab0b7	-0.00038660105
118	0xbac72820	-0.0015194453
119	0xbb042a32	-0.0020166752
120	0x3ba7315a	0.0051023187
121	0xba80a447	-0.0009814583
122	0xbb104f9f	-0.0022020114
123	0x3b4e786e	0.0031504887
124	0x3b2934f5	0.0025818918
125	0x3a39c154	0.0007085998
126	0xbb0362c6	-0.0020047887
127	0x3b331d08	0.0027330536
128	0xbad874ee	-0.001651434
129	0xbb896703	-0.004193188
130	0x3b98b783	0.004660548
131	0x3b203621	0.0024446326
132	0xbaa4e4fb	-0.0012580449
133	0xbb170d1d	-0.0023048588
134	0xbbb96099	-0.0056572673
135	0x3a27da75	0.0006403097
136	0xbaaa0075	-0.0012970107
137	0xbb1fdda6	-0.0024393587
138	0x3b167e78	0.0022963565
139	0x3abffeb0	0.0014648046
140	0x3b5b1892	0.0033431393
141	0xba253bb9	-0.000630315
142	0x3b1b6953	0.0023713901
143	0xbb80ecdc	-0.003934486
144	0xbabeafa8	-0.0014548199
145	0xba4d48ea	-0.00078309944
146	0xb92670e4	-0.00015873049
147	0xbb1dcc21	-0.002407797
148	0x3b438fb8	0.0029840302
149	0x3aeb8af0	0.0017970484
150	0x3a91cae6	0.001112309
151	0x3bab3036	0.005224253
152	0x3a365946	0.0006956052
153	0x3b1df2ab	0.002410094
154	0x3aaa62ae	0.001299938
155	0x3b29ea7c	0.0025927117
156	0xbb35047f	-0.0027621088
157	0x3b940849	0.004517589
158	0x3b1e0898	0.002411401
159	0xbb76bf13	-0.003765051
160	0x3b2df273	0.0026542216
161	0xbb4c4456	-0.003116866
162	0x39e870a3	0.0004433441
163	0x3ac87e20	0.0015296377
164	0x38a6f303	7.960761e-05
165	0xb9875575	-0.00025812877
166	0x3643e895	2.9192645e-06
167	0xbac7a4ff	-0.0015231668
168	0x39a0605d	0.00030589374
169	0xba12d6d7	-0.00056014716
170	0x380facc2	3.425475e-05
171	0xbae027f8	-0.0017101755
172	0x3b100f7c	0.0021981886
173	0x3b07bfee	0.0020713764
174	0x3b4c7b59	0.003120145
175	0xbb8f9b5c	-0.004382534
176	0x381f8dbd	3.8040558e-05
177	0xb84397ce	-4.6633002e-05
178	0xba31a39a	-0.00067763927
179	0xbb557b6f	-0.0032574793
180	0xb99e02fd	-0.00030138335
181	0xba09055f	-0.00052269356
182	0xbb7e3782	-0.003879041
183	0x3b17bad4	0.002315213
184	0x3b0115fb	0.001969694
185	0x3b6ad7e8	0.0035834257
186	0xbac77f75	-0.001522048
187	0x3b682f54	0.00354286
188	0x3b092e42	0.0020932113
189	0xbb2062f9	-0.0024473055
190	0x398c06a9	0.00026707843
191	0xba3a1379	-0.00070982386
192	0x3aadfaf1	0.0013273639
193	0x3ad7c410	0.001646163
194	0xba0946be	-0.00052366767
195	0x39fbab46	0.0004800206
196	0x3b53205f	0.003221534
197	0xbb2e0633	-0.0026553988
198	0x3b89fc71	0.0042110016
199	0xbb12b659	-0.002238652
200	0x3b6db368	0.0036270265
201	0xba247148	-0.0006272984
202	0x39a7286b	0.00031882836
203	0x3aac5253	0.0013147093
204	0xbb7b85fe	-0.0038379426
205	0x3ab4d3b5	0.0013796004
206	0xbb5bc0de	-0.0033531706
207	0x3b5228dd	0.0032067813
208	0x3987bb05	0.00025888547
209	0x3b54c0ae	0.003246348
210	0x3b506233	0.0031796813
211	0x3bc8e9b6	0.006131376
212	0xbb3c8b92	-0.0028769714
213	0x35cc3cb6	1.5216854e-06
214	0x39c406d5	0.00037389123
215	0x3aa096d3	0.001225198
216	0xbb830825	-0.0039987736
217	0xbb69d2f8	-0.0035678726
218	0x3b07e6a8	0.0020736847
219	0xbab30d96	-0.0013660665
220	0xbbac83e0	-0.005264744
221	0x3b7903d1	0.003799666
222	0xba9f17be	-0.0012137813
223	0x3a8cb348	0.0010734582
224	0xbb4ae2e3	-0.003095799
225	0xbad4548e	-0.0016199516
226	0xb906f0c2	-0.00012868925
227	0xbb3c6b52	-0.0028750491
228	0x3a05c5ad	0.00051030034
229	0x3a223194	0.0006187197
230	0x38daff29	0.00010442577
231	0xbb2b8fb8	-0.0026178192
232	0xbb7d83f2	-0.0038683382
233	0xbb719649	-0.0036863259
234	0x3a5fe4c3	0.0008540863
235	0x3b597f46	0.0033187433
236	0x3b32c7e4	0.0027279789
237	0xbb565bff	-0.0032708643
238	0x3a74cfc6	0.0009338822
239	0x3a9244f6	0.0011159468
240	0x3ace8faf	0.0015759374
241	0x3b69978e	0.0035643312
242	0x383a41f0	4.4407265e-05
243	0x3a5d48ec	0.0008441347
244	0x3a94c3dd	0.0011349876
245	0xbb3d9eaa	-0.0028933682
246	0x38d517fe	0.000101611
247	0xbab9ca76	-0.0014174718
248	0x3affda56	0.0019520025
249	0x3a696bc6	0.0008904304
250	0xbb55278b	-0.003252479
251	0xbb88bb51	-0.0041727205
252	0x3b32eb28	0.0027300809
253	0x3a1f2828	0.00060713524
254	0x3b7ed3fd	0.003888368
255	0x3bddef7b	0.006772933

action_model._discrete_distribution.branches.0.weight f4 [7, 256]
0	0x3b89e7a0	0.00420852
1	0xbb3d6983	-0.0028902001
2	0x3adcdcd7	0.0016850483
3	0x3a1a007e	0.0005874707
4	0x3c3bda56	0.01146563
5	0xbb8e95f8	-0.0043513738
6	0x3a52b430	0.0008037714
7	0x3ba7431f	0.005104437
8	0x3a968237	0.0011482899
9	0xbc69b250	-0.014263704
10	0x3bdb8976	0.006699736
11	0xbba7fbf4	-0.0051264707
12	0xbc0aa5c1	-0.00846237
13	0xbbf42981	-0.0074512367
14	0xbbc6877e	-0.0060586324
15	0x3befc7fa	0.0073175402
16	0xbc11d204	-0.008900169
17	0x3bfafa32	0.00765922
18	0xba88df09	-0.0010442446
19	0xbbe3b774	-0.0069493596
20	0x3b9b584b	0.00474075
21	0x3be0b463	0.0068574413
22	0xbb2dbd92	-0.0026510698
23	0xbb1141a7	-0.0022164376
24	0x3b8c8c3e	0.004289179
25	0xba5cd44d	-0.0008423969
26	0xbbcf4530	-0.0063253865
27	0x3b81c236	0.0039599193
28	0x3b8bd91c	0.004267825
29	0xbc3f58a5	-0.011678849
30	0xbb429551	-0.002969105
31	0xb9e91336	-0.00044455536
32	0xbc7dacfe	-0.015483139
33	0xbb92369f	-0.0044620777
34	0x3c1b071d	0.009462145
35	0xbb8ac028	-0.0042343326
36	0xbbe8884f	-0.0070963274
37	0x3b31ff3b	0.0027160186
38	0x3bf37a96	0.007430385
39	0x3ab653d6	0.0013910483
40	0x3bf1d65c	0.00738029
41	0xbbcea5bd	-0.0063063786
42	0x3a5bec44	0.00083893933
43	0xbc6e1e5e	-0.014533607
44	0x3bdcaa46	0.0067341654
45	0xba7b3d08	-0.00095839845
46	0x3bcac5e0	0.0061881393
47	0xbb37ce3c	-0.002804651
48	0xbc328982	-0.010897042
49	0x3c284b60	0.010271877
50	0x3bf8297a	0.0075733038
51	0x3c68eed8	0.014217101
52	0x3c152b91	0.009104625
53	0xbb58d68f	-0.0033086871
54	0x3bd659c6	0.0065414635
55	0x3c1a28f9	0.009409183
56	0xbc4cb23d	-0.012493667
57	0xbc847287	-0.016167892
58	0xba0ee241	-0.00054505846
59	0xbc82d9e7	-0.015973045
60	0xbc06cdbd	-0.008227763
61	0x3bddd542	0.006769807
62	0xbc36d1dc	-0.011158433
63	0xbc15a674	-0.009133924
64	0x3a5d2ef3	0.0008437477
65	0xbbafe007	-0.0053672823
66	0xbb884969	-0.004159142
67	0xbbc21a43	-0.005923541
68	0x3b309e6b	0.0026949893
69	0xbab1f878	-0.0013578078
70	0x3c31b79a	0.010846997
71	0x39d38870	0.0004034671
72	0xbb619986	-0.0034423782
73	0xbc2a90bc	-0.010410484
74	0x3ad7e9c8	0.001647287
75	0xbace85cb	-0.0015756426
76	0x3c0dabfd	0.008646962
77	0xbb3c11ba	-0.002869709
78	0x3c2c7584	0.010526065
79	0xbb8e16a5	-0.0043361955
80	0xba23a9b8	-0.00062432466
81	0xbbab7bb8	-0.0052332543
82	0x3b0ecbe0	0.0021789
83	0x3a013efa	0.0004930344
84	0x3b3069b2	0.0026918468
85	0x3b39535f	0.0028278453
86	0xbbe8b453	-0.0071015744
87	0x3b9b9ae1	0.0047486876
88	0xbc075994	-0.008261103
89	0xbb04593a	-0.0020194785
90	0xb9282df6	-0.0001603885
91	0xba28271b	-0.00064145186
92	0x3bc1ee90	0.0059183314
93	0x3c2cd45c	0.010548677
94	0xbbea5bc9	-0.007152055
95	0xbb4c4f32	-0.0031175134
96	0xbc03d6ed	-0.008046848
97	0x3a837d5a	0.0010031865
98	0xbc0e8e1e	-0.008700876
99	0xbadc33cb	-0.0016800103
100	0x3aa4b5f5	0.0012566434
101	0x3ba67d6d	0.00508087
102	0xbb902029	-0.004398365
103	0xbb80b84c	-0.00392822
104	0xbc632c4c	-0.013865542
105	0x3b9cd3bc	0.004785983
106	0xbc9c264c	-0.01906123
107	0x3b84280c	0.0040330943
108	0xbb05b7ed	-0.0020403818
109	0xbb2ba6e6	-0.0026192009
110	0x3c7c7d82	0.015410783
111	0xbc150b43	-0.009096923
112	0x3c932182	0.017960314
113	0x3baaf958	0.0052177124
114	0x3c97f063	0.018547243
115	0x3c5fb56a	0.013654092
116	0xbabaafe9	-0.0014243099
117	0x3b8a6413	0.0042233556
118	0x3aa06682	0.0012237581
119	0x3b425de2	0.002965801
120	0xbbadd52c	-0.005304953
121	0x3b49d9b3	0.0030799925
122	0xbb526f04	-0.0032109628
123	0xbc19bbd7	-0.009383163
124	0x3bac0568	0.005249668
125	0x3ae72cf9	0.0017637304
126	0xbc1ac90f	-0.00944735
127	0xbbdad874	-0.0066786353
128	0x3b1be9a0	0.0023790374
129	0x3c8157b1	0.015788885
130	0xbbfc6196	-0.007702063
131	0x3b9b4108	0.004737977
132	0x3afe4cbe	0.0019401533
133	0x3bba8777	0.005692418
134	0x3a954c9a	0.0011390627
135	0xbb2359ef	-0.002492543
136	0xbbcb74fb	-0.0062090135
137	0xbba903a9	-0.005157907
138	0xbc31b91b	-0.010847355
139	0x3ba7db3c	0.0051225703
140	0xbbf68a95	-0.0075238445
141	0xbb9c711d	-0.0047742263
142	0xbbf099c1	-0.0073425476
143	0x3b52f037	0.0032186636
144	0x3b54fdb5	0.0032499854
145	0x3b2b5af5	0.0026146744
146	0xbaa7cde4	-0.0012802449
147	0xbbbd12a2	-0.0057700435
148	0xbc53a2d6	-0.012917241
149	0xbc129d73	-0.008948672
150	0xba9e83ff	-0.0012093781
151	0x3a451e1b	0.00075194397
152	0xba98322b	-0.0011611631
153	0x3ba583cb	0.0050511113
154	0x3c0bb228	0.0085263625
155	0x3aaf2c78	0.0013364693
156	0x3a3e32c4	0.00072554895
157	0xbc5709dd	-0.01312491
158	0xbc0099b1	-0.007849143
159	0x3c0abb7b	0.00846755
160	0x3b3c1810	0.0028700866
161	0x3b4b53c9	0.0031025282
162	0xbab0d061	-0.0013489836
163	0xbbdd8f31	-0.0067614545
164	0x3b0ad8db	0.0021186385
165	0xbbc2ef8d	-0.005948967
166	0xbc0562d0	-0.0081412345
167	0xbb75bece	-0.0037497762
168	0x3a88e31c	0.001044366
169	0x3a912f4d	0.0011076719
170	0x3b8e20f7	0.004337426
171	0x3bddd458	0.006769698
172	0x3b90ad31	0.0044151773
173	0xbb481567	-0.0030530335
174	0xbbfc66ce	-0.007702685
175	0x3c2d3af6	0.010573139
176	0xbbd1d551	-0.006403603
177	0xba96d213	-0.0011506699
178	0x3a6c337d	0.0009010358
179	0x3c393c6b	0.011305909
180	0xbc54f9d6	-0.012999019
181	0xbbccc62e	-0.006249211
182	0x3c23d381	0.009999157
183	0xbb99908f	-0.004686422
184	0xba2f5525	-0.0006688408
185	0xbbf22ea8	-0.0073908158
186	0xbc27de34	-0.010245848
187	0x3abf8aae	0.0014613473
188	0x3b0dc2c1	0.0021630975
189	0xb99bd4a9	-0.00029722348
190	0xbc6c78ab	-0.014433066
191	0xbb51d95b	-0.0032020423
192	0xbba4053b	-0.0050055063
193	0xbc74d83e	-0.014944134
194	0xbc09e6b9	-0.008416825
195	0xbaf93bf2	-0.0019015057
196	0x3bf453e0	0.0074562877
197	0x3b3f4bf3	0.0029189556
198	0xbc7fe50a	-0.015618572
199	0xbc1ac061	-0.009445281
200	0xb9968b22	-0.00028713892
201	0xbc6acc36	-0.014330914
202	0xbc0c97da	-0.008581126
203	0xb8d11709	-9.970187e-05
204	0x3ba93b73	0.0051645576
205	0xba4c7900	-0.0007800013
206	0x3bff349e	0.007788255
207	0xba9b64fb	-0.0011855656
208	0x3b28e88c	0.0025773374
209	0xbbe80a92	-0.007081338
210	0xbc0dde50	-0.00865896
211	0xbbd13eb2	-0.0063856477
212	0xbbc9c6a3	-0.0061577125
213	0xbaea0cca	-0.0017856595
214	0x3bce4887	0.006295267
215	0xbae536ce	-0.0017487647
216	0x3c50cc25	0.012743984
217	0x3c24bfd2	0.010055499
218	0xbc030973	-0.007997858
219	0xba01abff	-0.0004946589
220	0x3bd0af93	0.0063685863
221	0x3b9b1b9c	0.004733516
222	0x3bddb60b	0.006766086
223	0xbc75683a	-0.014978463
224	0x3ac5675f	0.0015060714
225	0x3b8cf0a8	0.0043011494
226	0x3c290863	0.010316941
227	0x3c4c03b7	0.012452058
228	0x3aa37628	0.0012471126
229	0x3b194487	0.0023386793
230	0xbbe7712c	-0.0070630517
231	0x3c351e19	0.011054539
232	0x3c8a9130	0.016914934
233	0x3b8ef2ce	0.0043624407
234	0x3b963a06	0.0045845537
235	0xbc4b9555	-0.01242574
236	0xbc191a1c	-0.009344604
237	0xbc00a716	-0.007852336
238	0xbb3aeea7	-0.0028523596
239	0xba4413b6	-0.0007479744
240	0xbc32343a	-0.01087671
241	0xbbd9483c	-0.0066309255
242	0x395972ef	0.00020737549
243	0x3baec760	0.005333826
244	0x3b418c09	0.002953293
245	0x3c2802b3	0.01025455
246	0x3b0dcbd2	0.002163638
247	0x3bf1293a	0.007359651
248	0x3b464b2f	0.0030257215
249	0xbb93f993	-0.0045158355
250	0xbb39ad4f	-0.002833206
251	0x3bda6ab1	0.0066655506
252	0xbc3a07a4	-0.011354361
253	0xbc5a8d12	-0.013339298
254	0xbbfb7547	-0.0076738927
255	0xbca8d340	-0.020608544

action_model._discrete_distribution.branches.0.bias f4 [7]
0	0xbb7146e2	-0.003681593
1	0x3b596b57	0.0033175552
2	0xbb09efcc	-0.002104747
3	0xba7eec0f	-0.00097245065
4	0x3b4c88cd	0.003120947
5	0xbb4c96de	-0.0031217854
6	0x3b0658c2	0.002049968
