results/t2/Fork1/Fork1-29320.onnx (onnx, 331091 bytes, 6 tensors)

network_body.linear_encoder.seq_layers.0.weight f4 [256, 56]
000000 77 81 ae 3d 80 4e 96 bd 60 e4 5c 3d 59 d6 39 be
       0.08520787 -0.073391914 0.053928733 -0.18148173
000010 8a 76 8b 3e 7d 63 5e bd de 7c 57 be 8e b0 94 3d
       0.27238876 -0.0542941 -0.21043727 0.07260238
000020 ce 94 2d 3e f4 1c 17 3d 98 95 b4 be 29 40 e2 bb
       0.16951296 0.036892846 -0.3527038 -0.006904621
000030 e6 81 ff 3c 41 13 fc 3d f1 00 c6 be 04 40 da bd
       0.03118987 0.1230836 -0.38672593 -0.10656741
000040 fd 3a 37 bd 97 a8 ce bd b2 09 c4 3d 7b e4 62 be
       -0.04473399 -0.1009075 0.09572162 -0.22157471
000050 d1 54 fb 3d 21 59 34 3d 81 54 b3 3d 67 5b 98 bc
       0.12272037 0.044030312 0.08756352 -0.018598272
000060 40 b0 a8 3d dd 16 3f 3c d5 77 aa 3c 8e 8c 01 be
       0.08236742 0.011663166 0.020809093 -0.12651274
000070 e1 ab 61 bd fc 1d ad 3d 97 12 f8 3d 18 f2 22 3d
       -0.055095557 0.08452985 0.12112921 0.03978166
000080 63 7e 8b bb e0 4d 28 3e 2e f3 46 3d 6b f0 f2 bd
       -0.00425701 0.16435957 0.048571758 -0.11862262
000090 8a 09 28 3d 74 23 e1 bc fe 95 6f 3e 3a ac 1a 3e
       0.041024722 -0.027482726 0.23397061 0.15104762
0000a0 55 1a 6f be 0e 21 33 3d 93 3b b4 3c 98 b3 bf bc
       -0.23349889 0.043732695 0.022001063 -0.023401067
0000b0 d8 3b c4 3a fa f7 5f 3e 4a 34 e2 be 14 30 40 3e
       0.0014971448 0.2187194 -0.44180518 0.1876834
0000c0 ad 4d 0c 3d ee f1 b9 3d ab ed f4 bc d1 e2 1b be
       0.034253765 0.090793476 -0.029898485 -0.15223242
0000d0 b7 ac b7 bd 99 ce c9 3c be 0f d2 bd 37 f1 ce 3c
       -0.089684896 0.024634646 -0.10256909 0.025261505
0000e0 a2 7b 89 3c 65 f5 6a 3d a5 ce e0 bd c6 fa 0b 3e
       0.016782586 0.057362933 -0.10976914 0.13669881
0000f0 30 cf 8f bb dc d8 94 be a6 8b 48 3d 6a 25 22 bc
       -0.0043887123 -0.290717 0.048961304 -0.0098966155
000100 bf cd 63 bd e2 a6 a3 3d 33 62 7a 3d a4 78 2a be
       -0.055616137 0.07990815 0.061128806 -0.16647583
000110 a7 3c 7c 3d 8c b0 76 3e 36 ea 6f 3e 89 b4 49 be
       0.06158128 0.24090785 0.23429188 -0.19697775
000120 60 41 37 3d ff d7 26 3d cb c2 75 be 2c 01 9c 3a
       0.04474008 0.040733334 -0.24000089 0.0011902205
000130 6f e0 55 be 3c d8 c2 bd 1d 29 07 bd be 8e 63 3e
       -0.20886396 -0.095139 -0.032998193 0.2222242
000140 e6 92 ed bd 25 92 0f bd 43 61 e5 bb 7c 28 92 3d
       -0.11600284 -0.035051484 -0.00700012 0.07136628
000150 67 32 8b 3c cf 94 0f bd cc 79 61 3a fa 80 94 3d
       0.016991807 -0.035054024 0.0008601218 0.07251163
000160 fb dd 7d bd 37 74 63 3e 42 0c 0a be 3b 8a 56 bd
       -0.061979275 0.22212301 -0.13481238 -0.05237792
000170 65 d9 ca bd 7d 5d e5 bd 5c 79 30 39 45 ff ee bc
       -0.09904746 -0.11199472 0.00016829878 -0.029174456
000180 9f 0c d7 3d 70 47 f4 3d ec 4a 57 bd 82 14 71 3e
       0.10500454 0.11927688 -0.052561685 0.2354298
000190 ff 09 1e 3e 3c da 34 be c5 da 94 3e 1c 85 ce 3d
       0.154335 -0.17661375 0.29073158 0.10083982
0001a0 49 9f a3 3d 86 97 7f bd 87 05 98 3e 2a 48 58 be
       0.079893656 -0.062400363 0.29691717 -0.21121278
0001b0 8a dd 87 3d 25 86 86 3c 63 24 0a be 09 71 ac 3d
       0.06634052 0.016421387 -0.13490443 0.08419997
0001c0 a2 03 21 3e 56 71 e9 bd 72 ad bc bd bb b5 37 3d
       0.15724042 -0.1139857 -0.092127696 0.044851046
0001d0 f9 ce 25 3e 19 e3 91 be 9d 5b 5c 3e 08 3f 5a 3e
       0.16192235 -0.28493574 0.21519323 0.21313107
0001e0 00 34 24 3e ce 7a a8 be fa b3 e7 bd 42 fa 4d 3e
       0.16035461 -0.32906193 -0.11313625 0.20114997
0001f0 ab 86 32 be 3a d7 d8 3d 7d ce 12 be af aa 85 3d
       -0.17434184 0.10587926 -0.14336582 0.06526696
000200 9b 41 83 be 49 9e a3 bd 16 a2 35 3e 96 09 71 3d
       -0.2563599 -0.07989175 0.17737612 0.058847032
000210 08 ba 92 be ee a0 62 3d a9 4d 92 be d4 81 c9 3b
       -0.28657556 0.055329256 -0.28574875 0.00614951
000220 f0 4f 44 be d3 a2 17 3d 98 b0 0c be 7e e5 1e be
       -0.19171119 0.037020516 -0.1373924 -0.15517232
000230 93 cb 19 3d bd b0 17 bd a7 f2 02 3b 01 00 51 bd
       0.03754766 -0.037033785 0.0019981058 -0.051025394
000240 e5 be a8 be 35 c2 36 be 9b 12 a0 bd 61 be 83 3d
       -0.3295814 -0.17847522 -0.07816049 0.06432796
000250 e0 10 76 be 7b a2 52 bd d3 94 07 be 9e 2b 8c 3c
       -0.24029875 -0.051424485 -0.13240366 0.017110642
000260 96 05 3e be af ab 40 be 22 06 e1 bd 5b 65 91 bd
       -0.18556818 -0.18815492 -0.10987498 -0.0709941
000270 52 14 fa bc 61 a8 7e 3d 79 d2 93 3e e8 01 8f bd
       -0.030527268 0.062172297 0.28871515 -0.069827855
000280 d7 96 ef bc 8a 09 60 bd cc ea 44 3d 57 aa 12 bd
       -0.02924673 -0.054696597 0.048075482 -0.03580698
000290 34 17 bc 3c 51 6e 5f bc fc 40 a4 bc 70 01 ff 3c
       0.022960283 -0.013637141 -0.020050518 0.031128615
0002a0 2b 15 c5 bd e4 8b 12 3e 56 90 d6 bc 74 82 10 bd
       -0.09623178 0.14311177 -0.026191872 -0.03528066
0002b0 27 ff f1 3d a7 11 92 bd 3c 81 5c bd 62 08 1b 3e
       0.118162446 -0.07132273 -0.053834185 0.15139917
0002c0 e2 9d 51 be 38 98 1a 3d 97 9b f1 ba a9 f4 6d be
       -0.20470384 0.037742823 -0.001843321 -0.23237862
0002d0 68 e6 3b be 05 de 90 3d e0 e8 f5 bd 90 1d a4 be
       -0.18349612 0.07073597 -0.12007308 -0.32053804
0002e0 d1 12 ab 3c 63 7f 08 be cb 1c c0 3c 85 22 09 3d
       0.020882996 -0.13329844 0.02345123 0.033480186
0002f0 ab 2b be bd 75 b2 67 3d 30 64 12 3e 73 9a 8f 3e
       -0.09285673 0.056566674 0.14296031 0.28047523
000300 21 26 3b 3e e9 08 89 3b 00 08 64 be 54 18 58 3e
       0.18276264 0.0041819704 -0.22268677 0.2110303
000310 24 68 11 be ab 94 3d 3d 3e dc 00 be 67 47 1f 3e
       -0.14199883 0.04628436 -0.12584016 0.15554582
000320 63 98 29 3d ac 0b 17 3e 29 bd 19 3d 28 73 80 be
       0.041405093 0.14750546 0.037533913 -0.25087857
000330 6e 9f 68 3d db 6c ea 3d f3 72 2b 3e 6a 5c a9 3d
       0.05679267 0.11446544 0.16743068 0.0826958
000340 26 d0 14 3d 56 3a af bd 58 e2 d4 3d 32 10 b4 3c
       0.03633132 -0.085560486 0.10394734 0.021980379
000350 32 99 21 be f1 cb f8 bd 2d 39 ed bc c2 fe ac 3e
       -0.15781096 -0.12148274 -0.028957928 0.33788115
000360 b2 61 f7 bc 5f c9 85 3d e5 81 c9 3d d7 56 73 bd
       -0.030197952 0.06532549 0.098392285 -0.05940899
000370 1f 20 21 3e 02 88 73 3c 47 d7 aa bd c3 d0 15 3d
       0.1573491 0.01486397 -0.08341842 0.036576044
000380 24 06 74 3e a2 e0 5d bc ab 1d b9 bd fe ce 68 3e
       0.23830467 -0.013542326 -0.09038862 0.22735211
000390 e1 ff 8f 3d 3f b4 25 be 6c 3e 7c be c2 90 eb 3c
       0.07031227 -0.1618204 -0.24633187 0.02875555
0003a0 30 64 d8 bd 3c a9 13 3c 60 f1 2b 3e 0c 46 27 3e
       -0.10565984 0.009012517 0.16791296 0.16335315
0003b0 96 db 92 3e df 86 9e bc ea 6c 43 3e 6e 73 42 bd
       0.28683156 -0.01935142 0.19084516 -0.047473364
0003c0 48 da b4 3d 5e 55 fa bc fd af 94 bc 67 f3 3e be
       0.08830696 -0.030558284 -0.018150324 -0.18647538
0003d0 59 87 b8 bd 50 14 19 bd a4 66 98 3e 70 d8 86 bd
       -0.090101905 -0.037372887 0.2976581 -0.06584251
0003e0 87 93 88 be ed 2a d4 bd 82 be 36 3e 17 c9 0b 3e
       -0.26675054 -0.1035975 0.1784611 0.13650928
0003f0 1e b7 22 3d 2b d0 2b bd fe 0b 15 bd f8 50 69 bd
       0.039725415 -0.04194657 -0.03638839 -0.056961983

network_body.linear_encoder.seq_layers.0.bias f4 [256]
000000 eb c5 ba ba 48 d3 5f 3b 88 d6 90 bc ac 21 c9 b8
       -0.0014249658 0.0034153033 -0.017680421 -9.590699e-05
000010 d6 6a c1 3a e2 77 c5 ba e0 44 65 3b 9a db be 3b
       0.0014756571 -0.0015065635 0.003498368 0.0058245184
000020 50 74 88 3a 8f 52 be bb cc 33 ac 3a 5e a9 94 bb
       0.001041064 -0.0058081816 0.0013137995 -0.0045367917
000030 b6 ab c0 3b 20 5d a6 3b 3c e6 ef 3a ba 6d 1b ba
       0.0058798445 0.0050770193 0.0018302868 -0.00059291313
000040 aa 8e 18 bc 55 07 f8 ba b7 6f 04 3c 76 e0 bb bb
       -0.0093113575 -0.0018923084 0.0080832755 -0.005733545
000050 08 7c b8 3b 74 64 ad bc 48 93 9e 3c 29 ac f8 39
       0.00563002 -0.021166064 0.019357339 0.00047430515
000060 df 0c 0f 3b a8 82 1d bb 14 06 b9 bb 97 7e 83 3b
       0.002182774 -0.0024034176 -0.0056464765 0.0040128934
000070 ad 47 90 bb 93 d2 e1 3b 51 47 b2 b9 13 16 67 3c
       -0.0044030757 0.0068915575 -0.0003400394 0.014104384
000080 e2 02 da bb 02 c3 01 3c 59 3d 19 3c a7 50 d2 3a
       -0.0066531757 0.007920029 0.009353005 0.0016045765
000090 b9 45 df bb b8 c8 0a bc f4 bd 81 3b 50 13 98 bb
       -0.0068137315 -0.008470707 0.0039594118 -0.004640974
0000a0 23 07 ff ba 46 92 c5 39 75 c9 54 3a 33 a5 44 bc
       -0.0019457083 0.0003768375 0.00081171776 -0.012002277
0000b0 fc 5d 34 3c 47 6f 2a 3c 73 17 9f 3a dd 17 d9 3b
       0.011008736 0.010402507 0.0012137726 0.006625159
0000c0 32 a3 9d 3b 2e 39 35 bb 2d ad 0a 3c bd cb 34 bb
       0.004810714 -0.002765249 0.00846414 -0.0027587258
0000d0 7a aa a0 3b 11 41 f4 3b 7b 32 2d bc a0 e2 2f ba
       0.004903135 0.0074540456 -0.0105711175 -0.000670949
0000e0 3d d9 7c 3c c0 52 cc 39 80 06 c4 bb 29 05 99 bc
       0.015432653 0.00038971566 -0.00598222 -0.018679218
0000f0 90 ea 0b ba 5d ce f3 3a 81 19 98 bb 52 0d 41 bc
       -0.0005337382 0.001860093 -0.004641712 -0.011782961
000100 14 13 9e bb 9d 57 24 bc 8b e6 e0 ba ee 7b 81 bb
       -0.0048240516 -0.010030654 -0.0017158551 -0.003951541
000110 b2 5d 30 3a e5 3d 0d ba 0f bc 70 3a b3 fe 0b 3b
       0.0006727829 -0.0005387946 0.00091832964 0.002136153
000120 29 d5 bc 39 31 9b a4 bb 1f 4d 15 3c b5 9f bf 3b
       0.0003601697 -0.005023383 0.009112625 0.005847896
000130 b4 08 af bb 50 20 70 bb 7f e7 fe bb cf 06 1d 3b
       -0.0053416137 -0.0036640354 -0.0077790613 0.0023960357
000140 f7 66 1f bb 2e d2 05 3b 8c dd 9e b9 5c 62 22 bc
       -0.0024322846 0.0020419466 -0.00030301174 -0.009911146
000150 3f 4e 37 bc 49 58 18 3b 96 86 47 bc 63 70 24 bb
       -0.011188089 0.0023245981 -0.012178084 -0.0025091402
000160 79 d0 fb 37 36 ec 3e 3b 3e ee ef 3b 37 44 18 bc
       3.001861e-05 0.0029132492 0.007322102 -0.009293607
000170 78 6c eb bb 8c 76 6d bc 3a 0a 56 3b d5 9a 3a 3b
       -0.0071845613 -0.014493596 0.0032659904 0.0028473635
000180 06 86 e1 bb 26 7b 4e bb ad a5 97 bc e7 3a 00 39
       -0.006882432 -0.0031506508 -0.018511618 0.00012228974
000190 aa 43 5a bb 53 36 08 bc 20 f8 05 3c a7 e3 ac bb
       -0.003330449 -0.008313733 0.008176833 -0.0052761617
0001a0 43 ac 83 bb d8 ae 8f bb e0 19 8e bb 1e e8 ac bb
       -0.004018338 -0.0043848567 -0.0043365806 -0.005276694
0001b0 71 47 25 3a 28 2c ea 3b 9c 1c 42 ba 09 8c 91 3a
       0.0006304896 0.007146377 -0.0007404776 0.0011104356
0001c0 6d 0f dd bb 02 ee c7 3c 7d 08 99 ba 4e db 45 bb
       -0.0067462237 0.024405483 -0.0011675503 -0.003019053
0001d0 90 ca 9b bb a0 28 b8 bb d2 91 d5 3b 9f 42 8c bc
       -0.004754372 -0.0056200773 0.0065176273 -0.017121611
0001e0 48 12 91 3b 26 3c 32 ba 20 32 04 3c e9 cc ac bb
       0.004427228 -0.0006799124 0.008068591 -0.0052734506
0001f0 7a d2 ad ba 0d b4 46 39 d2 b3 47 38 cd 5a 66 3c
       -0.001326158 0.00018949826 4.7612768e-05 0.0140597345
000200 d6 eb fa 39 56 e8 43 3c 9a 59 ed 3b 63 eb f4 bb
       0.00047859427 0.011957249 0.0072433474 -0.0074743493
000210 e8 0f 86 3b f5 7e 02 3b 22 eb af ba 69 79 e6 3b
       0.0040912516 0.0019912098 -0.0013421515 0.007033516
000220 23 d7 de ba ce 2e 52 bc d4 ad 2c 3a 8e 67 91 ba
       -0.0017001372 -0.012828542 0.00065871817 -0.0011093484
000230 a6 cc 03 bc 9c 63 3f bb 2a 6c bd ba 9b 75 bb bb
       -0.008044397 -0.002920366 -0.0014451791 -0.005720807
000240 00 0b a2 ba 46 34 9c 3a d1 eb 9a bb 08 8c 04 3b
       -0.0012362897 0.0011917434 -0.0047278185 0.0020225067
000250 9c d4 89 3a b7 d4 12 bb cc 6c 58 ba ef 10 fc b9
       0.0010515633 -0.002240462 -0.0008255958 -0.00048077802
000260 e5 74 0e bb 5f 15 6a ba 6e f7 99 ba 25 53 01 bb
       -0.0021737155 -0.0008929576 -0.0011746713 -0.0019733396
000270 4b b5 65 bb a8 89 04 3c 55 33 85 bb b8 e1 93 bb
       -0.0035050686 0.00808946 -0.004064957 -0.0045129918
000280 99 df 5b ba 4d ca 40 3b da 69 b4 3c 73 3f 02 ba
       -0.00083875057 0.0029417456 0.02202313 -0.0004968561
000290 b9 35 24 3c 5a 61 1a bc 9e ea 60 bb 05 77 1b 3c
       0.010022574 -0.0094226245 -0.003431953 0.009488826
0002a0 56 40 52 bc 9c cc 20 bb bb fd 23 bc 99 21 8e 3b
       -0.012832722 -0.002453602 -0.0100092245 0.0043375012
0002b0 0e fd 0d bc 6a 5d ec bb 90 17 42 3b 69 69 e4 bb
       -0.00866629 -0.0072132843 0.0029616095 -0.0069705737
0002c0 51 47 4f ba 61 22 c5 bb fe 5d 6d 3b cc d1 04 bc
       -0.00079070503 -0.006016061 0.0036219354 -0.00810666
0002d0 ed e1 bb bb 93 7b 75 bb 28 99 01 3c 55 aa df bc
       -0.0057337196 -0.003745769 0.00791005 -0.0273029
0002e0 be 07 57 ba 58 95 31 ba 48 6c 84 ba 3e 80 2e bb
       -0.0008202753 -0.0006774268 -0.0010103071 -0.0026626731
0002f0 d1 08 ab bb 7b c7 bb ba 83 f7 cb 3a 2d 2f 8f bb
       -0.005219557 -0.0014326418 0.0015561435 -0.0043696375
000300 56 a1 23 bb dc 3a ef bb 61 d2 c4 ba 94 c1 b3 bb
       -0.002496799 -0.0073007178 -0.0015016311 -0.005485723
000310 29 ab 5d bb fd 10 f6 bb 73 de 6e 3a 2e 9e 6c 3a
       -0.0033823943 -0.0075093494 0.0009112127 0.0009026256
000320 ff 07 8a bb 00 40 19 bb 06 0c a0 bb 7b 56 7f 3a
       -0.004212379 -0.0023384094 -0.004884246 0.00097403646
000330 bb bd a9 bb 1a 37 e5 3b c8 d2 46 3b f3 8a 96 bb
       -0.0051800883 0.006995094 0.0030338038 -0.0045942008
000340 0a 1c 02 3c 64 87 2d bc 69 9e d0 3a c6 2a 43 3b
       0.007941255 -0.010591362 0.001591635 0.0029780134
000350 5a a6 b7 3a fd 2c 44 bc 19 81 bb bb 5a 0d 34 bb
       0.0014011369 -0.011973617 -0.0057221767 -0.0027473778
000360 25 f6 09 3b 6f de 0d 3c 6f b7 80 3b e1 f4 a7 38
       0.0021051255 0.008658989 0.003928117 8.008793e-05
000370 9c de 2a bc 87 68 18 3c be b3 e4 b9 8f 9f 53 bb
       -0.010429051 0.009302265 -0.00043621467 -0.003229115
000380 76 5a 28 bc c9 63 a6 3a 6b 4c 10 bb 0e f8 b8 3b
       -0.010275474 0.0012694533 -0.0022018205 0.005644805
000390 a8 7e 06 bc d2 bd 24 bc f0 07 9b 3b 89 cb 35 3c
       -0.008208908 -0.010055022 0.004731171 0.01109589
0003a0 f9 cb 46 3b 2f 17 30 bb 25 bc 96 bc d3 a9 16 3b
       0.003033398 -0.0026869287 -0.018400261 0.0022989407
0003b0 55 fd 31 3b c3 4b ff ba 49 a5 0a 3c 29 67 ec 3a
       0.0027159054 -0.0019477535 0.008462259 0.0018036115
0003c0 50 6f f9 3b d5 4d c4 bb 2d 6b 81 bb cd fa 91 3b
       0.0076121464 -0.0059907236 -0.003949544 0.0044549466
0003d0 fc c2 c8 bb 8e ba 8e bb d5 5c 5c bb f2 25 c7 38
       -0.0061267596 -0.004355735 -0.0033624668 9.496127e-05
0003e0 c2 21 96 bb 73 68 63 3c c0 34 57 bb 87 35 e0 bb
       -0.004581661 0.013879883 -0.0032837838 -0.0068423185
0003f0 4b 84 86 3b 21 d2 4a bb 93 6d 20 bc 7c 20 63 bb
       0.004105126 -0.0030948 -0.0097917495 -0.0034656813

network_body.linear_encoder.seq_layers.2.weight f4 [256, 256]
000000 7b 0b 9c bd 9c 75 a9 3b 20 5e bd 3b d0 bb e8 3b
       -0.07619377 0.005171491 0.005779043 0.007102467
000010 bc 36 87 3c 56 71 07 3d 3b a8 60 3d 04 6c 51 3d
       0.016505592 0.03306707 0.054847937 0.051128402
000020 ce 79 bc 3c fa aa 6d bd 75 49 7e 3d 4a 8f 42 bd
       0.0230073 -0.058024384 0.062081773 -0.047499932
000030 1e a1 c1 bd de 6d 37 3d 5d 4d 8f bd 1f 8c 18 bd
       -0.09454559 0.044782512 -0.06997178 -0.037243005
000040 11 65 bd 3d 5b 47 46 3d a7 b1 27 bc 52 85 c0 bc
       0.092477925 0.048407894 -0.010235227 -0.023501072
000050 97 19 96 bc e0 83 81 38 39 f7 b3 3d 4c 0d cc 3c
       -0.018322749 6.175763e-05 0.08787388 0.024908684
000060 de 02 d7 3d d5 5f b6 bc 05 06 6d bd a9 95 e7 bd
       0.10498594 -0.022262493 -0.05786707 -0.11307842
000070 f3 75 a4 bd b6 19 0f 3d af ca d8 3c cb f0 83 3d
       -0.080303095 0.03493663 0.026463835 0.06442412
000080 44 17 80 3d 9b 9b b6 3b b2 2e f8 bd c1 aa 3b 3d
       0.062544376 0.005572749 -0.121182814 0.04581714
000090 78 8e 8f 3d f0 66 5f 3d e1 50 ef bc cf ed cc 3d
       0.07009596 0.05454153 -0.02921337 0.10006296
0000a0 78 1c b8 bc 7b c9 9a 3d c5 69 74 3c 62 dc 02 bd
       -0.022474512 0.075579606 0.014917796 -0.031948455
0000b0 95 53 06 bd 53 15 5a bd ba e7 34 3d b4 4a 11 bd
       -0.032794554 -0.053242993 0.044166304 -0.035471633
0000c0 34 d2 87 bd 36 39 b4 bd 11 80 c4 bc 48 c9 9c bd
       -0.0663189 -0.087999746 -0.023986848 -0.07655579
0000d0 fa f2 a9 3d ea e5 e3 3c a7 ae 0f bd cc b4 0c 3c
       0.08298297 0.027819593 -0.03507867 0.008588027
0000e0 69 dc 74 3d 92 c0 68 bd 62 8a 87 37 9c e2 87 3d
       0.059780512 -0.056824274 1.6157694e-05 0.06635019
0000f0 0b 8a 32 3d c1 6b bc 3d 65 5f ac 3d bd f9 9e 3d
       0.04358868 0.0920024 0.084166326 0.077624775
000100 4d fa 3c bd 94 cd 3e bd 47 43 bd 3d 71 de 6e 3d
       -0.046137143 -0.046582773 0.09241348 0.058317605
000110 7e 0f a8 bd b4 c8 a2 3d ec 30 b7 bd cb 5a 4f 3d
       -0.0820608 0.07948437 -0.08944878 0.050623696
000120 10 68 84 bd 56 cf 87 b9 40 ea 51 3d 04 2a 73 bc
       -0.06465161 -0.00025903684 0.05124879 -0.01484156
000130 83 9c 09 3e 4b d8 c1 3d 5f 30 2a 3d cd 60 e1 3d
       0.1343861 0.09465083 0.041550037 0.110047914
000140 2c 55 07 bd da bc 2e 3c 32 9d 1b 3d e5 2e ef bb
       -0.03304021 0.010665143 0.03799171 -0.0072992914
000150 5c a3 59 bc d3 4c 13 bd bb 04 73 bd 61 0d 11 3d
       -0.013283577 -0.035961937 -0.059330683 0.03541315
000160 5a 74 f0 bc f2 78 8f 3c 51 88 4f bd 62 f1 ea bd
       -0.029352356 0.017513726 -0.05066711 -0.11471821
000170 b3 4f d9 3c 86 62 91 bb f6 e7 15 be 79 64 75 3d
       0.026527261 -0.0044367937 -0.14639267 0.05991027
000180 5d 4c 5a 3c 5c 4a 2f 3d 4f 63 53 3d dc 25 36 be
       0.0133238705 0.042795524 0.05160838 -0.1778788
000190 17 20 c2 bc 07 26 1a 3b ed 83 07 3d e5 4d 27 bd
       -0.023696942 0.0023521201 0.0330848 -0.04084577
0001a0 01 8e 36 bd cd 85 38 bd 93 e3 e9 3c b6 58 5a bd
       -0.04456902 -0.045049477 0.028550899 -0.053307258
0001b0 3e f6 89 bd 54 4b 8d 3c 20 60 1d 3d ae 32 31 bc
       -0.0673642 0.017247833 0.03842175 -0.010815306
0001c0 4a c4 c4 3c 58 3c 23 bd 71 45 c6 3c 21 07 4a 3d
       0.02401938 -0.03985247 0.024203034 0.049323205
0001d0 bd d0 4a 3b 76 e5 d8 3c af af 12 bd b1 a8 f6 bd
       0.0030947172 0.026476603 -0.035812076 -0.12043894
0001e0 f2 5a 19 bd 36 cd ac 3c 75 48 61 ba f5 c2 3e bd
       -0.037440248 0.021093946 -0.0008593866 -0.046572644
0001f0 01 d1 0f bd e5 3f 9f 3c a6 dd 85 3d 56 33 3f bd
       -0.03511143 0.019439647 0.06536417 -0.046679817
000200 08 78 4b bd 53 e1 cb bd 29 93 07 3d 1b b0 a7 ba
       -0.049675018 -0.099550866 0.033099327 -0.0012793572
000210 d8 e5 27 3d 72 b3 cd bd 6f 7f 10 3b b0 be 4b 3d
       0.04099068 -0.10043992 0.0022048613 0.0497424
000220 72 b6 a0 3d ae f4 40 bd 19 fd aa 3d f6 69 ba bc
       0.07847299 -0.047108345 0.08349056 -0.022755604
000230 13 12 3a 3c 0f 49 41 3d 6e 6a d6 bd 29 91 29 3d
       0.011356848 0.047188815 -0.104695186 0.0413982
000240 5b de 9d 3c 5b 30 b0 3d 4e 31 1b 3d e1 20 ba 3c
       0.019271066 0.08602973 0.037888817 0.022720756
000250 db 54 c8 bc 94 4d 5d bd 33 d3 1b bd a1 8e b9 bc
       -0.024454525 -0.054029062 -0.038043212 -0.022651019
000260 83 66 b5 3c bb 4a c8 3c be 0e e9 3d ad 14 1b 3c
       0.022143608 0.024449697 0.11379765 0.009465379
000270 98 4d 79 3d d0 cc 4d 3d 7d 74 92 3c 3f 2e 16 3d
       0.060865015 0.050244153 0.017877812 0.036665197
000280 e1 aa 92 bc fa ee 89 3b af ba ce 3b a7 db 1e 3d
       -0.017903747 0.0042093964 0.0063088755 0.038783696
000290 35 2d e3 bc c5 42 a0 bd 21 12 73 3c db 35 89 3d
       -0.027731517 -0.07825235 0.014835865 0.06699725
0002a0 a4 88 ea 39 3b 36 7c bc ae 78 44 bc 58 eb 06 3e
       0.00044733763 -0.015393789 -0.011991663 0.13175714
0002b0 55 6b 97 bd 36 02 41 3e aa 68 c6 3c 41 ca 9b 3d
       -0.07393519 0.188485 0.02421983 0.07606936
0002c0 72 52 a1 ba a8 50 6d bd df f9 89 3d 13 71 90 3d
       -0.0012307896 -0.057938248 0.06737112 0.07052817
0002d0 61 01 a9 3a 75 f4 4b bd f7 88 b2 bd 9b e7 2c 3e
       0.0012894088 -0.04979368 -0.0871753 0.16885225
0002e0 2e 44 e0 3d b5 bd aa 3c da c8 4d bd 97 1b 19 bd
       0.10950504 0.020842412 -0.050240375 -0.037379827
0002f0 93 76 07 3e bc 17 40 3c e1 b1 43 bd a5 57 df bc
       0.13228826 0.011724409 -0.04777706 -0.027263472
000300 f1 04 93 bd 58 0c 3c 3d de 7a 37 bb 5d 86 07 bd
       -0.07178677 0.04591021 -0.0027996819 -0.033087123
000310 0f 40 a0 bd 3b f3 a5 3d 93 e6 a4 bd a1 29 6b 3d
       -0.07824718 0.08103033 -0.08051791 0.057412747
000320 2e e2 83 3d 17 ae ca bc 21 33 ee bd d5 b1 2a be
       0.06439625 -0.024741216 -0.11630846 -0.166694
000330 dc 91 d6 bd 1c e2 ce 3d e1 d9 ad bc 93 9e 1b 3c
       -0.10477039 0.10101721 -0.021222057 0.009498256
000340 56 62 36 bc b8 6e 80 3c e5 3c 0b 3c d9 bd 79 3d
       -0.011131844 0.015677795 0.008498405 0.06097207
000350 24 65 92 bd 09 af 04 3d dd 24 80 bd 1b 60 f2 bc
       -0.07148197 0.03239349 -0.06257031 -0.029586842
000360 e5 e7 6c bd 29 11 c8 bc 74 34 2b 3c 3f 71 79 3d
       -0.05783834 -0.024422245 0.0104495175 0.060899016
000370 04 1d ad bd 0d e8 86 3c 73 17 1c 3d 0d c5 bb 3d
       -0.084528 0.016468072 0.0381083 0.09168444
000380 d8 db 4e 3d c2 02 db bc 88 5b 10 bd c0 0f cc 3c
       0.050502628 -0.026734713 -0.03524354 0.024909854
000390 fc 71 a4 3c 85 c0 9c 3d 76 86 d9 bd 24 2f f3 bd
       0.020073883 0.07653908 -0.106213495 -0.11874226
0003a0 2b 4e a4 3c 48 ee 4f 3c 4c ea 3d bd 40 ef e5 3d
       0.020056805 0.012691088 -0.04636602 0.11227274
0003b0 d4 40 92 3c 30 a8 b6 3d cc 2d 03 bc 80 85 64 bd
       0.017853178 0.08918798 -0.008006524 -0.055791378
0003c0 ee 7a a3 3d eb b2 92 3d 21 1a 63 bd 7a 0f 87 3d
       0.07982431 0.07163032 -0.05544484 0.06594749
0003d0 d2 7b 2e 3e 1a 35 ea 3c e8 c2 4c bd 8c 4d 8f 3d
       0.17039421 0.028589774 -0.049990565 0.06997213
0003e0 49 42 9d bc fe e8 72 bd 31 a9 31 3d 11 2b 2a bd
       -0.019196646 -0.05930423 0.043374244 -0.041544978
0003f0 29 d8 3e bd 64 95 a3 3d 7e f8 1d bd 4a 8b 0c be
       -0.046592865 0.079874784 -0.03856706 -0.1372501

network_body.linear_encoder.seq_layers.2.bias f4 [256]
000000 61 2b ad bb cf 8a c4 bb e7 5f ab ba b5 69 70 3b
       -0.005284712 -0.0059979926 -0.0013074846 0.00366841
000010 61 07 06 3b 8a 7b 58 ba f4 26 2b bc d1 47 5e 39
       0.0020451176 -0.0008258155 -0.010446299 0.00021198324
000020 bd af fe ba be 8a 8b bb 49 6c cc 3a 0b 91 9d bb
       -0.0019431036 -0.0042584827 0.0015596236 -0.0048085502
000030 cf 8a 22 bc da e2 c2 bb 96 fe 63 3b 24 21 90 3b
       -0.00992079 -0.005947453 0.0034789196 0.004398482
000040 17 45 87 bb e3 e1 14 bb 61 ac 42 bb 48 5b 85 3a
       -0.004128109 -0.0022717647 -0.0029704797 0.0010174299
000050 73 5f 97 bb 30 ee 71 3b c0 61 ba bb 06 5b 6d 3b
       -0.0046195327 0.0036915652 -0.0056879222 0.0036217584
000060 17 8d ab 39 80 cf d7 ba 65 93 70 bb 06 9e ae 3b
       0.00032720782 -0.0016465038 -0.0036708948 0.0053288965
000070 e5 88 36 bb b6 bb a1 bb d7 ee da 3a 69 e0 b6 bb
       -0.0027852592 -0.004935707 0.001670326 -0.005580951
000080 b3 eb 97 bb 6a 26 81 39 1f d8 cd 3b 96 41 cc bb
       -0.004636252 0.00024633418 0.006281867 -0.0062334044
000090 ea 97 ed bb 3e 51 ee 3b 06 15 04 bb 06 d8 20 3c
       -0.0072507756 0.0072728684 -0.0020154133 0.009817129
0000a0 40 b7 8e 39 ce 15 3c bc 0e cf b8 bb 0f 2a 07 bc
       0.00027220882 -0.011479808 -0.005639917 -0.008249774
0000b0 02 be 74 3b dd 5c ec 39 02 e7 8a bb a6 bd bb 3a
       0.0037344699 0.00045082616 -0.004238964 0.0014323487
0000c0 09 e0 c1 ba ff 48 17 bb da b0 b4 bb aa aa 2a bc
       -0.0014791499 -0.002308428 -0.0055142464 -0.010416666
0000d0 f5 32 d8 3b 19 a4 0c 3c d9 6f 79 3a 58 43 86 3b
       0.0065978714 0.008584046 0.0009515263 0.0040973835
0000e0 a4 59 ee ba cd 02 8c bb 7b 7e 50 3a 44 9c aa ba
       -0.0018184674 -0.004272795 0.00079534174 -0.0013016541
0000f0 d7 87 64 3b ee 02 e6 bb 59 e0 4f bb fa 96 26 bb
       0.0034871006 -0.007019392 -0.0031719415 -0.002541958
000100 1c dc a5 3b 30 0d 02 bc 31 08 d3 ba 6a bf 1a bb
       0.0050616395 -0.007937714 -0.0016100464 -0.0023612627
000110 66 a5 98 39 35 b7 9e bc 2e 98 4c bb 14 e1 ce 3a
       0.0002911493 -0.01937447 -0.0031218636 0.0015783631
000120 c7 b8 42 bb 0b 2b 0b bc 0c b8 12 bc 9b b7 82 bb
       -0.0029712187 -0.008494149 -0.008955013 -0.0039891726
000130 47 b5 46 3b 9a de 0c 3b 75 f2 51 3a 98 d4 80 3b
       0.0030320452 0.0021494986 0.0008008846 0.003931593
000140 06 aa 81 bb 6f ba 0c 3b dc 63 41 bb 04 02 35 3b
       -0.003957036 0.0021473428 -0.0029508984 0.002761961
000150 e4 ae 52 bb 55 f4 95 3a 38 de 74 bb 85 93 de 3a
       -0.00321477 0.0011440614 -0.0037363898 0.001698122
000160 7f 73 ed ba c7 f6 41 bb ad a5 a1 3b 92 5d 6c bc
       -0.0018116086 -0.0029596554 0.00493308 -0.014426606
000170 78 95 8b 3b a5 10 da ba 6f 87 79 3b 83 61 27 b8
       0.0042597614 -0.001663704 0.003807511 -3.9906718e-05
000180 c8 37 d1 3a 48 92 d4 3b 71 51 0a 3b 3b 8d 81 3a
       0.0015962059 0.0064871646 0.0021105672 0.0009884009
000190 15 9b db bb 74 ae 50 3c 25 cb 8d bb 9c 32 1d 39
       -0.006701837 0.012736905 -0.004327195 0.0001499154
0001a0 a7 90 b1 bb 0e d6 11 bc dc c7 bb bb 39 fd 8f b9
       -0.005418855 -0.008901132 -0.005730612 -0.0002746375
0001b0 c6 8b 5c bb 2e 62 1e 3c 2c 79 4a bb 32 b1 b2 ba
       -0.0033652647 0.009666963 -0.0030894978 -0.0013633131
0001c0 d6 4b 89 bb 2a f5 30 3c 65 50 e6 ba 6d 7d eb 3a
       -0.0041899486 0.010800639 -0.0017571567 0.0017966457
0001d0 00 2b e4 bb 97 38 bc bb e4 0a c8 ba cd c3 35 ba
       -0.006963134 -0.0057440507 -0.0015262035 -0.00069337786
0001e0 75 75 06 bb ab 89 a8 3a a5 11 f1 bb 15 7c 3d 3b
       -0.0020516787 0.0012858411 -0.0073568397 0.002891307
0001f0 8e 30 48 3c dd 58 ab bb 1b 19 d1 38 2c 24 e7 bb
       0.012218608 -0.005229099 9.970573e-05 -0.0070538726
000200 58 99 bc 3a fb 13 08 bb 9e f0 73 3b 76 b9 e6 3b
       0.0014388962 -0.0020763862 0.0037222276 0.0070411516
000210 5c cf 74 39 e6 6d db b8 61 d3 8b 3a 18 3e 80 38
       0.000233469 -0.00010463204 0.0010667854 6.1150815e-05
000220 4f 90 ed 39 79 1a 04 3c bb 29 cc 3b 5f 6a 87 bb
       0.0004531168 0.008062952 0.0062305606 -0.0041325535
000230 47 64 d2 3b 85 e3 1e 3b 26 74 38 bb 54 11 3f ba
       0.0064206454 0.00242445 -0.0028145402 -0.0007288654
000240 5f 9f 8e 39 ad cd cb bb c3 63 f3 bb 92 da 97 b9
       0.0002720309 -0.006219587 -0.007427664 -0.00028963812
000250 58 3f 7a bb 27 a1 60 bb 37 70 68 bb 3a 32 fa ba
       -0.0038184728 -0.0034275742 -0.0035467276 -0.0019088455
000260 a2 ca ed 39 af b1 5f bb 8a 91 28 bc c0 ae d3 ba
       0.00045355136 -0.0034133007 -0.0102886055 -0.0016150102
000270 ef 96 1a 3b 19 4e 56 bc 40 3f b1 39 84 c0 40 bb
       0.0023588499 -0.013080143 0.00033807196 -0.0029411623
000280 93 94 fb ba e4 45 26 bc 10 2c d2 ba 7b c7 9c b9
       -0.0019194059 -0.010148499 -0.001603486 -0.00029903263
000290 33 24 80 bb f0 2f 56 bb f7 04 2b bb e1 c0 fc ba
       -0.0039105653 -0.0032682382 -0.0026095489 -0.0019283557
0002a0 ee 46 c5 ba 55 d6 2a 3b 2f dd 5a 3b 81 3e e0 39
       -0.0015051046 0.0026067693 0.0033395996 0.00042771178
0002b0 a3 03 78 bb 44 c5 ab bb be 39 8d ba 15 d4 88 ba
       -0.0037843965 -0.0052420218 -0.0010774655 -0.0010439182
0002c0 a3 78 38 bb cb 2b 41 3b d8 43 2a 3b aa 86 31 3a
       -0.0028148077 0.0029475566 0.002598038 0.00067720807
0002d0 cb 9a a7 3b 04 63 12 3b d7 88 d8 bb ac ae dd bb
       0.0051148883 0.002233685 -0.0066081095 -0.0067652073
0002e0 1c 5e 1b 3b e8 e3 c2 bb fd a9 4f 3a be f8 0b 3c
       0.0023707217 -0.0059475787 0.00079217536 0.0085431915
0002f0 f0 fb e4 bb 0f de 27 3b e4 29 98 ba 87 9e bd 3b
       -0.006988041 0.0025614535 -0.0011609164 0.00578672
000300 27 c3 01 bc a5 e1 46 3b 31 a4 b1 bb 9c 0c 12 bc
       -0.007920063 0.0030346897 -0.0054211845 -0.008914139
000310 f1 b8 aa bb 4d 41 bb 3b e9 22 61 bb 10 fd e3 3a
       -0.005210035 0.0057145716 -0.0034353083 0.0017394144
000320 ab 79 f6 bb 2f 93 13 bb 06 53 67 3a 42 3d 24 bc
       -0.007521828 -0.0022518148 0.0008824322 -0.010024371
000330 3b 03 75 3a 15 67 8e ba 11 a0 d6 bb 0f 0d 86 bb
       0.00093464897 -0.0010864461 -0.006549843 -0.004090912
000340 a3 73 25 3c 92 0f 67 3b 54 8c 90 bb 53 83 8b bb
       0.010098371 0.0035257083 -0.0044112597 -0.0042575984
000350 03 78 af ba 40 35 e2 ba 8c a6 bd b9 62 9f 07 bc
       -0.0013387207 -0.0017258301 -0.00036172976 -0.008277746
000360 63 f8 a0 39 e2 8b 20 bc 77 02 8b bb 4f 88 c8 3b
       0.0003070264 -0.009798976 -0.004242237 0.006119765
000370 8a 57 a4 bb 76 d7 a8 bb 32 86 c7 39 e2 85 63 bb
       -0.0050153183 -0.005152638 0.0003805622 -0.0034717252
000380 cc 61 47 bb eb c4 12 bb a6 9c 8a 3b 2b cd 0c bc
       -0.0030423282 -0.0022395204 0.0042300997 -0.008593838
000390 c1 ad 03 3b 5f 84 2d 3c 76 25 07 3b ca cd cb bc
       0.002009258 0.010590642 0.0020621694 -0.024878401
0003a0 ed e6 81 bb b5 1f 83 3b 7b da 36 bb c4 1b b8 3b
       -0.003964296 0.0040015825 -0.002790122 0.0056185443
0003b0 4b b4 ee bb 76 82 63 bb 4f de 5c bb b7 8e 2e bb
       -0.007284676 -0.0034715212 -0.0033701842 -0.0026635358
0003c0 88 69 cc bb f9 e9 34 ba 63 8e 82 bb a2 c5 00 bb
       -0.0062381662 -0.000690132 -0.003984259 -0.0019649048
0003d0 70 30 35 3b 1f aa 24 bc 13 54 9b 3a 9b 0d 0e bc
       0.002764728 -0.010050326 0.0011850618 -0.008670236
0003e0 71 ac 17 3c 58 1f 24 3c d3 b1 7d bb ef ab a9 bb
       0.009257422 0.010017239 -0.0038710728 -0.005177967
0003f0 b7 06 f0 bb 35 3b 94 3b dd 59 6c bb c8 94 89 bc
       -0.007325019 0.0045236596 -0.0036064305 -0.016794577

action_model._discrete_distribution.branches.0.weight f4 [7, 256]
000000 b3 4d 80 3c e5 2a 10 bc 41 00 26 b9 91 93 38 bc
       0.01566205 -0.008799289 -0.00015831088 -0.011265651
000010 97 cc 07 bb 7b 5c 4f ba 8c 5f df bb 39 6d 1f 3b
       -0.002072131 -0.0007910204 -0.00681681 0.0024326576
000020 1d 8f 2e 3c 8a 28 48 bb 92 bc 05 3c b4 35 be bb
       0.010654238 -0.0030541741 0.008162634 -0.0058047418
000030 7d 79 4c 39 f4 5a d1 ba e9 c0 b5 ba 0a 56 ac bc
       0.00019500214 -0.0015972541 -0.0013866696 -0.02103712
000040 64 35 23 bc 63 de 15 3c e2 52 42 bb f6 a0 e7 bb
       -0.00996146 0.009147259 -0.0029651453 -0.0070687486
000050 fc f5 81 3c 63 08 a1 bb 69 10 ef 3b 11 e6 1b 3c
       0.015864365 -0.00491433 0.0072956574 0.009515301
000060 ef 72 38 3b 49 98 6a bc 5e 33 a7 3c db e1 d0 bb
       0.0028144678 -0.014318534 0.020410236 -0.0063745803
000070 4b 6e 3c 3b 67 1d 81 3b c6 b9 09 3c 9a 13 84 bb
       0.0028752263 0.0039402726 0.008406108 -0.004030657
000080 08 3a 54 3c 5f 70 c6 3a b1 c9 47 bc e1 51 93 3b
       0.012953289 0.001513969 -0.012194083 0.0044958447
000090 0c 7c 55 3c 86 1c ca bb 9d 2c 1d bb c9 95 bd ba
       0.013030063 -0.006167951 -0.002398289 -0.0014464195
0000a0 13 17 1e b9 3a 2e 1d 3c 72 e9 d2 bb 36 d0 b7 3b
       -0.0001507665 0.009593541 -0.0064365203 0.0056095375
0000b0 09 90 0a bb f0 56 9b 3c 65 fa 99 3b 83 78 b8 3c
       -0.002114298 0.018962353 0.004699039 0.022518402
0000c0 6f 65 b7 3c 65 12 b7 3c 46 4f 40 3c d4 00 ac 3c
       0.022387234 0.022347638 0.01173765 0.020996489
0000d0 0f 81 6e bc 2e 39 bd bb 20 96 07 b9 1b 69 aa 3b
       -0.014557137 -0.0057746386 -0.00012930529 0.005200518
0000e0 c9 d3 a3 3b 9e 16 72 3b 33 58 30 3c ce 3b 8b 3c
       0.004999612 0.003693975 0.010763216 0.01699629
0000f0 0f 61 18 3c 38 e2 a5 bb 53 fd a7 bc 6a 59 41 ba
       0.009300484 -0.0050623678 -0.020506537 -0.00073756895
000100 af 9d ab bb 02 d2 a5 bb f3 9c af 3c 45 3b ac bb
       -0.005237303 -0.0050604353 0.021437144 -0.005256089
000110 94 c1 c2 3b be db f4 3a 4c 07 bd bb 8d e5 18 3c
       0.0059434865 0.0018681211 -0.005768692 0.009332073
000120 44 9f ab ba e2 4b fc bb 07 64 f5 3b da ca 8c 3c
       -0.001309373 -0.0076994756 0.007488731 0.01718657
000130 ac 63 d1 38 2c 05 ef 3b 37 67 ee 3b 60 42 07 ba
       9.984462e-05 0.0072943177 0.0072754878 -0.0005159732
000140 82 3e 41 3c ca 67 11 3d 4b 9a 37 3c 26 89 45 bc
       0.011794688 0.03549937 0.01120622 -0.0120566245
000150 45 73 75 3c d4 f0 84 bc 60 af 6e 3c d3 75 52 3c
       0.014981096 -0.016228117 0.01456818 0.012845474
000160 e5 d8 43 3b c4 8b b2 3a b5 bb 23 bc 4e e5 2e 3b
       0.0029883918 0.0013621976 -0.009993483 0.002668697
000170 c1 c6 b6 bc db 06 57 bc 87 e0 74 3c ca f4 0a bc
       -0.02231157 -0.013124193 0.01494611 -0.008481214
000180 6c fd 82 bb be 04 96 bb 76 09 03 3c e0 f8 ad 3a
       -0.0039974954 -0.004578202 0.007997861 0.0013273023
000190 5d 03 68 3c 32 6d 79 bc a6 0d b8 3b 6a 2e 0a bc
       0.014160958 -0.015223788 0.0056168614 -0.008433918
0001a0 98 2f f6 3b 2c 8b 8c bb 44 4a 00 bc c9 c4 09 bb
       0.007512998 -0.0042890515 -0.007830206 -0.0021021834
0001b0 a0 30 c1 bb b6 d7 cc ba 56 db aa bc 95 28 88 3c
       -0.005895689 -0.0015628252 -0.02085654 0.016620914
0001c0 f0 d6 27 bc d4 90 9d bc 94 ef c6 3b 15 e1 ef 3a
       -0.010244116 -0.019234098 0.0060710404 0.0018301333
0001d0 c5 e1 0e 3c 78 1a b3 3b 0d 76 62 bb 12 69 a7 bb
       0.00872082 0.005465802 -0.0034555227 -0.005108961
0001e0 33 b4 ee bb ed a0 dc 39 bf 6e ca 3b bb e4 75 3c
       -0.007284665 0.0004208157 0.0061777527 0.015008147
0001f0 d8 7b b1 bc ea 20 87 3b 44 aa 18 3a 79 bf 7c bb
       -0.021665499 0.0041237967 0.00058237114 -0.0038566275
000200 ed 64 47 bb 0a 72 f3 3a a7 ce 79 b9 7b e4 3e bb
       -0.0030425147 0.0018573415 -0.00023823474 -0.0029127884
000210 c0 ef 38 bc a7 8f 87 3a e4 b9 9a 3c f7 a7 2a bb
       -0.01128763 0.0010342494 0.018887468 -0.0026040056
000220 3b 0b c7 bb de ee 65 3b 13 cc b6 3a d4 fa 8d 3c
       -0.006074337 0.0035085003 0.0013946317 0.017331518
000230 55 df 57 3c 92 84 66 3b 24 10 67 3c b3 65 f0 3b
       0.013175805 0.0035174233 0.014102969 0.0073363422
000240 85 ff 89 3c cd db 01 bb 8c de 1e 3b 13 ca 13 bc
       0.016845474 -0.001981485 0.0024241535 -0.009020346
000250 b0 92 29 3a cb 5a 80 bb 0b 5a 54 3c ea 2e 8e bc
       0.00064686965 -0.0039170734 0.012960921 -0.017356355
000260 c3 e3 df 3b 94 9d ce bb b8 2d 0d 3c a9 7b e1 3b
       0.0068325712 -0.006305406 0.008616857 0.0068811965
000270 b8 ef 2f 3b 5b c7 12 bb e2 13 a4 3c 7c 5e 40 3c
       0.0026845764 -0.0022396657 0.020029012 0.011741277
000280 e4 81 cc 3b 61 ec 60 3c 88 9e d7 bb 9d ba 4c 3c
       0.00624107 0.013728232 -0.0065801777 0.012495664
000290 7d 87 2b 3a 8e 2e 36 3b c2 28 67 3c c3 d3 90 3c
       0.00065433217 0.0027798745 0.0141088385 0.0176791
0002a0 e6 82 56 3b 83 1f b9 bc b1 bd 49 3b a0 aa 7c bc
       0.003273183 -0.022598034 0.003078323 -0.01542154
0002b0 8c 23 4d 3c 2a 0e 0b 3c a8 99 20 bb 5c 9c 22 bc
       0.012520682 0.008487264 -0.0024505649 -0.009924974
0002c0 94 27 e6 3c 7d 0e 9a 3b 14 ef 78 3c da 71 55 bb
       0.028095044 0.004701434 0.015193719 -0.0032569082
0002d0 8c 99 ce bb 65 f5 8d 3c c5 c8 85 3c c9 22 87 3c
       -0.0063049253 0.017328927 0.016331086 0.016496079
0002e0 72 1e 83 3b 3b 91 14 ba f9 5f e4 bb 8f eb d9 bb
       0.004001432 -0.0005667393 -0.0069694486 -0.006650395
0002f0 6e 65 0d ba 10 d4 35 bb 90 7e 18 3a ed e3 2e bc
       -0.00053938373 -0.0027744807 0.0005817199 -0.010674459
000300 b6 7c 73 3c 7c 1b ac 3b 2d 1b 97 3c 2f 5c 39 3c
       0.014861276 0.0052523 0.018445576 0.011313482
000310 5b 24 60 bc 0e 7a 7f bb 04 f4 e6 3b 7b e8 c2 3b
       -0.013680543 -0.0038982662 0.007048132 0.005948124
000320 a5 02 82 bb 5a e1 ce 3c f5 13 a4 bc d6 ac 21 bc
       -0.0039676004 0.02525394 -0.020029048 -0.009867867
000330 88 92 83 3b 49 21 65 3c f4 f8 fa ba 6b ea 9a 39
       0.0040152706 0.013984987 -0.001914768 0.00029547824
000340 b6 35 87 ba d0 a3 36 bb 21 19 c1 3b 76 4c f2 bb
       -0.001031569 -0.0027868636 0.005892888 -0.0073943688
000350 e5 06 f0 3b 2f 92 82 3c 1a 4a 42 3c 75 a0 5b 3b
       0.0073250406 0.015938846 0.0118584875 0.0033512388
000360 ef d3 81 3b 7e 9a cf 3b 69 07 99 3b 00 57 77 bc
       0.003962032 0.0063355556 0.004670073 -0.015096426
000370 64 5d 3e 3c 26 a6 73 3a 2c e8 9d 3c 1d d8 2f 3c
       0.011618946 0.00092944724 0.019275747 0.010732678
000380 19 4b b1 bb 34 6e b3 3b 5e fc 17 bc 07 cf 6d 3b
       -0.0054105637 0.0054757837 -0.009276478 0.0036286728
000390 8a 1c 1b bb d9 30 2f bc 16 81 e7 3c 31 5e 83 bc
       -0.0023668134 -0.0106927985 0.028259795 -0.016036125
0003a0 97 1c 7f 3c 58 1e 2a ba 72 e0 52 bc 8b 0f c8 ba
       0.015570781 -0.0006489507 -0.012870895 -0.0015263421
0003b0 d2 80 68 3c 5a d7 52 bc 79 72 19 bc de 27 1e bc
       0.014190869 -0.012868727 -0.009365671 -0.00965306
0003c0 f4 4d 22 3b b4 89 53 3b a0 7d b8 bb 28 fd cd 3b
       0.0024765702 0.0032278122 -0.00563021 0.006286282
0003d0 f6 6e 93 bb 84 68 ab bb ba e6 63 bb 0a 9d dd 3b
       -0.0044993116 -0.005230965 -0.0034774975 0.0067631053
0003e0 15 31 bf bb a7 06 1a bc 66 5d 7c 3c f6 d2 ee 3b
       -0.0058347085 -0.009401 0.015403127 0.007288332
0003f0 8c fa 1a 39 2d 4f 22 bb 9b 5e 48 3b 26 7e 9b ba
       0.0001477992 -0.002476643 0.0030573967 -0.0011863157

action_model._discrete_distribution.branches.0.bias f4 [7]
000000 1c 6e 1e bb 96 ba b6 3b 76 14 10 3c e6 18 10 bc
       -0.0024174517 0.005576442 0.008793941 -0.008794999
000010 7f 5c 79 bb 09 65 ec bb a3 d6 e7 3b
       -0.0038049517 -0.0072141928 0.0070751472
