results/t4/Fork1/Fork1-7174.onnx (onnx, 333139 bytes, 6 tensors)

network_body.linear_encoder.seq_layers.0.weight f4 [256, 58]
-0.04705836 0.038087428 -0.057844453 -0.21291767 -0.08516236 -0.12263634 0.054461785 -0.017824158
-0.035878655 -0.1287575 0.13564548 -0.23293586 0.008217288 0.09090829 0.19874048 -0.1413558
0.008609046 -0.1324868 -0.08082602 0.138613 0.05718993 -0.07800224 0.1426521 0.002384796
-0.17951863 -0.012237485 0.13660848 -0.0122773405 0.10057812 0.17701663 0.065967195 0.10769221
0.07194664 0.18610725 -0.09696717 0.094714805 -0.07004043 0.11550348 -0.013594745 0.039052144
-0.07603666 0.097613834 -0.018167295 0.1811038 -0.09997807 0.06794575 -0.0075310715 -0.013011716
0.113299794 -0.097994775 0.13510479 -0.06453659 0.18867762 0.02097517 -0.19417831 0.21668631
0.052705925 0.21276443 -0.20173912 -0.17969413 0.15279365 0.08684971 -0.19967473 -0.30989158
-0.14596838 -0.0864571 0.06411052 0.08199977 -0.16437767 -0.006277076 -0.02007412 0.116692655
-0.14428353 0.14037159 0.08799385 0.040548198 -0.031085571 0.23189709 0.04977391 -0.06474513
-0.30599573 0.36030853 -0.15557575 -0.19815274 0.079347864 -0.09385038 0.08474145 0.0005267721
-0.023800097 -0.064274505 0.04384053 0.031460773 -0.19234295 0.07763642 0.08169093 -0.053794086
-0.13291647 0.10061838 0.24884115 -0.08650329 -0.071481846 -0.15626708 0.14351806 0.12911041
0.026496228 -0.0064720917 -0.04857658 0.22292916 0.21411225 0.033445634 0.20171383 -0.022722622
0.13995838 0.021143572 -0.022431223 0.17052093 0.2782409 0.25026488 0.041405994 -0.005003808
-0.07306111 -0.10824661 0.13692427 0.005664701 0.09351565 -0.1959838 -0.011354686 0.0820343
0.12799406 -0.16035332 -0.21520801 -0.044271458 0.026933597 -0.05746575 -0.17326897 -0.05280752
-0.17415497 -0.2534216 -0.18330093 -0.26970717 -0.006750363 0.13292584 -0.11565342 0.118593976
0.126896 -0.031216085 -0.010973158 0.04802597 0.21578002 0.033945967 0.12457035 -0.04695945
-0.1775858 -0.15962869 -0.10997379 0.16294801 0.030340372 0.08238731 -0.044355746 -0.2376028
0.19994526 -0.14508417 -0.092325926 -0.17650701 -0.22122172 0.1557207 -0.039048422 0.014334477
-0.18589488 0.2773164 0.053785823 -0.029776216 -0.13822448 -0.0029205026 0.117392585 -0.056213338
-0.25147712 -0.097568765 -0.012248454 -0.06362703 0.21986191 0.04830269 0.04881528 -0.08236118
-0.04691543 -0.19016427 0.4044846 -0.15122639 -0.07415956 0.13805176 -0.08984686 0.2699519
0.015520106 0.15501998 0.13892649 -0.18527806 -0.12712666 0.08400085 -0.023658548 -0.19450836
-0.089443006 -0.02758227 0.187723 0.10353609 0.117317244 0.23299284 -0.02256592 0.0649981
-0.0356239 -0.044865783 0.02911971 -0.06456871 -0.16425909 -0.024458542 -0.054240465 0.100775264
-0.26832038 0.027277283 -0.12639774 0.0020422663 0.1404178 0.005346451 0.1657985 -0.055905033
0.0068853567 -0.1832623 -0.0002761397 0.0670769 0.10385977 0.076144606 -0.04418907 0.24327028
-0.025497798 -0.08996096 -0.13979137 -0.015519004 0.1463638 -0.07992018 -0.23352712 0.16010211
-0.091364816 -0.07997647 -0.0155605255 0.13769567 -0.13226773 0.05392648 0.15274549 0.10461362
0.2884596 -0.1302633 0.065071054 -0.10175477 -0.09625782 0.075767964 -0.122916795 0.04836108
00000000: 44c0 40bd 9001 1c3d 4eee 6cbd 1707 5abe
00000010: 9a69 aebd c328 fbbd 5213 5f3d f803 92bc
00000020: 7ff5 12bd 02d9 03be a6e6 0a3e bd86 6ebe
00000030: cea1 063c 202e ba3d a082 4b3e 93bf 10be
00000040: f50c 0d3c 9faa 07be 1d88 a5bd 91f0 0d3e
00000050: fd3f 6a3d a3bf 9fbd 6413 123e 3d4a 1c3b
00000060: bbd3 37be bb7f 48bc 18e3 0b3e e626 49bc
00000070: e7fb cd3d d943 353e cf19 873d bc8d dc3d
00000080: c358 933d e692 3e3e b996 c6bd d6f9 c13d
00000090: 5b71 8fbd 178d ec3d 7ebc 5ebc 24f5 1f3d
000000a0: 1cb9 9bbd c3e9 c73d 94d3 94bc 4673 393e
000000b0: 4dc1 ccbd 2427 8b3d 35c7 f6bb 182f 55bc
000000c0: b909 e83d 7cb1 c8bd e958 0a3e c22b 84bd
000000d0: b534 413e 1fd4 ab3c aed6 46be 04e3 5d3e
000000e0: 2be2 573d ebde 593e b394 4ebe bd01 38be
000000f0: f075 1c3e 43de b13d 8877 4cbe 1caa 9ebe
00000100: bc78 15be 6c10 b1bd 604c 833d 7fef a73d
00000110: 9f52 28be eeaf cdbb 7b72 a4bc 8ffc ee3d
00000120: 10bf 13be 92bd 0f3e 1f36 b43d de15 263d
00000130: 2ba7 febc 6e76 6d3e badf 4b3d 1899 84bd
00000140: 79ab 9cbe 5c7a b83e 404f 1fbe 8de8 4abe
00000150: 2281 a23d a134 c0bd ed8c ad3d 1417 0a3a
00000160: 6cf8 c2bc 5aa2 83bd 2192 333d 03dd 003d
00000170: 8df5 44be d8ff 9e3d 934d a73d 3057 5cbd
00000180: 411b 08be 0211 ce3d 37d0 7e3e a328 b1bd
00000190: 1365 92bd 7a04 20be 66f6 123e 8535 043e
000001a0: 9e0e d93c d713 d4bb 3cf8 46bd 8b47 643e
000001b0: 3e40 5b3e 4afe 083d 128e 4e3e cb24 babc
000001c0: 4051 0f3e 4935 ad3c afc1 b7bc 0a9d 2e3e
000001d0: 9775 8e3e b822 803e 5599 293d fcf6 a3bb
000001e0: 10a1 95bd 66b0 ddbd e035 0c3e f59e b93b
000001f0: 2285 bf3d faaf 48be 0109 3abc 9901 a83d
00000200: e010 033e a933 24be 7d5f 5cbe fd55 35bd
00000210: d9a3 dc3c 3561 6bbd 6c6d 31be b34c 58bd
00000220: ae55 32be 7ac0 81be 3db3 3bbe 0f17 8abe
00000230: 2632 ddbb b61d 083e b3db ecbd 66e1 f23d
00000240: 06f1 013e e0b8 ffbc c3c8 33bc e1b6 443d
00000250: 70f5 5c3e ed0a 0b3d bd1e ff3d 8d58 40bd
00000260: 0dd9 35be b475 23be f039 e1bd d8db 263e
00000270: 5f8c f83c aeba a83d 5fae 35bd 264e 73be
00000280: 73be 4c3e f290 14be 6015 bdbd 41be 34be
00000290: f287 62be 3f75 1f3e 3df1 1fbd 27db 6a3c
000002a0: 3a5b 3ebe 6afc 8d3e 864e 5c3d 40ed f3bc
000002b0: b88a 0dbe e765 3fbb 866b f03d f53f 66bd
000002c0: 9cc1 80be 22d2 c7bd bdad 48bc e34e 82bd
000002d0: 7b23 613e 0bd9 453d 88f2 473d faac a8bd
000002e0: 652a 40bd 6cba 42be 9b18 cf3e 17db 1abe
000002f0: f8e0 97bd 715d 0d3e a101 b8bd 2337 8a3e
00000300: 0b48 7e3c 8fbd 1e3e bf42 0e3e 88b9 3dbe
00000310: 7e2d 02be a308 ac3d 92cf c1bc 332d 47be
00000320: e52d b7bd 36f4 e1bc 753a 403e bb0a d43d
00000330: 0644 f03d ad95 6e3e 2adc b8bc b91d 853d
00000340: 5eea 11bd 2fc5 37bd 758c ee3c 9a3c 84bd
00000350: 8933 28be 485d c8bc 402b 5ebd 4363 ce3d
00000360: 4a61 89be 9c74 df3c 696e 01be 8bd7 053b
00000370: afc9 0f3e 4831 af3b 15c7 293e adfc 64bd
00000380: 8f9e e13b 1da9 3bbe d8c6 90b9 9d5f 893d
00000390: 6eb4 d43d b4f1 9b3d 99ff 34bd d81b 793e
000003a0: c2e0 d0bc 743d b8bd 7825 0fbe 6c43 7ebc
000003b0: 64e0 153e 31ad a3bd bc21 6fbe cff1 233e
000003c0: 7a1d bbbd b4ca a3bd 93f1 7ebc 1800 0d3e
000003d0: 3171 07be 03e2 5c3d 5069 1c3e aa3f d63d
000003e0: fab0 933e be63 05be f943 853d ce64 d0bd
000003f0: d222 c5bd 3c2c 9b3d cdbb fbbd 4516 463d

network_body.linear_encoder.seq_layers.0.bias f4 [256]
0.0046617324 0.0013555466 0.0069754515 -0.0045576403 0.014642752 0.00724919 -0.0083004385 0.00090108294
0.0050996467 -0.0036912425 -0.014481412 0.0142755825 1.0496166e-05 0.0077507314 0.006390136 0.0060864324
-0.01246531 -0.0042355713 0.008773314 0.015924482 -0.0010854042 0.009043767 0.008594538 -0.00048612893
-0.008409024 0.00982549 0.0108296545 0.0066539417 0.005860076 -0.0070713707 -0.0043226657 0.0041170553
0.013977338 0.012803946 0.0066510923 -0.004891509 -0.011319919 -0.0074623283 -0.00562223 0.0041705715
0.00919675 0.0126832 -0.002530961 -0.0086920485 -0.018865824 0.008796111 0.013165261 -0.006333167
0.006334839 -0.008991279 -0.0109708905 0.0077094575 -0.0007199866 0.009589161 0.0005655452 -0.0039718654
0.010484676 0.003400937 0.007997866 2.1636764e-05 -0.005027497 -0.013307428 0.0026883632 -0.0023160537
0.0036096734 0.003738401 0.011379189 -0.0003835707 0.0075374874 0.004081774 -0.012965557 0.004513319
-0.004879486 -0.012978206 -0.009540573 -0.009853867 0.0041952757 -0.0146858115 -0.0038978704 0.008104971
-0.0029404792 0.016101243 -0.009471828 0.010420365 -0.008738672 0.010097933 -0.017917946 -0.004082154
0.010082211 0.00842006 -0.002241699 0.000415297 -0.01380315 -0.0029892402 0.010506726 0.00032669105
0.006277819 0.0045841346 0.0038923048 0.0002136757 0.0059582638 -0.012170293 0.007083393 -0.006790277
0.0072370977 0.0015657184 -0.009975112 0.0030032233 0.014012081 -0.003987068 -0.011546463 -0.0016613732
-0.0043891277 0.001333199 -0.0074585006 0.00047922297 0.011828471 -0.0071155196 -0.014224314 0.003822561
-0.006127342 -0.007711726 -0.008680866 -0.010276061 0.003359804 0.0068938253 -0.008742282 0.009824518
0.017443497 -0.00088218565 -0.004918043 -0.011991539 0.013451754 0.0004370328 0.007899414 0.016383842
0.009434518 -0.0018753452 0.006162161 0.0116150975 -0.01025023 -0.0012070838 0.0066861007 0.0020172093
-0.0006549811 0.008759864 0.0053396644 -0.009215827 -0.018045308 0.0109390775 0.00444764 0.003155672
-0.0012393623 0.01637486 -0.0087309675 0.0055994038 0.0040551685 -0.0059923157 0.009872954 0.0014498259
0.0005667224 0.006342308 0.008611498 0.0032539277 -0.008104244 -0.013374235 0.0023971258 -0.00014164273
0.0017482013 0.0025479493 0.01505937 -0.0029764778 0.017943315 -0.001791843 -0.01084036 -0.010808793
0.013666904 0.010177359 0.0018030357 -0.014724553 0.00074638275 0.0065854844 -0.0020950225 -0.004073073
0.0017131423 -0.014180658 -0.007915269 -0.002131681 -0.0069687953 0.0039623952 -0.0049039894 0.0042809355
-0.0034137124 -0.00540335 0.0094272 0.0018774577 -0.0164653 0.0001697848 -0.0013455185 0.0018717865
-0.005273986 -0.0055521904 0.012056432 -0.006916957 -0.0072916453 0.0008212313 0.00021555074 0.0110876495
0.00035001576 -0.016844008 0.013200944 -0.00015644946 0.0069485195 0.0016139057 -0.012201963 -0.0048854104
0.0023119028 0.007895467 0.0061432677 0.0029662345 -0.011501667 0.0015966347 0.00026196617 0.0030413168
-0.00020653091 -0.007993042 0.013403256 -0.013352387 0.010882573 0.0076368065 0.0012426053 0.0025824828
0.0050138044 -0.013580278 -0.009101992 0.0013562833 0.010124771 0.0078440765 0.009107683 0.016430205
0.015531371 -0.009569785 -0.011572699 0.0060927114 0.004600167 -0.004695299 0.0023961514 -0.0072071506
-0.0077402173 0.004643656 0.0041747973 -0.0008804608 0.007094791 0.0037909024 -0.0141826095 -0.00092429423
00000000: 72c1 983b 99ac b13a 5492 e43b 4258 95bb
00000010: 27e8 6f3c 9d8a ed3b 90fe 07bc a736 6c3a
00000020: f01a a73b c6e8 71bb 7243 6dbc 22e4 693c
00000030: b118 3037 d9f9 fd3b 5964 d13b b270 c73b
00000040: 4d3b 4cbc 8cca 8abb f2bd 0f3c 0f74 823c
00000050: 1f44 8eba 4f2c 143c 1bd0 0c3c 1fdf feb9
00000060: 01c6 09bc 18fb 203c dd6e 313c 4f09 da3b
00000070: e105 c03b f5b6 e7bb 26a5 8dbb 5de8 863b
00000080: 3401 653c a4c7 513c 68f1 d93b f448 a0bb
00000090: 2e77 39bc 8c86 f4bb af3a b8bb 4aa9 883b
000000a0: f7ad 163c 32cd 4f3c 7bde 25bb 1869 0ebc
000000b0: 808c 9abc 901d 103c 1bb3 573c 7586 cfbb
000000c0: 7b94 cf3b 2850 13bc 40bf 33bc 9e9f fc3b
000000d0: 7cbd 3cba db1b 1d3c 1941 143a 6c26 82bb
000000e0: ebc7 2b3c 41e2 5e3b 7b09 033c 9980 b537
000000f0: b4bd a4bb 6607 5abc 402f 303b efc8 17bb
00000100: 4590 6c3b f6ff 743b c76f 3a3c fd19 c9b9
00000110: 07fd f63b 67c0 853b 7d6d 54bc 77e4 933b
00000120: 18e4 9fbb 8ba2 54bc 1050 1cbc 1d72 21bc
00000130: 8678 893b c29c 70bc 6a73 7fbb b6ca 043c
00000140: 0eb5 40bb c1e6 833c ba2f 1bbc 2eba 2a3c
00000150: a62c 0fbc cd71 253c a8c8 92bc 97c3 85bb
00000160: dc2f 253c 4bf4 093c 78e9 12bb 38bc d939
00000170: 9b26 62bc 21e7 43bb 6724 2c3c bb47 ab39
00000180: 2ab6 cd3b 8236 963b 0a16 7f3b 220e 6039
00000190: 8a3d c33b e965 47bc cf1b e83b f980 debb
000001a0: 2d25 ed3b cb38 cd3a a76e 23bc bad1 443b
000001b0: ed92 653c f3a5 82bb 602d 3dbc 6fc2 d9ba
000001c0: acd2 8fbb bcbe ae3a 7066 f4bb 3840 fb39
000001d0: 34cc 413c 4e29 e9bb 190d 69bc ee83 7a3b
000001e0: dfc7 c8bb a5b2 fcbb 313a 0ebc ec5c 28bc
000001f0: 2830 5c3b 99e5 e13b ca3b 0fbc 04f7 203c
00000200: aae5 8e3c 7a42 67ba 8927 a1bb 2978 44bc
00000210: bf64 5c3c 8d21 e539 8b6c 013c 6837 863c
00000220: 3d93 1a3c 25ce f5ba f4eb c93b 404d 3e3c
00000230: 95f0 27bc 0337 9eba 1417 db3b 2833 043b
00000240: 0ab3 2bba 8885 0f3c 5af8 ae3b fbfd 16bc
00000250: c1d3 93bc d139 333c 82bd 913b 64cf 4e3b
00000260: 1972 a2ba 9224 863c 550c 0fbc 347b b73b
00000270: 38e1 843b 305b c4bb 2cc2 213c 1608 be3a
00000280: 1990 143a 23d3 cf3b 3e17 0d3c d93f 553b
00000290: aac7 04bc 9b1f 5bbc 1919 1d3b ee85 14b9
000002a0: e723 e53a 7ffb 263b 93bb 763c 0311 43bb
000002b0: dcfd 923c 46dc eaba c49b 31bc 5d17 31bc
000002c0: 26eb 5f3c f0be 263c d753 ec3a 403f 71bc
000002d0: e6a8 433a 0ccb d73b a54c 09bb 6a77 85bb
000002e0: 848b e03a fe55 68bc 0baf 01bc acb3 0bbb
000002f0: 7e5a e4bb fbd6 813b a5b1 a0bb 1747 8c3b
00000300: 97b8 5fbb 960e b1bb 8b74 1a3c 0715 f63a
00000310: 3de2 86bc 4308 3239 1c5c b0ba bc56 f53a
00000320: 67d1 acbb 26ef b5bb 5788 453c a4a7 e2bb
00000330: c1ee eebb e647 573a 7605 6239 f9a8 353c
00000340: 5282 b739 72fc 89bc c648 583c 950c 24b9
00000350: 68b0 e33b b089 d33a beea 47bc cb15 a0bb
00000360: 4b83 173b fd5b 013c 774d c93b 2865 423b
00000370: 7d71 3cbc 2c46 d13a 8158 8939 d450 473b
00000380: 3890 58b9 3ff5 02bc 5599 5b3c f8c3 5abc
00000390: d24c 323c 2d3e fa3b eade a23a df3e 293b
000003a0: d74a a43b d07f 5ebc 8520 15bc 51c5 b13a
000003b0: 5ee2 253c 7184 003c 6438 153c a398 863c
000003c0: 4b77 7e3c 96ca 1cbc 6b9b 3dbc 5ea5 c73b
000003d0: ffbc 963b 06db 99bb c008 1d3b f629 ecbb
000003e0: a6a1 fdbb cf29 983b bdcc 883b b9ce 66ba
000003f0: 6c7b e83b ca70 783b 2d5e 68bc 564c 72ba

network_body.linear_encoder.seq_layers.2.weight f4 [256, 256]
-0.021456167 -0.023667295 -0.046003334 -0.07676863 -0.041049402 0.12550415 0.09821199 -0.0035385673
-0.037019186 0.007095494 0.01286408 -0.07881691 0.034601007 0.0661805 0.07854648 0.029774902
-0.116830036 0.11521705 0.08090418 -0.003746998 -0.04207444 0.03421102 0.113171026 -0.08863486
0.0037950545 -0.108697414 0.013103359 -0.014326131 0.1144861 0.016053835 -0.0066309143 0.036536768
0.013648932 -0.059239525 -0.028138049 0.008240972 0.07580487 0.040978625 -0.018802542 -0.030589532
-0.059573427 0.043458212 0.031180575 -0.041848175 0.026030403 0.10199511 -0.019460818 0.086367585
0.020201866 -0.06427683 0.011829171 0.06914303 -0.034571033 0.068140395 0.034835678 0.06105793
-0.0863955 0.0047854283 0.09441606 0.02135749 -0.035895042 -0.07268525 -0.08907518 -0.07553037
0.027850978 0.04716694 0.017249314 0.004391815 -0.009549654 -0.0052077393 -0.16137125 -0.011757631
-0.058599412 0.06942097 0.13030733 -0.06075003 -0.06129605 0.12278992 0.0690945 -0.017967878
0.09784464 0.032209273 -0.0025799335 -0.043842144 0.106062055 0.04004934 -0.0069752745 0.0286198
0.041625954 -0.1141591 -0.067984484 -0.1067501 0.0017155121 -0.001961136 -0.014922414 0.003576685
-0.029194469 -0.009812335 0.08509119 -0.035113268 -0.12648815 -0.09705723 0.03079096 0.11751944
-0.005003992 -0.034241132 0.04264198 -0.05854267 -0.06771929 -0.036231294 -0.038527373 0.020154914
-0.06275322 0.008872111 -0.052399598 0.07559123 0.04259023 0.057296343 -0.014906691 0.06951259
-0.028941238 -0.0026020845 0.10666183 0.13785675 0.09543532 -0.020595111 -0.01181285 0.05897927
0.10768943 -0.010702237 0.07182592 -0.12431044 0.1323042 -0.059323654 0.03345588 -0.12260664
0.0006191711 -0.07864013 -0.064995684 0.07936011 0.15599605 -0.086382575 -0.013649316 0.10385032
-0.046534754 -0.07187664 -0.006017006 -0.06395579 -0.03417334 -0.122089125 0.0817938 0.059429515
-0.060018152 0.09387291 0.025417237 0.09120077 0.037167832 0.01076583 -0.07329437 -0.041347545
-0.035473626 0.04303369 -0.015364629 0.002982902 -0.08597096 -0.014952911 0.05469225 0.08506433
-0.033843715 -0.060820088 -0.02277684 -0.098285876 -0.009881715 0.0068947286 -0.017713763 -0.04904376
-0.01917058 0.02229313 0.05662895 -0.036543466 -0.009230222 0.07326764 -0.09842548 -0.10531509
-0.026993986 0.091181435 0.014608018 0.013471282 -0.08464288 -0.004749391 -0.06730086 -0.017315976
-0.031286627 -0.08987733 -0.09315494 0.037983265 0.027617259 -0.061957046 0.10827758 -0.03934943
0.09614665 -0.044629693 0.094958626 -0.08632106 0.005817712 0.11322819 0.0026921313 0.0852907
0.025967088 0.0035716202 0.13615614 0.03511779 0.00450898 0.023212522 -0.05798062 -0.009212959
-0.056196455 0.08238939 0.06823018 0.030935068 -0.023486389 -0.02964942 -0.033624716 0.090676256
0.020553328 -0.037450597 -0.035713665 -0.18309914 0.063202076 0.08670473 0.0031083561 -0.0590627
0.15239444 0.010744438 -0.065615326 0.030809775 0.017234208 0.086997196 0.0745571 0.004509826
0.0536692 -0.10480005 0.0040488536 -0.0006016137 0.07429538 -0.117497236 -0.045719404 0.08183039
-0.06973503 0.03662386 -0.110578604 -0.025838114 0.16801302 0.017889993 -0.061287392 -0.12418661
00000000: d8c4 afbc eae1 c1bc fe6d 3cbd df38 9dbd
00000010: 6b23 28bd 2984 003e 5e23 c93d 4fe7 67bb
00000020: 6ea1 17bd 5181 e83b ddc3 523c c36a a1bd
00000030: c9b9 0d3d a489 873d fadc a03d 7fea f33c
00000040: 9644 efbd ebf6 eb3d 17b1 a53d 3290 75bb
00000050: 3f56 2cbd db20 0c3d 36c6 e73d 3286 b5bd
00000060: 73b6 783b c09c debd 79af 563c 26b8 6abc
00000070: b077 ea3d 5583 833c 2448 d9bb 94a7 153d
00000080: c59f 5f3c 25a5 72bd c481 e6bc 2405 073c
00000090: 953f 9b3d 34d9 273d ca07 9abc e696 fabc
000000a0: 4403 74bd 3d01 323d 686e ff3c fe68 2bbd
000000b0: b63d d53c d0e2 d03d 4b6c 9fbc 7de1 b03d
000000c0: 627e a53c 92a3 83bd 24cf 413c dc9a 8d3d
000000d0: 5b9a 0dbd 318d 8b3d dbaf 0e3d e117 7a3d
000000e0: 20f0 b0bd 15cf 9c3b 355d c13d e7f5 ae3c
000000f0: ae06 13bd 01dc 94bd 0c6d b6bd abaf 9abd
00000100: bc27 e43c 1f32 413d 6f4e 8d3c 37e9 8f3b
00000110: 2776 1cbc afa5 aabb 813e 25be 14a3 40bc
00000120: f005 70bd 952c 8e3d 496f 053e 06d5 78bd
00000130: 9111 7bbd 4879 fb3d 6b81 8d3d 5f31 93bc
00000140: c562 c83d dfed 033d 1a14 29bb d293 33bd
00000150: 1037 d93d c70a 243d d890 e4bb 1274 ea3c
00000160: fa7f 2a3d 3fcc e9bd 733b 8bbd cc9f dabd
00000170: 09db e03a 6786 00bb 247d 74bc d166 6a3b
00000180: 3d29 efbc eac3 20bc 4a44 ae3d eed2 0fbd
00000190: 1c86 01be f1c5 c6bd 533d fc3c 08ae f03d
000001a0: 87f8 a3bb 6e40 0cbd 5ba9 2e3d 70ca 6fbd
000001b0: 69b0 8abd 4467 14bd e1ce 1dbd eb1b a53c
000001c0: c384 80bd 555c 113c f6a0 56bd 93cf 9a3d
000001d0: 1873 2e3d 92af 6a3d 323b 74bc 9e5c 8e3d
000001e0: 2d16 edbc bc87 2abb 8471 da3d 522a 0d3e
000001f0: 9873 c33d 14b7 a8bc af8a 41bc 3f94 713d
00000200: 478c dc3d 6f58 2fbc 7819 933d 7996 febd
00000210: c17a 073e 5cfd 72bd 0809 093d 3119 fbbd
00000220: df4f 223a 140e a1bd 751c 85bd 8e87 a23d
00000230: 6ebd 1f3e 59e9 b0bd 61a1 5fbc 7aaf d43d
00000240: 3a9b 3ebd 0f34 93bd 4e2a c5bb 41fb 82bd
00000250: 58f9 0bbd dd09 fabd 8283 a73d 5d6c 733d
00000260: 98d5 75bd 7140 c03d cf37 d03c 78c7 ba3d
00000270: 4c3d 183d 2a63 303c 5c1b 96bd 0b5c 29bd
00000280: cb4c 11bd 1844 303d edbb 7bbc cb7c 433b
00000290: 8b11 b0bd 0efd 74bc fb04 603d 3536 ae3d
000002a0: b59f 0abd 7c1e 79bd 7f96 babc 1b4a c9bd
000002b0: ebe6 21bc 2ded e13b 741c 91bc 1ce2 48bd
000002c0: 9f0b 9dbc 15a0 b63c c2f3 673d 9aae 15bd
000002d0: 5b3a 17bc 580d 963d 4c93 c9bd 70af d7bd
000002e0: 7e22 ddbc 55bd ba3d 7856 6f3c a7b6 5c3c
000002f0: 3f59 adbd c8a0 9bbb 09d5 89bd 3cda 8dbc
00000300: 6826 00bd 9b11 b8bd 04c8 bebd 5794 1b3d
00000310: 973d e23c acc6 7dbd a3c0 dd3d de2c 21bd
00000320: 89e8 c43d a0cd 36bd ab79 c23d 19c9 b0bd
00000330: 81a2 be3b 2ee4 e73d 786e 303b e4ac ae3d
00000340: eeb8 d43c d811 6a3b 846c 0b3e acd7 0f3d
00000350: 11c0 933b 3028 be3c 167d 6dbd f3f1 16bc
00000360: 412e 66bd c5bb a83d 44bc 8b3d 8a6b fd3c
00000370: 8766 c0bc 57e3 f2bc 12ba 09bd 79b4 b93d
00000380: 745f a83c cc65 19bd 7e48 12bd 577e 3bbe
00000390: 1770 813d 4092 b13d 90b5 4b3b bbeb 71bd
000003a0: 4a0d 1c3e 7009 303c 5461 86bd c864 fc3c
000003b0: c12e 8d3c 962b b23d 65b1 983d 2ac7 933b
000003c0: 3cd4 5b3d 69a1 d6bd 3fac 843b 9db5 1dba
000003d0: 2d28 983d 64a2 f0bd 4544 3bbd b196 a73d
000003e0: 3dd1 8ebd e702 163d 0977 e2bd 74aa d3bc
000003f0: 9b0b 2c3e 098e 923c 7d08 7bbd 8d55 febd

network_body.linear_encoder.seq_layers.2.bias f4 [256]
0.00066655444 0.005288905 -0.002943483 -0.0022105223 0.0029033874 0.0067021525 -0.0021932735 0.007912524
0.004519188 0.0142778335 0.008292879 -0.007862368 0.006973105 0.008073229 -0.008786866 0.0092242835
0.0067326305 0.006730111 -0.00421146 0.013304538 0.0002795313 0.009990673 0.0029726452 0.0033036964
0.0025425365 0.00022102524 -0.0041545033 0.00022695273 -0.0051666196 -0.0016723761 0.008712601 -0.0044690412
0.0043616737 0.0074869785 -0.0019232717 -0.0030321477 -0.0022735163 0.007835518 0.0020363934 -0.0029935986
-0.0018654796 -0.0090519 -0.004047686 0.0039727725 0.007839461 -0.006275041 0.0076693255 0.0030382369
-0.007671671 0.008441636 -0.0006226389 0.0007271273 0.005534004 0.008765186 7.2660485e-05 0.009119293
0.016066756 -0.013200928 -0.008119161 0.007957425 -0.0017349875 0.0035602935 0.007232843 0.0137239965
0.010653608 -0.012285334 0.009912023 0.0042331074 -0.00053958467 -0.0025378594 -0.0044032447 -0.011180715
-0.0017426925 -0.005081635 0.011779661 0.0028990922 -0.008003824 -0.0032127996 0.0037172239 -0.008232884
0.002003714 -0.00619878 -0.007888292 -0.01390619 -0.004530591 0.0022531701 -0.0050968793 0.0057619535
-0.0001777164 0.009371212 -0.010733665 -0.0015363724 -0.009054661 -0.0017743559 0.0005266752 -0.011786117
-0.0022733943 0.014882366 -0.0074298657 0.002736698 0.00528984 0.0025851359 0.0054975115 0.009532903
0.009004162 -0.0023276776 -0.0146384 -0.01135725 -0.0003950414 -0.002241261 -0.00910699 0.00076547766
-0.0022467326 -0.005686923 0.0052311793 -0.0028955447 0.010396179 -0.004916874 -0.010505609 0.003515489
-0.003717185 -0.006946771 -0.0029463512 -0.008902031 -0.009708992 0.00054474943 -0.007861252 0.013198067
0.0106041925 0.004291396 0.0011320442 0.010716667 0.008773445 -0.0045829127 -0.0008830491 0.011367027
-0.0046913973 0.004490034 0.013176963 0.0122510325 -0.009027169 -0.0020830636 0.0035304686 -0.008670522
0.007624108 0.009307026 0.002227208 -0.0019927977 -0.0013579163 0.007044048 0.013055166 0.0022848127
0.0063874675 -0.01316183 -0.0039146375 0.0015010247 -0.009385422 0.001505148 0.0014563425 0.0047327136
-0.007823722 -0.010846279 -0.00617998 -0.0006522421 -0.0027129261 0.008423598 -0.0027860801 0.0075816736
0.011161166 0.0087785525 -0.001126645 0.011213087 0.013280008 -0.0067197443 -5.6800338e-05 0.015542619
-0.005646951 0.008043854 -0.00281509 0.010712784 0.0128297005 0.007368518 0.0022836733 0.0033596258
0.011700879 0.005599155 0.0016905114 -0.0039631655 0.0061186207 -0.0074663917 -0.003857129 -0.0047652163
0.008758075 -0.0020087932 -0.00027482645 -0.007997079 0.0072805895 0.006828838 0.0016583236 0.0030567276
0.0066336677 -0.007952405 0.0027573726 0.010019238 -0.00061063806 -0.012156857 0.0061480636 0.011321013
0.0069881165 0.007079829 0.00065945886 -0.00012914662 -0.0014985477 -0.0062102173 0.0059025288 0.0031021163
-0.0036192671 -0.0019770707 0.005723192 0.010977852 -0.007049294 -0.0028618607 0.0037395118 0.00741547
0.004348442 -0.008885142 0.00401383 0.0020151453 0.0050198683 0.0013510436 -0.0010365414 -0.005743996
-0.0052169715 -0.00907287 0.0006807826 -0.002705037 -0.0034089352 2.02242e-05 -0.0044771316 0.0011788512
0.0031451301 -0.007257344 -0.008756391 0.009357442 0.010044773 -0.0009438849 -0.00021158496 0.0055963243
0.0034785357 -0.007403744 0.010809216 -0.0017742101 -0.0057278387 0.0034002606 0.0019718772 0.009481975
00000000: b6bb 2e3a 8d4e ad3b 73e7 40bb 69de 10bb
00000010: c246 3e3b bb9d db3b 06bd 0fbb 88a3 013c
00000020: b215 943b 93ed 693c dbde 073c 29d1 00bc
00000030: a57e e43b 9445 043c caf6 0fbc 7321 173c
00000040: 669d dc3b 4388 dc3b 4900 8abb 47fb 593c
00000050: 0e8e 9239 ebaf 233c b6d0 423b d482 583b
00000060: afa0 263b 03c3 6739 8022 88bb 29fa 6d39
00000070: bf4c a9bb a133 dbba 4cbf 0e3c 0971 92bb
00000080: 5fec 8e3b 5455 f53b 4a16 fcba ffb6 46bb
00000090: 46ff 14bb 8b60 003c 0375 053b 4030 44bb
000000a0: 1c83 f4ba 6c4e 14bc 73a2 84bb 082e 823b
000000b0: 1571 003c dc9e cdbb f74e fb3b 281d 473b
000000c0: a462 fbbb ca4e 0a3c 9738 23ba b09c 3e3a
000000d0: 9756 b53b db9b 0f3c 4d61 9838 1669 153c
000000e0: 6e9e 833c b548 58bc 3b06 05bc dc5f 023c
000000f0: 8568 e3ba d053 693b 7c01 ed3b 9dda 603c
00000100: 788c 2e3c 6d48 49bc 0a66 223c e1b5 8a3b
00000110: ea72 0dba 3752 26bb 1849 90bb 512f 37bc
00000120: 0f6b e4ba d883 a6bb 7bff 403c b2fe 3d3b
00000130: 7922 03bc d58d 52bb ab9c 733b 38e3 06bc
00000140: be50 033b 231f cbbb e53d 01bc cad6 63bc
00000150: 5a75 94bb eca9 133b b903 a7bb c5ce bc3b
00000160: 6259 3ab9 b689 193c 41dc 2fbc 1a60 c9ba
00000170: 005a 14bc 8191 e8ba 9310 0a3a 8f1a 41bc
00000180: 3afd 14bb 2bd5 733c 3b76 f3bb 2c5a 333b
00000190: 6556 ad3b 626b 293b 7824 b43b e52f 1c3c
000001a0: 3186 133c f38b 18bb e6d5 6fbc c213 3abc
000001b0: 8f1d cfb9 1fe2 12bb 7c35 15bc 56aa 483a
000001c0: eb3d 13bb 5e59 babb 506a ab3b 2ec3 3dbb
000001d0: bc54 2a3c bb1d a1bb b81f 2cbc 1e64 663b
000001e0: 049c 73bb bda1 e3bb 9217 41bb d3d9 11bc
000001f0: 7712 1fbc 84cd 0e3a 7bcc 00bc b53c 583c
00000200: 35bd 2d3c d79e 8c3b 1a61 943a f694 2f3c
00000210: 7fbe 0f3c 422c 96bb 6c7c 67ba c43c 3a3c
00000220: 4bba 99bb 2321 933b 30e4 573c 8eb8 483c
00000230: b1e6 13bc 0284 08bb 6f5f 673b ce0e 0ebc
00000240: a7d3 f93b 7f7c 183c 5af6 113b 9999 02bb
00000250: 1cfc b1ba c2d1 e63b 56e5 553c ccbc 153b
00000260: f64d d13b b7a4 57bc 5c46 80bb 08be c43a
00000270: 50c5 19bc 6348 c53a bfe2 be3a e114 9b3b
00000280: 122f 00bc 97b4 31bc 6e81 cabb 3afb 2aba
00000290: 59cb 31bb 2103 0a3c ab96 36bb b06f f83b
000002a0: 53dd 363c ebd3 0f3c efab 93ba 18b7 373c
000002b0: 6494 593c 4d31 dcbb e63c 6eb8 78a6 7e3c
000002c0: 0f0a b9bb 5eca 033c 5f7d 38bb ac84 2f3c
000002d0: aa33 523c 9c73 f13b aea9 153b 2b2d 5c3b
000002e0: 0bb5 3f3c 1e79 b73b 2694 dd3a 71dd 81bb
000002f0: b67e c83b a2a8 f4bb e3c7 7cbb 8825 9cbb
00000300: 077e 0f3c f5a5 03bb 9516 90b9 2e06 03bc
00000310: 0392 ee3b 72c4 df3b 1b5c d93a 6153 483b
00000320: 3d5f d93b ce4a 02bc 09b5 343b bb27 243c
00000330: 3a13 20ba 8e2d 47bc b275 c93b c57b 393c
00000340: 92fc e43b e9fd e73b 89df 2c3a 886b 07b9
00000350: eb6a c4ba 147f cbbb 006a c13b e04c 4b3b
00000360: 3a31 6dbb be91 01bb 9d89 bb3b 73dc 333c
00000370: c4fd e6bb 0e8e 3bbb 9912 753b 79fd f23b
00000380: 607d 8e3b fd92 11bc 7286 833b 8710 043b
00000390: b57d a43b 8015 b13a 8fdc 87ba 2138 bcbb
000003a0: 21f3 aabb 60a6 14bc 8c76 323a fd46 31bb
000003b0: 7168 5fbb 24a7 a937 e7b4 92bb af83 9a3a
000003c0: 871e 4e3b 04cf edbb f776 0fbc f54f 193c
000003d0: d592 243c 0b6f 77ba e8dc 5db9 5f61 b73b
000003e0: 25f8 633b 1b9b f2bb 2319 313c 9d8c e8ba
000003f0: 98b0 bbbb e8d6 5e3b 9c3a 013b 495a 1b3c

action_model._discrete_distribution.branches.0.weight f4 [7, 256]
0.0061842347 -0.0077553657 0.0028691853 0.00686336 -0.010207432 0.00887583 -0.009721093 -0.004589233
0.0052328096 -0.0073296092 -0.0059209326 0.0028245794 0.012960135 0.017326383 0.0075302077 -0.002732915
-0.0158229 0.008086836 0.005564084 0.0010688736 0.0053610187 -0.0020708228 -0.0023852398 0.008591799
0.0021225736 0.0013514552 0.0064152344 0.009672258 -0.0033523545 -0.0013841981 0.0043559563 -0.0093163345
-0.0006093992 -0.007377203 0.0011192352 -0.0023026771 -0.004838962 -0.0062760906 -0.00582796 0.004928338
0.012327778 0.0013154756 0.0036935941 -0.0034257947 0.019190697 0.0021964628 -0.013654546 0.0010267062
0.00128054 0.0142475935 0.0163041 -0.013383892 0.010180209 -0.0020947286 0.0042473823 -0.0055456646
0.011215538 0.001496046 0.0012601827 0.0140485065 2.2739176e-05 0.0014558535 -0.0022070487 0.0039143353
-0.006885892 -0.0059190514 -0.010542056 -0.0028092705 0.00940095 0.01516453 0.0005166838 -0.003963913
-0.0056264144 -0.0059194155 0.005156029 -0.00960482 -0.0017368313 0.016016997 0.0075157536 -0.011709508
0.011699406 -0.0046226704 -0.010738782 -0.0037533771 -0.013268316 0.01214956 -0.0032114335 0.005555722
-0.00890664 -0.013265778 -0.0032188504 -0.0008142615 -0.010603312 -0.0013760906 0.008817109 -0.0059388466
0.0005106664 0.0027737594 -0.008268849 0.008608676 0.020191053 -0.0037373116 0.0017086325 -0.0040061004
0.0019602943 -0.0027495422 -0.0038437052 0.010061523 -0.009436468 0.009870023 -0.0053112525 0.001511606
0.002776229 0.001992138 0.015412424 0.006021968 0.0079447385 -0.0015533414 -0.01057181 0.0030764074
0.00048520873 -0.0028163472 -0.0086543 -0.0065780063 0.005799232 0.012037759 -0.009194652 -0.012001002
-0.0056776577 -0.0028430237 0.0037190164 -0.009253299 0.0021310255 0.004648346 0.0039090896 -0.004418191
-0.012660449 -0.0058374824 0.01006051 -0.0036236995 -0.009018025 -0.016010845 0.008678892 0.00020140129
-0.011911455 -0.00020531725 -0.00437192 -0.0017496638 0.0028635832 -0.0010208711 0.00015234995 0.0048324475
-0.0045844372 -0.007476725 -0.0041371095 0.0032741942 -0.0019461716 0.008505943 -0.0050666044 0.0078662895
-0.0035352614 -0.016306581 -0.002995666 0.009248182 0.011097345 0.005440349 -0.005781164 0.0017934011
-0.0069415523 -0.00031646105 0.012489411 -0.0016463789 0.005631939 -0.0014957946 -0.00355039 -0.011659725
0.0038661503 0.00056197523 -0.011446325 -0.0037309907 -0.005389949 0.008269768 0.007831418 -0.013861211
-0.006032735 -0.003916275 -0.0040040463 -0.009357264 0.0029061602 -0.011138969 -0.0026805236 -0.0066776057
0.008718464 0.0083243605 -0.0006116764 -0.0041348343 -0.0015727528 0.013825344 0.015097655 -0.005099553
-0.018546062 -0.01091282 0.0073922933 0.01678883 -0.0004061937 -0.0069912346 -0.004673797 0.005571832
-0.00952617 -0.0069442517 0.010296687 -0.0040211766 0.00071547244 0.0027895288 0.008024874 0.00029776158
0.013971915 0.014032007 0.001605352 -0.000120731325 -0.001479228 0.010027953 0.018705366 -0.006082501
0.017520692 -0.0071255444 -0.005214491 0.008617247 0.006663276 0.005862216 0.011684429 -0.0026739324
-0.0059432844 -0.004942477 0.005093884 0.0056822887 -3.354754e-05 0.002818407 -0.014556742 -0.013642149
-0.0077557513 -0.0023164758 -0.00787816 0.0032124806 -0.0024647575 0.017199485 -0.0046231784 0.007530158
-0.0017490594 -0.009845745 0.0074841883 -0.012510808 -0.0036866346 -0.0023030238 -0.0014925585 -0.0025320966
00000000: 1fa5 ca3b b920 febb f108 3c3b 09e6 e03b
00000010: 133d 27bc ee6b 113c 3845 1fbc 4761 96bb
00000020: fd77 ab3b 382d f0bb 6204 c2bb 941c 393b
00000030: bf56 543c 0ff0 8d3c f6bf f63b b51a 33bb
00000040: 079f 81bc a67e 043c eb52 b63b 7219 8c3a
00000050: 7cab af3b a4b6 07bb af51 1cbb 9ec4 0c3c
00000060: e01a 0b3b 5023 b13a e336 d23b 6478 1e3c
00000070: 2db3 5bbb fb6d b5ba 69bc 8e3b 8aa3 18bc
00000080: 17c0 1fba 77bc f1bb 4db3 923a 83e8 16bb
00000090: 2890 9ebb aaa7 cdbb 79f8 bebb e57d a13b
000000a0: 73fa 493c 096c ac3a 3a10 723b 4c83 60bb
000000b0: cf35 9d3c 88f2 0f3b 51b7 5fbc 8b92 863a
000000c0: cbd7 a73a bd6e 693c 2d90 853c 1d48 5bbc
000000d0: e4ca 263c b747 09bb a02d 8b3b 68b8 b5bb
000000e0: 60c1 373c f916 c43a b72c a53a b52b 663c
000000f0: 02c0 be37 56d2 be3a 22a4 10bb d343 803b
00000100: 0ca3 e1bb 9af4 c1bb 96b8 2cbc bd1b 38bb
00000110: 7106 1a3c a674 783c 1072 073a b6e3 81bb
00000120: c95d b8bb a8f7 c1bb e8f3 a83b 895d 1dbc
00000130: 63a6 e3ba 1436 833c b646 f63b 3cd9 3fbc
00000140: deae 3f3c c579 97bb b7f1 2fbc 38fb 75bb
00000150: 5a63 59bc f30e 473c ea76 52bb c60c b63b
00000160: 28ed 11bc b558 59bc 59f3 52bb 2a74 55ba
00000170: 84b9 2dbc f05d b4ba a375 103c a89a c2bb
00000180: 3ede 053a f6c7 353b 117a 07bc 670b 0d3c
00000190: b567 a53c afed 74bb 31f4 df3a 9b45 83bb
000001a0: 4878 003b aa31 34bb ace6 7bbb 16d9 243c
000001b0: 6a9b 1abc e0b5 213c 040a aebb 1521 c63a
000001c0: 65f1 353b 888e 023b 6484 7c3c ee53 c53b
000001d0: a62a 023c 7d99 cbba 6335 2dbc 8d9d 493b
000001e0: 9d63 fe39 7792 38bb c4ca 0dbc 518c d7bb
000001f0: 7c07 be3b 053a 453c 2aa5 16bc da9f 44bc
00000200: a50b babb 0652 3abb beba 733b 269b 17bc
00000210: ada8 0b3b 2751 983b d217 803b 79c6 90bb
00000220: c66d 4fbc 5a48 bfbb d6d4 243c 977b 6dbb
00000230: 57c0 13bc 2d29 83bc e931 0e3c 3f2f 5339
00000240: 4328 43bc 6e4a 57b9 5342 8fbb fa54 e5ba
00000250: f4aa 3b3b c0ce 85ba 21c0 1f39 8259 9e3b
00000260: 0c39 96bb 51ff f4bb 9790 87bb dd93 563b
00000270: af16 ffba 835c 0b3c c205 a6bb 9ce1 003c
00000280: d8af 67bb 6195 85bc ef52 44bb b085 173c
00000290: a3d1 353c f544 b23b eb6f bdbb 8e10 eb3a
000002a0: f675 e3bb afea a5b9 63a0 4c3c 4fcb d7ba
000002b0: 218c b83b 8a0e c4ba a9ad 68bb 6e08 3fbc
000002c0: 3d5f 7d3b 8551 133a 5e89 3bbc a383 74bb
000002d0: 2b9e b0bb ec7d 073c 594f 003c 221a 63bc
000002e0: 40ae c5bb 1954 80bb 6034 83bb 364f 19bc
000002f0: 4775 3e3b 3980 36bc b9ab 2fbb d1cf dabb
00000300: e3d7 0e3c e662 083c e958 20ba 817d 87bb
00000310: d424 ceba b283 623c 285c 773c 271a a7bb
00000320: e9ed 97bc afcb 32bc 0d3b f23b ba88 893c
00000330: 65f6 d4b9 ba16 e5bb a726 99bb ea93 b63b
00000340: a713 1cbc 9b8c e3bb 6fb3 283c 13c4 83bb
00000350: 8b8e 3b3a 87d0 363b c37a 033c e21c 9c39
00000360: 75ea 643c 81e6 653c ad6a d23a 2331 fdb8
00000370: a8e2 c1ba 494c 243c ff3b 993c b74f c7bb
00000380: 8e87 8f3c 667d e9bb 52de aabb 5b2f 0d3c
00000390: 9c57 da3b d517 c03b 0c70 3f3c 243d 2fbb
000003a0: e2bf c2bb 81f4 a1bb 99ea a63b 7e32 ba3b
000003b0: 66b5 0cb8 06b5 383b 677f 6ebc 5283 5fbc
000003c0: f523 febb 04d0 17bb 6613 01bc 7b88 523b
000003d0: c587 21bb efe5 8c3c 087e 97bb 8bbf f63b
000003e0: b240 e5ba 0c50 21bc ec3d f53b 22fa 4cbc
000003f0: 779b 71bb 54ee 16bb f4a1 c3ba 88f1 25bb

action_model._discrete_distribution.branches.0.bias f4 [7]
0.0027060197 -0.001558177 0.0060715494 -0.011036326 -0.0046638637 0.0034337859 0.0039284118
00000000: 7a57 313b bf3b ccba d9f3 c63b b5d1 34bc
00000010: 53d3 98bb 5e09 613b e8b9 803b
