results/t4/Fork1/Fork1-7.onnx (onnx, 333139 bytes, 6 tensors)

network_body.linear_encoder.seq_layers.0.weight f4 [256, 58]
0	0x3e6d0540	0.23146534
1	0xbe324d37	-0.17412268
2	0x3d09df4b	0.033660214
3	0xbe141ec8	-0.14464867
4	0xbde42f90	-0.11141884
5	0xbdded4f2	-0.1088046
6	0xbe56a4f7	-0.20961367
7	0x3e1c5f80	0.15270805
8	0x3c09d17a	0.0084117595
9	0x3e15552c	0.14583272
10	0x3dfcbf40	0.123411655
11	0x3df1a640	0.11799288
12	0xbdf0bd2f	-0.11754834
13	0xbdc3fd5f	-0.09569811
14	0xbcad7043	-0.021171695
15	0x3e0dca39	0.13846673
16	0x3e2973d5	0.16548093
17	0xbd84c881	-0.064835556
18	0xbe170b3f	-0.14750384
19	0xbd22fa5d	-0.039789546
20	0x3d9d3221	0.07675577
21	0x3e85dc38	0.26144576
22	0xbdef045c	-0.11670753
23	0x3d1d281c	0.03836833
24	0x3dc2862a	0.09498246
25	0xbb977c28	-0.004622955
26	0xbe31f533	-0.17378692
27	0x3e0eba28	0.139382
28	0xbd4531f4	-0.048143342
29	0x3d898ae1	0.06715942
30	0x3e518af2	0.2046316
31	0xbd100808	-0.03516391
32	0x3e8ae29c	0.27126014
33	0xbb048058	-0.00202181
34	0x3d86153a	0.065470174
35	0x3e104c7a	0.14091673
36	0x3cde4cdf	0.027136264
37	0x3d8bb63e	0.06821869
38	0xbe8cb0a7	-0.27478525
39	0xbdd0f39a	-0.10202713
40	0x3e6717b1	0.22567631
41	0xbe3a6955	-0.18204243
42	0xbd536644	-0.0516112
43	0xbd8903f4	-0.06690207
44	0x3c8d5bd6	0.017255705
45	0x3d249455	0.040180523
46	0x3c1a9fbe	0.0094375
47	0xbde4d9c3	-0.11174347
48	0xbb0a18ed	-0.0021071986
49	0x3d19e9bf	0.037576433
50	0xbc3a87be	-0.0113849025
51	0xbb352a1c	-0.0027643507
52	0x3e2252c4	0.15851885
53	0xbe09dd58	-0.13463342
54	0xbbaf9952	-0.0053588534
55	0x3d34827e	0.04406976
56	0xbc673be8	-0.014113404
57	0x3cce43a4	0.025178738
58	0x3cc40273	0.02392695
59	0xbca9d2ec	-0.020730458
60	0xbe70228a	-0.23450676
61	0x3e3483ef	0.17628454
62	0x3e4781ef	0.1948316
63	0x3e07eef2	0.13274744
64	0xbe146cb7	-0.14494596
65	0x3d6054e5	0.05476846
66	0x3e1820e9	0.14856304
67	0x3da24f00	0.07925224
68	0x3d14826e	0.0362572
69	0x3e328e90	0.17437196
70	0x3c8a741e	0.016901072
71	0xbdb8ab22	-0.09017016
72	0x3dbd92bb	0.09256502
73	0xbdd779e9	-0.105212994
74	0xbd8cb782	-0.06870939
75	0xbd5cd52a	-0.053914227
76	0x3e1ca516	0.1529735
77	0xbd4bbb6f	-0.049739297
78	0x3e1e636a	0.15467611
79	0x3d644876	0.055733167
80	0xbda46ff1	-0.08029164
81	0xbe8663bb	-0.26247963
82	0x3b99cfbf	0.0046939547
83	0x3ed976f6	0.42473572
84	0x3b13a864	0.0022530789
85	0x3d6abb86	0.057307743
86	0xbe075c7c	-0.13218874
87	0xbc1e3931	-0.00965719
88	0xbe1fc505	-0.156025
89	0x3d0bd949	0.034142766
90	0xbb67eb9a	-0.0035388232
91	0xbe995227	-0.2994549
92	0xbbb98c49	-0.0056624752
93	0xbe4a9d5e	-0.19786593
94	0xbde54c64	-0.11196211
95	0xbe2be742	-0.16787437
96	0xbd271baf	-0.040797886
97	0x3e0a427f	0.13501929
98	0xbe038fe2	-0.12847856
99	0x3d8b0ebd	0.067899205
100	0xbe2381a8	-0.15967429
101	0x3d637947	0.05553558
102	0xbd5262e8	-0.051363856
103	0xbdcc1351	-0.09964622
104	0xbe17e71f	-0.1483426
105	0x3d7f31a5	0.062303204
106	0x3dd8c897	0.105851345
107	0xbdbb935c	-0.09158966
108	0x3d97a982	0.07405378
109	0xbd11d887	-0.035606887
110	0xbe32a6f4	-0.174465
111	0x3e36760a	0.17818466
112	0xbe23ec27	-0.16008054
113	0xbdb5a433	-0.08869209
114	0x3e34d046	0.17657575
115	0xbe4b60a3	-0.19861083
116	0x3c3cf66f	0.011533364
117	0x3d47e739	0.048804495
118	0x3d97cd5b	0.07412215
119	0x3c0f622a	0.0087514315
120	0x3c2cc880	0.01054585
121	0x3d9aed1a	0.07564755
122	0x3c5e531d	0.01356962
123	0x3e673d7d	0.2258205
124	0xbe04c103	-0.12964253
125	0x3d2e2be0	0.04252231
126	0x3df86be7	0.12129956
127	0xbe26a430	-0.1627357
128	0xbc703ba4	-0.014662657
129	0x3cb58697	0.022158904
130	0x3d6d0e3f	0.057874914
131	0x3d449b72	0.047999807
132	0xbd4e5dd6	-0.050382458
133	0x3d4d3723	0.05010141
134	0x3d007f6e	0.031371526
135	0xbcf94466	-0.030428123
136	0xbd5c65bb	-0.053807955
137	0x3e5fdd4e	0.21861765
138	0x3d9a13d6	0.07523315
139	0xbd6672ec	-0.05626194
140	0xbe2bffa8	-0.16796744
141	0x3d21e23c	0.039522395
142	0xbe2a5690	-0.16634583
143	0xbdf15789	-0.11784274
144	0xbe4385a3	-0.19093947
145	0x3e801dfc	0.25022876
146	0xbd2af39a	-0.041736223
147	0x3e8d3474	0.2757908
148	0x3ea1756d	0.315349
149	0xbca05f24	-0.019576617
150	0x3dbb561e	0.09147285
151	0xbe96b291	-0.2943311
152	0xbd038b3a	-0.0321152
153	0x3d73e0d6	0.059540592
154	0x3e92ee8b	0.2869762
155	0x3e303c22	0.17210439
156	0xbe0fd377	-0.14045511
157	0x3dd5eef4	0.10445967
158	0xbd25dd6f	-0.04049438
159	0x3cb30127	0.021851135
160	0x3d4f92e1	0.050677184
161	0xbb9421a6	-0.004520613
162	0x3cdb84a6	0.02679665
163	0xbda90ce0	-0.08254409
164	0x3ccae512	0.024767432
165	0x3d687ad3	0.05675776
166	0x3d531177	0.051530328
167	0x3e367cb6	0.17821011
168	0x3cf94d02	0.030432228
169	0xbcb31435	-0.021860221
170	0x3ddd686f	0.10810935
171	0x3e4e87aa	0.20168939
172	0xbe21e584	-0.1581021
173	0xbd7e42f1	-0.06207556
174	0x3a8329cb	0.0010006962
175	0xbdb3c65b	-0.08778068
176	0xbdd657ba	-0.10465951
177	0xbe0daa38	-0.13834465
178	0x3cd9d600	0.026591301
179	0xbd98ffd1	-0.07470668
180	0x3ce33ee7	0.027739955
181	0xbc68029e	-0.01416078
182	0xbc15d229	-0.009144344
183	0xbe32ac40	-0.1744852
184	0x3cffee52	0.03124157
185	0xbd8373da	-0.06418581
186	0xbd2e0d49	-0.04249314
187	0xbd54a4bf	-0.051914927
188	0xbd87914d	-0.06619511
189	0xbe597ac9	-0.21238245
190	0x3e2bb4f4	0.16768247
191	0x3d30b9ca	0.043145932
192	0x3e098a39	0.13431634
193	0xbda14980	-0.07875347
194	0x3e1826df	0.14858578
195	0x3e254af3	0.16141872
196	0xbda1eb17	-0.07906168
197	0x3c8c128a	0.017098684
198	0x3d6c7ffd	0.057739247
199	0x3db16d04	0.08663371
200	0x3dd60108	0.104494154
201	0x3e02dc0e	0.12779257
202	0xbe24d471	-0.16096665
203	0xbe866eec	-0.26256502
204	0xbe14604c	-0.1448986
205	0xbe33816c	-0.1752984
206	0xbe3f22c1	-0.18665601
207	0x3e9f1266	0.31068724
208	0x3e001603	0.12508397
209	0xbe1a1c87	-0.15049945
210	0x3d026952	0.031838723
211	0x3e149f79	0.14513959
212	0xbd75927e	-0.05995416
213	0xbda05804	-0.07829288
214	0x3d4f1316	0.05055531
215	0xbda8d10d	-0.08242998
216	0x3daf6aaa	0.085652664
217	0xbe28cfbe	-0.16485497
218	0x3dbceaf0	0.09224498
219	0xbe4a29ad	-0.1974246
220	0x3e0588a3	0.13040404
221	0x3d181c71	0.0371365
222	0x3e7fdbd0	0.24986196
223	0xbc377c6f	-0.011199101
224	0x3d80f676	0.06297009
225	0xbd5e0655	-0.054205257
226	0xbe660e50	-0.22466397
227	0xbe50142a	-0.20320192
228	0x3d81e05e	0.06341623
229	0x3d594776	0.053046666
230	0xbe06e2e5	-0.13172491
231	0x3ddabc26	0.10680418
232	0x3d322a98	0.04349765
233	0xbe509481	-0.2036915
234	0x3e264031	0.16235425
235	0xbe54e1a0	-0.20789194
236	0xbd599167	-0.053117182
237	0xbd0dfa68	-0.034662634
238	0xbe6e53ad	-0.23274107
239	0xbc84e01f	-0.01622015
240	0x3e25f957	0.16208397
241	0xbd05ada0	-0.032636285
242	0xbc3b3af1	-0.011427627
243	0x3b1db94d	0.0024066747
244	0xbdbbd6f1	-0.09171856
245	0x3dc7f945	0.09764341
246	0x3e5ab873	0.21359424
247	0x3dda0b2a	0.106466606
248	0x3d2c5ea6	0.04208245
249	0x3d0dc3f6	0.03461071
250	0x3db8fd27	0.0903266
251	0xbd48fc0b	-0.049068492
252	0xbd7aa716	-0.0611945
253	0xbdb119a3	-0.08647468
254	0xbdc5aaf9	-0.09651751
255	0xbdd08b96	-0.10182874

network_body.linear_encoder.seq_layers.0.bias f4 [256]
0	0x00000000	0.0
1	0x00000000	0.0
2	0x00000000	0.0
3	0x00000000	0.0
4	0x00000000	0.0
5	0x00000000	0.0
6	0x00000000	0.0
7	0x00000000	0.0
8	0x00000000	0.0
9	0x00000000	0.0
10	0x00000000	0.0
11	0x00000000	0.0
12	0x00000000	0.0
13	0x00000000	0.0
14	0x00000000	0.0
15	0x00000000	0.0
16	0x00000000	0.0
17	0x00000000	0.0
18	0x00000000	0.0
19	0x00000000	0.0
20	0x00000000	0.0
21	0x00000000	0.0
22	0x00000000	0.0
23	0x00000000	0.0
24	0x00000000	0.0
25	0x00000000	0.0
26	0x00000000	0.0
27	0x00000000	0.0
28	0x00000000	0.0
29	0x00000000	0.0
30	0x00000000	0.0
31	0x00000000	0.0
32	0x00000000	0.0
33	0x00000000	0.0
34	0x00000000	0.0
35	0x00000000	0.0
36	0x00000000	0.0
37	0x00000000	0.0
38	0x00000000	0.0
39	0x00000000	0.0
40	0x00000000	0.0
41	0x00000000	0.0
42	0x00000000	0.0
43	0x00000000	0.0
44	0x00000000	0.0
45	0x00000000	0.0
46	0x00000000	0.0
47	0x00000000	0.0
48	0x00000000	0.0
49	0x00000000	0.0
50	0x00000000	0.0
51	0x00000000	0.0
52	0x00000000	0.0
53	0x00000000	0.0
54	0x00000000	0.0
55	0x00000000	0.0
56	0x00000000	0.0
57	0x00000000	0.0
58	0x00000000	0.0
59	0x00000000	0.0
60	0x00000000	0.0
61	0x00000000	0.0
62	0x00000000	0.0
63	0x00000000	0.0
64	0x00000000	0.0
65	0x00000000	0.0
66	0x00000000	0.0
67	0x00000000	0.0
68	0x00000000	0.0
69	0x00000000	0.0
70	0x00000000	0.0
71	0x00000000	0.0
72	0x00000000	0.0
73	0x00000000	0.0
74	0x00000000	0.0
75	0x00000000	0.0
76	0x00000000	0.0
77	0x00000000	0.0
78	0x00000000	0.0
79	0x00000000	0.0
80	0x00000000	0.0
81	0x00000000	0.0
82	0x00000000	0.0
83	0x00000000	0.0
84	0x00000000	0.0
85	0x00000000	0.0
86	0x00000000	0.0
87	0x00000000	0.0
88	0x00000000	0.0
89	0x00000000	0.0
90	0x00000000	0.0
91	0x00000000	0.0
92	0x00000000	0.0
93	0x00000000	0.0
94	0x00000000	0.0
95	0x00000000	0.0
96	0x00000000	0.0
97	0x00000000	0.0
98	0x00000000	0.0
99	0x00000000	0.0
100	0x00000000	0.0
101	0x00000000	0.0
102	0x00000000	0.0
103	0x00000000	0.0
104	0x00000000	0.0
105	0x00000000	0.0
106	0x00000000	0.0
107	0x00000000	0.0
108	0x00000000	0.0
109	0x00000000	0.0
110	0x00000000	0.0
111	0x00000000	0.0
112	0x00000000	0.0
113	0x00000000	0.0
114	0x00000000	0.0
115	0x00000000	0.0
116	0x00000000	0.0
117	0x00000000	0.0
118	0x00000000	0.0
119	0x00000000	0.0
120	0x00000000	0.0
121	0x00000000	0.0
122	0x00000000	0.0
123	0x00000000	0.0
124	0x00000000	0.0
125	0x00000000	0.0
126	0x00000000	0.0
127	0x00000000	0.0
128	0x00000000	0.0
129	0x00000000	0.0
130	0x00000000	0.0
131	0x00000000	0.0
132	0x00000000	0.0
133	0x00000000	0.0
134	0x00000000	0.0
135	0x00000000	0.0
136	0x00000000	0.0
137	0x00000000	0.0
138	0x00000000	0.0
139	0x00000000	0.0
140	0x00000000	0.0
141	0x00000000	0.0
142	0x00000000	0.0
143	0x00000000	0.0
144	0x00000000	0.0
145	0x00000000	0.0
146	0x00000000	0.0
147	0x00000000	0.0
148	0x00000000	0.0
149	0x00000000	0.0
150	0x00000000	0.0
151	0x00000000	0.0
152	0x00000000	0.0
153	0x00000000	0.0
154	0x00000000	0.0
155	0x00000000	0.0
156	0x00000000	0.0
157	0x00000000	0.0
158	0x00000000	0.0
159	0x00000000	0.0
160	0x00000000	0.0
161	0x00000000	0.0
162	0x00000000	0.0
163	0x00000000	0.0
164	0x00000000	0.0
165	0x00000000	0.0
166	0x00000000	0.0
167	0x00000000	0.0
168	0x00000000	0.0
169	0x00000000	0.0
170	0x00000000	0.0
171	0x00000000	0.0
172	0x00000000	0.0
173	0x00000000	0.0
174	0x00000000	0.0
175	0x00000000	0.0
176	0x00000000	0.0
177	0x00000000	0.0
178	0x00000000	0.0
179	0x00000000	0.0
180	0x00000000	0.0
181	0x00000000	0.0
182	0x00000000	0.0
183	0x00000000	0.0
184	0x00000000	0.0
185	0x00000000	0.0
186	0x00000000	0.0
187	0x00000000	0.0
188	0x00000000	0.0
189	0x00000000	0.0
190	0x00000000	0.0
191	0x00000000	0.0
192	0x00000000	0.0
193	0x00000000	0.0
194	0x00000000	0.0
195	0x00000000	0.0
196	0x00000000	0.0
197	0x00000000	0.0
198	0x00000000	0.0
199	0x00000000	0.0
200	0x00000000	0.0
201	0x00000000	0.0
202	0x00000000	0.0
203	0x00000000	0.0
204	0x00000000	0.0
205	0x00000000	0.0
206	0x00000000	0.0
207	0x00000000	0.0
208	0x00000000	0.0
209	0x00000000	0.0
210	0x00000000	0.0
211	0x00000000	0.0
212	0x00000000	0.0
213	0x00000000	0.0
214	0x00000000	0.0
215	0x00000000	0.0
216	0x00000000	0.0
217	0x00000000	0.0
218	0x00000000	0.0
219	0x00000000	0.0
220	0x00000000	0.0
221	0x00000000	0.0
222	0x00000000	0.0
223	0x00000000	0.0
224	0x00000000	0.0
225	0x00000000	0.0
226	0x00000000	0.0
227	0x00000000	0.0
228	0x00000000	0.0
229	0x00000000	0.0
230	0x00000000	0.0
231	0x00000000	0.0
232	0x00000000	0.0
233	0x00000000	0.0
234	0x00000000	0.0
235	0x00000000	0.0
236	0x00000000	0.0
237	0x00000000	0.0
238	0x00000000	0.0
239	0x00000000	0.0
240	0x00000000	0.0
241	0x00000000	0.0
242	0x00000000	0.0
243	0x00000000	0.0
244	0x00000000	0.0
245	0x00000000	0.0
246	0x00000000	0.0
247	0x00000000	0.0
248	0x00000000	0.0
249	0x00000000	0.0
250	0x00000000	0.0
251	0x00000000	0.0
252	0x00000000	0.0
253	0x00000000	0.0
254	0x00000000	0.0
255	0x00000000	0.0

network_body.linear_encoder.seq_layers.2.weight f4 [256, 256]
0	0xbd97b3bb	-0.07407328
1	0x3d661d18	0.05618009
2	0x3d00a733	0.031409454
3	0xbd50b5d0	-0.05095464
4	0xbd56109a	-0.052261926
5	0x3d80c606	0.0628777
6	0xbd948e1e	-0.07253669
7	0x3e0abfd9	0.13549747
8	0xbcfcc8e8	-0.030857518
9	0xbd9f7682	-0.077862754
10	0x3d943497	0.07236593
11	0x3bcc8ea2	0.006242589
12	0x3dfdd8a4	0.123948365
13	0xbd83b935	-0.0643181
14	0x3abda07f	0.0014467387
15	0xbdc4b291	-0.09604371
16	0xbbd16f12	-0.0063914144
17	0xbd055387	-0.03255036
18	0x3e05f41e	0.13081405
19	0xbca66c01	-0.020315172
20	0xb8caa6e5	-9.663197e-05
21	0xbc98a329	-0.018632488
22	0x3d983a82	0.074330345
23	0xbd7b9598	-0.06142196
24	0xbd4190e2	-0.04725731
25	0x3daf405e	0.08557199
26	0xbd6b86ca	-0.05750159
27	0x3d12ce2e	0.03584116
28	0xbb99fea9	-0.0046995473
29	0x3d805193	0.06265559
30	0x3dc1e3cf	0.09467279
31	0x3c57df62	0.013175817
32	0xbd53453e	-0.051579706
33	0xbc88f1e1	-0.0167169
34	0xbd4d70ac	-0.05015628
35	0xbd0ce972	-0.03440232
36	0x3d415da5	0.047208447
37	0xbca22788	-0.01979424
38	0xbc177a2b	-0.009245436
39	0xbdaea0be	-0.08526753
40	0x3e1128b3	0.14175682
41	0x3c6b1249	0.014347621
42	0x3cb09db1	0.021559568
43	0x3dc859b3	0.09782734
44	0xbb003427	-0.0019562335
45	0x3d0761c3	0.033052217
46	0x3d6b8ba6	0.057506226
47	0xbcf390c9	-0.029732125
48	0x3d5511a3	0.052018773
49	0xbc6141d6	-0.013748607
50	0xbd84cda0	-0.06484532
51	0x3d0376c8	0.0320957
52	0x3ae3d211	0.001738133
53	0xbd2a4b2d	-0.0415756
54	0xbbc675c8	-0.006056521
55	0x3e23f3f5	0.16011031
56	0xbc6a1cea	-0.01428912
57	0xbcf1d83b	-0.029522052
58	0x3cf07109	0.029350774
59	0xbd16b058	-0.03678927
60	0x3d9be2e4	0.07611635
61	0x3d0de9ab	0.03464667
62	0xbc1aedbc	-0.009456094
63	0x3d33a9af	0.043862995
64	0xbd8fa997	-0.070147686
65	0xbd842ce4	-0.06453875
66	0xbd30fa58	-0.043207496
67	0xbd1007e5	-0.03516378
68	0xbc3a21d3	-0.011360603
69	0x3e1a041f	0.15040635
70	0xbdc8f661	-0.09812618
71	0x3d1b33ee	0.03789132
72	0xbe171f88	-0.14758122
73	0x3d00826b	0.031374376
74	0xbd0684db	-0.032841545
75	0xbce7077e	-0.028201815
76	0x3dbf222b	0.09332689
77	0xbc5d11cd	-0.013493014
78	0x3d870ef7	0.06594651
79	0x3dd12070	0.10211265
80	0x3aa34206	0.001245559
81	0x3deb40d2	0.11486973
82	0xbd4ec05d	-0.05047642
83	0xbdec6946	-0.11543517
84	0xbda21314	-0.07913795
85	0x3cfcd632	0.030863855
86	0xbc611787	-0.0137385195
87	0xbd92c097	-0.0716564
88	0xbdc1605d	-0.09442208
89	0x3d2b5507	0.041829135
90	0xbda8472f	-0.08216702
91	0x3d8522a7	0.0650075
92	0xbca2b4b1	-0.019861551
93	0x3d182aab	0.037150066
94	0xbcc83e04	-0.024443634
95	0xbce73f95	-0.02822856
96	0x3d7797de	0.060447566
97	0x3c8f415d	0.017487222
98	0xbc3eca7b	-0.011644955
99	0x3c0ed47b	0.0087176515
100	0xbd114742	-0.035468347
101	0xbc907cda	-0.017637659
102	0x3d90a0a7	0.07061892
103	0x3e0f3c29	0.13987793
104	0x3d7a0de9	0.061048422
105	0x3cce02ce	0.025147822
106	0x3d09ae22	0.03361333
107	0x3cf1dff6	0.029525738
108	0xbd7141fb	-0.058900815
109	0x3ded71ae	0.11593948
110	0x3db66111	0.08905233
111	0x3d81b44b	0.06333216
112	0xbdd49cb6	-0.10381453
113	0xbcd9cd89	-0.026587265
114	0xbd620a19	-0.05518541
115	0xbd938f18	-0.07205027
116	0xbd316143	-0.043305647
117	0xbcde30e0	-0.027122915
118	0xbdc51bb1	-0.09624422
119	0xbd99b0fe	-0.07504462
120	0x3d79b3d8	0.060962528
121	0x3d5eba6e	0.054377012
122	0xbcab55a7	-0.020914866
123	0xbcbfd124	-0.023415156
124	0xbcac06b8	-0.020999297
125	0x3cd06fe3	0.025443977
126	0x3bd3c3d0	0.0064625517
127	0xbd37a5be	-0.0448358
128	0x3d57fce5	0.052731413
129	0x3d000318	0.03125295
130	0x3d807400	0.06272125
131	0x3e16c610	0.14723992
132	0xbd559c4d	-0.052151013
133	0x3c2a57b4	0.010396887
134	0x3c7c7fa4	0.015411291
135	0x3dc3abfb	0.09554287
136	0x3d8723e8	0.065986454
137	0x3d397c5a	0.045284607
138	0x3d696ba4	0.05698742
139	0x3cc0dda7	0.023543192
140	0xbddfc103	-0.10925486
141	0xbcf8799f	-0.030331431
142	0xbaa6aadb	-0.0012715714
143	0xbd906eb4	-0.07052365
144	0xbd2fd767	-0.042930033
145	0x3c99c2ee	0.018769708
146	0x3d049f79	0.032378647
147	0x3e04fd76	0.12987313
148	0xbd515dc0	-0.051114798
149	0x3e181f8f	0.14855789
150	0xbd36655f	-0.04453027
151	0xbd641050	-0.05567962
152	0x3d8efee9	0.06982214
153	0x3c3d4b7d	0.011553642
154	0xbdec82fb	-0.1154842
155	0xbddab48a	-0.10678966
156	0xbd93bc74	-0.07213679
157	0x3db8115b	0.08987685
158	0xbd640ef0	-0.055678308
159	0x3c8928f8	0.016743168
160	0x3d05d673	0.032675218
161	0x3ce6bcaf	0.028166143
162	0x3b4873a0	0.0030586496
163	0xbdb34878	-0.08754057
164	0xbcda3c72	-0.02664015
165	0x3b877a7d	0.004134475
166	0xbdabceab	-0.08389028
167	0xbc7ef908	-0.015562303
168	0x3d146ddf	0.036237594
169	0x3b4b6235	0.0031033878
170	0xbbe42752	-0.006962695
171	0xbc8a78de	-0.016903337
172	0x3d5edd63	0.05441035
173	0x3c8417ca	0.016124625
174	0x3cc1ddd1	0.02366534
175	0x3c15528d	0.00911392
176	0xbe03d1da	-0.12873021
177	0xbd8dea14	-0.069294125
178	0x3d15b8a8	0.036553055
179	0xbd4fe73d	-0.050757635
180	0x3c480282	0.012207629
181	0xbcaa53bc	-0.02079188
182	0x3c94ecd5	0.018179337
183	0x3cb6f303	0.022332674
184	0x3c604063	0.013687226
185	0x3dc8c666	0.098034665
186	0x3d119498	0.0355421
187	0x3d363e10	0.04449278
188	0xbdc402a2	-0.09570815
189	0xbd134e90	-0.035963595
190	0x3dbb65a4	0.09150246
191	0x3c0592fc	0.00815272
192	0xbd9691b0	-0.073520064
193	0xbdf2633d	-0.118353345
194	0x3dd66217	0.10467928
195	0x3d86901d	0.06570456
196	0x3e15ce81	0.14629556
197	0xbde126d3	-0.10993733
198	0xbc5a2531	-0.013314531
199	0xbd9ee500	-0.07758522
200	0xbdc22734	-0.09480134
201	0xbd3d3657	-0.0461944
202	0x3c58eaca	0.013239572
203	0xbddbf151	-0.10739387
204	0x3d3595d1	0.04433233
205	0xbda7dfa1	-0.08196951
206	0x3e26db69	0.16294636
207	0x3c7c4ddc	0.0153994225
208	0x3dac940f	0.084266774
209	0x3ce9ddb8	0.028548107
210	0xbd9b05d8	-0.07569474
211	0x3c9ca95d	0.019123727
212	0x3dc05caf	0.09392678
213	0x3d8e65b7	0.06952994
214	0x3cc82768	0.024432853
215	0x3db0adf4	0.08626929
216	0x3dcb8591	0.09937585
217	0xbc0e5320	-0.008686811
218	0xbd9d12db	-0.07669612
219	0xbc826206	-0.015915882
220	0x3d404b77	0.04694697
221	0xbd6afb0a	-0.057368316
222	0x3c9e0e4b	0.019293925
223	0xbae184bf	-0.0017205699
224	0xbbe67dbd	-0.007034032
225	0x3c2a03ff	0.010376929
226	0xbdd4881b	-0.103775226
227	0xbc7a0057	-0.01525887
228	0x3e1ca891	0.15298678
229	0x3dc22a89	0.09480769
230	0x3e02b79a	0.12765351
231	0xbd5928f1	-0.05301756
232	0x3a6d1246	0.00090435555
233	0xbd1a72f6	-0.03770729
234	0xbd3c40b5	-0.045960147
235	0xbdb371a3	-0.08761909
236	0xbdd64ca7	-0.10463839
237	0x3d76b04b	0.06022672
238	0xbcc0aaf7	-0.023519022
239	0x3d9def05	0.07711605
240	0x3c9aaa2b	0.01887997
241	0x3d04d0d9	0.032425735
242	0xbd29adc2	-0.041425474
243	0x3c68d5e7	0.014211155
244	0xbde14fcb	-0.110015474
245	0x3d6122c6	0.054964803
246	0x3c7e66ce	0.01552744
247	0x3b7ce0a0	0.0038586035
248	0xbd8132af	-0.06308495
249	0x3db06de8	0.08614713
250	0xbdda9554	-0.10673013
251	0x3ba57c89	0.005050246
252	0xbd1fe508	-0.03903678
253	0xbd71cea7	-0.05903497
254	0xbbfd4eed	-0.007730356
255	0xbd5cfcbe	-0.05395197

network_body.linear_encoder.seq_layers.2.bias f4 [256]
0	0x00000000	0.0
1	0x00000000	0.0
2	0x00000000	0.0
3	0x00000000	0.0
4	0x00000000	0.0
5	0x00000000	0.0
6	0x00000000	0.0
7	0x00000000	0.0
8	0x00000000	0.0
9	0x00000000	0.0
10	0x00000000	0.0
11	0x00000000	0.0
12	0x00000000	0.0
13	0x00000000	0.0
14	0x00000000	0.0
15	0x00000000	0.0
16	0x00000000	0.0
17	0x00000000	0.0
18	0x00000000	0.0
19	0x00000000	0.0
20	0x00000000	0.0
21	0x00000000	0.0
22	0x00000000	0.0
23	0x00000000	0.0
24	0x00000000	0.0
25	0x00000000	0.0
26	0x00000000	0.0
27	0x00000000	0.0
28	0x00000000	0.0
29	0x00000000	0.0
30	0x00000000	0.0
31	0x00000000	0.0
32	0x00000000	0.0
33	0x00000000	0.0
34	0x00000000	0.0
35	0x00000000	0.0
36	0x00000000	0.0
37	0x00000000	0.0
38	0x00000000	0.0
39	0x00000000	0.0
40	0x00000000	0.0
41	0x00000000	0.0
42	0x00000000	0.0
43	0x00000000	0.0
44	0x00000000	0.0
45	0x00000000	0.0
46	0x00000000	0.0
47	0x00000000	0.0
48	0x00000000	0.0
49	0x00000000	0.0
50	0x00000000	0.0
51	0x00000000	0.0
52	0x00000000	0.0
53	0x00000000	0.0
54	0x00000000	0.0
55	0x00000000	0.0
56	0x00000000	0.0
57	0x00000000	0.0
58	0x00000000	0.0
59	0x00000000	0.0
60	0x00000000	0.0
61	0x00000000	0.0
62	0x00000000	0.0
63	0x00000000	0.0
64	0x00000000	0.0
65	0x00000000	0.0
66	0x00000000	0.0
67	0x00000000	0.0
68	0x00000000	0.0
69	0x00000000	0.0
70	0x00000000	0.0
71	0x00000000	0.0
72	0x00000000	0.0
73	0x00000000	0.0
74	0x00000000	0.0
75	0x00000000	0.0
76	0x00000000	0.0
77	0x00000000	0.0
78	0x00000000	0.0
79	0x00000000	0.0
80	0x00000000	0.0
81	0x00000000	0.0
82	0x00000000	0.0
83	0x00000000	0.0
84	0x00000000	0.0
85	0x00000000	0.0
86	0x00000000	0.0
87	0x00000000	0.0
88	0x00000000	0.0
89	0x00000000	0.0
90	0x00000000	0.0
91	0x00000000	0.0
92	0x00000000	0.0
93	0x00000000	0.0
94	0x00000000	0.0
95	0x00000000	0.0
96	0x00000000	0.0
97	0x00000000	0.0
98	0x00000000	0.0
99	0x00000000	0.0
100	0x00000000	0.0
101	0x00000000	0.0
102	0x00000000	0.0
103	0x00000000	0.0
104	0x00000000	0.0
105	0x00000000	0.0
106	0x00000000	0.0
107	0x00000000	0.0
108	0x00000000	0.0
109	0x00000000	0.0
110	0x00000000	0.0
111	0x00000000	0.0
112	0x00000000	0.0
113	0x00000000	0.0
114	0x00000000	0.0
115	0x00000000	0.0
116	0x00000000	0.0
117	0x00000000	0.0
118	0x00000000	0.0
119	0x00000000	0.0
120	0x00000000	0.0
121	0x00000000	0.0
122	0x00000000	0.0
123	0x00000000	0.0
124	0x00000000	0.0
125	0x00000000	0.0
126	0x00000000	0.0
127	0x00000000	0.0
128	0x00000000	0.0
129	0x00000000	0.0
130	0x00000000	0.0
131	0x00000000	0.0
132	0x00000000	0.0
133	0x00000000	0.0
134	0x00000000	0.0
135	0x00000000	0.0
136	0x00000000	0.0
137	0x00000000	0.0
138	0x00000000	0.0
139	0x00000000	0.0
140	0x00000000	0.0
141	0x00000000	0.0
142	0x00000000	0.0
143	0x00000000	0.0
144	0x00000000	0.0
145	0x00000000	0.0
146	0x00000000	0.0
147	0x00000000	0.0
148	0x00000000	0.0
149	0x00000000	0.0
150	0x00000000	0.0
151	0x00000000	0.0
152	0x00000000	0.0
153	0x00000000	0.0
154	0x00000000	0.0
155	0x00000000	0.0
156	0x00000000	0.0
157	0x00000000	0.0
158	0x00000000	0.0
159	0x00000000	0.0
160	0x00000000	0.0
161	0x00000000	0.0
162	0x00000000	0.0
163	0x00000000	0.0
164	0x00000000	0.0
165	0x00000000	0.0
166	0x00000000	0.0
167	0x00000000	0.0
168	0x00000000	0.0
169	0x00000000	0.0
170	0x00000000	0.0
171	0x00000000	0.0
172	0x00000000	0.0
173	0x00000000	0.0
174	0x00000000	0.0
175	0x00000000	0.0
176	0x00000000	0.0
177	0x00000000	0.0
178	0x00000000	0.0
179	0x00000000	0.0
180	0x00000000	0.0
181	0x00000000	0.0
182	0x00000000	0.0
183	0x00000000	0.0
184	0x00000000	0.0
185	0x00000000	0.0
186	0x00000000	0.0
187	0x00000000	0.0
188	0x00000000	0.0
189	0x00000000	0.0
190	0x00000000	0.0
191	0x00000000	0.0
192	0x00000000	0.0
193	0x00000000	0.0
194	0x00000000	0.0
195	0x00000000	0.0
196	0x00000000	0.0
197	0x00000000	0.0
198	0x00000000	0.0
199	0x00000000	0.0
200	0x00000000	0.0
201	0x00000000	0.0
202	0x00000000	0.0
203	0x00000000	0.0
204	0x00000000	0.0
205	0x00000000	0.0
206	0x00000000	0.0
207	0x00000000	0.0
208	0x00000000	0.0
209	0x00000000	0.0
210	0x00000000	0.0
211	0x00000000	0.0
212	0x00000000	0.0
213	0x00000000	0.0
214	0x00000000	0.0
215	0x00000000	0.0
216	0x00000000	0.0
217	0x00000000	0.0
218	0x00000000	0.0
219	0x00000000	0.0
220	0x00000000	0.0
221	0x00000000	0.0
222	0x00000000	0.0
223	0x00000000	0.0
224	0x00000000	0.0
225	0x00000000	0.0
226	0x00000000	0.0
227	0x00000000	0.0
228	0x00000000	0.0
229	0x00000000	0.0
230	0x00000000	0.0
231	0x00000000	0.0
232	0x00000000	0.0
233	0x00000000	0.0
234	0x00000000	0.0
235	0x00000000	0.0
236	0x00000000	0.0
237	0x00000000	0.0
238	0x00000000	0.0
239	0x00000000	0.0
240	0x00000000	0.0
241	0x00000000	0.0
242	0x00000000	0.0
243	0x00000000	0.0
244	0x00000000	0.0
245	0x00000000	0.0
246	0x00000000	0.0
247	0x00000000	0.0
248	0x00000000	0.0
249	0x00000000	0.0
250	0x00000000	0.0
251	0x00000000	0.0
252	0x00000000	0.0
253	0x00000000	0.0
254	0x00000000	0.0
255	0x00000000	0.0

action_model._discrete_distribution.branches.0.weight f4 [7, 256]
0	0xbc299549	-0.010350534
1	0xbb89c0d6	-0.004203896
2	0x3baeb908	0.005332116
3	0x3c8a266c	0.016864024
4	0x3b2202e6	0.0024720966
5	0xbb1eebaa	-0.0024249353
6	0xbc36bdee	-0.011153681
7	0x3bdd700a	0.006757741
8	0xbc406036	-0.0117416885
9	0x3a96c24b	0.0011501996
10	0x3b28897b	0.002571671
11	0x3b70b008	0.0036726017
12	0x3c4abb7c	0.012373801
13	0x3c34662d	0.011010689
14	0xbbeb276f	-0.0071763317
15	0x3b849473	0.004046017
16	0xbc212f25	-0.0098379
17	0x3c139e4a	0.009009907
18	0x3bfcf253	0.007719317
19	0xba808d08	-0.0009807656
20	0x3c48c76c	0.012254577
21	0xbc015e66	-0.0078960415
22	0xbb82aaf9	-0.0039876667
23	0xbbc5b4dc	-0.006033523
24	0x3bbbf7ad	0.0057363124
25	0xbbd2819f	-0.0064241434
26	0x3abfb1ea	0.0014625166
27	0xbb891ebb	-0.0041845716
28	0x3b3e10d3	0.0029001727
29	0xbbea7d38	-0.0071560405
30	0x3be1db7b	0.006892619
31	0x3b852c2f	0.004064105
32	0xbb060e8c	-0.0020455448
33	0x3bd4e36d	0.006496838
34	0xbb2e1c4b	-0.0026567157
35	0xbc134cb7	-0.008990458
36	0x3c07b986	0.008283978
37	0x3b64646f	0.0034849902
38	0x3b8918ca	0.0041838633
39	0x3ba35a2e	0.0049851155
40	0x3c007b1c	0.007841852
41	0x3b7273b0	0.0036995225
42	0xbb57630d	-0.0032865435
43	0xbb7bdc5b	-0.0038430903
44	0x3b902460	0.0043988675
45	0xbb0c43c3	-0.0021402694
46	0x3a96cb07	0.0011504599
47	0xbb8e71d7	-0.004347067
48	0xba3b2188	-0.00071384804
49	0xbb8cdd9b	-0.0042988784
50	0xbc670518	-0.014100336
51	0xbbaf1666	-0.0053432463
52	0x391720fb	0.00014412768
53	0x3adaf023	0.0016703646
54	0xbbe60c1d	-0.007020487
55	0x3806600e	3.2037547e-05
56	0xba946c4a	-0.0011323777
57	0xbc2ec665	-0.010667418
58	0xbc3e30a7	-0.011608279
59	0x3ac16d7b	0.0014757359
60	0x3b17159a	0.0023053647
61	0x3b088f93	0.002083753
62	0xbaf9bf2d	-0.0019054167
63	0xbb81ff69	-0.003967215
64	0x3ad0c0d7	0.0015926611
65	0x3b4bfbeb	0.0031125497
66	0xbb94f37a	-0.004545626
67	0x3c22b768	0.009931423
68	0x3b72e9cf	0.003706563
69	0xbc00e1e3	-0.007866356
70	0xbbbe204b	-0.0058021895
71	0xbc00ea50	-0.007868364
72	0x3b9a575b	0.0047101206
73	0xbc2dd953	-0.010610896
74	0x3c132ecf	0.008983328
75	0x3bcb2f8b	0.006200736
76	0x38e71b95	0.00011020076
77	0xbc336e3c	-0.010951575
78	0x3a0d6bf8	0.0005394812
79	0xbb9a9cda	-0.004718405
80	0x3bc4a958	0.0060016327
81	0xbc2a436f	-0.010392054
82	0x3bcf0bc5	0.0063185417
83	0xbb194b02	-0.0023390655
84	0xbc3841e7	-0.011246181
85	0xbbba1b63	-0.0056795343
86	0x3be8dca0	0.0071063787
87	0x3a232ff0	0.00062251
88	0x3bf87c80	0.007583201
89	0x3b3f6473	0.002920416
90	0x3b8be3d9	0.004269105
91	0xbbac970b	-0.005267029
92	0xbc813bf3	-0.015775656
93	0x39f28ffb	0.0004626511
94	0x3c1f1fcf	0.009712174
95	0x3ba6f2f1	0.005094879
96	0xbc58f337	-0.013241581
97	0x3b01bf97	0.0019798034
98	0x3ad72fe8	0.0016417475
99	0x3a422fb0	0.00074076187
100	0xbb8c395b	-0.0042792982
101	0xbb81fb95	-0.0039667585
102	0x3bce3bb8	0.00629374
103	0xbb1c6be2	-0.0023868014
104	0x3b337bd3	0.0027387037
105	0x3ba3c8b7	0.0049982923
106	0x3b2e9ccc	0.0026643751
107	0x3ad6a5c3	0.0016376305
108	0x3ae945dd	0.001779731
109	0x3b44b12c	0.003001283
110	0x3a758a9d	0.0009366663
111	0xbc1861f3	-0.009300697
112	0xb8e6c333	-0.00011003613
113	0xba0c9ed0	-0.0005364241
114	0x3c0e83de	0.008698432
115	0x3b8c66ca	0.0042847143
116	0x3b598765	0.0033192274
117	0xbc1973e8	-0.009366013
118	0xbc0d284a	-0.008615563
119	0xbbfa7170	-0.0076429173
120	0x3ba1bad4	0.0049356017
121	0x3b347ecc	0.0027541397
122	0xbb27c1a3	-0.0025597594
123	0xbbca1b9f	-0.0061678435
124	0xbb1cb114	-0.0023909258
125	0xba888fb1	-0.00104188
126	0x3b346bad	0.002753
127	0xbba285d4	-0.004959801
128	0xbc0d246c	-0.008614641
129	0x3c2b9644	0.010472838
130	0xbbe19435	-0.0068841227
131	0x3b345810	0.002751831
132	0x3acbf2d4	0.0015560039
133	0xbc0c8849	-0.008577415
134	0xbaad6b4c	-0.001323083
135	0xbbd15cf0	-0.006389253
136	0x3c575f02	0.01314521
137	0xbbaf7c8a	-0.0053554224
138	0xbadc24f5	-0.0016795682
139	0xbba89205	-0.00514436
140	0x3b3356f1	0.0027365054
141	0xbb728d4d	-0.0037010491
142	0x3b17857a	0.002312033
143	0x3bc35d55	0.005962054
144	0xbaf1a4d0	-0.0018435959
145	0x3bc05900	0.0058699846
146	0x3b87613a	0.0041314634
147	0xba918867	-0.0011103273
148	0xb93b4c8f	-0.0001786223
149	0x3c16c553	0.009202319
150	0x3bc628d6	0.0060473485
151	0x3bdc6175	0.006725485
152	0x3c0663e0	0.008202523
153	0x3c0a566d	0.008443457
154	0x3b8f996b	0.0043823025
155	0x3c16a3fc	0.00919437
156	0xbc8b0e95	-0.016974727
157	0xbc0d6a5f	-0.008631318
158	0x3c1c6d7b	0.009547587
159	0x3c173c52	0.00923069
160	0xbb740603	-0.0037235029
161	0x3bf3e208	0.0074427165
162	0xbbc8899d	-0.0061199204
163	0x3beda627	0.007252473
164	0xbb2bd04c	-0.0026216684
165	0xba8f0f96	-0.0010914679
166	0x3b5f43e2	0.003406756
167	0xbc183aa9	-0.009291329
168	0x3bab34a0	0.0052247792
169	0xbb016d31	-0.001974892
170	0xbb2a13e4	-0.0025951797
171	0xbb8c7a9b	-0.0042870766
172	0x3bd6ed68	0.0065590627
173	0xbb500c4d	-0.0031745613
174	0x3c042db4	0.008067537
175	0x3b3b94c3	0.0028622604
176	0xbbcc7b4f	-0.0062402855
177	0xbc0bef57	-0.00854095
178	0x3a9783d4	0.0011559674
179	0xbb0de70b	-0.0021652605
180	0xba74b8e5	-0.0009335413
181	0xbbb4e567	-0.005520511
182	0x3c5f0b8f	0.013613596
183	0x3a712840	0.0009199418
184	0x3ba04962	0.0048915604
185	0x3c06e737	0.008233837
186	0x3c436923	0.011926922
187	0xb9c4f9ed	-0.00037570242
188	0x3bacfff2	0.0052795345
189	0xbb9243d3	-0.0044636517
190	0x3bf05f0a	0.0073355483
191	0x3b60475d	0.0034222223
192	0xbc096c4b	-0.008387635
193	0xbaaa2c88	-0.0012983242
194	0xba112b08	-0.0005537723
195	0xba83562b	-0.0010020187
196	0x3a9469a4	0.0011322987
197	0x3c34041e	0.01098731
198	0x3ac03a44	0.0014665802
199	0xbbc85772	-0.00611394
200	0x3a3361e9	0.0006842898
201	0xbb9236a3	-0.0044620796
202	0x3c6aa14d	0.014320684
203	0x3ba74c32	0.0051055187
204	0x3bf6379f	0.007513955
205	0x3bb94328	0.0056537576
206	0xbb9cac08	-0.00478125
207	0x3ba02f4c	0.0048884507
208	0x3c129c7b	0.008948441
209	0xbba2404a	-0.0049515115
210	0x3c0e7cdf	0.008696764
211	0x3c390237	0.011292032
212	0xbba2e76a	-0.0049714344
213	0x3aae472f	0.0013296361
214	0x3a690f62	0.0008890537
215	0x3b1e6e3e	0.0024174596
216	0xbbb83798	-0.0056218617
217	0x3b9b6bf5	0.004743094
218	0x3bd28c88	0.006425444
219	0xbabb09c9	-0.0014269884
220	0x3bb8e7a9	0.0056428504
221	0x3b8241db	0.0039751357
222	0x3a980ed3	0.0011601098
223	0x3ad72817	0.0016415146
224	0xbc5f1f93	-0.013618368
225	0xbc3fd8d1	-0.011709408
226	0x3bb97626	0.0056598363
227	0xbb9ed547	-0.004847202
228	0xbc039918	-0.008032106
229	0xbb018493	-0.0019762858
230	0x3c853b84	0.01626373
231	0xbba5baf7	-0.0050576883
232	0xb9ec6790	-0.00045090588
233	0x3bf123e3	0.0073590144
234	0xbadcea28	-0.0016854452
235	0x3b5a2513	0.0033286258
236	0xb9f316f2	-0.00046365667
237	0xbbea96c8	-0.007159088
238	0xba7bbe05	-0.0009603205
239	0xb98070c6	-0.00024498085
240	0xba987c0a	-0.0011633646
241	0xbb3ef9de	-0.0029140632
242	0x3bfc89a2	0.007706837
243	0x3c003d1d	0.007827071
244	0xb9cbc99b	-0.00038869385
245	0xbc62a858	-0.013834082
246	0xbb04a80d	-0.0020241768
247	0xbaafa553	-0.0013400711
248	0x3c290d1e	0.010318069
249	0x3c1a71bc	0.00942653
250	0xbaaacd79	-0.0013031206
251	0xb9c36ffb	-0.0003727673
252	0x3b9f5cd7	0.0048633623
253	0x3a59ebc7	0.00083130266
254	0x3a0b9494	0.0005324569
255	0x37215270	9.615542e-06

action_model._discrete_distribution.branches.0.bias f4 [7]
0	0x00000000	0.0
1	0x00000000	0.0
2	0x00000000	0.0
3	0x00000000	0.0
4	0x00000000	0.0
5	0x00000000	0.0
6	0x00000000	0.0
